SAGE/WUSTL/WUSTL_Defense/Adversarial_Training/Adversarial_Training_pgd.pt (torch, 21004 bytes, 8 tensors)

fc1.weight f4 [50, 42]
00000000: 6c18 793b 0cd6 a1bc 09bb dabd 3c30 043d
00000010: 68fc edbd 859e 95bc 149e eb3d 0b50 22bd
00000020: 016b d2bd 7e43 c23b 0897 6bbd b3be 523c
00000030: 58a6 793d adeb e13c a816 0dbe cf0d 053d
00000040: 73a3 923d 2a5a 4abc 945f 293e 7056 c5bc
00000050: 6169 403d 3d5c 713c 88e5 80bd 574a 80bd
00000060: fe6c e7bd 4b2d b7bc 6c55 24be 5d23 463e
00000070: 85c1 40bc 8670 ffbc b78a 50be d93d bcbd
00000080: 058e 89be 471e bd3c bccd 9cbc b0da febd
00000090: 40a8 62bd 3bbe 9abd 9152 2fbe 7610 cfbd
000000a0: 66be 8bbd 3cff e33e 3579 9a3d 2412 053c
000000b0: c92c 013e 3050 133d e11f 623c 2b71 613c
000000c0: 297e ffbc 2591 273d 76a7 8fbc 92cf 4b3d
000000d0: f8d2 163d a656 613d 22ca 313e 554c 91bc
000000e0: 0081 05be 1db4 b83e 01ef c83d f89b ad3c
000000f0: 023d ee3e 23db 0a3d 15b9 ae3c b06e dbbc
00000100: 36cc 933d b9a7 f23c 7c8c 133d 4614 0cbd
00000110: 59a7 783c 76ee 2d3d 83a0 573e 79bd 14bd
00000120: f08e 33bd 84dc c2be 8833 cf3e 06dd b13d
00000130: d050 6fbd bec5 15bc f655 b23c 8670 dcbb
00000140: 7040 bebd 70cf d33d c736 83bc 3204 e0be
00000150: a2ec d03c 6dd2 3dbd c818 10bc 6e36 a2bd
00000160: 8c40 0cbd e761 52bd ae14 46be cd05 34bd
00000170: 83f0 b83b 5f4e f1bd a929 77bd 5b53 43be
00000180: 9cfc d7bc 0af5 15be 7a21 ecbd e2f6 32be
00000190: 4b81 54be 13ee 23bc bbf0 503e 9290 5cbd
000001a0: 5fc3 dc3b cdc8 cabd ba01 ccbd 6615 ec3c
000001b0: 300b 58bd 6678 c7bd ca35 3ebe 0a8b f7bd
000001c0: 2aa7 9d3d 9942 033e 8a00 0ebe c178 cb3d
000001d0: c31b 9abe c26a 4bbe 9005 61be 2a18 4f3d
000001e0: 96b1 bdbc 9e9b 3a3d 9df8 fabd 9fb3 34be
000001f0: fad4 83bd e85a d13e a8fd 1c3e 3866 1f3d
00000200: ef02 12be cc79 e03b c2b0 1e3c 51c6 bd3d
00000210: ddb5 183e fa5b e53d 55ea 80bc 0bc1 4c3e
00000220: 00f3 983d 9797 aa3d 8343 f43c 1584 733d
00000230: 81b6 9e3d e062 3fbe 16d9 8abc 354e fc3c
00000240: 217b 58be c76a ea3b 2059 5dbd 113a 8cbc
00000250: 6f44 3f3d a7df a7bc 5f60 323d 1ba4 053d
00000260: 6b36 683d b166 173e af6c 733e 0a34 693e
00000270: 57b4 efbd c6b7 763d abe1 513e c604 bfbd
00000280: c8a1 35bd a375 743d ac93 b73d 4412 163e
00000290: f232 87be 48b7 90be 6b7c a33d e7b1 0cbf
000002a0: 2956 97be 5de5 87bc 5ab7 e93d cc02 dd3c
000002b0: 0fb1 95bc 0c34 553c 741a 3e3d dbef 2abd
000002c0: 54a8 c2bc 842e ecbd d218 89bc efa9 39bd
000002d0: a974 deba 0fef d5bc db30 2cbe 689f 9d3e
000002e0: c8a1 223e 6f3d 60bc db51 c03e 9df3 8fbd
000002f0: f151 053d 1c79 55bd 28a9 b2bd 3f1d 313d
00000300: a349 a03d 7280 1c3d 2508 1b3d 4eea acbe
00000310: a960 e2be 5192 99be bc21 5fbe 9f75 40bf
00000320: e90e 4a3c feae 563e 4a63 a2bd b961 70bd
00000330: 3e95 273b 7b78 00bf 320f 7dbe 47fb 50bd
00000340: 7639 95bc 7e77 803e 2c53 893c f849 dfbd
00000350: 8927 1fbe 3683 96bd 74e1 67bd aeb7 ebbd
00000360: 7386 6fbe bf12 e7bd 6654 03be e9c3 b93d
00000370: 4812 05be 8709 443d fe4d 7f3d 840b c0bd
00000380: bd2c b23d 2fff 97bd 13c0 63bc a5ee f6bd
00000390: 8fed eb3d b4a8 0ebd 3a86 0ebc 683c c0bc
000003a0: 2827 d5bc 8dbf e7bd dac8 babd e860 2dbd
000003b0: 2fa5 5cbd 2d9a 123e b4f1 1a3e 9e4f 753e
000003c0: 6503 1ebe cc1d 083e e2a0 66bd c70d 2e3e
000003d0: 557d a7be adc6 95bd e118 8cbd 3238 6d3e
000003e0: 2441 51be a99f db3d c40b ecbd fce7 5f3e
000003f0: 34d4 383d 55a4 67bd 2494 3dbd bd7c eb3b
0.0038008941 -0.019755386 -0.106802054 0.032272562 -0.11620408 -0.018264065 0.115047604 -0.039627116
-0.102743156 0.005928456 -0.05751708 0.012862849 0.060949653 0.0275782 -0.13778174 0.032483872
0.07160082 -0.012350598 0.16540366 -0.024089068 0.046975497 0.014731464 -0.062937796 -0.06264179
-0.113000855 -0.022360465 -0.16048211 0.19349428 -0.011764889 -0.031181585 -0.20365416 -0.09191484
-0.26866165 0.023085726 -0.01914107 -0.12444055 -0.055336237 -0.07555815 -0.1712134 -0.101105615
-0.06823425 0.44530666 0.0754265 0.008122001 0.1261474 0.035965145 0.013801546 0.0137598915
-0.031188088 0.040909905 -0.017535906 0.0497585 0.03682229 0.055014275 0.17362264 -0.017736593
-0.13037491 0.36074916 0.098112114 0.021192536 0.4653092 0.03390039 0.021328488 -0.026786178
0.072166845 0.029620992 0.03602265 -0.03419902 0.015176618 0.042463742 0.21057324 -0.036313508
-0.043837488 -0.38058865 0.40469003 0.08684735 -0.05842668 -0.009141384 0.021769505 -0.006727281
-0.09289634 0.103423 -0.01601733 -0.437532 0.02550346 -0.046343256 -0.008794971 -0.07920538
-0.034241244 -0.0513629 -0.19343826 -0.043950845 0.0056439056 -0.11782526 -0.060342465 -0.19074766
-0.02636557 -0.14644256 -0.11529823 -0.17476991 -0.20752446 -0.010005492 0.20404331 -0.05384881
0.0067371572 -0.09901581 -0.09961267 0.028818797 -0.052745044 -0.09739761 -0.18575206 -0.120870665
0.076979 0.12818374 -0.13867393 0.09935141 -0.30099306 -0.19864944 -0.21974778 0.050560154
-0.023155969 0.045558564 -0.122544505 -0.17646645 -0.064371064 0.40889668 0.15331137 0.038915843
-0.14258932 0.006850457 0.009685697 0.092663415 0.14913125 0.11199184 -0.015736738 0.19995515
0.074682236 0.08329695 0.029817348 0.059452135 0.077496536 -0.18690062 -0.016949218 0.03079901
-0.2114072 0.007153842 -0.054040074 -0.017117532 0.046696123 -0.020492388 0.043548938 0.032627206
0.056692522 0.14785267 0.23771928 0.22773758 -0.11704319 0.060233854 0.20496242 -0.09327082
-0.04434374 0.0596825 0.08963713 0.14655405 -0.26406056 -0.28264832 0.07982715 -0.5495896
-0.29557922 -0.016588861 0.11411925 0.026978873 -0.018272905 0.013012897 0.046411946 -0.04173265
-0.023761906 -0.1153231 -0.016735468 -0.045328077 -0.0016972023 -0.026114969 -0.16815512 0.3078568
0.15882027 -0.013686522 0.3756245 -0.070288874 0.03254885 -0.052117452 -0.0872367 0.043240782
0.07826545 0.038208432 0.037849564 -0.3377251 -0.4421437 -0.29994443 -0.21790212 -0.75179476
0.012332656 0.20965192 -0.07929094 -0.058686946 0.0025571133 -0.5018384 -0.24712828 -0.051020887
-0.018215876 0.25091165 0.016763292 -0.1090278 -0.15542425 -0.07349245 -0.056611493 -0.115096435
-0.23391132 -0.112828724 -0.12825164 0.0907057 -0.12995255 0.04786065 0.06233024 -0.093771964
0.086999394 -0.07421719 -0.0139007745 -0.120572366 0.1151992 -0.034828857 -0.008698994 -0.023466304
-0.026019648 -0.11315832 -0.09120341 -0.042328745 -0.05386847 0.14316626 0.15131265 0.23956153
-0.15430982 0.13292617 -0.056305774 0.16997443 -0.32712808 -0.07313285 -0.06840683 0.23165968
-0.20435005 0.10723812 -0.115256816 0.21865839 0.045124248 -0.056553204 -0.046283856 0.007186501

fc1.bias f4 [50]
00000000: dc8e 9abd 3212 913e 5685 9fbe db60 753e
00000010: 40da 3f3e cf83 1fbe f093 c6bd 3cbe fe3c
00000020: 0683 4e3e f761 943e a781 efbd 40c2 203d
00000030: 1aec cabd cf63 1d3e d58a 2ebe 36f1 b8bc
00000040: 47a8 433e d4f4 813e 5645 693b b4f7 d93c
00000050: 944f 29bd eba7 0fbd 4208 01bc 56ee edbd
00000060: 9e3b 7dbd fea5 27be 3536 78be 9516 7dbb
00000070: a95f 3a3e 1e62 f9bd 22c5 eabb 1b87 c5be
00000080: f2c7 8fbd dd46 df3d 19dd 3f3b 0d46 4e3d
00000090: 8111 06bd 18ca 633e 7559 a8bd 07a7 233e
000000a0: 8e9f 273e 7880 3f3e c92c 533e ea4c 2b3e
000000b0: 1f76 edbc f8f7 1e3e c0ef a53e 2853 773d
000000c0: 7ef7 6a3e 5a62 553e
-0.075467795 0.28334194 -0.31156415 0.23962729 0.187356 -0.15577625 -0.096961856 0.03109657
0.20167169 0.2898099 -0.11694651 0.03924775 -0.09908314 0.15370105 -0.17045148 -0.022575956
0.19107161 0.25382102 0.0035594306 0.026607372 -0.041335657 -0.03507225 -0.007875504 -0.116177246
-0.061824434 -0.16371915 -0.24239428 -0.0038618196 0.18200554 -0.121769175 -0.0071646133 -0.3857964
-0.070205584 0.10902188 0.0029276072 0.050359774 -0.032731537 0.22245061 -0.082201876 0.15981685
0.16369459 0.1870135 0.20622553 0.16728559 -0.028986989 0.1552428 0.32409477 0.06038204
0.22945973 0.208383

fc2.weight f4 [30, 50]
00000000: 37a3 d33d 3614 923d e6c3 08be bcb3 85bd
00000010: 7ba0 acbd dedd f4bb 8a53 0fbe ae8f ddbd
00000020: 5d5a 873d dbe7 13bd 2682 923c 215b c2bd
00000030: 1459 e33c d171 d03c 717c 07be afd8 adbd
00000040: 05b7 c9bc 49cc cb3c 5bf1 0bbe e174 d7bd
00000050: d784 ef3c 73ec 013d 3134 b13c a143 6bbd
00000060: 61e0 853d 22dc f8bd 1023 8cbc a141 adbd
00000070: f6f9 cfbc fda4 8bbc 2cd4 9ebd 2671 ab3d
00000080: 3b23 703d 1b0c 1a3d 1d7b 50bd 53b4 f3bd
00000090: 00c1 72bc 5ede 8dbd 4955 a13d 8375 c33d
000000a0: af19 f0bc 8cb1 08be 6c97 bcbd 6254 ba3d
000000b0: abf8 5c3d 708c 00be a5b7 2b3d 0e96 98bd
000000c0: a8fd dabc fd47 be3c 79c6 023e c486 bd3d
000000d0: f3cd 2c3d c706 473e f279 c5bc 90ac bd3d
000000e0: ea8a e33d 112c 243e 4012 a63e b1bc a8be
000000f0: 18e0 70be 1429 30be 027f 1a3d 0fe4 b2be
00000100: e667 4dbe cd3d 303f d0f1 0e3e a570 91bd
00000110: 80d1 8f3d 42ad c83b 4380 4abd 5e9a 08be
00000120: 4c94 acbd 5b1b a2bd 0e4c 7bbe 851f 993d
00000130: 44bf 7ebe 2ab6 d4bd dc76 b23e 4d4a ae3d
00000140: d3b0 903e 7956 483f 67a3 9a3d 1137 cc3b
00000150: 3bfa 583e ed31 f83d 8c31 bc3f 7ea3 36be
00000160: 71fa 0d3d a069 b83e fa19 d23b d7f7 51be
00000170: 7745 d7be 14ce b9be 7678 4dbe 0b8b febd
00000180: d094 9a3f a6af 583e 72c2 0f3e 1033 a9be
00000190: c196 983e 287e 803d 4a66 ba3e 4d62 17bd
000001a0: e294 bb3d 9a25 6dbd a5ec 733e 6250 d23e
000001b0: 8085 663e c41a d5bd 623f bcbd e934 3b3d
000001c0: bfd1 ddbd ef22 c83e d2e4 413e 58a3 bb3d
000001d0: 0bd3 4bbe 4bf1 923d 64e9 88be b165 45bd
000001e0: cefc 203e 6ffe a13e 628b 733d 2d61 0a3d
000001f0: 72ee 673e a010 a83e 68f7 7a3e f514 17be
00000200: c092 91be b58c eabd fecf 083e 7359 02bf
00000210: fef0 b73d 068d 543e 94fd 7fbe def5 8e3e
00000220: de9d 7fbf 8ede 52bc 62d4 9d3d d316 91bd
00000230: 7c9a 073d 8776 853d 103f 78bd 8c19 d43e
00000240: 0ab6 963d 25d6 ca3e 6f07 3abf 3853 0e3e
00000250: aa04 4f3d 81d4 5c3e 82e2 073e b058 aabe
00000260: 94b1 373d 7ea9 793d 6e1b 89be 9d5f 053d
00000270: 5744 933e d36b 3fbd f717 d23d ae3c 0dbf
00000280: 0b51 093e 7122 883e 5b13 c5bd e43f ecbd
00000290: 6f0b 5a3e 4335 053f 3dce 0cbf 08cf 32bf
000002a0: 98c0 67bd 48a9 9b3e 44e9 2f3e baf3 a03e
000002b0: 9630 52be ca9b 9d3d 4aef 993d ad1a bc3d
000002c0: cc0c 713c 1425 a13e dfc4 b6be 112b 853e
000002d0: d776 b33e d036 9a3f efba e13d 23a3 1dbe
000002e0: 670f 9abe 9ea3 32bd 785d 893f d229 8f3e
000002f0: 3488 bc3d 4fa4 f1be 8b51 61be 63ad 8abe
00000300: f184 a23c 9d17 71bd 2377 66bd f6d7 bdbe
00000310: 3884 003f 5b42 adbe 575e cbbe b80c f9bd
00000320: fe84 963d 7332 da3d e27c 863d eda9 563e
00000330: c40c e7be 3c30 2b3e 8a0b f23c ecf9 babd
00000340: 0d91 0a3f 8b57 0ebe 3071 b23c 9e1c 853e
00000350: 9b3c a3bd e8bf 813d 57ec 3b3e 150b 213f
00000360: 3fac a33d 7890 89bf efc1 c1be dcdb 11bd
00000370: ba2f 443e 8d59 953d 4ba9 cb3d 713f f03d
00000380: 440e a83d 9164 243d 5b61 49be de47 063e
00000390: bcac 773e deea 83bc 757d 973d 89ce 8f3f
000003a0: 1bdc 09be 4af1 393e 5253 903e 218a af3e
000003b0: d544 803f 871f 003e 03f0 0dbe 30fc 95bd
000003c0: d607 2ebe 861c 6e3d c300 ecbc a15d d63d
000003d0: 2bbc b43c 17b1 993c d8ec 163f 2217 b6be
000003e0: d7b0 46bb b343 d83c 46a4 16be 0d2c d23d
000003f0: 13bc 7cbb c46e d1bc 3d6c ddbd af29 a7bc
0.10333865 0.07132761 -0.1335598 -0.06528422 -0.08429047 -0.0074727377 -0.13996711 -0.1081842
0.06609032 -0.036109786 0.017884325 -0.09490038 0.027752437 0.025444897 -0.13231064 -0.08488595
-0.024623403 0.024877684 -0.13666289 -0.1052034 0.029238148 0.031719636 0.021631332 -0.057437543
0.065369375 -0.12151362 -0.017106563 -0.08459783 -0.025387745 -0.017046446 -0.07755312 0.08371191
0.05862735 0.0376092 -0.05089866 -0.118996285 -0.014816523 -0.06927179 0.07877595 0.09543898
-0.029309122 -0.13348979 -0.09208569 0.09098126 0.053948086 -0.12553573 0.041923184 -0.07450496
-0.02673228 0.023227686 0.12771024 0.0925422 0.042188596 0.19436179 -0.024106 0.09261429
0.1111048 0.16032435 0.324358 -0.3295646 -0.23522985 -0.1720317 0.03771878 -0.3493962
-0.20059165 0.688443 0.13959432 -0.07101563 0.07022381 0.0061241696 -0.049438726 -0.13340136
-0.08426723 -0.07915374 -0.24540731 0.07476715 -0.2487765 -0.103863075 0.34856308 0.085102655
0.28259906 0.78256947 0.07550698 0.0062321504 0.21189205 0.121188976 1.470262 -0.17835805
0.034662668 0.36018085 0.006411788 -0.205047 -0.42045185 -0.36290038 -0.20065483 -0.12428864
1.2076664 0.21160755 0.14039019 -0.3304677 0.29802516 0.062740624 0.36406165 -0.03695898
0.091592565 -0.057897188 0.23820741 0.41076952 0.22511864 -0.10405496 -0.09191777 0.045704756
-0.108310215 0.39089152 0.18934944 0.09162015 -0.19904725 0.07174929 -0.26740563 -0.048192684
0.15721437 0.3163943 0.059459098 0.03378408 0.22649553 0.32825184 0.2450844 -0.14754088
-0.28432274 -0.11452619 0.13360593 -0.5091774 0.089815125 0.20756921 -0.24999076 0.27921957
-0.9985026 -0.012870444 0.077065244 -0.070844315 0.033106312 0.06516748 -0.060607016 0.4142574
0.0735894 0.39616504 -0.7266759 0.13898933 0.050541557 0.21565439 0.1327 -0.33270788
0.044847086 0.060952656 -0.2677874 0.032561887 0.28763077 -0.04673369 0.10258477 -0.55170715
0.13409822 0.26588777 -0.096228324 -0.11535624 0.21293424 0.52034396 -0.55002195 -0.69847155
-0.056580156 0.3040259 0.17178828 0.3143595 -0.20526347 0.0769573 0.07516344 0.091847755
0.014712524 0.314736 -0.35697076 0.2600942 0.35051605 1.2047977 0.11021983 -0.15394263
-0.30089876 -0.04361307 1.0731649 0.27961594 0.09205666 -0.4719567 -0.22003762 -0.2708541
0.019838782 -0.05886041 -0.05626596 -0.37078828 0.5020175 -0.33839688 -0.39720413 -0.12160629
0.07349585 0.10654154 0.06566788 0.20963259 -0.45126927 0.16717619 0.029546518 -0.091297
0.5412758 -0.13900582 0.021782488 0.25998396 -0.07970544 0.06335431 0.18351875 0.62907535
0.07991838 -1.0747213 -0.37843272 -0.035610065 0.19158831 0.07292471 0.099443994 0.117308505
0.08205846 0.04013497 -0.19666044 0.13113353 0.24186987 -0.016103204 0.07396976 1.1234905
-0.1346287 0.1815845 0.28188568 0.34285071 1.0021006 0.12512027 -0.13861088 -0.073234916
-0.16995177 0.05813267 -0.028808957 0.10467077 0.022062382 0.0187612 0.58955145 -0.35564524
-0.0030317807 0.026399469 -0.14711103 0.10262308 -0.003856425 -0.025565512 -0.108116604 -0.020405618

fc2.bias f4 [30]
00000000: 7b5e 0cbd bd9e 203d baa2 133c 4535 86bd
00000010: 230b 7bbd e85b 90bd b8e3 333d 23d3 913e
00000020: ee90 ce3d 1b57 70be e481 0bbe d6cf be3e
00000030: 9725 9e3d 8719 babd 1524 aa3e db37 25bd
00000040: 6e06 d33c edc3 c83d e57a 603e 289e 8a3d
00000050: 8321 febb d973 ca3e 28fd 93bd d3cf edbd
00000060: 7b6f 97bd 35c4 bdbd c607 463e 8591 19be
00000070: 15d8 3dbe 1278 c73c
-0.03426979 0.039213885 0.009010965 -0.06553129 -0.061289918 -0.0704878 0.04391834 0.28481397
0.10086237 -0.23470728 -0.13623768 0.3726794 0.077220134 -0.090869 0.33230653 -0.04033647
0.025759902 0.09802995 0.2192188 0.06768447 -0.0077554598 0.3954151 -0.0722602 -0.11611905
-0.0739431 -0.09265939 0.19338903 -0.14996918 -0.1853946 0.024349246

fc3.weight f4 [20, 30]
00000000: 788b 8e3c 7f47 5e3e bdc7 3fbd f9a6 6c3e
00000010: 8f9b c4bd 7f05 383e 0c37 94bd d048 f2bd
00000020: 2fca a93e 6347 4a3d 4e56 d93d 44e7 1e3e
00000030: cdd1 7a3d c630 ef3d b247 5b3d 6453 1a3e
00000040: df5c b7bc 92d5 89be 57cc 4f3f e736 4b3e
00000050: d349 82be 772c 3c3e 6b5a b13d 4bf9 473e
00000060: d60b 2ebd a80a 8abd 5fa8 5d3e a7dd 0dbe
00000070: 040c 853e b86e a53b 779a 933b 8897 5abe
00000080: 29ca 2abe e86e 07be 9ece 39be f808 1f3e
00000090: c0f3 2cbe 7984 fa3d d7be 63bd 9542 b4bd
000000a0: 4dd8 bdbd 7099 47bd fc68 10be 2287 14be
000000b0: 1cfd 48be e40f 4a3d 7dcd 03be 0332 04be
000000c0: 8ff1 c23d 00ac 42bd 2134 0d3e 14a0 93bd
000000d0: b910 433d 5198 d53d f928 9a3d 004f 79bc
000000e0: 8903 51be 831b 77bd fe22 c6bd ffbe afbd
000000f0: 4215 ad3d d20e d23e 678d 89bc b8a7 e83e
00000100: 9b1e 13bf 47af abbd 809e 37bd eeed 02bf
00000110: 224e 10bf 5f3e c4bd b763 143d 2892 2abf
00000120: e101 b7be ab13 413e fee0 07bf 1a14 a63e
00000130: 612f 9dbf 49a6 a6bc e1f4 9a3d 6209 aa3d
00000140: bb6f f73c eb51 ffbe 934e 3e3c 2229 61bd
00000150: 9522 cd3e a1c4 3dbe 8e40 82bf fdb6 51bd
00000160: a380 e4be cc10 693e a05a 123e d13b 053f
00000170: 594f 293e 408b 6a3e 2e3d b33e 6e44 2bbe
00000180: 1ed3 263e dda3 8ebe b698 2cbf 6361 3b3f
00000190: edc3 ea3d b0ec 1a3e aec3 4a3e ca1d 643e
000001a0: 1667 8fbe 05ae 5d3e 30ca f53d d482 88be
000001b0: aea1 76bf 3ba9 823e 3a83 53be d3d5 0ebf
000001c0: d095 193e 52c5 fa3e 28fc 3e3e 5460 ee3b
000001d0: 70a6 8c3e dc7c 3a3d c250 043e f5c2 663c
000001e0: 3ea8 fabd 4d05 ddbd a6a8 c2bd 0fca 1fbf
000001f0: 2276 593c fcda 0fbe 137d bd3e 4598 e33e
00000200: 092d 13bc 9510 9fbd 89e0 7dbb 79fe 773d
00000210: d751 dabd 1a11 59bd fe45 0a3f 0767 25bf
00000220: 58a3 693e b09d f03e eb25 6b3f d7b7 efbe
00000230: d7c5 493f b2ec c23e 390a 6bbd 152c 553d
00000240: 980b 33be e7db eebe 8607 10be 0cc5 9d3d
00000250: db11 2b3e cbab a4be 0319 a53c d249 e8bd
00000260: be5c 16be 4f8d d4bd e0c4 3f3d 1714 283e
00000270: 6330 24bd 576d 853d 22c3 ab3d 6f0e c13d
00000280: 2f97 c9bd 3395 e23b 5a38 9dbd 0258 cb3c
00000290: f45c e9bd 4332 62bd 8aa9 21be 35e6 07be
000002a0: b436 32be 6dad ccbd 9f3b fdbc e92d 88bd
000002b0: c788 21be edaf 63bd 4cc9 383c 6fcd d83d
000002c0: 49a1 81bd 8002 38be f34e a1bd 6aa9 0ebe
000002d0: 6737 583d 46ac 0abe d28a 97be 66db 1a3f
000002e0: 8ae7 bd3e 064d b4bd d273 91be 2ee9 cf3e
000002f0: 16ac 77bf 1f03 7e3f 668f 5d3e e8e9 bc3e
00000300: fdac 633b a942 783d 6b9d b1be eb7d d23c
00000310: 4d1c ed3e 7c68 45be e80e ee3f f0da 433e
00000320: 0e0d 4e3e 0083 5c3e 91d2 2c3e e148 373f
00000330: a09d 4fbe 9cda 0b3f 1763 b53e 4507 9e3c
00000340: 6431 7bbb fbf6 86be 646d 5c3d d50d 85bd
00000350: 994d 513d 89ba 12be 3e89 a03d 0d6a 6bbd
00000360: 1558 0dbe b94a af3d 0f52 db3e fdb8 5e3f
00000370: 41a8 c23c e0f9 493e 071c afbd f99c df3c
00000380: edee 553d b07a 843d 0c0e 02be 936a babe
00000390: fe4b 033e 117c 4a3e fb7d 1cbf f295 7d3d
000003a0: 89d3 c53d 8050 3d3f d662 6b3d 423a 593d
000003b0: fdc3 bc3e 2b52 c83d e0f1 82be 316c 733e
000003c0: 5edf 093e 865c 1bbe 9000 6ebd c22b 65be
000003d0: b43e e7bd a810 a03d 9fbc b13d decc b73e
000003e0: d49d 203f 63c9 01bf d78f 273d 486a 013e
000003f0: 7c47 81be 286b 3c3d a2ae 8b3e 2825 95be
0.017400488 0.21706961 -0.046821345 0.2311057 -0.09599983 0.17970847 -0.07237062 -0.11830294
0.33162066 0.049384486 0.106121644 0.15517908 0.061235238 0.11679225 0.05353517 0.15070873
-0.022383152 -0.26920754 0.8117117 0.19845162 -0.25446948 0.18376337 0.08659824 0.19528691
-0.042491756 -0.06740314 0.2164626 -0.13854085 0.2598573 0.005048599 0.0045044976 -0.21346867
-0.1667868 -0.13225901 -0.18145224 0.15530765 -0.16889858 0.122322984 -0.05560192 -0.08801762
-0.09269772 -0.048730314 -0.14102548 -0.14504674 -0.19627804 0.04933156 -0.12871356 -0.12909703
0.0951873 -0.047527313 0.13789417 -0.07208267 0.04762337 0.10429443 0.07527346 -0.015216589
-0.20411505 -0.06032897 -0.09674643 -0.085813515 0.0845132 0.41026932 -0.016791059 0.4544046
-0.57468575 -0.08383041 -0.04482889 -0.511443 -0.5636922 -0.09582209 0.036227908 -0.66629267
-0.3574362 0.18855159 -0.53077686 0.3243721 -1.2280084 -0.020342963 0.07566238 0.08302571
0.030204644 -0.49867186 0.011615413 -0.054970868 0.40065446 -0.18532039 -1.017595 -0.0511999
-0.44629392 0.22760314 0.14292383 0.520444 0.16534175 0.22904682 0.35007614 -0.16725323
0.16291472 -0.27859393 -0.6742052 0.73195475 0.11463151 0.15129352 0.19801208 0.22276989
-0.28008336 0.21648414 0.12001455 -0.26662314 -0.96340454 0.25519738 -0.20655528 -0.5579502
0.14998555 0.48978668 0.18650877 0.007274667 0.27470732 0.04552923 0.12921432 0.014084567
-0.12239121 -0.10792027 -0.095048234 -0.6241769 0.013272794 -0.1404838 0.37009487 0.4445211
-0.008982905 -0.07766835 -0.003873857 0.06054542 -0.10660141 -0.052994825 0.5401305 -0.6461033
0.22816217 0.46995306 0.91854733 -0.46819946 0.78817505 0.3807121 -0.057382796 0.052043993
-0.17484891 -0.46652147 -0.1406537 0.07703599 0.1670603 -0.32162318 0.020153528 -0.11342205
-0.14683816 -0.10378515 0.046818614 0.16413914 -0.040085208 0.065149955 0.08386828 0.09426581
-0.09843289 0.0069147586 -0.07676764 0.024822239 -0.113946825 -0.055223715 -0.1578733 -0.13271411
-0.1740368 -0.09994016 -0.030912219 -0.06649382 -0.15774833 -0.055587698 0.011278462 0.10586058
-0.06329591 -0.17969704 -0.078763865 -0.13931814 0.05278721 -0.1354228 -0.295981 0.60491025
0.37090713 -0.088037536 -0.28408676 0.4060759 -0.9674696 0.9922351 0.21636733 0.36897206
0.003474056 0.060610447 -0.34690413 0.025694808 0.46310654 -0.19278139 1.8598299 0.19126487
0.20122167 0.21534348 0.168772 0.7159558 -0.20274973 0.54630446 0.35427162 0.019290576
-0.0038329 -0.26360306 0.05381526 -0.06496779 0.051099394 -0.1432897 0.07838677 -0.057474185
-0.13803132 0.08559174 0.42836043 0.8700102 0.02376187 0.19724226 -0.08550268 0.02729653
0.05222981 0.06468713 -0.12700671 -0.36409435 0.12821957 0.1977389 -0.6112973 0.061910577
0.09659488 0.7395096 0.057467304 0.053034075 0.36868277 0.09781297 -0.2557516 0.2377174
0.13464114 -0.15172014 -0.058106005 -0.22379974 -0.112912565 0.07815677 0.08678555 0.3589849
0.62740827 -0.50697917 0.04090866 0.126382 -0.2524985 0.04600063 0.27281672 -0.2912991

fc3.bias f4 [20]
00000000: 0990 b1bd cd48 c1bc 6b50 df3e a73e 8c3d
00000010: 11da 91bc 9858 21bd 484c 43bc 1bed 523e
00000020: fc7a 803e 4fdd 1d3e 44a0 223e 44ce 5bbe
00000030: 15b3 91bc 9ab5 6fbd ce2f e6bd 6e07 25be
00000040: b07b 1b3d d689 2fbe df1e 8e3d 36c2 e73c
-0.08670051 -0.023594284 0.43616042 0.068478875 -0.017804177 -0.03939113 -0.011920042 0.20598261
0.2509383 0.15416454 0.15881449 -0.21465403 -0.017785588 -0.058522798 -0.11239587 -0.16116115
0.037959754 -0.17142424 0.06939482 0.02829085

fc4.weight f4 [5, 20]
00000000: 4d61 00bf fd06 39be 5175 603e c9f7 2dbe
00000010: d602 db3e e0b6 6bbb 0c55 05bd 49b5 30bf
00000020: 6768 433e 5aca 95bf dee6 76be bfae b6bd
00000030: 3a5b 883e dfe5 923d 6e3b 43be 9df2 59be
00000040: 8e36 66be 1097 45be 616c f8be bc48 26bf
00000050: fd4d e2be bc20 06bc 0892 fb3c 4a2e 3c3d
00000060: f2ac aabe e5f6 55be 3803 90bf a08d 573c
00000070: d9ef b4be 3bd5 8bbd 413a 0bbe c8c4 613c
00000080: 9b6f a9bd 597f 573d bbcb eabd 2b8b a63e
00000090: f666 91be 22f3 4abe 896e 043f 182f 6bbf
000000a0: b677 20be e9c0 183d cf46 18bf f213 833e
000000b0: 7b3b 66bf 01f7 973d af96 2a3e 214b f03d
000000c0: 7695 81bf 20f8 64bf a0a8 bd3e 883d 0b3e
000000d0: d480 cd3d d1f4 4b3e 9724 a13e 85ad 55bf
000000e0: dcb1 5bbe 58b7 4b3d a1b7 3dbf 9a13 a5be
000000f0: 72ea f0bc e1db 2dbe 0adb b0bf a2d1 2ebe
00000100: e7cf 70be b2a4 0dbe a47a 5cbf 4cb5 3f3e
00000110: 1959 063d a818 3c3f 9f79 fabc 2f52 17bd
00000120: 5a8d 303e 39cb b33a 097c 11bf 5adb 2ebf
00000130: 4e56 083f 761f 593d 67f0 06bf 0676 87be
00000140: 64fa 203e a3fd ce3d a612 0dc0 29c0 34bf
00000150: d400 173e ef5b 53be 0c95 973e a88f d7bd
00000160: 1297 a63e 898b a7bf 0f70 cebe 01a6 5c3c
00000170: 1391 cdbf 9221 213e 1376 85be 5223 b73d
00000180: baac 8fbf c612 b9bd 8107 733e 923e 333f
-0.5014847 -0.18069072 0.21919753 -0.16989054 0.427756 -0.0035967156 -0.03255181 -0.6902662
0.19082795 -1.1702378 -0.24111506 -0.08920049 0.266321 0.07172751 -0.1906564 -0.21283956
-0.22481748 -0.19295907 -0.48520187 -0.64954734 -0.44200125 -0.008186515 0.030709282 0.045942582
-0.33335072 -0.20894964 -1.1250982 0.013156325 -0.3533924 -0.0682778 -0.13596441 0.013779826
-0.0827324 0.052611683 -0.1146464 0.32528052 -0.28398865 -0.1981931 0.51731163 -0.91868734
-0.15670666 0.03729335 -0.59483045 0.25601155 -0.8993451 0.07420159 0.16659044 0.1173308
-1.0123737 -0.8944111 0.37042713 0.13597691 0.10034338 0.19917609 0.31473228 -0.83467895
-0.21454567 0.049735397 -0.7410832 -0.32241517 -0.029408667 -0.16978408 -1.3816845 -0.17072156
-0.23516808 -0.13832358 -0.86124635 0.18721503 0.032799814 0.7347512 -0.030575572 -0.03694361
0.17241421 0.0013717181 -0.5682989 -0.68303454 0.5325669 0.05300852 -0.52710575 -0.26457232
0.15720516 0.10106971 -2.2042632 -0.70605713 0.1474641 -0.20640539 0.296059 -0.10525447
0.32537133 -1.3089458 -0.4031987 0.013467313 -1.6059898 0.15735462 -0.26066646 0.08942284
-1.1224587 -0.09036784 0.23733331 0.7001735

fc4.bias f4 [5]
00000000: 2403 02be 3010 023e 5c01 76bd 2d43 343d
00000010: 47f1 853d
-0.1269651 0.12701488 -0.06005989 0.044009376 0.065401606
