Sample_Based_Extension/WUSTL/transfer_attack/dnn_pytorch.pt (torch, 20656 bytes, 8 tensors)

fc1.weight f4 [50, 42]
00000000: a8b5 073d 0acc 233d 4164 60be 9572 9b3e
00000010: cc0c be3e 0de7 df3e bb98 d83e 619c 993e
00000020: 40d8 313e 2da2 2f3d 29a7 293f 1214 373e
00000030: 7f6d aa3d 1511 1e3f 0ce4 663e fbc0 9f3e
00000040: 01a5 703e ed3d d43e bd43 703d cf53 ad3e
00000050: 8969 ff3e e7f6 333d 0d45 fa3e e933 2d3f
00000060: 69e8 f4bb 50d5 103f 6c5f 11bd e3f4 7f3d
00000070: cc04 6fbd f915 963d 72f7 77bb 54ea 74be
00000080: 5ce5 e13e 9ec2 413e f6a7 413e 5fc3 b53e
00000090: 944f b83e e04f 033e 8623 4abc 6dfd 83be
000000a0: 140b 97bd 1a41 50bc d26f 923d 1dee 343d
000000b0: a871 b4be c4f6 093f 1fc6 f53e 9656 ac3e
000000c0: ff59 d13e 11f4 fa3e 63f7 ca3e be49 62bd
000000d0: 0a1e 643f 6d37 833c e05c b03d e5dc 1c3f
000000e0: 504d 1d3e 3df0 253e c0cb 0d3f 880a 093f
000000f0: 8662 81bb b838 5f3e 60f6 0a3f bf81 5d3d
00000100: 1b97 203f 3eb9 113f 7de4 043e 8c70 dc3e
00000110: 24ea 91bd c8df 603e 6b3b 1f3d ae00 37bd
00000120: 0617 fb3e ca08 8cbe bee6 953e e1e7 c93e
00000130: 2657 0b3f 537a 523e 8aea ab3e 71c1 4c3e
00000140: cb7d e53e 01ed 21be 520a c9bd f72d 1cbe
00000150: b59a 0ebd d868 5c3d f7bb 4abe c4d0 043e
00000160: 2aeb 3f3d 73a4 3b3d 1713 583e 77ed de3d
00000170: e85f 943e 3f61 b53d 4691 473e 045b 73bc
00000180: 9cc8 09be d6ac 0d3e cad4 a83d 0b83 523d
00000190: bccb 113e d441 6c3c 20b4 5e3e 71cc ae3d
000001a0: 8d85 0d3e bbae e6be 22b2 363e 7df6 493f
000001b0: 902e 073e c3c4 2d3f b7b1 793e 4209 2dbe
000001c0: 5f64 4abe 1039 05bd fde3 a23e a9ec bbbe
000001d0: 6d4b 813e c510 8f3d f2a6 eb3d adda 473e
000001e0: e581 083f 25fb cbbd d74c 673e f456 00bf
000001f0: a9cd b03e 3421 9bbe 020d c53b e6bd 98bc
00000200: a38d 01bd 349b 51bd 62ed bd3d 2560 1d3c
00000210: ecef 0a3e bcd5 be3d d320 a5bd 6d5c bb3c
00000220: d977 7ebd 502c bbbd 1ca4 b33d eabd b63d
00000230: 400e 99bc 08d4 873c e953 1abe b268 05be
00000240: 1eef 913d cc83 d1bd b0ed d33d 9134 86b9
00000250: ac0a a53d 6d91 6a3d 9fdb a1bc f7c1 09be
00000260: 469a 3abd 7b57 16be 5286 bcbd 1bb9 d63d
00000270: 6c6c 523d bf95 fcba cd83 0dbe 398f 4cbd
00000280: b5de e9bd 276a dbbd e31d f8bd 67c6 e23d
00000290: f322 b2bd 39fa 0e3d 7989 bc3a 1f0a 08be
000002a0: cab9 273c 4bc2 90be 1bf2 5fbe 8bfc 9dbd
000002b0: 2107 c53c 2634 c6bd 83cd 153e c33a 5fbc
000002c0: 0b16 3b3d a2ef b83d c04c a03e c599 c5bd
000002d0: 9193 863c 3f02 7b3e 479e 033e 157f d5bd
000002e0: 50fb 51bd 3e9a b63d c96b 383d 6789 033d
000002f0: d574 5f3e 5fad babd 1f46 af3c c22a f0bd
00000300: 619a 2a3e 5a58 443e 6215 1dbe 53c8 8b3c
00000310: dfac edbd 58b9 bd3d 2ca9 b5bd b04f 873e
00000320: aa87 dd3d 2a15 09be ef92 da3d c77e 663d
00000330: 79ee 813e 0f9e eb3d f6ba a3bd 2d22 883d
00000340: 5ead b1be f98d aa3d 5a07 8b3d b194 17be
00000350: cdfb 233e 1730 8d3e b2ab 3d3d 278a e93c
00000360: 9d31 0b3f 90a8 143e c083 173f 95f4 e5bd
00000370: f0e0 c53e 3b0c 253e 67cc 3bbd 2be7 253e
00000380: c869 8a3d 2438 f6be 040c 5dbb 9565 f1bd
00000390: 440e 843d a873 ed3e 16b1 013f 62ea 873e
000003a0: b8fe f73e 5513 4a3e 4306 263d 2fc3 a43e
000003b0: d306 3a3d b5dd 903e d93d 713d f7db 863e
000003c0: 6544 193f 57bf 9bbe 3f87 073f 2874 76be
000003d0: c459 163f b30e d43e a263 6f3e 32f7 373e
000003e0: e9c4 e93e fb8e 37be 31aa 863e 51c7 76be
000003f0: ae32 2f3d 1327 c8be 4036 3bbf b5f8 303e
0.033132225 0.03998951 -0.21913244 0.30360857 0.37119138 0.43730965 0.42304024 0.3000212
0.17367649 0.042879272 0.6627069 0.1787875 0.08321666 0.61744815 0.2254793 0.3120192
0.23500444 0.41453496 0.05865835 0.33853003 0.49885204 0.043936636 0.48880807 0.67657334
-0.0074739945 0.5657549 -0.035491392 0.0624894 -0.058354184 0.0732841 -0.0037836698 -0.23917514
0.441203 0.18921897 0.18911728 0.3550062 0.35998213 0.12823439 -0.012337571 -0.25779286
-0.0737516 -0.012710834 0.07150234 0.044172395 -0.35242963 0.5389216 0.48002717 0.3365981
0.40888974 0.49014333 0.39641866 -0.055246107 0.89108336 0.01601764 0.086114645 0.6127456
0.15361524 0.16204925 0.5538902 0.53531694 -0.0039485125 0.2179898 0.5428219 0.054078814
0.6273057 0.5692328 0.12977786 0.43054616 -0.07124737 0.21960366 0.038875025 -0.044678383
0.49041003 -0.27350456 0.29277605 0.39434722 0.5442985 0.20554475 0.33577377 0.19995667
0.44822535 -0.15813066 -0.098164216 -0.15251909 -0.03481551 0.053810924 -0.19798265 0.12970263
0.04685513 0.045811128 0.21101032 0.108851366 0.2897942 0.08856439 0.19489011 -0.014853243
-0.13455433 0.13835463 0.08243711 0.051394504 0.14237875 0.0144199915 0.217484 0.08535088
0.13820477 -0.45055184 0.1784139 0.78891736 0.13201356 0.6787836 0.24384199 -0.16898063
-0.19764851 -0.032525122 0.31814566 -0.36703995 0.25252858 0.069856204 0.11506452 0.19517012
0.53323203 -0.099600114 0.22587906 -0.5013268 0.34531906 -0.3029877 0.0060135135 -0.018645238
-0.031629216 -0.051173404 0.09273793 0.009605442 0.13568085 0.0931811 -0.08062901 0.02287122
-0.062126014 -0.09139311 0.08771536 0.08922942 -0.018683553 0.016580597 -0.15071072 -0.1302822
0.07125686 -0.102302164 0.1034807 -0.00025597637 0.08058676 0.057267595 -0.019758044 -0.13452898
-0.045557283 -0.14681809 -0.09205307 0.10484525 0.05137293 -0.0019270702 -0.1381981 -0.049941275
-0.11419431 -0.10713606 -0.121150754 0.110729985 -0.08698072 0.0349066 0.0014384232 -0.13285111
0.010237167 -0.28273234 -0.218697 -0.077141844 0.02405125 -0.09677915 0.14629178 -0.01362485
0.04567532 0.09030081 0.31308556 -0.0964847 0.016427787 0.24512576 0.12853347 -0.104246296
-0.05126506 0.08916138 0.045024667 0.03211346 0.21821912 -0.09115099 0.021395741 -0.117269054
0.16660453 0.19174328 -0.15340188 0.017063295 -0.11605238 0.09263867 -0.088701576 0.26427984
0.108168915 -0.1338698 0.106725566 0.056273248 0.25377253 0.11504757 -0.07994644 0.066471435
-0.3470258 0.083278604 0.067885116 -0.14802815 0.16014023 0.27575752 0.04630632 0.028508259
0.5437258 0.14517426 0.5918541 -0.11228291 0.38648176 0.16117947 -0.04584923 0.16201465
0.067584574 -0.48089707 -0.0033729086 -0.11786953 0.064480335 0.463773 0.50660837 0.26546007
0.48436522 0.19733937 0.040533315 0.32180163 0.045416664 0.2829415 0.058896873 0.26339695
0.59869987 -0.30419418 0.52940744 -0.24067748 0.5873072 0.41417465 0.2337785 0.17965391
0.45658043 -0.17925636 0.2630172 -0.2409947 0.04277294 -0.3909231 -0.73129654 0.17282374

fc1.bias f4 [50]
00000000: c335 c7bd 3f44 623c e7aa 5d3e 1128 9cbd
00000010: c01c 12be 147f 0cbe 645d d3bc b586 823e
00000020: b749 463e f04e 9f3e 9634 1d3e 5118 afbd
00000030: 902f 0d3e 8b40 32be 70d4 1d3e facd 563e
00000040: 5860 e7bc b4d0 733e 6798 453e 9205 0a3d
00000050: 647f 773e c021 f93d 2fd9 893c 7d4b a13d
00000060: 72e5 c63d 89d7 183e 5ca8 2f3e 6e0c 2abe
00000070: a16e 06be 9565 0dbe c07d 19be d97e 5bbc
00000080: 8ca9 253d a43c c53d 832a 79be d12d 8b3d
00000090: 37f3 2abe 7d71 0bbe 07f2 b73c ad0f cc3d
000000a0: 6b6e 093e 69e2 07be d15c adbd 29ad 40be
000000b0: 3a3a 0c3e a67a 9fbd 7bc2 c03d 2cbe 20be
000000c0: a912 af3d fbf2 4ebd
-0.09727051 0.013810216 0.21647225 -0.076248296 -0.1426878 -0.13720351 -0.025801368 0.25493398
0.19364057 0.31114912 0.15352091 -0.0854956 0.13787675 -0.17407434 0.1541307 0.20977011
-0.028244182 0.23810083 0.19296418 0.03369672 0.2416969 0.121646404 0.016827194 0.07875726
0.09711732 0.1492597 0.17154068 -0.16606304 -0.13128139 -0.13808282 -0.14989376 -0.013396942
0.040444896 0.09630707 -0.24332623 0.06795848 -0.16694342 -0.13617511 0.022454275 0.099639274
0.13421027 -0.13269962 -0.08464969 -0.18816055 0.13694087 -0.07787065 0.09412094 -0.15697545
0.08548481 -0.050524693

fc2.weight f4 [30, 50]
00000000: 9227 393e 6e45 cf3d 1c9b 2d3e e90d 1a3d
00000010: 92fb b53b 94a7 463e 73cf 793d 8053 193e
00000020: be55 7d3e 4cc9 c43d 0185 b8bb b2d0 733e
00000030: 98d0 6c3e 02eb b3bd 1461 493e 78e0 74bb
00000040: 4b23 72bd 23c1 e13e f9e6 bf3e 43fc 4dbc
00000050: a5a5 d9be 187d 1b3e 98f1 8a3e 4010 e0be
00000060: 9248 633e 12b2 8a3e e49b 103e b8f3 c3bd
00000070: a627 e2bd ef66 063d 0751 2bbb cee7 edbc
00000080: 58c9 3bbd c3ea dc3d dcb8 883d bc92 7e3e
00000090: f554 a53d b7af c8bd 0250 bd3e b583 313f
000000a0: 112e 1cbc 385a 5b3e eee1 91bc 43d8 473e
000000b0: a6d1 0f3d a945 37bd e116 71be 5b2c b23e
000000c0: 98db 843e b639 ddbc b97f 2b3e b8df b43e
000000d0: b04b 10be ec40 963d 82b0 5a3e 6162 4a3e
000000e0: 9be9 6d3d 85f2 a1be a74d 2a3d 502f 30be
000000f0: 8b01 0dbe a93f 973e ef6c e33d ba4f 8d3e
00000100: 83ab 693c b7f1 d0be 9a6f bf3e eded f33d
00000110: 5517 493e 04d4 333d dbd0 b7be 2a70 d9bd
00000120: 11bc 8f3e 8384 d0be e502 d8be 311f 10bf
00000130: 0134 a7be 4a12 8f3c b33a 9a3d 79b8 e6bd
00000140: a6c6 d2bc 16a9 ab3e 6df0 523e 69bc 043d
00000150: 0b9a 5c3e e87f b2be 0fac d93e 24ea 83bd
00000160: fc02 81be a0c7 c73e 5232 92bd bab9 a23e
00000170: 3e44 413e 4a21 de3e 9452 5a3b e04b 953d
00000180: e3a6 b7be c905 273f ce6b 153e 67a6 a23e
00000190: c9da b83d 8c92 7a3d b5ae 213d 8432 89bd
000001a0: 0762 003e 6670 673d c468 a4bd 426e b23e
000001b0: 9390 493e 61f0 6e3e 24a9 6f3e 092c 1ebd
000001c0: bcd5 973e 2af5 85be 2421 6c3a 4a43 283f
000001d0: 9093 acbe d815 9e3e 1da0 2c3e 6f09 263d
000001e0: 259b 473e d70b aa3e d591 1a3e c7c0 413e
000001f0: 65ea 223f 9fdd 1f3f b5da fc3e a78b 1e3d
00000200: 688c e5bd d64d 4b3d 4a75 7d3d a164 e73d
00000210: d94b 673d 686d 323d d3e4 64be 9150 853e
00000220: ecad 3fbe 15cb a93b 388f 233f 05dc b53e
00000230: 5e41 d83e 7fa7 99be 4d4c 17be abe7 26be
00000240: 05d9 2a3e 6ea5 d9bd 3eb1 ee3e dc2c f0be
00000250: c298 e93d f0d5 3abe 24c5 8c3e e2d8 8b3e
00000260: 3884 18bc d621 d5bd 81c0 c03d 75fc a53e
00000270: 48d1 4d3e 7156 06be 57a5 ddbb f477 05be
00000280: c574 ad3e 3d0e 2e3e 25c2 b73e 7b73 11bf
00000290: 5dd2 2a3e db7c ad3e a161 f1be 17df c2bd
000002a0: 8299 9b3e ddd5 2e3e 6e9c 093d 4289 db3e
000002b0: 918c 963e 66f7 7abe 989e 413f 53a0 093f
000002c0: 50bd d5bc c3c8 a3bc 2ae3 1b3c 3289 ad3d
000002d0: 6122 a9bd 0d4f 2d3e 0782 28be 0bd0 583e
000002e0: fced c4be c430 983e 576e 87be 9ca8 083d
000002f0: 31dd 2a3f 2286 083f 672f b43e 9136 1ebd
00000300: 9300 80be ed24 69be a96a 2c3e 4beb 343d
00000310: 76ba 033e d3a9 89be 7612 633e 09d6 c0be
00000320: c75d 2a3d d5ff 3abd 80c8 8b3e a422 803d
00000330: ea6e b7bd 6a9f 4a3e 2ffb 423d 3065 a4be
00000340: cf98 a8b9 1f36 403d 502f c13e ae8b 233e
00000350: 6fd2 5d3e c301 90be af13 d7bc 1456 613e
00000360: ac2b ad3c 2495 babe ea53 4bbe 233c 07be
00000370: d682 1b3f b538 243e 4f2e 953e e17e 4b3f
00000380: 1603 ef3e 2261 db3e 2c46 453d 86e0 c3bd
00000390: cda4 fdbd 0a94 9a3d 0c85 dd3d 9178 af3c
000003a0: a962 d63d fe8e a43e 7f46 c8bd c16b 2f3e
000003b0: 4933 43be 5707 29bd c8de ed3e 8e15 773e
000003c0: b78f d13e d1f5 37be 477a fa3d a18b 91be
000003d0: f3c7 603e 8138 91bd 12e5 e73d c129 a7be
000003e0: ec04 073e 643f 09be 6227 92bd 64cc a1bd
000003f0: 1bcf 5bbd c332 2f3d 8c39 3dbd 2e8b 493d
0.18081501 0.101206645 0.16953701 0.037610922 0.005553671 0.19399863 0.060988855 0.14973259
0.2473974 0.09608707 -0.0056310897 0.2381008 0.23126447 -0.087850586 0.19665939 -0.003736524
-0.05911569 0.44092664 0.37480906 -0.012572351 -0.4250919 0.15184438 0.27137446 -0.43762398
0.22195652 0.27088982 0.14121968 -0.0956797 -0.110427186 0.03281301 -0.0026140825 -0.029041197
-0.045846313 0.10786965 0.06675884 0.24860662 0.08072845 -0.0979914 0.36975104 0.69341594
-0.009532467 0.21421134 -0.017807927 0.19516091 0.035112046 -0.044744167 -0.23543884 0.34799466
0.25948787 -0.027005058 0.16747941 0.35326934 -0.14091372 0.073366016 0.21356395 0.19764091
0.05808411 -0.3163034 0.04157796 -0.17205548 -0.1377012 0.29540756 0.11104762 0.2759989
0.014262083 -0.40809414 0.37389833 0.11910615 0.19637807 0.043903366 -0.35901532 -0.10617097
0.2807317 -0.40726098 -0.42189708 -0.56297594 -0.32656863 0.017464776 0.07530727 -0.11265654
-0.025729489 0.3352744 0.20599528 0.032406244 0.21543138 -0.3486321 0.42514083 -0.06441143
-0.2519759 0.3901949 -0.07138504 0.31782323 0.18873689 0.43384773 0.003331338 0.07289863
-0.35869512 0.652432 0.14591905 0.3176758 0.09026105 0.061174914 0.039473254 -0.06699088
0.12537394 0.056503676 -0.08027795 0.34849745 0.19684057 0.23333885 0.23404366 -0.038616214
0.29655254 -0.26163608 0.0009007624 0.65727675 -0.3370633 0.3087604 0.16857953 0.04053634
0.19492777 0.33212158 0.15094693 0.18921195 0.6363891 0.6244754 0.4938561 0.0387074
-0.11208421 0.049634777 0.061879434 0.1129849 0.05646882 0.04356137 -0.22352915 0.2603803
-0.1871869 0.00518168 0.6389041 0.35519424 0.4223737 -0.30010602 -0.147752 -0.16299312
0.16684349 -0.10627256 0.466196 -0.46909225 0.11406089 -0.18245673 0.27494156 0.27313906
-0.009308867 -0.10406844 0.09411717 0.32419172 0.20099366 -0.13118912 -0.006764095 -0.1303404
0.3387815 0.16997619 0.35890308 -0.56816834 0.1668181 0.3388432 -0.47144797 -0.09515207
0.30390555 0.1707377 0.03359645 0.42878157 0.2940412 -0.24508438 0.7563262 0.5376026
-0.026091248 -0.019993192 0.009514609 0.084734336 -0.082585104 0.16924687 -0.16455851 0.21173112
-0.38462818 0.29724705 -0.2645137 0.033363923 0.6674376 0.5332967 0.35192415 -0.038626257
-0.25000438 -0.22767992 0.16837563 0.044169705 0.12864098 -0.26887378 0.22175011 -0.37663296
0.04159334 -0.045654137 0.27301407 0.06256607 -0.08956702 0.19787374 0.04760283 -0.3210845
-0.00032157308 0.046926614 0.3773141 0.15971252 0.21662305 -0.28126344 -0.026254503 0.22005492
0.021138988 -0.3644191 -0.1985623 -0.13206534 0.60746515 0.16037257 0.29136893 0.79490477
0.46682042 0.42847544 0.048162624 -0.09564309 -0.12384949 0.075477675 0.10816392 0.021419795
0.10468037 0.32140344 -0.09779071 0.17130949 -0.19062532 -0.041266765 0.4645903 0.24129316
0.40929958 -0.17964865 0.12230354 -0.2842684 0.21951275 -0.070908554 0.113229886 -0.32649043
0.13185471 -0.13403088 -0.07136418 -0.079003125 -0.053664308 0.04277302 -0.04619746 0.049204998

fc2.bias f4 [30]
00000000: 84f6 cabd 3cf0 70bd 1fab 9c3d 8b6b c23d
00000010: 71f3 413e 4752 3dbe b48c d13d 784d cf3d
00000020: 49d2 f5bd 9e33 abbc e4ee d03d b770 673e
00000030: 099a f0bd e4aa 263d cb2d 59bd 0689 1b3e
00000040: 1d47 e83d f747 6f3e 78f9 083e 2353 00be
00000050: 5c1d 8f3e 62a7 cd3d 3c42 b53c b4d4 f3bd
00000060: f706 21bb 7365 183e d259 11be d189 26be
00000070: 29ab f3bd ddff b83d
-0.099103004 -0.058822855 0.07649826 0.094931684 0.18940522 -0.18488418 0.10231915 0.10122198
-0.12002999 -0.020898636 0.10201815 0.22601591 -0.1174813 0.040690318 -0.053022187 0.15188989
0.11341689 0.23367296 0.13376415 -0.12531714 0.27952087 0.10041691 0.02212631 -0.11905804
-0.0024570802 0.1488245 -0.1419442 -0.1626351 -0.118978806 0.09033177

fc3.weight f4 [20, 30]
00000000: b4b1 b2bd 25fb b9be 47c9 453e 52aa 013f
00000010: df60 a13e bf2c 1e3f 3992 843d 1d41 a4be
00000020: f33b 7ebc 48c0 f43e 9a65 eabe 52e5 e03d
00000030: 13f9 e73a 6a2d a93d 1590 a03e 20c3 f53d
00000040: 6d7e a43e 9a5b 35be acb1 f0bd 530c 623d
00000050: e222 0a3e 13bf fabe 987f 853e dc2d d63d
00000060: a3a0 a93d be74 6fbe 42fd e2bd 78f8 f03c
00000070: 5b2b 9cbe c1af 433f 6002 363e 0707 86be
00000080: 91d0 763e e2c7 fc3e eee3 be3e b913 863d
00000090: eac0 893d 32b3 bdbe 5339 023d cb1a 833e
000000a0: 0d17 1dbf 06da 0c3e 6197 a63d fe5e 6d3e
000000b0: 0da3 02be 8e14 863e 13d9 cf3e 6f89 8dbd
000000c0: bc72 fbbc 91e5 6d3d 8812 9abb 11e4 a4be
000000d0: c51b 2e3e b69a c7be 1a5b 493e d7fa 15be
000000e0: fc19 943d 4e57 3a3c d8cf 09bf 1d4c 9c3e
000000f0: 874e d4bd 317b ef3d d48c f5be b0da e1be
00000100: fe4c b53e 3982 ac3e 8767 3fbf de5a a03e
00000110: 0b31 db3d 2688 963e cdf9 893e 4c48 0ebf
00000120: 31ad c5bd 6fd0 15be b26c 133f 3bc7 82bf
00000130: b9b4 483e 1b01 7cbf 1406 d8be e169 1a3e
00000140: 666e b43e 95df ca3a 132c 4bbf 230b f9bc
00000150: 8e33 193c bec2 b1be 81cb 25be 4ee0 a93d
00000160: 537b 90be d590 ec3e e747 c33d 84a7 77bf
00000170: deb9 933e 87fb ca3d ede4 893d 2fd6 153f
00000180: ba57 9b3e a5ae 5ebf e2eb 413e 4b29 d83d
00000190: 3beb 50bf 5a04 503e b6a9 2bbd 22f9 853e
000001a0: 7ede 48bf bed7 0d3e b4c1 143e 57f9 873e
000001b0: b530 6c3e b078 2e3e 8c3c 6f3e 5cea f2be
000001c0: 603a d63d 5acd b53c 56df 0fbe fca0 d63c
000001d0: 108b d7bc ca38 aa3d 16a2 8dbd 3a7d 313e
000001e0: c1cc 6dbe 6051 e0bd d296 a9be ec56 73be
000001f0: fa9f f43d 0d1a 2d3f 5b2b 07bf f38e 403c
00000200: 883c 223f c794 073d 3db4 8c3d f034 a1be
00000210: 01ed 1d3e c9dd 163e a5dc 973e f13c ffbd
00000220: 8d45 c73e afbf 8bbd 1ec7 46be c7e3 f13c
00000230: 5686 fb3d 9e3e 20be 23be 62be 84c9 803e
00000240: 13c0 3c3e d15b 3bbe 9eb1 1dbe 1c7f f83d
00000250: 438a 033e a0c1 563e 2292 08bd 0085 433e
00000260: e44f a8be 0b47 6fbe 985a 28bf eca8 5f3e
00000270: 1f93 bdbd b596 88bc 921f 813e 4160 07bf
00000280: 236d 92bd 326f c9bd 177c 1ebe 165b 0cbf
00000290: 8af9 203e 8835 69be 4e39 2fbf 40e9 a43d
000002a0: 081a 1c3e f7d5 343d fa75 10bf d188 133e
000002b0: a251 183e f4eb eb3c d226 1d3f dd37 abbd
000002c0: e948 223e f951 023e 85ea 9c3e 3cce 99be
000002d0: 2a0b d73e 5aed 1e3f 2297 65be 7146 8e3e
000002e0: 8b00 23be d956 b7be 4542 8abd 20fe 173f
000002f0: c447 c43d 67f9 bc3d 2125 053f 55b8 573e
00000300: 9316 b93c 7ee3 8bbd f219 cd3e 1c5c 893d
00000310: 6a4f 3cbe af7a 93bd 5ad1 4e3d 2480 06be
00000320: ae93 053e e0fd da3e 8f20 6bbc 8b3f 5b3d
00000330: 2d5e 663e 25f6 c43e 427a ab3d be02 de3d
00000340: 6c9c 463e ba3d e5bc 7871 2abe 09c1 cb3c
00000350: c02b b43d e6d3 a53d 6772 b9bd 425f 2dbe
00000360: 0391 1ebe 00ab e73d 1f1b d93d 0675 c83d
00000370: c322 c33c 2833 2bbe df6e b5bd b17c e13d
00000380: 1506 22be 4579 e73a 9658 e93d 6a5a 2abd
00000390: ad97 603d 16a3 aabd dc28 353b 8216 b23c
000003a0: bc2f 1fbe a26b 34be 1eef c3bd 5705 a1bc
000003b0: c29f 2f3e a024 2abe 1abb 24be c039 2bbd
000003c0: a67d 4a3e d9f0 ae3e 2caa cbbd 9130 a4bd
000003d0: 1404 ae3d 6b03 15bd ccf1 293d 2c4f 163f
000003e0: da5a 89be 46d7 f43d 1017 113f 4756 34bd
000003f0: a6c8 e8bd ed29 64be b7ff 3c3f 70b7 c4be
-0.087253004 -0.3632442 0.19315062 0.50650513 0.3151922 0.6178703 0.06473202 -0.32080927
-0.015517223 0.4780295 -0.4578064 0.109812394 0.0017698131 0.08260615 0.31359926 0.12000108
0.32127705 -0.17710724 -0.11752638 0.055187535 0.13489869 -0.48973903 0.2607391 0.10457966
0.08282592 -0.23384377 -0.11083461 0.029415354 -0.30501828 0.76440054 0.17774343 -0.26177236
0.24103 0.49371248 0.37283272 0.065467305 0.067262486 -0.37050778 0.03179295 0.2560638
-0.613633 0.13755044 0.08134342 0.23180768 -0.12757511 0.26187557 0.40595302 -0.06910979
-0.030694358 0.05808026 -0.004701916 -0.3220525 0.1700278 -0.38985223 0.19663659 -0.14646469
0.072315186 0.011373354 -0.5383277 0.3052682 -0.103665404 0.11693419 -0.47959006 -0.44112158
0.35410303 0.33693102 -0.74767345 0.31319326 0.107027136 0.29400748 0.26948395 -0.55579066
-0.09652174 -0.14630292 0.5758773 -1.021705 0.1960019 -0.98439187 -0.42192137 0.15079452
0.35240477 0.001547801 -0.79364127 -0.030400818 0.0093506705 -0.3471889 -0.16190912 0.08294736
-0.2821909 0.46204248 0.09535199 -0.96739984 0.28852743 0.09911256 0.06733117 0.58529943
0.30340368 -0.86985236 0.18937638 0.10554751 -0.81608933 0.2031416 -0.041909896 0.26166636
-0.78464496 0.1385183 0.14527017 0.2655742 0.23065455 0.17038226 0.2336294 -0.47444427
0.10460353 0.022192646 -0.1405004 0.02619981 -0.026311427 0.08311613 -0.06915681 0.17332926
-0.23222639 -0.10953021 -0.3312288 -0.23763627 0.119445756 0.67617875 -0.5280053 0.011752832
0.63373613 0.03310087 0.06870315 -0.314857 0.15422441 0.14733042 0.29660526 -0.124627955
0.3892025 -0.0682367 -0.19411895 0.029527558 0.12281482 -0.15648887 -0.22142844 0.25153744
0.18432645 -0.18296744 -0.15399787 0.12133619 0.12845711 0.209723 -0.033342488 0.19093704
-0.32873452 -0.23366944 -0.65763235 0.21841782 -0.09256577 -0.016673425 0.252194 -0.52881247
-0.071497224 -0.09835662 -0.15477024 -0.54826486 0.15720192 -0.22774327 -0.68446815 0.080523014
0.15244305 0.044149365 -0.5643002 0.1440766 0.1487489 0.028799035 0.6138736 -0.083602645
0.15848126 0.12726583 0.30647674 -0.30040157 0.42000705 0.6208092 -0.22420934 0.27788118
-0.15918176 -0.35808447 -0.06750921 0.5937214 0.09584001 0.09227257 0.5200978 0.21066411
0.022593772 -0.068305 0.40058857 0.067070216 -0.18389669 -0.072011344 0.050492622 -0.1313482
0.13044617 0.42771816 -0.014351024 0.053527396 0.22496863 0.38469043 0.08372928 0.10840367
0.19395608 -0.027983535 -0.16644847 0.02487232 0.08797407 0.08097057 -0.09055024 -0.16930869
-0.15485005 0.113119125 0.10600876 0.097879454 0.023820287 -0.16718733 -0.088590376 0.11010111
-0.15822633 0.0017660043 0.113938496 -0.04159013 0.05483215 -0.083318874 0.0027642762 0.021739248
-0.15545553 -0.17619184 -0.09567092 -0.019655867 0.17150787 -0.16615534 -0.16086999 -0.04180312
0.19774494 0.34168127 -0.09944567 -0.08017076 0.084968716 -0.036380213 0.04149036 0.58714557
-0.26827127 0.11955123 0.56675816 -0.044027593 -0.11366396 -0.22281618 0.7382769 -0.38421202

fc3.bias f4 [20]
00000000: 5d3b 9fbb ec84 953d ba42 e83c 3b29 343e
00000010: 3a3a 9dbd 83c1 edbc 5586 03bd 5673 91bd
00000020: 1a4f 9b3d e804 5b3e 6e53 8f3e 6d27 833d
00000030: 0bc1 303e f068 89be d6a7 8cbe dcb8 b93c
00000040: 79bb 37bd 3a3d 303e 4298 8b3c 12ff 3bbe
-0.0048593716 0.073007435 0.02835213 0.17593853 -0.076771215 -0.029022938 -0.03211053 -0.07102077
0.07583447 0.2138859 0.2799334 0.06404004 0.1726114 -0.26837873 -0.274718 0.022671156
-0.044856522 0.17210856 0.017040376 -0.1835902

fc4.weight f4 [5, 20]
00000000: ab60 e63d 7bf4 003e 98d7 5ebf c557 27bf
00000010: adb9 3fbf 2039 b9be bd5f 4d3e 82e2 073e
00000020: d0f9 53be c1fa 6abf ca16 2e3e 2da9 29bf
00000030: e22f 20bf 62a0 edbe 3891 ac3e 37d8 8bbe
00000040: 809f 6bbe 612e 2a3c 2ee3 f9bc 187d b8be
00000050: 71f1 08bf 2b50 d4be 17a6 16be 744d c7be
00000060: 67b7 44bf 4e82 0cc0 2f66 cb3d ffe9 a7bd
00000070: 3371 9ebd a7d7 06bd 3090 2c3e cb9e 04be
00000080: c6f3 46bb ceb7 d0bf 1800 f1be 47af 94bc
00000090: 4376 f13d 784e 69be 30be ddbf 7789 f5bd
000000a0: 2de4 80bf 7c0c 34bf cea3 77be 8f09 3cbe
000000b0: 1456 26bd 34e2 2c3f c852 343e 6440 653d
000000c0: 05fb c13d 7bd6 8cbe 9ad1 08bf 809e cebe
000000d0: d472 873e 8795 0f3f 7dd5 c2bf 7a09 873e
000000e0: 728a b53e 74ff b1bf f60a bd3e 31f4 7a3d
000000f0: 82d6 f8bd 95e7 edbe 6a1f 373f 7f27 c2be
00000100: 61c3 703e cf61 2ebf 1a1d c2bc 568b 7d3d
00000110: 2e40 253e c8f4 a73e dff3 3bbf 2e1b a0be
00000120: b922 a4be e638 a5bf f4e3 d0bc 7617 9dbf
00000130: 25b9 2dbf 7311 47be 4a70 ccbe ddb2 223d
00000140: 62a1 103e 848d 583e 4494 35bf d3f4 1a3f
00000150: d724 d73d 2737 eebe 2a5c 88bf cce7 56be
00000160: a9eb c7bf 9029 ddbe 6e2e 30bc ff13 293f
00000170: b8cb 953e 0e39 c0be 7294 233e 73eb 35bf
00000180: 3e27 9abe 065b 423d 37d4 06bf 40c2 16be
0.11248907 0.12593262 -0.8704772 -0.653683 -0.74892694 -0.36176395 0.20056053 0.1327
-0.20700765 -0.9178887 0.17000881 -0.66273767 -0.62573063 -0.46411425 0.33704543 -0.27313396
-0.23010063 0.010387034 -0.030503836 -0.3603294 -0.5349341 -0.41467413 -0.14711796 -0.3892628
-0.7684235 -2.1954532 0.09931599 -0.08198928 -0.07736435 -0.032920506 0.16851878 -0.129512
-0.0030357703 -1.6306093 -0.47070384 -0.018149985 0.11790135 -0.2278384 -1.7323666 -0.1198911
-1.0069634 -0.7033155 -0.2418358 -0.18363021 -0.040609434 0.6753266 0.17609704 0.05596961
0.09471706 -0.27507386 -0.53444827 -0.403553 0.26454794 0.56087536 -1.5221401 0.26374418
0.35457188 -1.3906083 0.36922425 0.061268035 -0.12150289 -0.46465746 0.7153231 -0.37920758
0.23512031 -0.68117994 -0.023695517 0.06190046 0.16137764 0.3280394 -0.7341899 -0.31270736
-0.3205774 -1.2907989 -0.025499322 -1.2272785 -0.67860633 -0.1944025 -0.3992942 0.03972136
0.14124063 0.21147734 -0.7092936 0.6052982 0.105050735 -0.46526453 -1.0653126 -0.20986861
-1.5618793 -0.43195772 -0.010753257 0.66046137 0.29256988 -0.3754353 0.15974596 -0.7106239
-0.30108064 0.047450088 -0.52667564 -0.14722538

fc4.bias f4 [5]
00000000: 57d1 30be 1db3 bebd a9f4 b33d 817a 88bd
00000010: 93bd 02bf
-0.17267357 -0.09311507 0.087868996 -0.06663991 -0.5107052
