Sample_Based_Extension/WUSTL/transfer_attack/dnn_pytorch.pt (torch, 20656 bytes, 8 tensors)

fc1.weight f4 [50, 42]
0	0x3dfbc94a	0.12294252
1	0x3e1173f4	0.14204389
2	0xbd7601cc	-0.060060307
3	0x3dad11c4	0.08450654
4	0xbddf8b17	-0.10915201
5	0xbdc6cdcc	-0.097072214
6	0x3e27db29	0.16392197
7	0x3da549c1	0.08070708
8	0x3ed23c75	0.4106175
9	0xbe277150	-0.16351819
10	0xbded18d4	-0.11577001
11	0xbe0a9023	-0.13531546
12	0xbe08d549	-0.13362612
13	0xbd89de68	-0.06731874
14	0x3d301202	0.042985924
15	0x3d0a32fc	0.03374003
16	0xbd8c4265	-0.06848601
17	0x3d221834	0.039573863
18	0x3e67d5f7	0.22640215
19	0x3e9ce653	0.30644473
20	0x3c7d7287	0.0154692
21	0x3eead516	0.45865697
22	0x3d7ef3ef	0.062244352
23	0xbeb0fe3a	-0.3456896
24	0x3df85e81	0.121274
25	0xbe41cdd2	-0.1892617
26	0xbe5796dc	-0.21053642
27	0x3e7d8f9b	0.24761812
28	0x3eb7e3ea	0.35916072
29	0x3e2353e5	0.15949972
30	0xbcefadcf	-0.029257683
31	0xbc636108	-0.0138781145
32	0x3db6a755	0.08918635
33	0x3d9fecce	0.07808839
34	0x3dadc78c	0.08485326
35	0x3e3681cd	0.17822953
36	0xbe075100	-0.13214493
37	0x3e5394c1	0.20662214
38	0xbe30b138	-0.17255104
39	0x3e93ddb1	0.28880075
40	0xbe997818	-0.29974437
41	0x3c19b1c9	0.009380766
42	0x3e13ccfa	0.14433661
43	0xbe4d7811	-0.20065333
44	0xbefabb8f	-0.4897122
45	0x3e0ddf46	0.13854703
46	0x3e2126ce	0.15737459
47	0x3d847f05	0.064695396
48	0xbe4736a1	-0.19454433
49	0xbb603edb	-0.0034217152
50	0xbe433782	-0.19064143
51	0x3df91a20	0.12163186
52	0x3d0ba280	0.03409052
53	0x3cf1c19b	0.029511264
54	0x3e2cc0ef	0.16870473
55	0x3e01e1cb	0.1268379
56	0x3e4f4d6c	0.20244378
57	0x3df80308	0.12109953
58	0x3eb539c3	0.3539563
59	0x3ec125f8	0.3772428
60	0xbe80585f	-0.25067422
61	0x3d808926	0.06276159
62	0xbdfb4643	-0.12269261
63	0x3e89ff1c	0.26952446
64	0x3cab2706	0.020892631
65	0x3d21d654	0.03951104
66	0xbd2aa20b	-0.041658442
67	0x3f1f9bad	0.6234692
68	0x3e0761ee	0.13220951
69	0x3e1816b3	0.14852409
70	0x3e430f1a	0.1904873
71	0x3e043511	0.12910868
72	0x3dc2f8a6	0.09520082
73	0x3ed176c6	0.4091093
74	0xbe43bece	-0.19115755
75	0x3eb4aac0	0.35286522
76	0xbe672133	-0.22571258
77	0xbdb0894d	-0.08619938
78	0x3efd754f	0.49503562
79	0xbd3944c7	-0.045231607
80	0x3c9cee12	0.01915649
81	0x3d9d710b	0.07687577
82	0xbf5e8e26	-0.8693565
83	0x3ef32b45	0.4749395
84	0x3da73b72	0.08165635
85	0x3d582e7b	0.052778702
86	0xbdc06a89	-0.0939532
87	0x3dbf4311	0.09338964
88	0x3d4cd85e	0.05001103
89	0xbc146235	-0.0090566175
90	0xbdd72fe6	-0.10507183
91	0x3df95f3a	0.12176366
92	0x3db8391d	0.089952685
93	0x3dbfad0c	0.09359178
94	0x3d8822cd	0.06647263
95	0xbd861bbf	-0.06548261
96	0xbd7b8efd	-0.06141566
97	0x3da75526	0.08170538
98	0x3e0b01d7	0.1357492
99	0xbdb5c774	-0.08875933
100	0x3cedce9d	0.029029185
101	0xbd5dad21	-0.054120187
102	0xbd7e04e0	-0.062016368
103	0x3db07859	0.086167045
104	0xbd303743	-0.04302145
105	0xbde73759	-0.112898536
106	0xbd1836c9	-0.037161622
107	0xbc816530	-0.01579532
108	0xbe034b13	-0.12821607
109	0x3c8813e9	0.016611056
110	0xbda10748	-0.07862717
111	0x3cdd9393	0.027047908
112	0xbdec91b9	-0.11551232
113	0xbd5fde46	-0.054655336
114	0xbe1a6d73	-0.15080814
115	0x3a3c59f3	0.00071850343
116	0xbdb3ec93	-0.08785357
117	0xbdbb41c4	-0.09143403
118	0x3dbcee66	0.092251584
119	0x3d1688b9	0.036751483
120	0x3cb7908c	0.022407793
121	0xbc355b69	-0.011069157
122	0x3c51c3a7	0.012802995
123	0xbc9650a2	-0.018348996
124	0x3d0a6b98	0.033794016
125	0x3ddf093a	0.10890432
126	0x3d334448	0.04376629
127	0x3d996031	0.0748905
128	0xbba970e8	-0.00517093
129	0xbddc7866	-0.10765152
130	0x3da3bc06	0.07994847
131	0x3dc2c884	0.095109016
132	0x3ccd7158	0.02507846
133	0x3dc27783	0.09495451
134	0x3ca45a64	0.020062633
135	0xbd148286	-0.03625729
136	0xbd51a096	-0.051178537
137	0x3b8027a3	0.003910975
138	0x3e15470d	0.14577885
139	0x3deafc25	0.11473874
140	0xbdcf7b06	-0.10130887
141	0xbe1253d3	-0.14289789
142	0xbe0aabb0	-0.13542056
143	0xbd351f59	-0.04421935
144	0xbd4cc509	-0.049992595
145	0x3da74821	0.08168054
146	0x3dc78840	0.097427845
147	0xbd505203	-0.050859462
148	0xbd2d4332	-0.04230041
149	0xbe15764a	-0.14595905
150	0xbe0da72a	-0.138333
151	0xbd953d40	-0.07287073
152	0xbd7de875	-0.061989266
153	0x3d9f85a5	0.077891625
154	0xbe1b793a	-0.15182963
155	0xbdb58f31	-0.08865202
156	0xbe03c71a	-0.1286892
157	0xbd6f34ce	-0.058399968
158	0x3d464dc6	0.048414014
159	0xbe0cf064	-0.13763577
160	0xbe0e1494	-0.13875037
161	0xbd230aa7	-0.03980508
162	0xbe16eb18	-0.14738119
163	0x3d5e3ee9	0.054259215
164	0xbd2a610c	-0.041596457
165	0xbe05bfed	-0.13061495
166	0xbc6150f7	-0.013752214
167	0xbdb8d3d4	-0.09024778
168	0xbd95c968	-0.07313806
169	0xbe8bb8e5	-0.272895
170	0x3bd9e9ad	0.006650171
171	0x3c85b7ca	0.016322989
172	0xbc9be96a	-0.019032199
173	0x3e0b144f	0.13581966
174	0x3edf0ffc	0.43566883
175	0xbd687a07	-0.056757
176	0x3ef43cf7	0.47702762
177	0x3d4f2aea	0.050578035
178	0x3ee04c7a	0.43808347
179	0xbb64432b	-0.0034830074
180	0x3d84328f	0.06454956
181	0x3ed188fa	0.40924817
182	0x3e85f2a4	0.26161683
183	0xbd5ae29c	-0.053438768
184	0x3c0643d1	0.00819488
185	0xbe14e6ed	-0.14541216
186	0x3de39f83	0.11114409
187	0x3e0c3c28	0.13694823
188	0x3e9e40d3	0.30908832
189	0x3e326162	0.17419961
190	0x3e7de533	0.24794464
191	0x3fa11f7b	1.2587732
192	0x3dd00331	0.10156859
193	0x3f40bc7a	0.7528759
194	0x3eaf8b89	0.34286144
195	0xbe56fafa	-0.20994177
196	0xbe2344a3	-0.15944152
197	0x3cede26f	0.029038636
198	0x3e75bdbe	0.23998162
199	0xbee5a5fd	-0.44853202
200	0x3e3f2e29	0.18669952
201	0xbb70a192	-0.0036717397
202	0x3e4fcbb9	0.20292558
203	0x3ed1e04c	0.40991437
204	0x3f11ff69	0.5703035
205	0x3c6b6be9	0.0143689895
206	0x3dbde7ab	0.09272703
207	0xbe1c69e2	-0.15274766
208	0x3f3a69cf	0.728177
209	0xbedc27e9	-0.429992
210	0x3e171062	0.14752343
211	0xbf216c0e	-0.63055503
212	0xbf7d3fe7	-0.9892563
213	0xbc1f67e0	-0.009729356
214	0x3ea9d954	0.3317362
215	0x3e757145	0.2396899
216	0xbe682579	-0.22670545
217	0x3d768761	0.0601877
218	0xbeda4267	-0.42628786
219	0x3d84273b	0.06452795
220	0x3d21fade	0.039545886
221	0xbd26ee99	-0.04075489
222	0x3df2eb53	0.11861291
223	0x3ee33ef7	0.44383976
224	0x3e431474	0.19050771
225	0x3f0b024d	0.54300386
226	0x3e8b01d5	0.27149835
227	0x3e78f2d1	0.24311377
228	0xbecfc299	-0.40578154
229	0x3e8f3b13	0.27974758
230	0xbe41b9e5	-0.1891857
231	0x3e87fbaa	0.26559192
232	0xbe1c5afd	-0.15269084
233	0x3ecdcb81	0.40194324
234	0x3e149a16	0.14511904
235	0x3f3ec4fd	0.7451933
236	0x3b8a8b39	0.0042280224
237	0x3ebbf717	0.36711952
238	0x3e460fec	0.19342011
239	0x3ed04262	0.40675646
240	0x3dd47d71	0.103754885
241	0x3ed7ce50	0.4214959
242	0xbd980565	-0.07422904
243	0x3f0ff36b	0.562308
244	0xbe95b47b	-0.29239258
245	0xbeb0e3dd	-0.34548846
246	0x3f42b9b3	0.76064605
247	0x3ebe3a74	0.3715397
248	0xbdb4f00b	-0.08834847
249	0x3e9c68f4	0.30548823
250	0xbf4fb91f	-0.8114185
251	0x3e9b236e	0.30300468
252	0x3e84c691	0.25932744
253	0xbe2d407a	-0.16919127
254	0x3dff2a5c	0.12459251
255	0x3b349f90	0.0027560927

fc1.bias f4 [50]
0	0x3d0cfc90	0.03442055
1	0xbdc8d25b	-0.09805747
2	0xbde2ebe5	-0.110801496
3	0xbdbfeadf	-0.0937097
4	0x3e210ce6	0.15727577
5	0x3d9894db	0.07450267
6	0xbcbd86ba	-0.023135532
7	0xbc405d79	-0.011741036
8	0x3dda28ab	0.10652288
9	0xbd820160	-0.063479185
10	0x3ddde6d9	0.10835046
11	0x3c38f1e9	0.011288145
12	0x3e8a2a96	0.26985615
13	0xbcdde02f	-0.027084438
14	0xbdd37456	-0.10324924
15	0xbd9b5f3c	-0.07586524
16	0x3cfd0cbd	0.030889863
17	0xbccda4b9	-0.02510296
18	0x3dab6a3f	0.08369874
19	0x3e025179	0.12726392
20	0x3e3bb8e0	0.18332243
21	0x3dbe07ea	0.09278853
22	0x3b551b49	0.0032517484
23	0xbc8a71ef	-0.01690003
24	0xbe17ff6b	-0.14843528
25	0x3e0e9b38	0.13926399
26	0x3e33f7be	0.17574975
27	0x3e5547a5	0.20828111
28	0x3bf3997f	0.0074340696
29	0x3e2cbf35	0.16869815
30	0x3db43293	0.08798709
31	0xbd83e504	-0.06440166
32	0x3dce842c	0.100838035
33	0xbdad2aec	-0.08455452
34	0xbdb5476b	-0.088515125
35	0x3e072600	0.1319809
36	0x3e0fe790	0.14053178
37	0xbe0ad848	-0.13559067
38	0x3dd03ad5	0.10167471
39	0x3e1fd761	0.15609504
40	0xba0700ea	-0.00051499775
41	0x3d660cf3	0.056164693
42	0x3bc68f64	0.006059574
43	0x3e005f82	0.12536433
44	0x3dabfcf2	0.08397855
45	0x3e075401	0.13215639
46	0x3d4a69b9	0.04941723
47	0x3c052cbb	0.00812834
48	0x3c886dd0	0.016653925
49	0x3df2aa76	0.11848919

fc2.weight f4 [30, 50]
0	0x3e02a6b0	0.12758899
1	0xbe584c31	-0.21122815
2	0xbe01dd26	-0.12682018
3	0xbd3e29ce	-0.046426587
4	0xbded1fde	-0.11578344
5	0xbca9243f	-0.020647166
6	0xbec2a283	-0.38014612
7	0xbdb45f15	-0.08807198
8	0x3db9bbfb	0.090690576
9	0x3e92463b	0.28569207
10	0x3f1224e8	0.57087564
11	0x3c9b6ce0	0.018972814
12	0xbeb2fb14	-0.34957182
13	0xbd9cca6b	-0.07655796
14	0x3e537e2a	0.20653597
15	0x3ebfa484	0.37430203
16	0xbe438f33	-0.19097595
17	0x3ef551ef	0.47914073
18	0xbd03be61	-0.03216398
19	0xbd8af601	-0.06785203
20	0xbd4d93af	-0.05018967
21	0xbf08876a	-0.53331625
22	0x3d463a3e	0.048395388
23	0x3e15933d	0.14606948
24	0x3e8d461a	0.27592546
25	0xbd7db0d7	-0.061936226
26	0x3ecb26f4	0.39678156
27	0x3e95839f	0.2920198
28	0x3d41eed5	0.04734691
29	0xbeb5cfd6	-0.3551013
30	0x3ea16d13	0.3152853
31	0xbd26a991	-0.040689055
32	0xbe4121fe	-0.18860623
33	0x3d121778	0.035666913
34	0xbde107f0	-0.10987842
35	0x3ec0fbdc	0.37692153
36	0x3d6caecf	0.057783898
37	0x3f0f3385	0.5593799
38	0x3e12ce4b	0.14336507
39	0x3e85d4bf	0.26138875
40	0x3db1008e	0.08642684
41	0x3d704bb8	0.05866596
42	0xbe28a33d	-0.1646852
43	0xbe461db7	-0.19347273
44	0x3e334ceb	0.1750981
45	0xbdb0ed6e	-0.08639036
46	0x3e8ef9f1	0.27925065
47	0xbe0747e0	-0.13211012
48	0x3e87d9dd	0.26533404
49	0x3ea7dc45	0.3278524
50	0x3e4ff969	0.20309986
51	0x3e9fbd8c	0.311993
52	0xbda1a7a8	-0.07893306
53	0xbd4d1945	-0.050072927
54	0xbef3a0da	-0.47583658
55	0x3d70cf84	0.058791652
56	0xbed7d7e7	-0.42156908
57	0xbe772577	-0.24135385
58	0xbdc82897	-0.09773367
59	0x3e8af778	0.2714193
60	0x3ececffb	0.40393052
61	0x3e6389b6	0.22220501
62	0xbf243b38	-0.6415286
63	0x3d9b8e76	0.07595532
64	0x3ea31857	0.31854507
65	0x3efb128f	0.49037597
66	0xbd3db7f2	-0.046318002
67	0x3edb442d	0.42825451
68	0xbebc8efc	-0.36827838
69	0x3eb8e019	0.36108473
70	0xbdfb94fa	-0.122842744
71	0xbed79906	-0.42108935
72	0x3e96997c	0.29413974
73	0xbeac1ae4	-0.33614266
74	0x3d9b66e4	0.07587984
75	0xbda63e13	-0.081173085
76	0xbd84e30c	-0.06488618
77	0x3df1315e	0.11776994
78	0x3e5c9f7d	0.21545215
79	0xbf2dfc14	-0.67962766
80	0xbc09c2c6	-0.008408254
81	0x3ea0ff87	0.31444952
82	0xbd99a61b	-0.07502385
83	0xbd82a7b3	-0.06379642
84	0x3df94320	0.12171006
85	0x3d32ef3a	0.043685175
86	0xbf124042	-0.571293
87	0x3f8ef229	1.1167651
88	0x3cee134c	0.029061936
89	0xbe9069dc	-0.28205764
90	0x3e140979	0.14456739
91	0xbc455f19	-0.012046599
92	0xbce186cd	-0.027530098
93	0xbed24d53	-0.4107462
94	0x3e8d2574	0.27567637
95	0xbd59c5d3	-0.053167176
96	0xbd3d3335	-0.046191413
97	0x3e34c59d	0.17653508
98	0x3e6bbb0b	0.2302057
99	0x3db58037	0.08862346
100	0x3a8ad35f	0.0010591558
101	0xbe9e8c09	-0.30966213
102	0xbe0116fc	-0.12606424
103	0xbd0341b5	-0.032045085
104	0x3e6eb20a	0.23310104
105	0xbda75205	-0.08169941
106	0x3e83abc3	0.2571698
107	0x3f0f5712	0.55992234
108	0xbe1bd7bf	-0.1521902
109	0x3d732acb	0.059366982
110	0x3f3d7f26	0.7402214
111	0xbe657812	-0.22409084
112	0xbd4192e4	-0.047259226
113	0xbca12e75	-0.019675473
114	0xbc2a6b38	-0.0104015395
115	0x3e714189	0.23560156
116	0xbea1df7c	-0.31615818
117	0x3e632429	0.22181763
118	0xbe0b2511	-0.13588358
119	0x3cb9e6f7	0.02269314
120	0x3f265bc0	0.6498375
121	0xbe84427c	-0.25831974
122	0xbe07a355	-0.132459
123	0xbe5c610c	-0.21521395
124	0xbdb2f36b	-0.087378345
125	0x3e052719	0.13003196
126	0x3f916623	1.1359295
127	0x3e26c36d	0.16285487
128	0x3e3a9d7c	0.18224138
129	0x3fa8a611	1.317568
130	0x3d2f8c67	0.042858507
131	0x3f14709b	0.5798432
132	0xbe10c66c	-0.14138192
133	0xbd29d05a	-0.041458465
134	0xbe0ca9c8	-0.13736641
135	0x3e1d885b	0.15384047
136	0xbd475d3e	-0.048672907
137	0x3f5b72c3	0.8572199
138	0x3e6a2c7f	0.22868536
139	0xbe718a10	-0.23587823
140	0x3dd10d29	0.10207588
141	0x3dd26338	0.10272831
142	0xbb608a98	-0.0034262296
143	0x3e4fe920	0.20303774
144	0x3e31f4d1	0.17378546
145	0x3f0f0a5d	0.5587519
146	0xbdfb60c8	-0.12274319
147	0xbe92e27a	-0.28688413
148	0x3e702982	0.23453334
149	0x3e3ad4d8	0.18245256
150	0x3e6f10a0	0.23346186
151	0x3d840dc8	0.06447941
152	0x3c9796f9	0.018504607
153	0xbd907f2c	-0.07055506
154	0x3ee80847	0.45318815
155	0xbe720f00	-0.23638535
156	0x3f1e931d	0.6194323
157	0x3eb5f819	0.35540846
158	0x3c8bd9bf	0.017071603
159	0xbe3b1f20	-0.18273592
160	0x3c97d5cc	0.018534563
161	0x3dce6037	0.10076945
162	0x3f2ec014	0.6826184
163	0xbe30a517	-0.17250477
164	0xbc9c86bc	-0.019107215
165	0xbea9dad5	-0.33174768
166	0x3d02d04c	0.03193693
167	0xbe15b306	-0.14619073
168	0x3d3edeba	0.046599127
169	0xbe5b3910	-0.21408486
170	0x3e772f34	0.241391
171	0x3f398985	0.72475463
172	0xbe61d0c1	-0.2205229
173	0xbdca6188	-0.09881884
174	0x3c054e86	0.008136397
175	0x3e6fb5c8	0.23409188
176	0x3f244ea3	0.6418249
177	0xbd9ec0bc	-0.07751605
178	0xbd301059	-0.04298434
179	0x3e8e3434	0.27774203
180	0x3e348d6b	0.17632072
181	0x3d03fb96	0.032222353
182	0xbbf072a0	-0.007337883
183	0x3e2ac3d9	0.16676272
184	0xbe5402ca	-0.20704189
185	0x3df3475f	0.11878847
186	0x3f4a7b25	0.79094154
187	0xbfc209cd	-1.5159241
188	0x3e887ebe	0.26659197
189	0xbe975e8a	-0.29564315
190	0x3dd0ba36	0.10191767
191	0x3da7e88d	0.081986524
192	0xbdc4bbb4	-0.09606114
193	0x3ea396e8	0.3195107
194	0x3e5d8c1f	0.21635483
195	0x3e373c76	0.17894158
196	0xbcc88a4d	-0.02448001
197	0x3c17ac47	0.009257383
198	0x3e37342c	0.17890996
199	0x3e1ef635	0.15523608
200	0xbe421a58	-0.18955362
201	0xbd446cb2	-0.047955222
202	0xbd93d960	-0.07219195
203	0x3e127800	0.14303589
204	0x3eeca8dc	0.4622258
205	0x3d5c517c	0.053788647
206	0x3f223a75	0.6337045
207	0x3f23c8b2	0.6397811
208	0x3ea73f17	0.3266532
209	0xbea50855	-0.3223292
210	0x3f037dd1	0.51363856
211	0xbd9ff512	-0.07810415
212	0x3dd9bcab	0.10631689
213	0xbe21280c	-0.15737933
214	0xbcbfd4ac	-0.02341684
215	0xbec71e96	-0.38890523
216	0x3e741b81	0.23838617
217	0xbefe6199	-0.49683836
218	0x3e88f5a4	0.2674991
219	0x3e907962	0.28217608
220	0x3f65f897	0.89832443
221	0xbd577f70	-0.05261177
222	0xbca09391	-0.019601615
223	0xbc2d1809	-0.010564812
224	0xbe400b7f	-0.18754385
225	0x3f1c1bad	0.6097973
226	0x3f3d629e	0.739786
227	0x3dde0f2b	0.10842737
228	0xbdfec4d3	-0.12439885
229	0x3f49213f	0.78566355
230	0x3d2f1e7d	0.042753685
231	0x3d8006ba	0.06251283
232	0x3cd83daa	0.026396591
233	0x3cf96455	0.03044335
234	0xbe5703ad	-0.20997496
235	0x3e973071	0.29529145
236	0x3d1435af	0.03618401
237	0xbe8ba1d0	-0.2727189
238	0x3e2f5bfe	0.17124936
239	0xbb062e8a	-0.0020474517
240	0xbeada9f0	-0.33918715
241	0x3ce52372	0.027971003
242	0x3e1b1166	0.15143356
243	0x3eba6384	0.3640405
244	0xbeaf47b6	-0.342344
245	0x3ee0b10d	0.4388508
246	0xbe351dc4	-0.17687136
247	0x3d4b1217	0.0495778
248	0x3cd86a87	0.026417984
249	0xbdd55372	-0.104163066
250	0x3d78b131	0.060715858
251	0xbe1f1c60	-0.15538168
252	0x3df57b04	0.11986354
253	0x3cc00746	0.023440968
254	0x3dc4daf9	0.09612078
255	0xbd67eaa7	-0.056620266

fc2.bias f4 [30]
0	0x3d8b89a8	0.06813365
1	0xbca27335	-0.019830326
2	0x3dd52cce	0.104089364
3	0x3da85a61	0.082203634
4	0x3d65c3b9	0.05609486
5	0xbd51eb8a	-0.05125002
6	0x3e0814e7	0.13289224
7	0x3d45715b	0.048203807
8	0x3e649def	0.22325872
9	0xbd857cfd	-0.0651798
10	0xbdc6a5e5	-0.096996106
11	0xbd74bc62	-0.05974997
12	0x3daa4238	0.083134115
13	0x3dbcd5b4	0.09220448
14	0x3cf11999	0.029431151
15	0x3d6519ce	0.055932812
16	0x3d5aa30d	0.053378154
17	0x3d51aacb	0.05118827
18	0x3c2b77c3	0.010465565
19	0x3ddac4b2	0.10682048
20	0x3c9c906b	0.019111833
21	0xbd818555	-0.06324259
22	0x3e0ccbd4	0.1374963
23	0xbddb4a1f	-0.10707497
24	0x3df3a07a	0.11895843
25	0x3ea1b7b0	0.31585455
26	0x3dcac481	0.099007614
27	0x3ccb39c8	0.024807826
28	0x3e5c1f9a	0.2149643
29	0xbe0c9b60	-0.13731146

fc3.weight f4 [20, 30]
0	0x3e4dd4f7	0.20100771
1	0x3f0c465e	0.5479487
2	0x3e8f6c0a	0.28012115
3	0xbeae80ff	-0.3408279
4	0xbe096e26	-0.13420925
5	0x3e0d6535	0.13808139
6	0xbec4d6e8	-0.3844521
7	0x3ee73884	0.45160306
8	0xbe9e7f27	-0.30956385
9	0xbd1b94e1	-0.03798378
10	0x3e2d5532	0.1692703
11	0x3e75eef0	0.24016929
12	0x3d1271c5	0.03575303
13	0x3ea90bdc	0.3301686
14	0x3e10f79b	0.14156954
15	0x3e031899	0.12802352
16	0xbdec4883	-0.11537268
17	0x3e2c8b20	0.16849947
18	0xbdc922f2	-0.098211184
19	0xbe10d68d	-0.14144345
20	0x3eab03ce	0.3340134
21	0x3d62f5f0	0.055410326
22	0x3e6f138e	0.23347303
23	0xbdb7d046	-0.08975272
24	0xbddc6ce5	-0.107629575
25	0xbe61bf2e	-0.22045586
26	0x3e2cdb81	0.16880609
27	0xbd07dd0b	-0.033169787
28	0x3f155969	0.58339554
29	0x3e7fe9d5	0.24991544
30	0x3eb77f25	0.3583919
31	0x3e356981	0.17716028
32	0xbdf69ad2	-0.120412484
33	0x3e3f8706	0.18703851
34	0xbc899c3b	-0.01679813
35	0x3e0ef489	0.1396047
36	0xbf157f4d	-0.5839737
37	0x3e0325bc	0.12807363
38	0xbe2b94df	-0.16756009
39	0x3dafffc6	0.08593707
40	0x3d901230	0.07034719
41	0xbea3b9dc	-0.31977737
42	0x3ea2e837	0.3181779
43	0x3fdcad2a	1.7240345
44	0x3df7491d	0.12074492
45	0xbec007cb	-0.37505946
46	0x3bfb9456	0.007677595
47	0x3ebaec2a	0.36508304
48	0xbdd76227	-0.10516768
49	0x3eb27d9a	0.3486145
50	0xbf0d5a62	-0.5521604
51	0xbcef0d6d	-0.029181207
52	0x3fc9cfc6	1.5766532
53	0xbee55410	-0.44790697
54	0xbda93255	-0.08261553
55	0x3ebf3ded	0.37351933
56	0xbe533629	-0.20626129
57	0xbe871207	-0.2638094
58	0x3ee0635e	0.4382581
59	0xbedf221e	-0.43580717
60	0xbde6d25a	-0.1127059
61	0x3e6ebfd9	0.23315372
62	0xbe43b291	-0.19111086
63	0x3cdab8ff	0.026699541
64	0xbe2ce510	-0.16884255
65	0x3dfac48c	0.122445196
66	0x3ebdfa06	0.37104815
67	0x3e75c050	0.23999143
68	0xbd75a0fc	-0.05996798
69	0x3dba152d	0.0908607
70	0x3dba793b	0.09105154
71	0x3ea16058	0.31518817
72	0xbde406ad	-0.11134086
73	0xbe5de7d6	-0.2167047
74	0xbdf8baa8	-0.12144977
75	0x3e9b12cb	0.30287775
76	0x3ed9e0da	0.4255436
77	0x3e134f93	0.14385824
78	0x3d38acbb	0.045086604
79	0xbe8915ad	-0.2677435
80	0x3e4e8779	0.20168866
81	0x3e1e7f22	0.15478185
82	0xbe96a97b	-0.29426178
83	0x3ee9a7bc	0.45635784
84	0x3ee9253c	0.4553622
85	0x3da120c0	0.07867575
86	0x3ef7a7eb	0.483703
87	0x3d4672d5	0.048449356
88	0xbde0206f	-0.10943686
89	0x3e85b7b8	0.2611673
90	0xbea207c0	-0.31646538
91	0xbed1cf75	-0.4097859
92	0x3f9e2049	1.2353603
93	0x3e80a657	0.25126907
94	0x3e8e7672	0.27824742
95	0xbc6fa4d8	-0.014626704
96	0x3f22b3a1	0.6355534
97	0xbe6e7897	-0.23288189
98	0x3de58214	0.11206451
99	0x3e4fd40b	0.20295732
100	0x3df92c5d	0.12166665
101	0xbeb4ebba	-0.35336095
102	0xbbd66155	-0.0065423646
103	0x3ec4f01d	0.38464442
104	0x3e581754	0.21102649
105	0xbf1a16a8	-0.6019082
106	0x3ecd8f41	0.40148357
107	0x3d8b3742	0.06797649
108	0x3be93d5d	0.007117911
109	0x3ea27c70	0.31735563
110	0xbf0b287f	-0.5435867
111	0x3d9d7bb5	0.07689611
112	0x3eb01d2f	0.34397265
113	0xbf0fc192	-0.5615474
114	0xbf00d105	-0.5031894
115	0xbe0cef03	-0.1376305
116	0xbf197729	-0.5994745
117	0x3de49503	0.11161234
118	0x3ea9ecf5	0.33188596
119	0xbf296f35	-0.66185313
120	0xbda55251	-0.08072341
121	0xbd95b119	-0.07309169
122	0xbdbc6ee2	-0.09200837
123	0xbdc47ce3	-0.09594133
124	0xbd0680dc	-0.032837734
125	0x3df42ad6	0.11922233
126	0xbd088f39	-0.033339713
127	0x3e07140f	0.13191245
128	0xbdc1eeb6	-0.094693586
129	0xbe3793fb	-0.17927544
130	0xbe2f45cc	-0.17116469
131	0x3d02cafa	0.031931855
132	0x3e133b19	0.14378013
133	0xbe2ab7df	-0.16671704
134	0x3d9b4ab5	0.075826086
135	0xbc8b580b	-0.017009756
136	0xbd6b8a11	-0.057504717
137	0xbe252f4c	-0.16131324
138	0x3de2a342	0.11066295
139	0xbcc4dd98	-0.024031445
140	0xbc66a9e3	-0.01407859
141	0x3d2b4d3a	0.041821696
142	0xbc607c3d	-0.013701496
143	0xbc27eace	-0.010248853
144	0xbdeef893	-0.116685055
145	0x3d2d3f4c	0.042296693
146	0xbe179eba	-0.14806643
147	0xbdff62a8	-0.12469989
148	0xbe150ad2	-0.14554909
149	0xbc28e7a0	-0.01030913
150	0xbe6b84be	-0.22999856
151	0xbd98e40c	-0.074653715
152	0x3e07b947	0.13254271
153	0xbe15a207	-0.1461259
154	0x3d3e728c	0.04649596
155	0xbe24d042	-0.16095069
156	0xbdcf652d	-0.101267196
157	0xbcfbbb5a	-0.030728985
158	0xbe537f1f	-0.20653962
159	0xbd72f0ea	-0.059311785
160	0xbe3cb452	-0.18428162
161	0xbdaa2648	-0.08308083
162	0xbcb8f0c2	-0.02257574
163	0x3de0958e	0.10966025
164	0xbd2aaf52	-0.041671105
165	0x3c97efcc	0.018546961
166	0xbdae4c42	-0.08510639
167	0xbe62763f	-0.2211542
168	0x3dd81bcf	0.10552179
169	0xbd55f25c	-0.052233085
170	0xbe15fe2b	-0.14647739
171	0x3d854ee9	0.065091915
172	0xbdb7f5ff	-0.08982467
173	0xbe21cd0e	-0.15800878
174	0x3c37eb2d	0.011225504
175	0x3cd47445	0.025934348
176	0xbe0468ca	-0.12930599
177	0xbe470c55	-0.19438298
178	0xbe54aa4e	-0.20768091
179	0x3d362afc	0.044474587
180	0xbd1142fb	-0.03546427
181	0x3da41e5b	0.08013602
182	0xbe16d813	-0.14730863
183	0xbdbc3392	-0.09189524
184	0x3de80d88	0.11330706
185	0xbe00086e	-0.12503216
186	0xbe07be43	-0.13256173
187	0x3e141323	0.14460425
188	0xbe2d87e3	-0.16946368
189	0xbdbe09c8	-0.092792094
190	0xbdbb4373	-0.09143724
191	0xbd965845	-0.07341055
192	0xbddf2f63	-0.1089771
193	0x3dad86af	0.084729545
194	0xbde0dc0c	-0.109794706
195	0xbbab4a64	-0.005227374
196	0x3d59cfbb	0.053176623
197	0xbd8ca2e5	-0.06867007
198	0xbd2e8144	-0.042603746
199	0xbdee5077	-0.11636441
200	0xbe2460a9	-0.16052498
201	0x3b935257	0.0044958997
202	0x3dba7fe7	0.09106427
203	0xbdd2d46a	-0.10294421
204	0x3cfc54e2	0.030802194
205	0x3d8313c0	0.064002514
206	0xbc51aab0	-0.012797043
207	0xbdcebe91	-0.100949414
208	0x3df83928	0.12120277
209	0xbc1b6dfd	-0.0094866725
210	0x3dcb4ede	0.09927152
211	0x3ecd6c4a	0.4012168
212	0x3e540c6b	0.20707862
213	0x3dbdd403	0.09268954
214	0xbf33c5c6	-0.70223653
215	0xbe018837	-0.12649618
216	0xbf7af69e	-0.9803256
217	0x3eaf0e93	0.34190807
218	0xbc52bb07	-0.012861974
219	0x3ec1cc01	0.37850955
220	0x3dabb161	0.08383442
221	0xbdaf1a5d	-0.0854995
222	0x3e1de68c	0.15419978
223	0xbe51e9ad	-0.20499296
224	0xbd76850e	-0.060185485
225	0x3e5a7523	0.21333747
226	0xbe9c7fd2	-0.3056627
227	0x3e58ce74	0.21172506
228	0xbe4560fd	-0.1927528
229	0x3db06033	0.086120985
230	0xbe0d1b89	-0.13780035
231	0x3e2c579d	0.16830297
232	0xbe12d0ee	-0.14337513
233	0x3e81d708	0.25359368
234	0x3e01365c	0.12618393
235	0x3f1ee65b	0.62070245
236	0x3e8206d2	0.25395828
237	0xbdc4deab	-0.09612783
238	0x3eb93ec3	0.36180696
239	0x3ea4d7bd	0.32195845
240	0x3eb1f698	0.3475845
241	0x3eb3512c	0.35022867
242	0x3f15a816	0.58459604
243	0x3d880b02	0.066427246
244	0x3e070a01	0.1318741
245	0x3e241736	0.1602448
246	0xbe5e80ac	-0.21728772
247	0x3e1a94d3	0.15095834
248	0x3c2b9dd7	0.010474644
249	0x3e7a2681	0.2442875
250	0x3ee7a71b	0.4524468
251	0x3eb74760	0.35796642
252	0x3e25b37e	0.16181752
253	0x3efe0545	0.49613395
254	0x3e77509d	0.24151845
255	0xbea7fb74	-0.3280903

fc3.bias f4 [20]
0	0x3ea2bacf	0.3178315
1	0x3d469184	0.04847862
2	0xbdfa815a	-0.12231703
3	0xbe048396	-0.12940821
4	0xbe09c40a	-0.13453689
5	0x3dede7c5	0.11616472
6	0xbe08f41b	-0.13374369
7	0xbd8943f5	-0.06702415
8	0x3de7b267	0.113133244
9	0x3df47963	0.11937215
10	0x3d825681	0.063641556
11	0x3db7f502	0.089822784
12	0xbe61f7e1	-0.22067215
13	0x3d02312a	0.031785168
14	0x3de52ebd	0.11190555
15	0x3df768ab	0.12080511
16	0xbd818f4e	-0.06326161
17	0x3e7156a1	0.23568203
18	0xbe17405f	-0.1477065
19	0xbd620283	-0.055178177

fc4.weight f4 [5, 20]
0	0xbda92a4e	-0.08260022
1	0xbedda1f8	-0.43287635
2	0x3cad18ed	0.02113005
3	0x3e47a39e	0.19496009
4	0x3db687fc	0.08912656
5	0xba7d65e5	-0.00096663676
6	0xbcd1ad63	-0.025595373
7	0xbe834136	-0.2563569
8	0xbd653368	-0.055957228
9	0x3ebbbf83	0.3666955
10	0x3e19d350	0.15022016
11	0xbf3d4cc2	-0.7394525
12	0x3eb285a4	0.34867585
13	0x3cda1bd3	0.026624596
14	0x3c5f9a71	0.013647662
15	0xbd6fe579	-0.05856845
16	0x3e1e58b8	0.15463531
17	0xbf5663c2	-0.8374597
18	0xbe835890	-0.25653505
19	0xbe17c802	-0.1482239
20	0xbfa0cbc1	-1.2562181
21	0xbeb1561f	-0.34636018
22	0x3e7d15e4	0.24715382
23	0xbeed25dc	-0.46317947
24	0xbe55d71d	-0.2088284
25	0x3da68776	0.08131306
26	0x3e33688f	0.17520355
27	0xbe373c12	-0.17894009
28	0xbf05fa5f	-0.5233516
29	0x3e101782	0.14071468
30	0x3e1cd4ed	0.153156
31	0xbdf5499d	-0.11976931
32	0xbf4e9865	-0.80701286
33	0xbf8aac9a	-1.0833924
34	0xbd841773	-0.06449785
35	0x3d04f9f5	0.03246494
36	0x3e71cc8b	0.23613183
37	0xbe9b0f9b	-0.30285344
38	0x3df43f16	0.11926095
39	0xbe311f1d	-0.17297025
40	0x3e0b5a99	0.13608779
41	0xbe83b892	-0.25726753
42	0x3ecf61d5	0.40504327
43	0xbe969997	-0.29414055
44	0xbe507a7f	-0.20359229
45	0xbdf575a2	-0.11985327
46	0xbd71c8fa	-0.059029557
47	0x3e8ed2fc	0.27895343
48	0xbd9cb175	-0.07651035
49	0xbf9c5672	-1.2213881
50	0xbd71b8ed	-0.05901425
51	0x3ec75f13	0.38939723
52	0x3d600e66	0.05470123
53	0x3e216fab	0.15765254
54	0xbf8c369c	-1.0954165
55	0xbf274002	-0.65332043
56	0x3e1d8266	0.15381774
57	0xbf3b1ba3	-0.73089045
58	0x3cb9f207	0.022698415
59	0x3e217d27	0.15770398
60	0xbeaca38b	-0.33718523
61	0x3e353e06	0.17699441
62	0xbe34790f	-0.17624305
63	0xbef917cc	-0.48650968
64	0x3dd7e5fe	0.105419144
65	0xbd5165de	-0.05112254
66	0xbe582038	-0.2110604
67	0x3e68dbce	0.22740099
68	0xbec6b532	-0.38810116
69	0x3ec2a3bb	0.3801554
70	0xbe67f84d	-0.22653313
71	0x3e46c0fa	0.19409552
72	0xbf33112b	-0.6994807
73	0xbda1f480	-0.07907963
74	0xbd7ff211	-0.062486712
75	0x3e192509	0.14955534
76	0xbf2faa19	-0.68618923
77	0x3ebedc7f	0.372776
78	0xbf3571ca	-0.70876753
79	0xbe170c0f	-0.14750694
80	0x3e2d1651	0.16903044
81	0x3e72a863	0.23697047
82	0xbfb349e9	-1.400693
83	0x3ea6fa9c	0.32613075
84	0xbcb88744	-0.022525437
85	0xbd21d417	-0.039508905
86	0x3cf66861	0.030079069
87	0xbf6adfeb	-0.9174792
88	0x3e9512ee	0.29116005
89	0xbf5576b2	-0.8338424
90	0xbe307479	-0.17231931
91	0xbf2c72f2	-0.6736289
92	0x3f073ced	0.5282734
93	0x3ebc4500	0.36771393
94	0x3e00ce6a	0.1257874
95	0x3ce351bd	0.027748937
96	0xbd8987ee	-0.0671538
97	0x3dddb541	0.10825587
98	0x3eadcf65	0.33947292
99	0xbe37c50c	-0.17946261

fc4.bias f4 [5]
0	0xbc2bf445	-0.01049525
1	0xbea98449	-0.33108738
2	0xbe24342a	-0.16035524
3	0xbeaa0e82	-0.33214194
4	0xbf09d807	-0.53845257
