Sample_Based_Extension/WUSTL/WUSTL_Defense/RGAN/RGAN.pt (torch, 20572 bytes, 8 tensors)

fc1.weight f4 [50, 42]
00000000: 5a9f e3bd 438d f6bd 97b3 21bf 724e e5bd
00000010: 9f71 42bd c2b7 7d3d f4a9 49be ddce 9dbc
00000020: c134 31be c09e 7bbe 1f79 423e 0afc 36bc
00000030: 7a07 a43c de9b 2b3e 5c26 ceba 9de9 bd3e
00000040: f247 b83d c388 29bd 7a15 db3d ac8a 183e
00000050: b4dd 94be fa2d c6bd 97e2 09be 5750 233e
00000060: dd22 22bd 4f34 503d 4ea0 cf3d ec94 7c3d
00000070: 566a aebc af2e e93c 42f1 9bbc 5844 063f
00000080: 3f70 55be a48d ba3e 2ab8 913c c539 06be
00000090: bd8a 1fbc 7638 c7bd 82f0 be3d 13ab 833d
000000a0: a926 84bd ea03 17be 3aeb 663e e731 7e3d
000000b0: 8aac fabd 9fa0 1abe f29e fdbb 4f97 f13d
000000c0: d0bf cdbc a225 093e 1939 e8bd 9136 8c3c
000000d0: d0b6 5f3e 8fc7 163e d3f9 22be 949e b73e
000000e0: a3ab 8abd f17b 33bd 6ece 18be 2394 21bd
000000f0: f081 90be c640 71bd 7122 b1bc 872c 3e3e
00000100: c5d2 bcbd 6a0d d33e 3b8a 59bd 0278 31be
00000110: 2b2a 283e 17ae 0dbe 7599 d7bd fbda 81bd
00000120: 3f45 60be 4a58 5e3e 03e2 833e f99d e8bc
00000130: ee64 81bd b6f3 393e 516f d13d b311 8ebd
00000140: 35f6 ecbd d409 67bc 00f3 d73d f4de 07bf
00000150: 1284 72bd f6ad 1e3d bcdc 82bd 78e7 0c3e
00000160: 12da 00be feb8 82bd d892 11be 31d8 0abe
00000170: f82c 72bd 42d0 c7bc 6eba a63c 7a0f 1abe
00000180: e376 b43b 4b44 7cbd 9826 cfbc b368 bebc
00000190: 637f c5bc 7fcd 0c3d dd0b 17bd 02a7 0ebe
000001a0: 922a 6f3d dd1c 7bbc b2c8 f5bd d956 c83d
000001b0: e032 4abd a35c e9bd fba7 18be c506 103d
000001c0: 700b 8ebb 07a3 74bc d098 17be 3b1f fd3d
000001d0: 5219 483b 3557 233d 0358 6f39 4416 13be
000001e0: 510e f53d e6cb 13be 3474 0cbe 8bb8 b4bc
000001f0: 3fce 4bbd 7a1e c23c e5be 973d 897e 39bd
00000200: aacd a73e 4fef 58bd f133 af3d 4575 f63d
00000210: 15b6 f23d 770d 383e 99f6 b1bd ac72 87bd
00000220: 0ecf 83be 8325 44be 2b69 21be 505d 9d3b
00000230: e46c 90be 76ae 72be 0da3 d7bd 2986 d63d
00000240: 1925 1cbe a95c d4bc 248b 233d aa78 4cbd
00000250: 4c51 f1bc 3fdc d73e 677b d0bd 5f8e 8a3d
00000260: 841d 263e 1404 d53d 2940 2d3d 52da 93bc
00000270: 1eb0 373e 51ed f9bd 10a4 4f3e d6f1 23bd
00000280: 379b 713c a2c0 c7bc ac11 053e 28ab 47bd
00000290: 3ad8 0bbd f27d b83d ad7c 833c 7489 01bf
000002a0: 20a9 d83d ed5c ec3b ac0f 72be b459 aa3c
000002b0: 3516 063d ce4f 843d 98e1 a3bd f038 65be
000002c0: f6db d53d afba b13d 216b c43e 6dd7 663e
000002d0: 07e2 93bc a32c 40bb 6877 f63c 1e51 a03d
000002e0: 4f37 053e 9424 0f3e ae14 d33d cb1f 853e
000002f0: c93d 6b3e 62e1 9d3e 3a98 353e 33cd 273e
00000300: b8c0 8d3d 40b9 01bc 73f0 143d 0954 853e
00000310: 4450 453e bce0 27bd 61b7 cb3e ab74 c63e
00000320: 2af8 0e3f 26b1 c23d fc3e 3e3d ce22 b9bd
00000330: 6821 1c3d 37a7 383e fb47 de3e b4ee 093e
00000340: 4420 f0bd db4f b9be 390b 013e 89b1 673b
00000350: ed22 0ebd ac0d 1cbe 9e54 2fbc ccd4 4a3d
00000360: 9066 c3bd 683b 07be 84ad 853d 09c9 0fbe
00000370: 73d7 ec3c 4dd0 51bd 3981 633c a6aa e03d
00000380: 40ed 413d fcf7 c63d d2e0 3dbd d44b de3d
00000390: 1e9e 843d 8faf 14bc 66e3 083e faf2 9a3d
000003a0: d358 88bb 023b 9bbd 11c1 febd 3d46 083b
000003b0: 3ac0 55bc 1750 c8bd 9e31 88bd 8816 2e3e
000003c0: b17f 81bc d089 03bd 332e 3bbe 5730 e43d
000003d0: b120 593d 0800 52bd 73c1 d6bd f4ad 86bd
000003e0: d107 ccbd ee1d 58bc e00c 1c3e c21a ffbd
000003f0: 9c17 633d 961a a83d c6a7 813f 9eeb 9d3e
-0.11114378 -0.12038662 -0.6316466 -0.11196603 -0.04747164 0.061942823 -0.19693738 -0.01926368
-0.1730528 -0.24572277 0.18991517 -0.011168489 0.020023096 0.16758677 -0.0015727985 0.37092295
0.089980975 -0.04139019 0.10697456 0.14896649 -0.29075396 -0.09676738 -0.13465343 0.15948616
-0.03958403 0.050831135 0.101379976 0.06166546 -0.02129094 0.028464643 -0.01903594 0.52448034
-0.208436 0.36436188 0.017788012 -0.13107975 -0.009737668 -0.09727566 0.09323217 0.06429114
-0.06452686 -0.14747587 0.2255067 0.06205931 -0.122399405 -0.15100335 -0.007739895 0.11796438
-0.025115877 0.13393262 -0.113390155 0.017115863 0.21847081 0.14724563 -0.15915613 0.35863173
-0.06771018 -0.04381937 -0.14922497 -0.039447915 -0.28224134 -0.058899663 -0.021622868 0.18571673
-0.092198886 0.41221172 -0.053110342 -0.17330936 0.16422336 -0.13835941 -0.105273165 -0.06340595
-0.21901415 0.21713367 0.2575837 -0.02839564 -0.06318079 0.18159375 0.1022631 -0.069369696
-0.11570398 -0.014101464 0.105443954 -0.53074574 -0.059207983 0.03874012 -0.06389758 0.13760173
-0.12583187 -0.06382941 -0.14216173 -0.13559033 -0.059124917 -0.024391297 0.020352568 -0.15044966
0.0055073365 -0.061588567 -0.025286958 -0.023243284 -0.024108594 0.034375664 -0.036876548 -0.13930896
0.058390208 -0.015326706 -0.1200117 0.0978219 -0.049364924 -0.11394622 -0.1490783 0.035162706
-0.0043348595 -0.014931447 -0.14804387 0.12359472 0.003053267 0.03987809 0.00022825603 -0.14363962
0.11965621 -0.1443325 -0.13716203 -0.022060653 -0.04975724 0.023696173 0.07409457 -0.04528669
0.32774097 -0.052962597 0.08554829 0.12034086 0.11851136 0.17973886 -0.08689613 -0.06613669
-0.25743908 -0.19154935 -0.15762775 0.0048023835 -0.28208077 -0.23699364 -0.10529146 0.10474808
-0.15248527 -0.02592309 0.039927617 -0.04991976 -0.02945771 0.42160222 -0.10179787 0.067654364
0.16222197 0.104011685 0.042297516 -0.01804844 0.17938277 -0.12203468 0.20277429 -0.040025555
0.014746479 -0.024383847 0.12995023 -0.04874721 -0.034141757 0.09008397 0.016050661 -0.5060036
0.10579133 0.007213226 -0.23638791 0.020794727 0.032736022 0.06460534 -0.08002013 -0.22385001
0.10442345 0.08678185 0.38362983 0.22543116 -0.018052114 -0.002932348 0.030086234 0.07827972
0.1300938 0.13978797 0.10306679 0.2600082 0.22972788 0.30836016 0.17733851 0.16386871
0.06921524 -0.007917702 0.036362123 0.26040676 0.192689 -0.040985808 0.39788345 0.38760886
0.5584742 0.09506445 0.046446785 -0.090398416 0.038117796 0.18032537 0.43414292 0.13469964
-0.11724904 -0.36193737 0.12601937 0.0035353622 -0.034701277 -0.1523959 -0.010701327 0.049519345
-0.095410466 -0.13206255 0.06527236 -0.14041533 0.028911328 -0.05122404 0.01388579 0.109700486
0.0473454 0.09715268 -0.046356983 0.10854307 0.06475471 -0.00907506 0.13367996 0.07565875
-0.0041609793 -0.07579614 -0.12439168 0.0020793818 -0.013046319 -0.09780901 -0.06650089 0.17000782
-0.015807958 -0.03211385 -0.18279342 0.111420326 0.053009693 -0.05126956 -0.10486116 -0.06576148
-0.09962428 -0.01319073 0.15239286 -0.124562755 0.055442438 0.08208196 1.0129325 0.30843824

fc1.bias f4 [50]
00000000: f06b 72bd 57d3 303e 8e38 dbbd ac65 cf3b
00000010: 22f4 113e 780f 27be 60c4 4b3e 8c22 a93d
00000020: 3cc8 f83d ca26 903e 2dbf 2bbe aa64 bc3e
00000030: 2af4 173e 789f e5bd 0096 05be ab55 2a3d
00000040: 2196 073c 4476 4f3d 40d8 283e 16c5 9a3e
00000050: c9f7 acbc 3421 22bd 35d7 933e 122d d93b
00000060: 8a4e f13d 4d58 0a3d 81e2 433e a201 b7bd
00000070: 2d38 0f3e 4417 233e ba61 8abc 1217 98bd
00000080: 253b 17bd bb4e 993c ee9a 26be 12eb 753b
00000090: bf01 5cbd ac91 363d b2a9 c83d 5ea4 033c
000000a0: e8da 523e b086 913b 584a 07be 63e1 c23d
000000b0: ed5f 673d 43d6 95bb edbf e9bd 1a17 1a3e
000000c0: 3b60 183e c1e1 03be
-0.05918497 0.1726812 -0.10704146 0.006329259 0.14253286 -0.16314495 0.1989913 0.082585424
0.12147567 0.28154594 -0.16772147 0.3679555 0.14839235 -0.11212057 -0.13045502 0.041585606
0.00827554 0.050649896 0.16488743 0.3022849 -0.021114247 -0.039582446 0.28875127 0.0066276873
0.11782558 0.033775616 0.19129373 -0.08935858 0.13986273 0.15926844 -0.016892303 -0.07426275
-0.03692164 0.0187143 -0.16270038 0.0037524146 -0.053712603 0.044572517 0.09797992 0.008034794
0.20591319 0.004441105 -0.13211954 0.09515645 0.056487966 -0.004572661 -0.1141356 0.15047875
0.14880459 -0.12879087

fc2.weight f4 [30, 50]
00000000: 0974 3d3e 8afd 0fbf 8e12 2bbd fda1 a7be
00000010: a6f8 c4be 49d1 f2bd 8b7b 823e 1521 a43e
00000020: 846d 043e 8994 91be 48c8 ae3e dca9 74be
00000030: ddad 63be aa9b f43e 7375 bcbe 2343 4f3e
00000040: be9c 29be 3a9f d83e b298 7ebe 895f 05bf
00000050: cdd7 f03e 28fc c43e 145d 82be daca 063f
00000060: 724f 4c3e 39b8 0cbe 4b67 c23d fdc9 013f
00000070: a043 debd 7e60 5c3e 8b65 e53e 053b 0fbd
00000080: eba9 6a3e 25f8 e33e 2e94 88be b568 e53d
00000090: bf5c 023e f511 e3bd c5a4 b0be 19ca 923c
000000a0: 4387 51be 3aa8 763e 99d6 8fbe 8756 e03d
000000b0: caf5 b33d ef31 48be e698 143d 8714 163d
000000c0: ac3a 19bf 0e11 013d 82f3 ee3d 459e 8a3e
000000d0: ffec 02be 2347 5b3d d8b4 5e3e 73e2 7cbb
000000e0: 0ff6 1fbf 40dc b73e 769e 783e 40a1 153f
000000f0: 1922 223e 1fde b4be 5c6e 863e 792e 853d
00000100: 412e 763f a965 1d3e 63f1 c53d d001 923e
00000110: 4e7b 7f3e 1f31 183e bc72 9e3e cbb4 193e
00000120: c51f 293e d893 b73d c8c2 f83d bfae 053e
00000130: a141 0b3f 21bf 643e 0bff 22be 5f7a 343e
00000140: 2639 1bbe eb1f 35bd 6140 c53d 719f 8fbe
00000150: ccfc 15bd 568d 453e d25b 473b bd54 c03e
00000160: 3855 7f3e 7529 33be e914 fc3d 1976 81bd
00000170: 5b3e 3d3f 3134 2e3e 9893 a53e fb27 20bd
00000180: 2d5a 243e 5fcb 403e 9ef1 583e ef93 bb3c
00000190: c896 b23e 8f66 43be 1d29 763d cac1 75be
000001a0: 22bd 64be 764d 08bb 01ff 8f3e 8909 9b3e
000001b0: c3f9 273d 6899 08bf 1bec df3e a6d9 3fbe
000001c0: 7c4a c2be c6e6 d23e 9049 ffbe 035e 253e
000001d0: 7e62 0dbe db12 c73e 3ee3 9abe 63f1 14bf
000001e0: 6766 e43e 35d7 c03e d8ab 4fbd e2a3 103f
000001f0: d1c3 383e 2f22 01be cf88 84be f940 fa3e
00000200: 005e a1bc e149 873e 3ffe 983e b40d eabd
00000210: 25b6 a83e fd87 aa3e 1e36 8ebe 00b2 fb3d
00000220: d2c0 6cbc d960 97be 0433 8bbe 0563 b2bd
00000230: f896 f73d bc31 573e 1589 e3be 9e96 8e3d
00000240: 509a 4a3e ff05 55be bd37 983d 980e 213e
00000250: 3f38 0fbf cdd0 093c 8c85 843e a289 153f
00000260: e7e7 c73d be10 083f 20b5 09be b065 7b3c
00000270: 7043 d4be e6da 30bb 5f64 303f befb e23e
00000280: c2b1 57be aea8 15be b09a 343f a139 56bd
00000290: f103 893f 6a48 893c 2281 9cbe 6216 8bbd
000002a0: 7692 9c3d a623 7d3f 8201 613e 4621 3abe
000002b0: 7fe7 2f3e 8d32 82bd 2627 6d3e 8f1f 993d
000002c0: 2b5f 273d 93d2 ef3b 30a5 b73e 7638 d8bc
000002d0: 83b4 3c3e 2272 aebd 0e43 7d3d 0063 03be
000002e0: 819b 233e fc1b 0e3e cf7f 043f d864 e43d
000002f0: fa6c 8d3e b457 123f 9be9 1b3e 38c0 bb3c
00000300: 50fb ae3f c6f5 c03e 4ef3 1d3c 164b 42be
00000310: 61a7 a6bd eb28 27be 566d 833f aa0e 20bd
00000320: e60c 783e 90dd db3d 4990 013e 4878 643d
00000330: a401 c23e ec77 ffbd d9e5 943e e6f2 d13e
00000340: 899d ba3d bae4 103e c5cf d6be 82c9 003f
00000350: 47bf d4bd d77c 94be d3e9 a9be 9fae 4f3e
00000360: ed58 c7ba dbc2 cc3d 10bc c13e 7e40 37bd
00000370: c94f 06bd fe89 44be a1d8 023f 08af 65be
00000380: e9b9 f53c 5057 173e 7b5d 8abe 006d bfbe
00000390: 521a 203d 0fa5 333e a9eb 3cbe ed44 d93c
000003a0: 0741 8d3e 30a5 87be b996 863d 63dc 4c3e
000003b0: 964b b3bc 65f3 33be 6a69 c83e adee 913e
000003c0: a6c7 583e 17c5 fb3d 92fa ebbe eacd fa3d
000003d0: 1a71 523b de46 01be 3c9e 5a3d 13d5 9b3e
000003e0: e316 f63a ffd6 a0bd eb40 d73d 8475 d33e
000003f0: 30bf bebd 8798 4a3e 82e4 d83e a071 123e
0.18501295 -0.56246245 -0.041765742 -0.32740775 -0.38470954 -0.11856324 0.2548488 0.3205649
0.12932402 -0.28433636 0.34137177 -0.23892921 -0.22234292 0.47775012 -0.36808357 0.20240454
-0.16563699 0.4230898 -0.24862936 -0.520989 0.47039643 0.3847363 -0.25461638 0.52653277
0.19952181 -0.1374215 0.09492358 0.50698835 -0.10852742 0.21521184 0.44804034 -0.034968395
0.22916381 0.44525257 -0.26675552 0.11201612 0.12730692 -0.110874094 -0.3450071 0.017918633
-0.20461755 0.24087611 -0.28093413 0.10954004 0.08787115 -0.19550298 0.036278628 0.03664067
-0.5985515 0.031510405 0.11667539 0.27073875 -0.1278572 0.053534638 0.21748674 -0.0038587123
-0.6248483 0.35910225 0.24279198 0.5844917 0.1583332 -0.35325715 0.26256073 0.065030046
0.9616433 0.15370812 0.096651815 0.28517008 0.24949381 0.14862488 0.3094691 0.15010373
0.16516025 0.08963746 0.121465266 0.13054942 0.54397017 0.22338535 -0.15917604 0.17624806
-0.15158519 -0.044219892 0.0963142 -0.28051332 -0.03661804 0.19292197 0.003041972 0.3756465
0.24934852 -0.17496283 0.12308676 -0.063213535 0.7392327 0.17012097 0.32339168 -0.03910063
0.16050024 0.1882758 0.2118592 0.022897689 0.34880662 -0.19082092 0.060097802 -0.23999706
-0.22337773 -0.0020798123 0.2812424 0.30280712 0.041009676 -0.5335908 0.43734822 -0.1873537
-0.37947452 0.4119169 -0.4986081 0.16149144 -0.13807103 0.38881573 -0.30251497 -0.58180827
0.44609377 0.3766419 -0.050700992 0.56500065 0.18043448 -0.12610696 -0.25885627 0.48877695
-0.019698143 0.26423553 0.29881474 -0.11428395 0.32951465 0.33306876 -0.27775663 0.1228981
-0.014450269 -0.29566076 -0.2718736 -0.08710293 0.12089342 0.21015066 -0.44440523 0.06962322
0.19785428 -0.20803069 0.07432506 0.15728223 -0.559452 0.008411598 0.25883138 0.58413136
0.09761029 0.53150547 -0.13448 0.015344068 -0.414577 -0.0026985942 0.68903154 0.4433269
-0.21063903 -0.14615127 0.70548534 -0.052301053 1.0704328 0.016758163 -0.3056727 -0.067913786
0.07645123 0.9888252 0.21973231 -0.18176755 0.17178153 -0.06357298 0.23159465 0.074767224
0.040862244 0.0073188036 0.35868216 -0.02639411 0.18428235 -0.08517863 0.061831526 -0.12830734
0.15977289 0.13877863 0.5175752 0.11152047 0.27622205 0.57165074 0.15225832 0.022918805
1.3670444 0.3768751 0.009640528 -0.18973956 -0.08137394 -0.16324203 1.0267742 -0.039076485
0.2422367 0.10735619 0.12652697 0.05577877 0.37891877 -0.12474045 0.2908161 0.4100563
0.09112079 0.14149752 -0.4195539 0.50307477 -0.10388046 -0.29001495 -0.33186206 0.20281456
-0.0015208997 0.09998103 0.37838793 -0.04473924 -0.032790933 -0.19193265 0.511118 -0.2243005
0.029995875 0.14779401 -0.27024445 -0.37387848 0.0390876 0.17543434 -0.18449272 0.026522124
0.27588674 -0.26493216 0.06571717 0.20005946 -0.021886628 -0.17573316 0.39142925 0.28502408
0.2116991 0.12293451 -0.46089607 0.12246306 0.003211087 -0.1262469 0.05337356 0.30436
0.0018775131 -0.07853507 0.10510429 0.41300595 -0.0931381 0.19784747 0.42361838 0.14301157

fc2.bias f4 [30]
00000000: e2b3 603e 2ccf 33be 4fb3 843d abf7 303d
00000010: b810 753e d12e 623e 184a b3bd ae80 933d
00000020: d477 a5bd 6c96 ed3d 3234 f9bc 3887 bbbc
00000030: 9563 0bbd 176a c9bd 77c3 51bd 3297 b03e
00000040: 7f29 3ebd c226 413e c41c 5c3d 2359 7b3e
00000050: e6ba 363d 6011 773e fa56 843e 959f 6abd
00000060: 6603 7ebe 5a18 5fbe 4943 f0bb f7e4 2abe
00000070: a2a9 523e 71f8 fa3c
0.2194362 -0.17559499 0.06479513 0.043204945 0.23932159 0.22088172 -0.08754367 0.07202278
-0.08079496 0.11600956 -0.030420396 -0.022891626 -0.034030516 -0.09834688 -0.0512118 0.34490353
-0.046426293 0.18862441 0.05373837 0.24545722 0.044611834 0.24127722 0.25847608 -0.057281096
-0.24805984 -0.21786633 -0.0073322398 -0.16688906 0.20572522 0.030636044

fc3.weight f4 [20, 30]
00000000: ceb4 033e ccc5 e6be 3526 eb3d dc1d bb3d
00000010: c7be 333d 3555 bebd b3d3 7ebe 005c bd3e
00000020: b5a5 7b3c 2a73 753e 4df4 393c 30aa c2bd
00000030: 965b 203e 6229 f5be 0f17 0abf 5f4c 503f
00000040: eef5 e1bd 72fa 39bf 96bb 1bbf bda0 863e
00000050: 1ebd 613e 7e35 30be 5da6 b83e 9686 f8be
00000060: d269 85be c4fa 0cbe 243a 43bc 04aa c6bd
00000070: fb0c 34bf 9a7c 38bf 6e18 eabe c8c4 a0bd
00000080: fac3 b8be f508 d93e 62c1 d33d fc8a 01ba
00000090: e136 513f e136 e53e d6d0 a23e 55f6 923d
000000a0: 6a87 a23e 45c9 1cbe db34 333e 84fb 333e
000000b0: 9792 bb3d 5307 633e d5de bfbd 9958 fbbd
000000c0: 53df 843e 5ee7 683e bf39 d9be 59bb bb3e
000000d0: 556e 113e 2447 38be b54e 06be 3e87 013f
000000e0: c932 90be 69ca f43c cea7 d2bd 7608 fb3d
000000f0: 4f97 06be 2cb4 133c 64dd 27be 0062 debd
00000100: bba2 24be ff38 d43d dd69 1f3e 18a1 1dbe
00000110: 59b7 a13d 2fae b0bd 0c2f ed3d 4d59 b53c
00000120: 92ef 8e3d 1af9 383d ee04 1dbe 15ab c53d
00000130: 230c d2bd 575c b83d 735e e5bd f8d3 43be
00000140: cea4 05be 3c54 2ebe b363 26bd 6cab 303d
00000150: 121e db3d 88da e6bb 2e71 0fbe b7be 02be
00000160: 57ac c93c 6c14 2ebe a3e9 9e3e 9e62 de3e
00000170: 8bba f93e 2d9d c73e 90bf a23c e40e 90bd
00000180: 6dc7 5dbf 5494 113f cdfd 3d3e 6fb0 b03d
00000190: d99a 15be 1f1d 6fbb 3ce4 87bd af6b 8ebe
000001a0: f872 4bbd 0b4b 22ba a45c 40be 434f 9ebd
000001b0: 6fe0 00be 6199 13be 6582 e93e 0b67 94be
000001c0: 1a78 3c3d f96c d43e 376f 4b3f 8420 443d
000001d0: 613a c03e 524c b5bd 3bb0 29bb 029d 4ebd
000001e0: e5da b43e c303 843e f27d 3f3e 12e3 203e
000001f0: 107c 0ebf 81c9 a7bd dc09 debe 4fb8 95be
00000200: 19f2 1d3f 92f8 36bf 5049 bdbe 5164 0c3e
00000210: 5f22 913d d8f5 b8be 381a bdbd 5ac1 3ebf
00000220: d89f ddbc a3d6 773e 1250 44bc a1ee cabe
00000230: 8352 bb3e f85d 8cbe e5f6 0fbf 0058 e43d
00000240: 3f28 0dbf 6ce9 cf3e 53d9 fa3e 881c 423e
00000250: c49f 9c3e 1504 663e 6d4c a6bd 6ef1 ab3d
00000260: 0e2e 2c3e 3d36 63bc 712f f53e aaac f83e
00000270: a0ac 5d3e 46c3 16be 1ee0 9fbe 03f4 283f
00000280: 7a87 c83e 58c2 6e3c 376d 1bbd d8d3 fb3c
00000290: 32e8 a53d a82c 783e 17ba 2d3e 108b 323e
000002a0: 7639 ce3d 2af3 093f 0c45 05be b999 133f
000002b0: 3b3e f23e 74cd e93c 7b68 033f 44c3 21be
000002c0: 8fa2 b03d 5140 003d 4956 163e d075 693e
000002d0: 34b7 353e cae4 7ebd 1c15 20be 847d a7bd
000002e0: 1fa4 07be aed7 a73d cf1a 16be aea8 2f3d
000002f0: c509 2c3e 35b2 47bd b624 dfbd c7fa 2d3d
00000300: c41f c1bc 15d9 343e 76c2 33bd d988 03bd
00000310: a793 8c3c 4141 26be c27d 39be a89e 5a3d
00000320: e17e 693d 77ee 22be db0a ea3d c6e4 ccbd
00000330: 5b92 e83c 72b3 3abe b3c7 2cbe 540c 99bc
00000340: 534f f93d 4c5e 973d be08 d13e c474 8a3e
00000350: 548a 6c3e ba9b 993d 3331 20bf 6361 90be
00000360: 9875 4cbf 307c 02be d416 d43e 99ab 14bf
00000370: ee38 e8be b6b3 3b3e a702 c03d 49e8 3dbe
00000380: cacb 2abe 3b12 63bf a23c d7bd f91f 883e
00000390: 1f94 f53c 2ea8 0dbf 71d1 823e ce86 2ebf
000003a0: 6425 37bf 838c 7a3e 3df2 d6be 0115 843e
000003b0: 6aa5 ca3e b4e9 bb3d b4d0 093e 8cb9 823e
000003c0: 6789 cdbd 1adf a23e 6a9c 193e 0653 f83e
000003d0: bac5 2e3d 91ab 3f3e 0e6f cb3d eb6f 80be
000003e0: 8e9d dfbc 00fe 0b3f d0f4 bd3e 2a95 6e3a
000003f0: f3f6 fcbc c231 423f 766f 7b3e a374 82bf
0.1286194 -0.45072782 0.11481897 0.091365546 0.04388311 -0.09293596 -0.24885444 0.36984253
0.015359332 0.23969713 0.01134975 -0.09505117 0.15659937 -0.47883135 -0.53941435 0.81366533
-0.110332355 -0.72647774 -0.6083311 0.2629451 0.22044799 -0.17207906 0.36064425 -0.4854018
-0.26057297 -0.13767534 -0.011915717 -0.09700397 -0.70332307 -0.72065127 -0.45721763 -0.07850033
-0.36087018 0.42389646 0.10339619 -0.000494167 0.81724364 0.44768432 0.31799954 0.0717589
0.31743938 -0.15311153 0.17500632 0.17576414 0.09158819 0.22170763 -0.09368674 -0.12272758
0.25951633 0.2274451 -0.4242687 0.36666372 0.14202245 -0.17995888 -0.13115962 0.5059699
-0.28163746 0.029881673 -0.102859125 0.12257473 -0.13143657 0.009015124 -0.16393048 -0.10858536
-0.16077702 0.10362434 0.15567727 -0.15393484 0.07896299 -0.08626973 0.11581239 0.022137308
0.06979288 0.045159437 -0.15333912 0.09651772 -0.10256221 0.090019874 -0.111996554 -0.19123828
-0.13051149 -0.1702432 -0.040622424 0.04313223 0.10699095 -0.007045094 -0.14008018 -0.12768064
0.02461831 -0.16999978 0.31037626 0.43434614 0.48775133 0.38987103 0.019866735 -0.0703409
-0.86632425 0.56866956 0.18553849 0.08627402 -0.14609851 -0.0036485863 -0.06635329 -0.2781653
-0.04967019 -0.0006190992 -0.1878534 -0.07729962 -0.12585615 -0.14413978 0.45607296 -0.28984866
0.046012975 0.4148939 0.79466575 0.04788257 0.3754454 -0.088524476 -0.0025892395 -0.050442703
0.35323253 0.2578412 0.18700388 0.1571162 -0.55658054 -0.08192731 -0.43366897 -0.2924218
0.61697537 -0.7147304 -0.36969995 0.13710143 0.07086634 -0.36125064 -0.092335165 -0.7451378
-0.027053759 0.24202971 -0.011981981 -0.39635184 0.3658639 -0.27415442 -0.56236106 0.11149597
-0.55139536 0.40607774 0.4899393 0.18956196 0.30590641 0.22462495 -0.08120046 0.083956584
0.16814443 -0.013867912 0.47887757 0.48569232 0.21647882 -0.14722928 -0.31225675 0.6599733
0.3916586 0.014572702 -0.037945952 0.030740663 0.08100928 0.24235785 0.16965519 0.1743586
0.100695536 0.53886664 -0.1301462 0.5765644 0.47313103 0.02854035 0.513313 -0.15797144
0.086247556 0.031311337 0.14681353 0.22798848 0.17745668 -0.06222991 -0.15633053 -0.08178237
-0.13246201 0.081954345 -0.14658664 0.042885475 0.16800602 -0.048753936 -0.10895674 0.042475488
-0.023574717 0.17660935 -0.043886624 -0.03211293 0.01716025 -0.1623583 -0.18114379 0.053373963
0.057005767 -0.1591128 0.11427852 -0.100045726 0.0283901 -0.18232515 -0.16873054 -0.018682636
0.12173333 0.073910326 0.40826982 0.2704221 0.23099643 0.075004056 -0.6257507 -0.281993
-0.79866934 -0.12742686 0.41423666 -0.5807434 -0.45355934 0.18330273 0.09375506 -0.18545641
-0.16679302 -0.8869969 -0.10509612 0.26586893 0.029977856 -0.55334747 0.25550416 -0.68174446
-0.7154143 0.24467663 -0.41981688 0.25797275 0.39579326 0.09175435 0.1345852 0.25532186
-0.10035973 0.31810838 0.15001073 0.48500842 0.042669035 0.18717791 0.099332914 -0.25085387
-0.027296808 0.5468445 0.3710084 0.00091012067 -0.030879473 0.75857174 0.24554238 -1.0191845

fc3.bias f4 [20]
00000000: c30b b43e 6beb c8bd 12d3 c53d 75dd 233e
00000010: f3bb 31bc d229 113e db39 38be c73a b3bd
00000020: 7784 823d b262 e7bd 8b5a 2fbd 1b01 983d
00000030: ac7b b53d 8cac 593d f798 343e d7a6 893e
00000040: c832 a43e 950d ad3c c0a7 f03c 6a33 f83d
0.35165223 -0.098105274 0.09659399 0.16002448 -0.010848033 0.1417611 -0.1799082 -0.08751445
0.06372922 -0.112981215 -0.042810958 0.07422086 0.08861479 0.05314307 0.17636476 0.268851
0.32069993 0.02112464 0.029376864 0.121191815

fc4.weight f4 [5, 20]
00000000: 36d5 b5be 391f 263e 2f4e 353e c96e ffbe
00000010: 324d 8abe 686a 53bd c5ce 583e f0ce 67be
00000020: 0b06 8ebe 29b9 f4be 6283 963e 87da 3fbf
00000030: fba7 04bf 3ed9 90be 6c07 823e 7a87 2fbf
00000040: 2e1e 123e 29dd eebc a681 55be a9ba fabd
00000050: f7be 13bf 7068 68bf 5ce0 db3d 21cd f7bc
00000060: 6b91 89bf d095 c13e f875 23be 800b 89bf
00000070: 1643 e13d 0da5 3a3b ac20 84bf 3eb1 8f3c
00000080: 322b 23bf 19d2 bcbe de79 9abc e9b3 f3be
00000090: 4c4b b63e 05ab 2fbf e904 78bf 939a ccbe
000000a0: a594 84bf faa2 99bd 1cb4 473e b577 f53d
000000b0: 89b1 0a3f 7cd9 22bf e706 563d c435 1f3f
000000c0: f078 3a3e 4cfc 84be 7450 1cbf 39c8 3cbf
000000d0: ec83 e5bd 864c 153e 64fd 38be 4c6f 83bf
000000e0: 5dc6 7fbe 99d1 4abd 5ff8 40bf 22b8 1bbe
000000f0: 7827 343f f0db f9be 0333 cb3d 5850 a5bd
00000100: 3f98 d5be 6aab aabe 31d3 b43c ea90 fdbd
00000110: 8893 47bf c0c3 ae3d 3327 86be 867c e83e
00000120: bf44 23bf c513 10bf 0027 13bf 497d 343f
00000130: 1530 4fbd a31c fbbe 03c0 01bf 6c85 47be
00000140: 816c 79bf e02c bb3e 3843 56be 2ee8 9bbf
00000150: 7ae5 edbe 6c16 1ebe 999d 2fbc 570b 2fbf
00000160: e5c1 623e 026f d5be 00e9 053e 8a6b 45bf
00000170: 8a64 cc3e 7447 093f 7c22 cbbe 802f adbf
00000180: a68f 86bf 58d7 783e d59a c23e 1e55 a53c
-0.3551423 0.16222848 0.17705606 -0.4988921 -0.2701202 -0.05161515 0.21172626 -0.22637534
-0.27738985 -0.47797516 0.29397112 -0.7494282 -0.5181882 -0.28290743 0.25396287 -0.68566096
0.14269325 -0.029158192 -0.20850238 -0.12242634 -0.57713264 -0.9078436 0.107361525 -0.03024918
-1.0747503 0.3780961 -0.1596297 -1.0706635 0.10999124 0.0028479726 -1.0322471 0.01754057
-0.63737786 -0.36879042 -0.018856939 -0.47598198 0.35604322 -0.6862033 -0.9688249 -0.3996168
-1.0357863 -0.075017884 0.195023 0.11985723 0.5417715 -0.63613105 0.052252676 0.62191415
0.18210196 -0.25973737 -0.6106026 -0.73743016 -0.11206803 0.14579973 -0.18065411 -1.026834
-0.24978013 -0.049516294 -0.75378984 -0.1520696 0.70372725 -0.48800611 0.09921839 -0.08071965
-0.41717717 -0.33333904 0.02207336 -0.12381156 -0.7795949 0.0853343 -0.26201782 0.45407504
-0.63776773 -0.56280166 -0.57481384 0.7050367 -0.050582964 -0.49045286 -0.5068361 -0.1948449
-0.9743119 0.36557674 -0.2092408 -1.2180231 -0.4646414 -0.15438241 -0.010718727 -0.6837668
0.22144277 -0.41686255 0.13077164 -0.77117217 0.39920455 0.53624654 -0.39674747 -1.3530121
-1.0512588 0.24300897 0.38008752 0.020182189

fc4.bias f4 [5]
00000000: dee3 fa3d b4da 5dbd fe23 97be 3706 9fbe
00000010: 707b 98be
0.122504935 -0.05416365 -0.29519647 -0.3105943 -0.29781675
