Sample_Based_Extension/UNSW/UNSW_Defense/preprocessor/dnn_pytorch_FeatureSqueezing.pt (torch, 23612 bytes, 8 tensors)

fc1.weight f4 [50, 56]
00000000: 5f7c 0d3f 552f 38be d5ac 3c3f ca53 46be
00000010: 420e 90be 7df8 1b3f cfa1 9dbd 670c 043e
00000020: 7ade aa3e 6501 88bd 488b 673f 3e81 803e
00000030: ab54 e3bc c096 5c3f 546f 9abd a34d 5b3d
00000040: f505 a8bd ab0c bdbd 14bd 5c3e d4c4 17bc
00000050: 6197 c5bd 624c 5d3d fcd7 07be b156 16bc
00000060: b7cc fe3d cebf 43be d657 07be e6df a03c
00000070: f5cd 44be a41e 293e 31fa 813e f7b3 e43c
00000080: d25a 923e 8426 0cbd c270 23be 450c 3fbe
00000090: 1afa a8bd 014c 2dbe 3550 a5be 0831 21be
000000a0: b27e 3e3d 15b0 d0bd 1480 22bc e2d7 213d
000000b0: b98a 633d 9744 d8bc c5bc 8e3e bbbb 8fbe
000000c0: ee67 e93d 0599 433f 29df 333d e87b 7bbd
000000d0: 4755 ac3b 6478 023e 82ee 6dbe 1732 03be
000000e0: 9b8d e8be 0043 093f f23c a9bc 8994 a33c
000000f0: 60dd 133e af19 babe 6362 93bd c7b1 8c3e
00000100: 85a5 133e eacf 9a3c 0fdb 07be 3273 773e
00000110: 9ce8 88be 9925 843e 96e0 96bc 877c e9bd
00000120: f499 d93e f425 a7bc 734f f73d db9a a3bb
00000130: 07bf 3fbe 4eae 44be b16d 35bd 270e 0c3c
00000140: 5efc 5cbe f9de f4bb 3cfa f1bd 7ec0 283e
00000150: fd23 34be 2f9a 323d abbf 4bbe d92a 0cbd
00000160: 2d7f fbbd b0c8 4e3e 7525 a2bd ee03 013e
00000170: 0f90 a03d db96 523c 9e9f 5fbd 2837 a23d
00000180: dca3 fd3d 4305 a23c 011e 4d3d 48ac aabb
00000190: 5989 993b 5e4e 0b3e 7ff3 15bf 4426 413d
000001a0: f7a0 8fbe 8397 b03e c1ae 0e3d 50bd 883d
000001b0: 6dae 8cbd 4c61 28be 6823 083e 1f4b 1b3e
000001c0: ff3d 573e d597 11be 726c 853e 18d6 64be
000001d0: 63ef 16bd b489 be3e c24c f2bd 38af 86be
000001e0: 020e a33e 56d9 32bd 5eeb 43be 40dc 04bd
000001f0: a658 4d3d 3a73 21bf ecf8 6f3d 762c c0bd
00000200: aead 8abd 4112 babe 195c f73c 41ef 6cbe
00000210: 28d0 ad3e 1b10 bebd 8089 52bd 65dc 83bd
00000220: eb77 043e 13fe 873e 84b0 57be 75ef 1dbe
00000230: 5a2d 343d 456e fd3d 9331 24bd ace5 39bc
00000240: d2d5 0e3d d368 2bbe d03a a7bc 4d65 8bbb
00000250: 3dbd 33bd 076a 2ebe 17de 98be 59d9 00be
00000260: 0386 8f3e 445e 53bd 0ef5 123d cb8d 553e
00000270: 3177 02be 77f7 1cbe 90d9 e53d 1b80 873e
00000280: e46e 303e 4714 323e 8dad eabd 0451 423d
00000290: 0b28 ee3d 9be7 cbbe 82fd 883c f02e d1bd
000002a0: 1f46 08bf ebd0 613f e018 793d 3aca 9e3d
000002b0: bc79 db3c 551b 8ebe 79c3 583d b732 b5be
000002c0: b0d4 d0bd e83c cbbd 319c aebe 0b62 9bbd
000002d0: 259f 1a3d 51d2 983e a3c6 693d bfc8 82bd
000002e0: 0368 8cbe 6405 9a3d cd63 91be af26 43be
000002f0: 0925 c9bd b501 37be f287 6b3b 70ea 20be
00000300: 5cdb db3d 2844 38be 5131 35be 6cfc 19be
00000310: 4009 49bd 2948 133d 80de 483e 29c7 c73d
00000320: fe78 0cbe e04d 573e b4f2 133c c3ad 783d
00000330: 40e5 873c d144 9a3d cc99 4abd eced 783b
00000340: 5c27 ec3e 4643 12bf 2dbd 9e3d 66be 223e
00000350: 6115 013d ebc8 c3bd 29c5 0ebd 6f54 1e3e
00000360: dbdb 7ebe 4903 94bc f334 04bd 4f3b e73c
00000370: a025 043e 4d24 dc3d 2280 4d3e 21e3 1e3d
00000380: c69a 313e 7487 06bf f26c 883e 6331 8abd
00000390: 7325 65be 37d5 cc3e 61e1 babc 751d 4a3d
000003a0: 4b6d 37bf d28f ad3e cdba 283f 24aa 8a3e
000003b0: b231 ba3e 8e62 813d c2f2 8c3d bba1 79bd
000003c0: 2240 de3d beb9 083e 497d fe3d 2be3 513d
000003d0: 662e 97bd a8b3 c4bc d7fb 7c3d 2cbc 413e
000003e0: 2f6b afbd ddf2 b1bc 8144 d8bd a39f 9dbe
000003f0: 9248 2abd abf5 7cbe 5a2d fcba 7e22 913d
0.552679 -0.17986806 0.7370122 -0.193679 -0.28135878 0.6092604 -0.07696878 0.12895356
0.3337286 -0.06640891 0.904469 0.25098604 -0.027750334 0.86167526 -0.075407654 0.053540837
-0.08204261 -0.09230932 0.21556503 -0.009263236 -0.09648014 0.054027922 -0.13265985 -0.009175942
0.1244139 -0.19116136 -0.132171 0.019638013 -0.19219191 0.16515595 0.25386193 0.027917845
0.28584915 -0.03421642 -0.15960982 -0.18657024 -0.08250828 -0.16923524 -0.32287756 -0.1574136
0.046507545 -0.10189835 -0.0099182315 0.039512523 0.055552218 -0.026399894 0.27878395 -0.28072914
0.11396776 0.76405364 0.043913994 -0.061397463 0.0052591893 0.12741238 -0.23235515 -0.12812077
-0.45420536 0.5361786 -0.020658944 0.019968288 0.14439917 -0.3634772 -0.071965 0.27479383
0.1441861 0.01889797 -0.13267158 0.24165037 -0.26739967 0.25809935 -0.018417638 -0.11400705
0.4250027 -0.02040384 0.120757006 -0.0049928254 -0.18725215 -0.19207117 -0.044294063 0.008548296
-0.21580645 -0.0074728695 -0.118153065 0.1647968 -0.17591853 0.043604072 -0.19897334 -0.03422055
-0.12280116 0.20193744 -0.079173006 0.12599155 0.07839977 0.01285335 -0.054595582 0.079206765
0.12384769 0.0197779 0.050077442 -0.005208526 0.0046855626 0.13604113 -0.5857467 0.047155634
-0.28052494 0.34490594 0.034834627 0.066767335 -0.068692066 -0.16443366 0.13294756 0.15165375
0.21019743 -0.14218076 0.260593 -0.22347295 -0.03684939 0.37214434 -0.11831047 -0.26305556
0.31846625 -0.0436643 -0.19132754 -0.03243661 0.05013337 -0.63066447 0.058587 -0.0938348
-0.06771408 -0.36342052 0.030195283 -0.23138143 0.33947873 -0.092804156 -0.05140066 -0.06438521
0.1293637 0.2656103 -0.21063429 -0.15423377 0.043988563 0.12374548 -0.04008634 -0.011346262
0.034871884 -0.16739206 -0.020413786 -0.0042540194 -0.043881644 -0.17032634 -0.2985694 -0.12582912
0.2803193 -0.05160357 0.035878234 0.20854871 -0.1274078 -0.15328775 0.112231374 0.26464924
0.17229801 0.17390548 -0.114588834 0.047440544 0.11628731 -0.39825138 0.016722444 -0.10214031
-0.53231996 0.8820941 0.06081474 0.077534154 0.026791446 -0.27755228 0.052920792 -0.35390255
-0.10196817 -0.09923726 -0.3410354 -0.075870596 0.03774943 0.2984796 0.0570742 -0.063859455
-0.27423105 0.075205594 -0.28396454 -0.19057725 -0.09821517 -0.17871745 0.0035939184 -0.15714431
0.10735199 -0.1799475 -0.17694594 -0.15037698 -0.049081087 0.03595749 0.19616127 0.09754784
-0.1371803 0.210258 0.009030033 0.060712587 0.016588807 0.07532657 -0.04946308 0.003798361
0.4612378 -0.571339 0.07750926 0.15892944 0.03151453 -0.095598064 -0.034855995 0.15461896
-0.24888556 -0.018067973 -0.03227706 0.028226523 0.12904978 0.10749111 0.2006841 0.038790826
0.17344198 -0.52550435 0.2664562 -0.06747701 -0.22377567 0.4000642 -0.022812547 0.0493445
-0.7165114 0.3389879 0.65910035 0.27082932 0.3636604 0.06317626 0.0688224 -0.060945254
0.10852076 0.13352105 0.1242624 0.051242035 -0.07381897 -0.024011448 0.06176361 0.18919438
-0.085653655 -0.021722252 -0.10559941 -0.30785856 -0.041573115 -0.2470309 -0.001923959 0.07086657

fc1.bias f4 [50]
00000000: 42b1 be3d 5d2b d8bc 2739 1cbd 411e 2abe
00000010: 7aeb 35bd 9777 ec3d a110 f9bd 00f8 84bc
00000020: 90f0 59bd 38ae 29bd 9893 32be c020 f9bd
00000030: 6f1e 18be 6db9 8f3d 9286 a7bd abff cc3d
00000040: 6aba d2bd 189c 12bd 0892 003d b504 04be
00000050: ccc9 f23c 5ce0 dc3c efa0 d9bc 3c82 cd3d
00000060: 613a 8dbd 6b35 ab3c 3811 96bd fa4c 0b3e
00000070: 1786 16bc bf8b 3ebe c8cb 7ebd 5795 143e
00000080: d7e2 f0bd 18cd 07bd dda4 92bd fd36 c7bd
00000090: be13 6cbe dcd7 36be 056b 323d f6a4 22bd
000000a0: 58cc 8fbc 6676 04bc f098 03bd b39d 12be
000000b0: 649d cc3c a2b2 5b3d b3c9 eebd d076 273d
000000c0: 4ffb 4ebd 3e4d 30be
0.09311153 -0.026387865 -0.038140442 -0.16613103 -0.04441402 0.115462475 -0.12161375 -0.016231537
-0.053207934 -0.041425914 -0.17439115 -0.1216445 -0.1485536 0.07017789 -0.08179964 0.10009702
-0.10289462 -0.035793394 0.031389266 -0.1289242 0.02963724 0.026962452 -0.026565997 0.10034606
-0.068959005 0.020899495 -0.07327503 0.13603583 -0.009187243 -0.18607996 -0.06220606 0.14510094
-0.11762016 -0.033154577 -0.071603514 -0.09727285 -0.23054406 -0.17855781 0.043559093 -0.0397081
-0.017553493 -0.008084869 -0.032128274 -0.1431797 0.024977393 0.053637154 -0.11659565 0.040884793
-0.050532635 -0.17216966

fc2.weight f4 [30, 50]
00000000: d59e 7b3d 2e7c 363e 847c 28be 04b7 423e
00000010: 993e 94bb 5845 e53d c9d0 49bd abfc 283d
00000020: a3eb 943e b82d 5b3e 5be6 8c3e e6b4 813d
00000030: 5215 1ebe 8d5e ecbd b67d 9cbe 044c 09bf
00000040: 7317 893e dcc4 43bd a98f 01be ff85 3abe
00000050: 2d5f e33e a6ee c63d 4460 bfbe a948 2b3e
00000060: 80a5 cebd 301b 4c3e 99b7 1cbe 1f2d 67bd
00000070: ae34 a93d 88b2 953d e760 2e3e a11e 683d
00000080: 170f d83c 4eed 93bd 0354 f3bc e596 efbd
00000090: 965c 043f 8e17 273d 619d ebbe e38a 0a3e
000000a0: 3753 993c cc13 c83d dd37 1b3e e94f 9ebc
000000b0: 9eae 093e 35d9 323f 0ed4 b63e 6b79 ab3d
000000c0: cfa1 7abd 3fd2 f4bd b9db 7bbd 3538 eebd
000000d0: f30a 433e 1503 dbbc 104b f43d 4007 cdbb
000000e0: 0fe4 d0bd 6100 eabe 8e35 863e 56b8 94be
000000f0: dce0 57be 3093 423e 0a21 b83e 2b66 c4bd
00000100: e8f7 1e3d 5d57 273e 434f 40be 0386 493d
00000110: af7e 003e 7a61 5b3d 7498 993e 9d7d 863d
00000120: db2c 19be 487c 5c3e f1bf 7a3e 3e70 5bbe
00000130: 509f f43d ad51 983e 82ad 9ebd d0ca 3a3e
00000140: e6ac 3a3e 03d4 893d 249c 16be 714e e03e
00000150: ee33 babb 3457 26bd de93 56be 0446 323e
00000160: 250c f43c bcc1 083e 64e1 a93e e4e2 c43e
00000170: 723b 76be e955 69bb 3cf9 643e cecc c5bd
00000180: 654e 25ba 3708 05be 2627 88be 75eb d8bc
00000190: 4592 123c 2d00 ec3c b7c8 6dbd 16d0 193e
000001a0: ebab c1bd f493 63be 4ee1 f2bd 678b a7be
000001b0: 6289 2cbb 39a3 143e 736f 77be 8809 80be
000001c0: ae5e 603d 16d7 63be c149 3f3d a90b 26bd
000001d0: dc5f b23e 3a50 5c3d 2091 34be c7a3 80be
000001e0: 8bcb 0bbf 6c93 b0be 57dd 893d 1093 babd
000001f0: f52c a3be 3b7a 7dbe fb11 0abd 3278 0a3e
00000200: 81e6 40bc 9082 a83e 9d61 38bf 6d0e be3d
00000210: 970e 043e b8df 463e efa1 673e 5c22 53bd
00000220: 7837 8c3e b83c 78bd 4f10 983e b115 33be
00000230: 109b a5be c614 efbe 49f8 6f3c bc3b c9be
00000240: 00ba 47bc 29d7 b93d 855a d53d 1cec e4bd
00000250: 09b4 713c e019 34bc c5bf c5bd 00a9 023e
00000260: cb02 32be 2f76 9c3e f30a 32bd 6b39 29bd
00000270: dd87 37bd d589 7b3e 7d99 233e 7ec5 40bb
00000280: beed 933d a6ec ccbc a42c 0b3e 87f5 81be
00000290: 385f 773d 35bc 69be e10b fabd b158 483e
000002a0: 10fd b83d 5202 5d3d a6c5 7e3e 1708 bd3e
000002b0: 44b1 0f3e c823 dd3d 800f ae3b e0f0 ac3e
000002c0: 2648 bfbc 6349 c6bd c892 503e 9f91 b83d
000002d0: 11da d5be 8313 843d 05c6 fc3d ba48 97be
000002e0: 9399 693c 5a07 e63c c9a2 a83b bfaa debb
000002f0: 6413 8a3c 4dbe a6bd 0296 e9bc e1b0 043e
00000300: 5cdc 863d d8e3 a73d c082 f33d f5ab 233e
00000310: 423e d4bd 7125 643e 8d78 b7bd 5517 7fbc
00000320: 001a bb3e ed19 14bd 9cb0 30bd 8ec7 ddbe
00000330: bcd4 97bd 843c dabe 7ca6 c8bd e7b7 b73d
00000340: a570 cdbd 1a3a 74be d220 263e 99ab 0c3e
00000350: 608e f13c f07d 9a3d 45f1 0d3b ddb1 013e
00000360: 6f75 553d 2525 29be a64e e43c bd82 f3be
00000370: 325c 21be bc20 d23e 83b1 83bd 7fdf 75bc
00000380: b178 dd3e eb7e 583d 60dd c9bd c9f3 bfbe
00000390: ce1f 5c3d 70a3 b1be 9c75 0a3e 315b 003d
000003a0: ab84 d03c 21e6 5e3e 7061 913e 35e5 1f3e
000003b0: c989 e33d bb74 b43e 8981 123e 1266 0e3e
000003c0: 504a d3be 27b9 0bbf eae0 193e 4ff0 a83e
000003d0: 270f 99be 2d87 23be 1281 09be bbfc 133e
000003e0: c7da 303e 0c7b 7d3e bfa8 79bc 0de0 2ebe
000003f0: 9cc6 2e3e e306 4fbe e993 dcbb c857 983d
0.06143077 0.17820808 -0.16453749 0.19015127 -0.004524064 0.11194867 -0.04927138 0.041256588
0.29086027 0.21404159 0.27519497 0.06333332 -0.1543782 -0.11541472 -0.3056466 -0.53631616
0.26775703 -0.04779516 -0.12652458 -0.18215178 0.4440855 0.09713487 -0.37378132 0.16726936
-0.1009016 0.19932246 -0.15304412 -0.056439515 0.08262001 0.07309443 0.17029153 0.056669835
0.026374383 -0.07222997 -0.029703146 -0.11698703 0.51703775 0.040793948 -0.46018508 0.13529544
0.018716438 0.09769401 0.15158029 -0.019325214 0.13445517 0.6986268 0.3570866 0.08372768
-0.06118947 -0.11954164 -0.06148884 -0.116318144 0.19047146 -0.026734868 0.119283795 -0.006256968
-0.10199749 -0.45703414 0.26212734 -0.29046887 -0.21081871 0.1900146 0.35962707 -0.095897995
0.03881064 0.1634192 -0.18780236 0.04920007 0.12548326 0.053559758 0.29999125 0.065669276
-0.14958517 0.21531785 0.24487282 -0.21429536 0.11944449 0.29749814 -0.07747938 0.1824143
0.18230018 0.06729891 -0.14708 0.43809846 -0.00568246 -0.040610507 -0.20954844 0.17409521
0.029790947 0.13355154 0.33179772 0.38454354 -0.24046114 -0.0035604185 0.223607 -0.09658204
-0.0006305932 -0.12991415 -0.26592368 -0.026479462 0.008946006 0.028808678 -0.058052745 0.15020785
-0.09456619 -0.22224408 -0.1185938 -0.32723543 -0.0026327004 0.1451539 -0.24163608 -0.25007272
0.054777794 -0.22250018 0.046701197 -0.040538464 0.3483876 0.053787448 -0.17633486 -0.25124952
-0.54607457 -0.34487474 0.0673167 -0.09110081 -0.31870237 -0.24753658 -0.033708554 0.13522413
-0.011773706 0.3291211 -0.72023946 0.09280095 0.1289619 0.1942128 0.22620367 -0.05154644
0.2738607 -0.06060478 0.29699942 -0.17488743 -0.32344866 -0.46695536 0.014646598 -0.39303386
-0.012190342 0.09074242 0.10417656 -0.11177847 0.014752396 -0.010992497 -0.09655718 0.12759781
-0.17383878 0.30558917 -0.043467473 -0.041314524 -0.044807304 0.24564297 0.1597652 -0.002941459
0.0722308 -0.025015187 0.13591248 -0.25382635 0.060393542 -0.22825702 -0.12209297 0.19565083
0.09032643 0.05395729 0.24880084 0.36920235 0.14032465 0.1079784 0.0053119063 0.33777523
-0.023349833 -0.09681966 0.20368493 0.0901215 -0.41767934 0.06449034 0.12342457 -0.29547673
0.014257806 0.028079677 0.0051463586 -0.006795257 0.01685495 -0.08141766 -0.028513912 0.12958099
0.06584999 0.081977546 0.11890173 0.15983565 -0.10363437 0.22279908 -0.0895854 -0.015569528
0.36543274 -0.036157537 -0.043137178 -0.4331631 -0.07413623 -0.42624295 -0.097973794 0.089706235
-0.10031251 -0.23850289 0.16223457 0.13737334 0.029486835 0.07543552 0.00216587 0.12665506
0.052113947 -0.16518076 0.027869534 -0.47560683 -0.15757826 0.410406 -0.06430342 -0.015006899
0.43256143 0.052855413 -0.09856677 -0.3749068 0.05374127 -0.34695005 0.13521427 0.031336967
0.025453886 0.21767475 0.2839465 0.1561478 0.11110265 0.35245308 0.14307226 0.13906124
-0.41267633 -0.54579395 0.15027204 0.3299584 -0.29894373 -0.15969534 -0.13428143 0.14451878
0.17270957 0.2475397 -0.015237986 -0.17077656 0.17067951 -0.20217471 -0.0067314995 0.07438618

fc2.bias f4 [30]
00000000: db42 353d 6efb edbd 7749 033b be9b c8bd
00000010: e67a 6e3c d6a6 adbd cd52 1a3e da91 0dbd
00000020: d03b 0ebd 53b6 85bd dd13 a53c 65da 393e
00000030: 63c2 ea3d b6f6 343e 3a4c 56be d635 af3d
00000040: 0f63 f7bd 2e65 8bbd 5672 81be bf9c 3f3c
00000050: dfd0 683d fcd5 6dbd 9117 c9bd 0ca9 6cbd
00000060: cd5f b8bd ab2e dc3d 822f cf3d 181a ab3c
00000070: 1191 743d 6eb7 dc3d
0.04425321 -0.11620222 0.0020032802 -0.097953305 0.014555668 -0.08479087 0.15070648 -0.034562923
-0.03472501 -0.06528916 0.020151073 0.18149717 0.114628576 0.17672238 -0.20927516 0.0855519
-0.12079441 -0.06806408 -0.25282544 0.011695086 0.05683982 -0.0580654 -0.09818948 -0.057778403
-0.090026475 0.10751089 0.10116483 0.020886466 0.05970866 0.10777174

fc3.weight f4 [20, 30]
00000000: 505f c33e f69e 15be c63c 6abe 5e58 173e
00000010: 27f1 5cbe 2e71 9ebd 1b62 f23b 0aae aa3e
00000020: dfdf 93be 6a45 dabe c9df 3e3e b539 8b3d
00000030: eac2 a4be 93da a1be b028 1f3d 4086 79bd
00000040: 259b 5f3e e46a dfbb a1f6 f73d 6800 843c
00000050: 025e f63d 6223 45be 07d8 3abe 75fa 583e
00000060: c64e 343e c23f afbe deeb aa3e 0d6a 603e
00000070: 71fa 94be 2e7b 063d f0a4 3a3e 8caa a8be
00000080: 2334 dfbd 5222 263e 1e89 2dbc 30bc e43d
00000090: 7a53 f6be e17c 2c3e 3db3 b3bd c582 d4be
000000a0: 4406 aa3d 3bbc 9d3e b000 2bbd 6c62 23be
000000b0: acc0 693e 2fb4 16bc 3695 1a3e 3ad1 4cbe
000000c0: c6c5 723e eeea 033e 28e3 c5bc df71 b23d
000000d0: 8fee ac3d aea9 dd3d 6912 11bc 3125 8abe
000000e0: 26f9 1f3e bbb6 963e f398 3ebd 6350 04bd
000000f0: bf3b b63e 3cfd c7bd a4a2 edbc e835 a3bb
00000100: 0d75 90be ca35 0d3e f82a 93bc 46b2 193e
00000110: 7253 383e 7c2b 97be 943b 0d3e 07d7 6f3e
00000120: d216 f83b 96ea 643d c6e3 8fbc 6140 8f3e
00000130: 418a 4c3e 6d72 ebbc 92db 80bd 63e8 823d
00000140: 9ad0 c23d fa59 9fbe 1033 ccbd b9c6 ae3e
00000150: 6ab3 7b3e 16b0 18be 2add 2b3c 279b 3f3e
00000160: 692c 2fbe 2b89 fa3d ad49 7e3e 37a5 bfbd
00000170: 243a 33be a718 7c3d aa9c 71bd 279f 23be
00000180: 2956 9cbe 3314 873e ba92 68be f52e 7dbe
00000190: 2296 743e 76c3 393e e5fc 37bc 6a0f 08be
000001a0: 55dc 043e f2e9 803e 0158 c63d d8f0 53be
000001b0: 69a7 273e 12a6 323e 371e d3bc 9b8a d53c
000001c0: 2a01 a43c 17fa 8c3c 5b51 953e a1cd a5be
000001d0: 1dfd 793e 48ac 563e af63 e3bd 42fb a23d
000001e0: 333f 81be 2515 d03e f569 0a3e 3453 2a3e
000001f0: 1952 a53e e9c0 883c 5057 a83e c173 6ebd
00000200: dc1d a83c 8073 e63d 589a 4ebe 6dc8 26bd
00000210: 4b77 bd3d d434 f13b 90de 29bd 794d e0bd
00000220: f813 7fbd 5e4d 813e 33dd bb3d 9fdc 04bc
00000230: bbc7 163d 83b0 a83e 1ca6 a7bd 4ae8 9bbe
00000240: e4de 033d f06c 733e 6268 d4bd 9bcb 963d
00000250: 05c4 7e3e 725d 953d 499f 0ebd d5c6 d23e
00000260: ebfe af3d 65fe ad3d a5e9 8e3e 5bb9 0cbe
00000270: 6ca3 a63e 5404 dabd 2799 91bd 20ec 943e
00000280: 399c 92b9 ea5d 793e e3e9 60bd b4e3 b2bd
00000290: 1969 ecbd b7fd e4bd a2a2 a7be b72f fd3d
000002a0: 9244 f4bb d7b4 9cbd c2fc f4bd 0d63 b83e
000002b0: 190f 033e 68fb e8be 51fd 7ebe f85f b73d
000002c0: c8f7 7d3d 2e34 42bd 1748 923e 3a84 013e
000002d0: 6b4c 44be 7ae2 e9bd 749e 073d 4520 443c
000002e0: 6e49 0fbe 37fd a93c 0408 25bd c127 3fbe
000002f0: aa10 07be 2fd2 e7bd e1be 783d 7ad7 10bc
00000300: 29f5 883d 06f3 ab3d 9d65 69bd c13b 4ebe
00000310: 4342 853d 68f8 13be a2a5 663d e70c fabd
00000320: 36d5 98bd 9514 1cbe fd8e 10be 5e21 bb3d
00000330: 29e6 9a3d eb63 68be 7756 e33d c7f4 34bd
00000340: 241b 2c3d 447c 18be 4bd0 a2bb 8d9b d13e
00000350: 5861 fc3d 2328 1a3d 30ee 513e 65eb 663a
00000360: 2433 9e3e 5524 ef3b 1c3e 803d 643b 9a3e
00000370: 588a 6e3b 2d40 5d3e 7fe4 c33d 59bf 2d3e
00000380: 8905 38be aa14 e1bd f93a abbe 25de 1e3e
00000390: dbae 1e3d 6f9e 41bd 7ca8 f5bc 686b b33e
000003a0: 4a68 6e3c b0e5 f1be 7f9b 04be ae77 5e3e
000003b0: cc42 083e f6d1 b1bc f7a8 1e3b 2bd3 ce3d
000003c0: afd5 00be d88e d23e bd67 363e da14 043e
000003d0: 922b 7f3e 4bcc 97bb 2658 5d3e 1ca5 163e
000003e0: 00ae 043e b85f cc3e 4b05 cf3d b0f1 8a3e
000003f0: 04e4 9e3d 576a f9bd 56e2 23be 155b 1f3e
0.38158655 -0.1461142 -0.22874746 0.14779803 -0.21576367 -0.07736431 0.007396949 0.33335906
-0.28881738 -0.42631084 0.18640055 0.06798116 -0.32179958 -0.3161207 0.038857162 -0.060919046
0.21836527 -0.0068181623 0.121075876 0.016113475 0.12029649 -0.19251779 -0.1824647 0.21189292
0.17608175 -0.3422833 0.33383077 0.21915455 -0.29097322 0.032832317 0.18226981 -0.32942617
-0.10898616 0.1622403 -0.010591773 0.111687064 -0.48110563 0.16844513 -0.08774421 -0.4150602
0.08301976 0.3080767 -0.041748703 -0.15955514 0.22827405 -0.009198233 0.15095982 -0.20001689
0.23708257 0.12882587 -0.024156168 0.087131254 0.08443939 0.108233795 -0.008854487 -0.269815
0.15622386 0.29436287 -0.046532582 -0.032303225 0.35592458 -0.097650975 -0.029008217 -0.0049807914
-0.28214303 0.1379005 -0.017964825 0.15009412 0.18000582 -0.29525363 0.13792259 0.2342187
0.00757108 0.05588778 -0.017564666 0.27978805 0.19974615 -0.028741086 -0.0629188 0.063919805
0.09512444 -0.31123334 -0.09970677 0.34135988 0.2458016 -0.14910921 0.010489741 0.1871153
-0.17106785 0.12233194 0.24832793 -0.09357684 -0.17502648 0.061546948 -0.058987297 -0.1597868
-0.30534485 0.26382598 -0.22712222 -0.24724944 0.23885396 0.18140969 -0.011229728 -0.1328713
0.12974675 0.25178486 0.09684754 -0.20697343 0.16372456 0.17446163 -0.025771243 0.026067069
0.020020086 0.017209096 0.29163632 -0.32383445 0.24412961 0.20964158 -0.111029975 0.0795808
-0.2524353 0.40641132 0.13516982 0.16633302 0.32289198 0.01669355 0.32879114 -0.05821586
0.02052205 0.112524986 -0.20176065 -0.040718485 0.09251269 0.007361034 -0.041472018 -0.10952277
-0.062274903 0.2525434 0.0917305 -0.008109241 0.03681157 0.32947168 -0.0818598 -0.3045066
0.032194987 0.23772025 -0.10371472 0.073630534 0.24879463 0.07293214 -0.034819875 0.41167322
0.085935436 0.084957875 0.27912632 -0.13742582 0.32546556 -0.10645357 -0.071092896 0.290864
-0.00027963685 0.24352232 -0.05491055 -0.08734837 -0.11543483 -0.11181205 -0.32741266 0.123626165
-0.0074544633 -0.0765168 -0.11962272 0.3601307 0.12798728 -0.45504308 -0.2490132 0.089538515
0.06200388 -0.047413044 0.28570625 0.12648097 -0.19169776 -0.1142015 0.033110097 0.011970584
-0.13992855 0.020750625 -0.040290847 -0.18667509 -0.1318995 -0.11319386 0.06072891 -0.008840436
0.066873856 0.083959624 -0.05698167 -0.20139982 0.06506779 -0.14450228 0.056310304 -0.12209492
-0.07462542 -0.15242226 -0.14117046 0.09137224 0.07563431 -0.22694366 0.11100476 -0.04417875
0.04201807 -0.14891154 -0.004968678 0.40938988 0.12323254 0.037635934 0.20501018 0.000880888
0.30898392 0.0072980323 0.062618464 0.30123436 0.0036398377 0.21606512 0.095650665 0.16967525
-0.17970861 -0.109902695 -0.3344343 0.15514429 0.038740974 -0.047270235 -0.029987566 0.35042882
0.014551232 -0.4724555 -0.12949942 0.21725342 0.13306731 -0.021706562 0.0024209598 0.10098871
-0.12581514 0.41124606 0.1781301 0.12898579 0.24918965 -0.004632508 0.21615657 0.14711422
0.12957 0.39916778 0.101084314 0.27137518 0.07758334 -0.12178486 -0.16004309 0.15562089

fc3.bias f4 [20]
00000000: cfe2 333e a3a1 343d 9a26 043c 0387 e33d
00000010: 337d e03d 3fad fe3d 1539 70be b284 a83d
00000020: 2222 8fbc 7a11 2d3e cf59 1d3c 37b1 a1bd
00000030: c999 8cbd 5da5 ac3d 17dc 25be 5181 04be
00000040: 5669 16be da47 2e3e c9f9 65be d3cf 75bd
0.1756699 0.04409946 0.008065844 0.11109736 0.1096138 0.12435388 -0.23459275 0.082284346
-0.01747233 0.16901198 0.009603932 -0.07895129 -0.0686527 0.08429978 -0.16197239 -0.12939955
-0.1468862 0.17019597 -0.22458567 -0.06001265

fc4.weight f4 [2, 20]
00000000: a6f5 b13e 57b5 a4ba f7d6 1e3e c25d 3f3e
00000010: e448 7ebe 0ef2 edbd eed5 d9bd c923 cebd
00000020: 3110 94bc ae5d 603d b305 53bf 77a6 a5be
00000030: 1f6c 25bf 3459 783e a8c7 86be 8566 a5be
00000040: dde7 66be 5c20 7b3e 6a3f 003f 2871 31bf
00000050: 7f0e 75be b58b c6be 57a6 5ebe d031 a7be
00000060: 6772 d33d 6736 863e 452c 8ebd 0b12 863e
00000070: 0c05 683e 7628 8c3e b61d 773f ebcf ac3e
00000080: c3ff 3a3f 55b7 56be b8aa b23e 0449 973e
00000090: f820 793c 29d6 b1be 546b fcbe 3b62 283f
0.34757727 -0.001256625 0.1551169 0.1868811 -0.24832493 -0.11618434 -0.10636507 -0.10065419
-0.018074127 0.05477684 -0.8243057 -0.32353565 -0.64618105 0.24252778 -0.263242 -0.3230478
-0.22549386 0.24524063 0.5009676 -0.6931329 -0.23931311 -0.38778463 -0.21743141 -0.3265519
0.10324555 0.2621338 -0.069420375 0.2618564 0.22658175 0.2737462 0.9652971 0.3375238
0.7304651 -0.20968373 0.34895873 0.29547894 0.015205614 -0.34733704 -0.49300635 0.6577489

fc4.bias f4 [2]
00000000: 394e fd3d 320e 3fbd
0.123684354 -0.046644397
