Sample_Based_Extension/WUSTL/WUSTL_Defense/RSLAD/RSLAD_10.pt (torch, 20748 bytes, 8 tensors)

module.fc1.weight f4 [50, 42]
00000000: a962 003d 180e bd37 1204 dabd 524d c0b6
00000010: 0ba2 ed34 b96e e8b7 8f0e 303c 4b86 b2b7
00000020: aac8 3335 d9b9 33b9 8b38 a5b8 321c 053a
00000030: 0cbe aabc d397 a7b7 3478 8fb9 466e 033e
00000040: bf9d 7e3d 1aec 23b8 998a d83c 871f 7336
00000050: 77df 1cb8 fc90 883a 5cd3 a337 7942 8836
00000060: 8c68 8e37 ed96 48b7 07a4 353e 091a c13c
00000070: e84d c13c c735 c13c 719a e6ba 8fa4 053e
00000080: 84b4 903e 7a0f 8a3d fb4e 2f3c 4baf 86b7
00000090: 63da b8b7 0e22 c13c d6cc e7ba 74b4 263b
000000a0: 587b 1db8 1b73 ffbe 9793 5237 3c28 7236
000000b0: 066e b9b7 a391 3eb7 876c 69b5 3e84 5b37
000000c0: d4f4 1ab7 e2b6 56b7 e8e1 d437 015b cfb4
000000d0: 7aaf 40b4 3583 e8b7 1505 0437 0078 a3b7
000000e0: ca61 f236 3737 04b7 cf75 ee36 4db1 20b7
000000f0: bea3 eab7 306a da35 c499 cfb7 b33f ca37
00000100: c295 8cb7 9c3f 1c37 4f61 6f37 11d0 a9b6
00000110: d03f ebb7 f785 cc37 14f9 8937 8eae 2db7
00000120: d335 19b7 3910 5cb7 2726 9637 88ef acb7
00000130: bdfe cc36 1fee c1b7 2f17 4ab7 eab9 e0b7
00000140: 9148 e2b7 02f4 9db7 5aaf 80b7 19f4 9b36
00000150: b477 4a3a 0116 dfb6 b174 7e3a ca06 4f37
00000160: 47d9 6cb6 9926 0db6 0c3b 91b8 2ed0 8db6
00000170: ddbf 1fb6 aff9 82b9 b4e0 3b38 7791 64b9
00000180: 5e0c 26ba c93a e137 0899 41b9 6cbc bfba
00000190: 5fb3 25ba 397e 8035 ab99 9ebb 49bc c4b7
000001a0: 114e 29b5 1478 aab9 16bf 4136 15e8 8b36
000001b0: d6b8 af37 bbda 0c35 f85d 5b3a 7ea4 b43a
000001c0: 82ad b63a 6cc6 b33a d6dc 2db9 549b a0ba
000001d0: 6d84 913a 195a 2fba a75e 75b8 b200 05b8
000001e0: accc 7837 ee8b b23a 6cc1 3db9 5fd9 e638
000001f0: 7f9b 66b7 623b e23a 5b26 b7bc 6b19 ab37
00000200: fe5e 473e e3f2 2038 03d4 8b38 688f 0838
00000210: 6854 15bc 3903 9638 55e6 203a 6a65 2a3c
00000220: 4028 08b9 8f75 013c 3c1e 123d 3e40 c438
00000230: 2460 da3b c629 af3c d347 8ebc 2e36 3538
00000240: 3448 133c 4de5 7338 4f48 6438 212f 51bc
00000250: 0464 6f38 58e7 8639 19ef 3e38 7773 2338
00000260: 767b 633e 61dd 57bd d1db 57bd 9ec1 57bd
00000270: 9a63 3d3b fd1b 8dbe cdb7 b43d 5074 adbb
00000280: beca 14bc 4ffa 293a 3c32 e037 f61e 58bd
00000290: bb4b 363b 7b0e 25bd 2198 1e38 3852 23be
000002a0: f2ef cf37 957f 9c37 43f3 4237 c28f 9fb6
000002b0: ad78 e235 78cf b937 38d7 1ab6 7f75 6835
000002c0: 4b87 aa37 6907 8bb6 8251 e9b7 8c0e 9135
000002d0: af62 a1b7 a1f4 4db7 c6e2 3637 26ed 4837
000002e0: 2872 ecb7 db83 3ab6 d027 c9b7 83a1 9ab5
000002f0: a64a bdb7 c25b d337 7425 ceb7 1c6d 20b6
00000300: fe2d 8b37 4c25 e0b7 00b3 8637 30d7 12b7
00000310: ca0c bd37 7039 c8b7 5378 f837 f79a c736
00000320: 20fb cf36 5e4c dab7 039f 05b7 c1d9 88b7
00000330: 1b1c c7b6 c673 bbb6 21e2 c6b7 4341 8337
00000340: ef2c 7237 2a9f ecb6 f700 e6bc 8cb6 6ab8
00000350: 263a f83d a6b5 f936 4f48 05b8 cf7e 0037
00000360: 7e96 11bb ebaf 09b8 a8a6 b939 14a4 a43b
00000370: b7d1 5d3a 1db0 793b bdbd a53c 11dc 0039
00000380: 3452 383b 5d04 01bd b810 d7bc d4a3 aeb7
00000390: db6e b3bc f66e 6738 62d1 b3b8 d71d 1ebc
000003a0: f3c7 8336 d31e 3939 38d3 1f38 5305 4938
000003b0: 4bcd 093e 3a3b 34bd b228 34bd 7b36 34bd
000003c0: 903b 0b3b a2f9 40be fd3a fa3c 1f96 02bd
000003d0: 2ed9 0ebb 806f 9139 02b3 2f37 b684 34bd
000003e0: 2f31 093b a752 d7bc 38c3 92b9 1df7 d9bd
000003f0: a871 e2b9 7341 8bb7 b5cd 8abc 3ccb 7d36
0.03134409 2.2537119e-05 -0.106453076 -5.731047e-06 4.4262592e-07 -2.7708114e-05 0.010745659 -2.1281789e-05
6.69747e-07 -0.00017140004 -7.878345e-05 0.0005077749 -0.020842575 -1.997865e-05 -0.00027364644 0.12835035
0.062162157 -3.9082115e-05 0.026433276 3.6228173e-06 -3.7401416e-05 0.0010419185 1.9529536e-05 4.0608543e-06
1.6976403e-05 -1.1956069e-05 0.17738353 0.023571985 0.023596719 0.023585213 -0.0017593635 0.13051055
0.28262722 0.06741233 0.010699983 -1.6055672e-05 -2.2036204e-05 0.023575809 -0.0017684947 0.0025437148
-3.754659e-05 -0.49892506 1.2551339e-05 3.608423e-06 -2.2104952e-05 -1.1358791e-05 -8.695719e-07 1.3084207e-05
-9.236119e-06 -1.2797975e-05 2.5377565e-05 -3.862297e-07 -1.7945231e-07 -2.7717653e-05 7.868996e-06 -1.9486994e-05
7.223546e-06 -7.880669e-06 7.1066675e-06 -9.578024e-06 -2.7971222e-05 1.627317e-06 -2.4747926e-05 2.4109939e-05
-1.6759037e-05 9.313135e-06 1.42681665e-05 -5.0608146e-06 -2.8043898e-05 2.4381077e-05 1.6447659e-05 -1.0352245e-05
-9.132043e-06 -1.3116799e-05 1.789916e-05 -2.0615538e-05 6.109329e-06 -2.3118277e-05 -1.2045536e-05 -2.6789454e-05
-2.697509e-05 -1.8829483e-05 -1.5340443e-05 4.6477767e-06 0.00077235256 -6.6484795e-06 0.00097067194 1.2339742e-05
-3.5293212e-06 -2.1033104e-06 -6.925137e-05 -4.2263628e-06 -2.3804525e-06 -0.0002498156 4.4793545e-05 -0.00021797964
-0.00063342403 2.6849464e-05 -0.00018462923 -0.0014628298 -0.0006320979 9.573479e-07 -0.004840096 -2.3452698e-05
-6.307101e-07 -0.00032514392 2.8870468e-06 4.1695407e-06 2.0947697e-05 5.247236e-07 0.00083681894 0.0013781933
0.0013937207 0.001371575 -0.00016580833 -0.0012253323 0.0011102088 -0.0006689146 -5.8500704e-05 -3.171032e-05
1.4829606e-05 0.0013622025 -0.000180965 0.00011007743 -1.3745273e-05 0.0017260129 -0.022357157 2.0396625e-05
0.1946983 3.837318e-05 6.667527e-05 3.2558484e-05 -0.009114362 7.153158e-05 0.0006137838 0.010400156
-0.00012984965 0.007901563 0.035673365 9.357974e-05 0.006664293 0.021382224 -0.017368233 4.320422e-05
0.008989383 5.8149268e-05 5.442678e-05 -0.012767584 5.7075187e-05 0.00025730836 4.5522207e-05 3.8969763e-05
0.22215065 -0.052701358 -0.052699868 -0.052674882 0.0028898478 -0.27560416 0.0882412 -0.0052934065
-0.009081541 0.0006484137 2.6726273e-05 -0.0527639 0.0027816135 -0.040297013 3.7811817e-05 -0.15949333
2.4788056e-05 1.865606e-05 1.161994e-05 -4.755305e-06 1.6873433e-06 2.2150329e-05 -2.3073062e-06 8.6597714e-07
2.032858e-05 -4.1433855e-06 -2.781372e-05 1.0807576e-06 -1.9238649e-05 -1.2275909e-05 1.0900845e-05 1.1976144e-05
-2.818655e-05 -2.779291e-06 -2.3979606e-05 -1.15209e-06 -2.2565317e-05 2.5195888e-05 -2.4574554e-05 -2.3905368e-06
1.6591508e-05 -2.6720249e-05 1.6057398e-05 -8.75238e-06 2.2536511e-05 -2.3868604e-05 2.9619934e-05 5.9487024e-06
6.1983155e-06 -2.6023186e-05 -7.964441e-06 -1.6313863e-05 -5.933934e-06 -5.586512e-06 -2.3708739e-05 1.5646807e-05
1.4434786e-05 -7.051877e-06 -0.028076632 -5.5959958e-05 0.12120466 7.441925e-06 -3.1777014e-05 7.6589195e-06
-0.0022214944 -3.282718e-05 0.00035410118 0.0050244424 0.0008461731 0.0038099356 0.020232076 0.00012289012
0.0028125169 -0.0314983 -0.02625309 -2.0818705e-05 -0.021903446 5.5178032e-05 -8.574386e-05 -0.009650669
3.9273814e-06 0.00017654458 3.8105267e-05 4.7927093e-05 0.1345722 -0.044001795 -0.043984123 -0.04399727
0.0021245219 -0.18845227 0.030545706 -0.031881448 -0.002179693 0.0002773963 1.0472491e-05 -0.044071876
0.0020933857 -0.026284529 -0.0002799274 -0.10642836 -0.0004319076 -1.6600568e-05 -0.016943792 3.7818236e-06

module.fc1.bias f4 [50]
00000000: 05e3 533e 868a 14b7 86dd d739 442c 903e
00000010: 00d9 86b7 3992 2f3e 5949 3ebd 3049 0a3e
00000020: 2000 bc39 8108 b0bc 3290 173e 15e0 0c3e
00000030: 590d 453d 0a9c 823e 27c2 a3b7 f4e0 963e
00000040: ea83 a235 fc15 ac36 85c2 9b3b 1d12 abb7
00000050: ae4a cf3d 766b bcbd bac2 9038 bee4 45bd
00000060: 49ae 0c3e 215c cb37 6081 d43e 4eeb b2bc
00000070: 3c2c df3d 71c8 f73e d8a1 a3bb d141 9a3e
00000080: 8a2c 923d 511e 84bc 2130 bdbd 0961 bebd
00000090: dae9 67bd 8c3f a4bc 52df b1bd 31f3 4e3a
000000a0: 8fc6 a13d 1225 8eb6 f19f fdbb 5203 dcb7
000000b0: 881a 1037 e422 7138 4510 623c 856c 98bd
000000c0: b2e1 2e3e 9ee1 f13c
0.2069207 -8.85374e-06 0.00041173043 0.28158772 -1.6075093e-05 0.17145623 -0.04645667 0.13504481
0.00035858247 -0.02148843 0.148011 0.13757356 0.048108432 0.25509673 -1.9521523e-05 0.294685
1.2108333e-06 5.1285588e-06 0.004753413 -2.0393223e-05 0.10121666 -0.09200184 6.902726e-05 -0.04831385
0.1373836 2.4242387e-05 0.41504955 -0.021840718 0.10897109 0.48395112 -0.0049936585 0.3012834
0.071374014 -0.016127737 -0.092376955 -0.09295852 -0.056619503 -0.020049833 -0.08685173 0.0007894515
0.078992 -4.2362453e-06 -0.0077400138 -2.622759e-05 8.589246e-06 5.7491372e-05 0.013797824 -0.074425735
0.17078283 0.029526528

module.fc2.weight f4 [30, 50]
00000000: b1d6 e7b6 52ab b936 00a7 2d37 6adb 8137
00000010: f70d 4ab7 7712 92b7 330a 06b7 d9b8 9337
00000020: 644e 7a37 3ea0 6436 dff5 af37 9971 aa37
00000030: 4a7a 25b7 8622 6837 5147 cb37 c74f dab7
00000040: b4d8 4937 5776 3337 f1e9 8bb6 c5cc 3db7
00000050: 9df1 8ab7 4236 4d37 7c0d af35 f7fa 7037
00000060: bfd8 84b7 93d9 84b6 6854 c6b7 59be 9836
00000070: a8eb 6d37 8b61 bb34 8b20 21b7 a04d 0537
00000080: 21e9 42b5 4d92 3b37 86de ad37 2743 a8b7
00000090: 89b2 9137 09a8 50b7 5ae8 97b7 ba93 f1b6
000000a0: 819f 3037 700d 99b7 8b6a a4b7 f893 87b7
000000b0: 900d 0a37 c203 2037 fa6c 9436 55fd 3cb7
000000c0: 703e afb6 7097 8b35 c70f 11b6 a893 bf37
000000d0: fbd1 56b7 af57 6f37 2bb8 19b7 f84c 8bb7
000000e0: f09f a1b7 3240 ec35 1e9c 67b2 5f88 18b7
000000f0: e7de cbb7 5585 8c37 4728 1237 42bd e7b6
00000100: 169d 48b7 8a8c 5537 4be8 afb6 00fa e0b6
00000110: 88e4 7cb7 7ba4 a037 0539 1a35 3b64 df36
00000120: d9a2 45b6 9184 dbb7 f5da 02b7 c47b 8fb7
00000130: 833a 6a37 21bd 40b7 80da 4437 f715 a2b7
00000140: 7922 0c36 d730 a9b6 f7bd af35 fd58 8737
00000150: fc80 7635 2791 b8b7 9bc2 e6b5 2951 9ab6
00000160: 5459 ee34 6cc2 04b7 adf9 bbb7 f88c c3b7
00000170: 73b2 47b6 f4f2 3537 acb0 ac37 95e6 ccb7
00000180: e029 0437 9a0d 4a36 658b 8a37 5a7b 8837
00000190: 8355 6fb6 3bea 8e36 6c2f c537 d1da 09b7
000001a0: 66a2 26b7 7bf7 a537 3b87 8b36 8418 41b7
000001b0: 7f98 bb37 a75d 4eb6 ec6f 42b6 ca6b 9437
000001c0: 8b3a c9b5 f4ac 2db6 023b 8136 14ab e735
000001d0: d632 d7b5 bdda 1237 05b1 b6b6 a566 f8b6
000001e0: 90f3 8db7 1986 e7b6 6e90 94b6 23a1 2337
000001f0: 5326 eab6 cc38 7137 68e5 4eb5 4eda 36b7
00000200: 26d8 fab6 a4b6 b336 81f2 fbb5 7036 3bb7
00000210: b7e9 1fb7 3633 28b7 360a 70b7 4f97 e6b6
00000220: ce36 07b7 5537 75b7 9b52 ee36 807d 80b7
00000230: 9014 92b6 f288 c1b7 40c8 13b7 fb01 3f37
00000240: b477 92b7 e912 8f36 e20e ecb6 13bd 1e37
00000250: a6c4 ba37 fde8 6d37 e03e 1336 cbdc 52b7
00000260: 8ea0 0eb7 b741 87b6 a16b 15b6 8d82 d135
00000270: 0876 c8b6 0b25 8eb4 605a 1f37 8bd1 1b37
00000280: 0a63 2e37 7655 4bb7 e395 62b7 8130 a9b7
00000290: aabf 1eb7 3b40 ccb5 8e4a 8537 0c39 ba37
000002a0: f2ee b5b7 9fd1 4037 91b6 cdb7 99af 81b7
000002b0: 649b e8b5 9998 ad37 ba88 b4b7 81de cab7
000002c0: ae80 6237 5775 c6b6 a7d1 55b7 5e7d cc35
000002d0: b26d aab7 be3f f936 c75a 6537 bc99 b1b6
000002e0: f2aa 73b7 0d08 c3b7 1492 ab36 566b 8e37
000002f0: 5801 7037 86f3 f736 3de0 50b4 0628 a8b5
00000300: 1bad 5cb6 8610 ca37 9f74 d836 36b5 cfb7
00000310: ae77 5636 562a 6db7 d667 f935 bf83 9fb6
00000320: 43d6 903c 9924 9fb6 2d5e 4bb9 dfb2 923c
00000330: 05f1 8035 7c35 3d3c d94b bfbb 6bb3 d73b
00000340: f932 29b9 b2bb 94bb ebf3 113c 2312 fd3b
00000350: c1ed 27ba 48a0 843c 534e be36 dba7 6d3c
00000360: f016 cb37 23a4 aeb7 51c7 773a 2546 9d36
00000370: 50c9 0d3c 9849 37bc f204 e837 7a39 00bc
00000380: f676 a83b 6215 99b7 cc8b c73c 6cae f2bb
00000390: 8b02 183c acad f43c 58cf 00bb 08b0 d23c
000003a0: 16c2 393b ed5c 6ebb 13b3 38bc 4e97 39bc
000003b0: 0df6 1ebc 1021 2dbb 8d2e 52bc ce4c a4b9
000003c0: 6734 8e3b 34c5 9b37 5d72 b7bb 08ac bdb7
000003d0: 6841 27b7 c6a7 5d38 cf69 9c3a 7c5e 14bc
000003e0: d5f2 253c caaa 263b 1b72 483e a144 cd37
000003f0: 0f5b 07bb 418d 533e 0f66 edb5 c781 083e
-6.90933e-06 5.533374e-06 1.0350486e-05 1.5480171e-05 -1.204339e-05 -1.7413155e-05 -7.989397e-06 1.7609842e-05
1.4919413e-05 3.406792e-06 2.0976118e-05 2.0318477e-05 -9.863239e-06 1.3836316e-05 2.4232695e-05 -2.6024774e-05
1.2030989e-05 1.0696785e-05 -4.169757e-06 -1.13129545e-05 -1.6563392e-05 1.2231585e-05 1.304244e-06 1.4363547e-05
-1.5836556e-05 -3.9592355e-06 -2.3642744e-05 4.5521124e-06 1.4181169e-05 3.4902436e-07 -9.603925e-06 7.945491e-06
-7.260988e-07 1.1180132e-05 2.0726828e-05 -2.005843e-05 1.7368484e-05 -1.243689e-05 -1.81088e-05 -7.1995573e-06
1.0527555e-05 -1.8245279e-05 -1.9599936e-05 -1.6162157e-05 8.228599e-06 9.537618e-06 4.4234303e-06 -1.1264657e-05
-5.222675e-06 1.0400381e-06 -2.1615867e-06 2.2837732e-05 -1.2804284e-05 1.42659255e-05 -9.162391e-06 -1.6605933e-05
-1.9267172e-05 1.7602054e-06 -1.3481467e-08 -9.091657e-06 -2.4303283e-05 1.6751388e-05 8.711656e-06 -6.906369e-06
-1.1957503e-05 1.2728511e-05 -5.242449e-06 -6.704824e-06 -1.507358e-05 1.9150079e-05 5.7452445e-07 6.6575863e-06
-2.9450077e-06 -2.6168565e-05 -7.799584e-06 -1.7104561e-05 1.396111e-05 -1.1488127e-05 1.1733384e-05 -1.9322133e-05
2.0881691e-06 -5.042278e-06 1.3093803e-06 1.6134692e-05 9.182984e-07 -2.2002101e-05 -1.7192973e-06 -4.599006e-06
4.439595e-07 -7.9130805e-06 -2.2408401e-05 -2.3311455e-05 -2.9757182e-06 1.0845008e-05 2.0586267e-05 -2.4426068e-05
7.877563e-06 3.0108263e-06 1.6515793e-05 1.6269903e-05 -3.566355e-06 4.259198e-06 2.3506313e-05 -8.2167835e-06
-9.932182e-06 1.9784775e-05 4.1582657e-06 -1.1509404e-05 2.2363149e-05 -3.0750905e-06 -2.89734e-06 1.7693168e-05
-1.4992705e-06 -2.587968e-06 3.851369e-06 1.7260631e-06 -1.6033543e-06 8.753207e-06 -5.4446305e-06 -7.4029253e-06
-1.6921927e-05 -6.8999475e-06 -4.4275575e-06 9.753075e-06 -6.978205e-06 1.4377943e-05 -7.707481e-07 -1.0898873e-05
-7.4757436e-06 5.355878e-06 -1.8771535e-06 -1.1158743e-05 -9.5315545e-06 -1.0025504e-05 -1.4307492e-05 -6.872149e-06
-8.059387e-06 -1.4616021e-05 7.1025693e-06 -1.531723e-05 -4.353533e-06 -2.3071163e-05 -8.808507e-06 1.1384948e-05
-1.7460297e-05 4.2639335e-06 -7.0350807e-06 9.461556e-06 2.22645e-05 1.4180548e-05 2.1941305e-06 -1.2568383e-05
-8.501242e-06 -4.0309637e-06 -2.2265378e-06 1.5609709e-06 -5.974205e-06 -2.6476513e-07 9.498181e-06 9.287508e-06
1.03942675e-05 -1.2119641e-05 -1.3505548e-05 -2.0168956e-05 -9.462159e-06 -1.5217878e-06 1.5889553e-05 2.2199492e-05
-2.1688149e-05 1.1492898e-05 -2.4522918e-05 -1.5459767e-05 -1.7330572e-06 2.0694266e-05 -2.152134e-05 -2.4183888e-05
1.350061e-05 -5.91452e-06 -1.2744603e-05 1.5235671e-06 -2.031666e-05 7.428199e-06 1.3670599e-05 -5.292908e-06
-1.452373e-05 -2.324956e-05 5.113203e-06 1.6977701e-05 1.4305428e-05 7.3895235e-06 -1.9453087e-07 -1.2528624e-06
-3.2883315e-06 2.408797e-05 6.450878e-06 -2.4760706e-05 3.1958148e-06 -1.4136158e-05 1.8582166e-06 -4.7539065e-06
0.017680293 -4.74283e-06 -0.00019394672 0.017907558 9.606889e-07 0.011548396 -0.005837899 0.0065826676
-0.00016136085 -0.0045389766 0.008908252 0.0077231093 -0.00064059725 0.01618971 5.6715594e-06 0.014505352
2.4210167e-05 -2.0818848e-05 0.00094520027 4.6871305e-06 0.008653954 -0.01118698 2.7658858e-05 -0.0078262035
0.0051411344 -1.8248978e-05 0.024358653 -0.0074060466 0.00927795 0.02986797 -0.0019654837 0.025718704
0.0028344444 -0.0036371306 -0.011273163 -0.011327578 -0.009702218 -0.0026417412 -0.012828481 -0.00031337742
0.004339743 1.856927e-05 -0.00559835 -2.2610664e-05 -9.969204e-06 5.2846757e-05 0.0011933389 -0.00905573
0.010128696 0.0025431388 0.19574778 2.4469862e-05 -0.002065364 0.20659353 -1.7687579e-06 0.13330756

module.fc2.bias f4 [30]
00000000: 3ee1 b1b7 f86b d7b6 c86c aeb6 841c f4b6
00000010: f50b 9c3c c4da 5c3e 5ed1 083e cf7b 063e
00000020: e814 ae3e 483d d7b7 1ba5 beb7 f830 323b
00000030: 5df5 c7b7 58a7 8a36 13ef e13c d3bc 12b7
00000040: fd86 213d 5f29 8436 2fb5 ccb5 c108 efb7
00000050: 4eeb 473e e73d 103e 2227 203c fec8 103d
00000060: ce44 8336 43f1 783c 2792 e83c ba67 743e
00000070: 83fc d43d 9f24 0a3e
-2.120493e-05 -6.4200685e-06 -5.198268e-06 -7.2750863e-06 0.01904867 0.21567827 0.13361117 0.13133167
0.34000325 -2.5658534e-05 -2.2726648e-05 0.0027189832 -2.3836905e-05 4.132202e-06 0.02757982 -8.746242e-06
0.039435375 3.938723e-06 -1.5251916e-06 -2.8495097e-05 0.19523355 0.14086114 0.009774955 0.03534793
3.912114e-06 0.01519424 0.028390003 0.23867694 0.10399725 0.13490532

module.fc3.weight f4 [20, 30]
00000000: 008f 0338 f17a fd36 dfe4 9336 32de ccb7
00000010: c487 123d 1fd6 d13e 3841 ffbd 79fa 803e
00000020: 304d 253f 0cbb ffb7 199e a536 6b15 c33b
00000030: f1c5 d9b7 06b8 35b7 d9b7 dabc b052 51b6
00000040: f6e1 b5ba 57bc 92b7 95cc e4b6 a34f b2b7
00000050: b9bd bc3e 805d 873e b01e 803c b05f 0cbd
00000060: 5b2a 85b6 8e81 5bbc ec2a dabc cbe2 e73e
00000070: d879 4a3e a770 03be 7c82 51b7 4ede be37
00000080: 704a d0b7 11aa beb7 50f9 b4bc 473b 82be
00000090: 0d2f 9a3e 679c 20be e522 cdbe 7e6d 0cb7
000000a0: a340 0638 494d 7dbb 6933 a036 ec4c 9636
000000b0: a879 7f3d c2a9 26b5 246e 8c3d 8f1c 5936
000000c0: 4b20 17b7 f579 94b7 77a4 69be ad24 27be
000000d0: 8237 0fbc 4ed6 a33d c20d 15b8 13de 0b3d
000000e0: 7e33 833d c5cb 8fbe c961 fbbd 27dc 9b3e
000000f0: 1219 68b7 4080 9937 f2ce 97b7 9a17 0038
00000100: 9d71 0435 f6f9 0cb7 8b2b e1b7 04dc c735
00000110: 1205 14b7 f0ad 62b7 d3b6 b3b7 dd63 eab6
00000120: 255b f3b7 d803 cb37 71d5 3037 6fd1 bb37
00000130: 45b6 fe36 82c6 08b7 5cc6 dc37 aba2 f137
00000140: a5bc 84b6 1425 ffb6 735c 7d37 2e18 75b3
00000150: a833 4cb7 3059 0438 b3fc 3c37 526c afb7
00000160: 4eee 8e35 d1bc 9237 7850 3836 5fed 09b8
00000170: 25c1 5037 a931 b037 c7c4 cb3c d4f5 913e
00000180: 0d35 b1bd 136f 333e 2ef6 e53e a576 d536
00000190: 5ff7 7437 1e9b 863b 424a 1db7 98ea e037
000001a0: 4508 98bc 553a bb37 76f1 5fba ee8d e1b7
000001b0: a395 9eb7 f711 d536 ce48 833e 9150 3c3e
000001c0: c93b 313c 204b c3bc bf4b 3537 4744 18bc
000001d0: c155 97bc 2e44 a13e 92d2 0c3e b5ab b6bd
000001e0: d030 a037 eafb 32b7 23c3 fdb7 43a9 ec37
000001f0: f515 ffbc f17f b7be 243e d93e fd4d 62be
00000200: e484 10bf 5b68 85b7 36fe a0b6 88dd b3bb
00000210: b84c 2cb6 99d6 c7b6 6000 b43d e65f 34b7
00000220: 55d6 c53d 493c ef37 2f33 af37 ed4e cdb6
00000230: bf97 a4be 8f86 6bbe e325 49bc a8d0 e63d
00000240: 8469 e9b7 f930 453d 8cc3 b83d b49c cabe
00000250: 1416 31be 61a0 db3e 5aff ba37 2d42 90b6
00000260: 4045 0838 584c 7637 583b d5b7 05de 9236
00000270: d4d1 d1b7 64a4 4d37 aa19 9bb7 630e 5536
00000280: 9421 b2b7 b275 2ab6 85d5 0db7 26a5 0a38
00000290: 5f8a 8237 8757 9337 537a 8e37 565d 0337
000002a0: b97f 37b7 dc80 c3b7 c27a 6537 8818 b836
000002b0: dad3 6537 325d 9137 c97e cdb7 9a89 1eb6
000002c0: 06ad f634 0938 de36 1bdb d737 4580 f0b7
000002d0: da2e af37 1a1c d137 9d77 35b7 f049 e937
000002e0: 5ae1 3ebb a885 a9bc f6f8 583f ea6a eebb
000002f0: e121 09bd 1cc5 e2b7 481f be37 7d9a df3a
00000300: 149c 4937 2325 0038 2404 2a3e c38f bfb7
00000310: c574 a43e 8579 62b7 feac 0eb7 6789 9037
00000320: 040f c3bc f434 a9bc 670e c4bb 2e45 593e
00000330: 5d3e f1b6 1437 d73d 1ba7 373e ca38 c6bc
00000340: 71d3 1ebc 362a 553f 4d07 f335 c485 f837
00000350: 442d fab7 04de eb37 b18d fd3b 9f62 b53d
00000360: 2196 dbbc d508 5f3d 63db 0e3e 12d2 abb6
00000370: d0d0 7fb6 8261 ab3a c6fe 9cb5 1a1e 08b8
00000380: bdd5 bbbb 924d b6b7 15e9 61b9 3cca 45b6
00000390: 0652 04b8 049d 0438 3e11 a33d 2af5 693d
000003a0: fed7 5c3b 83d2 f0bb e828 e537 85b5 3bbb
000003b0: be3a bbbb 616d c83d 88dc 2e3d 2730 e2bc
000003c0: 643a 3bb7 5d5f 0bb7 8ba3 0138 75bd 3fb7
000003d0: 9486 6eb7 a17c 9fb6 f571 c8b7 7b7e d8b7
000003e0: c51d d8b7 75d1 03b8 3a53 d1b7 12fc aab6
000003f0: f797 89b7 34c4 91b7 1d99 fcb7 e3f0 ac37
3.1366013e-05 7.5543e-06 4.4075855e-06 -2.4422163e-05 0.035774007 0.40983674 -0.12463611 0.25191095
0.64570904 -3.048547e-05 4.935788e-06 0.005953481 -2.596059e-05 -1.0831287e-05 -0.026698994 -3.1191557e-06
-0.0013876546 -1.7492259e-05 -6.818746e-06 -2.1256337e-05 0.36863497 0.26438522 0.015639633 -0.034270942
-3.9686397e-06 -0.013397587 -0.026631795 0.45290217 0.19773042 -0.12835942 -1.24877515e-05 2.2753284e-05
-2.4830195e-05 -2.2728958e-05 -0.022091538 -0.2543585 0.30114022 -0.15684663 -0.40065685 -8.370143e-06
3.2008287e-05 -0.0038650802 4.7743565e-06 4.4793032e-06 0.06237188 -6.208685e-07 0.06856945 3.2352143e-06
-9.00782e-06 -1.7699766e-05 -0.22816645 -0.16322584 -0.008741261 0.0799986 -3.553718e-05 0.034147333
0.06406306 -0.2808515 -0.122745104 0.304414 -1.3834115e-05 1.8298742e-05 -1.809697e-05 3.053956e-05
4.933916e-07 -8.402849e-06 -2.6842366e-05 1.4890688e-06 -8.822668e-06 -1.3511148e-05 -2.1423597e-05 -6.985369e-06
-2.90103e-05 2.4201276e-05 1.0540113e-05 2.2389662e-05 7.591009e-06 -8.15245e-06 2.6318412e-05 2.8805187e-05
-3.9558677e-06 -7.6039087e-06 1.51015e-05 -5.70655e-08 -1.2171375e-05 3.1554315e-05 1.1264509e-05 -2.0912066e-05
1.064918e-06 1.749248e-05 2.7464976e-06 -3.2884414e-05 1.2442736e-05 2.100396e-05 0.024874104 0.28507864
-0.08652697 0.1752284 0.44914383 6.3617067e-06 1.4601129e-05 0.004107847 -9.375219e-06 2.6812122e-05
-0.01855863 2.23193e-05 -0.00085427554 -2.6888181e-05 -1.8904748e-05 6.349986e-06 0.25641483 0.18390109
0.010817477 -0.023839533 1.0806077e-05 -0.009293622 -0.018473508 0.3149733 0.13752201 -0.08919469
1.9096216e-05 -1.066828e-05 -3.0250818e-05 2.8212211e-05 -0.0311384 -0.358398 0.42430222 -0.22100063
-0.56452775 -1.590343e-05 -4.7979656e-06 -0.005489055 -2.5674653e-06 -5.9556446e-06 0.08789134 -1.0751164e-05
0.09660021 2.8519093e-05 2.088546e-05 -6.1186643e-06 -0.32147023 -0.23000549 -0.012277099 0.11270267
-2.7824899e-05 0.048142407 0.090216726 -0.3957268 -0.17293578 0.42895797 2.2291835e-05 -4.2992383e-06
3.248942e-05 1.4680518e-05 -2.5419213e-05 4.3769855e-06 -2.501245e-05 1.2257227e-05 -1.848939e-05 3.1747848e-06
-2.123489e-05 -2.5400482e-06 -8.453969e-06 3.305557e-05 1.5561642e-05 1.7564524e-05 1.698468e-05 7.82994e-06
-1.0937388e-05 -2.3305816e-05 1.3678045e-05 5.486483e-06 1.3698789e-05 1.7328744e-05 -2.4496943e-05 -2.362393e-06
4.5946962e-07 6.622639e-06 2.5732026e-05 -2.866996e-05 2.0883443e-05 2.4927827e-05 -1.081629e-05 2.7810194e-05
-0.002912602 -0.020693615 0.84754884 -0.0072759287 -0.033479575 -2.7033086e-05 2.2664331e-05 0.0017059591
1.2016873e-05 3.0552164e-05 0.16603142 -2.2835919e-05 0.32120338 -1.3498943e-05 -8.504137e-06 1.723012e-05
-0.023810871 -0.020655133 -0.005983162 0.21217796 -7.1896197e-06 0.10508552 0.1793484 -0.024197001
-0.009693966 0.83267534 1.8107036e-06 2.9626193e-05 -2.98234e-05 2.8117567e-05 0.007737838 0.08856701
-0.026804985 0.054451782 0.13950877 -5.1206525e-06 -3.8119506e-06 0.0013075324 -1.1697055e-06 -3.245296e-05
-0.0057322667 -2.1732212e-05 -0.00021544502 -2.9473003e-06 -3.1547643e-05 3.1617485e-05 0.07962273 0.057118572
0.0033698077 -0.0073493137 2.7317976e-05 -0.002864213 -0.0057137897 0.09786487 0.042690784 -0.027610851
-1.1159664e-05 -8.307249e-06 3.0908308e-05 -1.1428599e-05 -1.4217239e-05 -4.753078e-06 -2.3894923e-05 -2.5808104e-05
-2.5763069e-05 -3.1427906e-05 -2.4953497e-05 -5.0957397e-06 -1.6402437e-05 -1.7376711e-05 -3.011204e-05 2.061617e-05

module.fc3.bias f4 [20]
00000000: 955c 2a3e c57d 733d d9aa 07b7 a0a2 ec3d
00000010: 137b ab3d 94cf fab7 08a1 0f3e aa4b 123d
00000020: ffaa eeb7 eb71 31b7 7ca4 273d 3ee7 c6b7
00000030: c4ff 043e 3da3 3b3e a342 833b fd81 b8b7
00000040: b2ec 313d da9b 513c 4809 a9b6 dd1d b63c
0.1663688 0.059446115 -8.086406e-06 0.11554456 0.08373084 -2.9898983e-05 0.14026272 0.03571669
-2.8451437e-05 -1.0576546e-05 0.04092835 -2.371112e-05 0.12988192 0.18323989 0.0040057465 -2.199504e-05
0.04343862 0.012793506 -5.037673e-06 0.022231037

module.fc4.weight f4 [5, 20]
00000000: 90f2 e1bd 6e72 8cbd 0970 82b6 6632 9dbd
00000010: d8e7 c5bd 8f18 1db7 55dd 36be fe55 c3bc
00000020: a6f5 f437 7870 1338 9a0e 54bd bab3 3737
00000030: 8523 b0bd 3d03 f2bd 4b42 33bb 0003 1bb8
00000040: a6fa ecbc 5f0a 85bc 5b65 f2b7 8f54 6cbc
00000050: af2a 14be 6d04 42bd 4a8e 21b8 6042 cebd
00000060: b4b4 88bd 5f93 fab7 b663 30be 2d10 00bd
00000070: 81a9 c1b7 6fdb b437 8b75 4cbd a8b0 8735
00000080: 3d0a e7bd 98e7 e6bd 84c6 6abb d745 48b7
00000090: b73f 1bbd 5a83 7fbc 4d84 8bb7 287f 60bc
000000a0: c816 3ebf aa4b 1e3f 6cf9 8537 e336 04bf
000000b0: 9209 5f3f 0da2 5736 b903 353f c54e 24be
000000c0: 07b6 af37 6eda 9037 e710 523e 42be 4e37
000000d0: 5036 14bf 3551 10bc 7308 96bc 313f 83b7
000000e0: 6719 47be f85d 833d 69fb a3b7 ab21 82ba
000000f0: 153f 9a3e 20e1 f8be 696a 8fb6 3cdd 563e
00000100: 4857 2fbf 0da1 a137 630f 0b3f fefd 853d
00000110: d500 2b37 1e47 18b7 faed 203e dda5 a3b7
00000120: 9d5b 703e d4cd 2bbf 1bde f63b c56e cab7
00000130: dcf7 a13d 6951 493d d077 68b6 97e6 a7bd
00000140: 5d38 323f 3215 85bc 3f24 9a37 26d0 f73e
00000150: a7bc bbbc 30fa ceb7 8345 66bf 7ebc 193e
00000160: 0a94 97b7 d8dd b037 546d 85be a740 96b7
00000170: dd05 0b3f 752e 693f bd8f 8b3c 975d efb7
00000180: 4588 3a3e 63cc a6bd f2e5 df37 f28a e33d
-0.11032593 -0.06857763 -3.8873445e-06 -0.07675628 -0.09663361 -9.363647e-06 -0.17857869 -0.023844715
2.9201456e-05 3.5152276e-05 -0.051771738 1.0949496e-05 -0.08600525 -0.11817024 -0.0027352746 -3.6957674e-05
-0.028928112 -0.016240297 -2.8895845e-05 -0.014424457 -0.14469407 -0.047367502 -3.851791e-05 -0.10071254
-0.066750914 -2.9870947e-05 -0.17225537 -0.031265426 -2.3086324e-05 2.1559854e-05 -0.049916785 1.0109698e-06
-0.1128125 -0.11274642 -0.003582389 -1.193719e-05 -0.03790256 -0.0155952815 -1.6631699e-05 -0.013702191
-0.7425351 0.61834204 1.5970982e-05 -0.5164625 0.8712398 3.2131823e-06 0.70708805 -0.16045673
2.0946389e-05 1.7267852e-05 0.2051426 1.2322855e-05 -0.57895374 -0.008808424 -0.018314576 -1.5645843e-05
-0.19443284 0.064144075 -1.9548186e-05 -0.0009928247 0.30126253 -0.48609257 -4.27412e-06 0.20982832
-0.68492556 1.926769e-05 0.54320353 0.06542586 1.0192588e-05 -9.076464e-06 0.15715781 -1.950835e-05
0.23472448 -0.67110944 0.0075338013 -2.4131858e-05 0.079086035 0.049149904 -3.4640434e-06 -0.081982784
0.69617254 -0.016245458 1.8375109e-05 0.48400992 -0.022917105 -2.4673616e-05 -0.89949816 0.1501331
-1.8069539e-05 2.1084139e-05 -0.26059973 -1.79115e-05 0.5430582 0.9108651 0.017036313 -2.8534601e-05
0.18216045 -0.081444524 2.6690748e-05 0.11110486

module.fc4.bias f4 [5]
00000000: 07da 30bd ace7 aebc 942e 3b3d 2916 5ebd
00000010: 2c7e 953d
-0.043176677 -0.021350704 0.045698717 -0.054220352 0.07299456
