Sample_Based_Extension/WUSTL/WUSTL_Defense/RSLAD/RSLAD_100.pt (torch, 20760 bytes, 8 tensors)

module.fc1.weight f4 [50, 42]
00000000: 3e95 2cbd d6fb d638 509a 833e 1c1b f637
00000010: b7f4 2437 1fa1 0b38 4e52 7fbc d53a 0c37
00000020: 27cd 4338 550f ce3c 93f6 5cb9 34cd a93c
00000030: c8ff 973d b79b b5b7 8062 853c beff ea3c
00000040: 3f67 07bc 79f3 6a37 4ca2 a03d 33b3 9f38
00000050: 2fab 1a38 a070 1dbc f6c6 ec36 ecdf 6a38
00000060: 9874 8537 b827 af37 ebba b33e aba1 a7bd
00000070: dce3 a7bd 45ce a7bd a06e 52b8 5bf1 7bbe
00000080: 1f9c 0c3e 4fa8 0cb9 3f34 7fbc 17a7 8e38
00000090: be2a fc37 71ad a7bd 9c5d 37b8 ce88 19bd
000000a0: 449a ca37 37bf 39be 2e3b 92bc a822 82b9
000000b0: 14eb 763d c2b5 c7b8 a316 d6b8 efdd a1b8
000000c0: c5f7 15bc 1861 8fb8 6df0 71b8 fecf a23b
000000d0: 55a8 dbb9 6b6a 563b e20c 853c 0ddd cd38
000000e0: c04e 403b 0e9b 9abc d956 94bc baed 9fb8
000000f0: 1832 c7bb 2a58 8ab8 57b4 6bb9 0083 83bb
00000100: 7198 51b9 b18f 7637 400d a3b8 dde3 a1b8
00000110: 19e3 af3d f7f9 d2bc 1b49 d3bc a12d d3bc
00000120: 3b94 163a 82b8 a8bd d10c 843c 4990 61bc
00000130: c0de 15bc e579 6cb8 8f25 2bb8 af0b d3bc
00000140: dbc2 123a 639e 40bc 0a1c 1a39 374d b1bd
00000150: 5a70 32bc 5009 fe37 27f2 393d cd17 8335
00000160: 2d91 88b7 9cf5 bc36 7ff8 e8bb 3135 e6b6
00000170: bfc9 57b9 6728 b73b 8f13 bfb8 395b 883b
00000180: 35da 813c ebe8 42b7 df24 723b be95 e0bc
00000190: d6d6 a0bc 1e45 7135 7bea ba3c 598b 8c37
000001a0: 620b 8236 0010 e93a 1513 a036 eaff beb8
000001b0: d415 de36 8562 c736 2e5b 283d 1689 eebb
000001c0: 601f eebb ce3f eebb 611f f9b6 dcc3 233d
000001d0: 1f78 8abc fbc5 61bc e3af e8bb ff0c 60b9
000001e0: d451 4637 3882 eebb eea2 d9b6 418d 063c
000001f0: dc89 2db7 2750 153e 1896 9739 df5d 1cb7
00000200: 340f 2c3a 0ea3 55b6 f57c 2db6 3711 6bb6
00000210: 1498 48b9 b1a3 95b6 c7f2 34b7 f0c2 27b9
00000220: fbf5 8837 9d07 2fb9 38ea edb9 a501 0b37
00000230: a25e d8b8 2690 7bba eccf 1fba 41e4 73b6
00000240: 63f4 3fbb f198 0db7 de12 78b6 911c 6eb9
00000250: c3ce 9eb5 2e9f cfb6 f8f8 92b6 2a95 12b7
00000260: 66e2 043a 8884 1f3a f799 1f3a 779e 1f3a
00000270: 3c30 b936 e771 5dba 663c 343a a9dd 0fba
00000280: bc93 48b9 7ff6 4ab7 6f6f 1eb7 d48c 1f3a
00000290: c68d bc36 0498 2db7 2452 e8b6 07d0 8e3a
000002a0: e11c 10bc b5a9 c237 ced3 313d 4997 4436
000002b0: b814 eeb6 fa95 b836 e0c1 9bbb 9767 37b6
000002c0: 052b cab8 4c83 9d3b c6cc 81b8 6968 753b
000002d0: c843 633c d39a fab6 b15d 4e3b 06ac 33bc
000002e0: 9fd1 27bc c678 dd35 3446 903c 6155 7337
000002f0: 4134 a636 620b 9038 0caf 4936 d250 26b8
00000300: 82d8 9b36 ee5c 9b36 0432 493d ac45 29bc
00000310: 1558 29bc cb51 29bc eca4 01b7 ebc8 76ba
00000320: d20e 4f3b 4d2c dcbb ad98 9bbb 092a ceb8
00000330: cc22 0a37 a04b 29bc e935 e3b6 231a 693a
00000340: 43c1 4ab6 8c1e 653d c915 233d 02fc 6a38
00000350: 3866 bcbd 013f 0137 4af0 e8b7 68e7 2936
00000360: bb0c c33c fb0f 4536 b211 2238 0bad 3dbb
00000370: 95f9 8539 e446 6c39 d9b2 acbc 0dd2 8637
00000380: 8682 20bb 55e1 eb3d cb74 9b3d af0c 8237
00000390: f3ce 053d b13e 2639 430b 68b7 a264 183b
000003a0: 029c 1939 b447 d237 3324 d9b7 33d2 1638
000003b0: ef45 1a3e 00dd 013d 96db 013d dbd5 013d
000003c0: 75bc 19ba adb1 163e 8be9 8a3e d467 913d
000003d0: 4294 c23c f9f2 9d38 01fa 9a36 4dd7 013d
000003e0: f476 0fba 9b64 6f3b d2ef 6838 8e13 eabe
000003f0: d162 d0bb ef58 ee37 6131 b03c 843e 3437
-0.042134516 0.00010251223 0.2570367 2.9338109e-05 9.832139e-06 3.329024e-05 -0.015583588 8.358348e-06
4.6682686e-05 0.025153795 -0.00021072691 0.020727731 0.07421833 -2.1649392e-05 0.01628232 0.0286864
-0.008264362 1.4004175e-05 0.07843456 7.615089e-05 3.687589e-05 -0.009609371 7.05651e-06 5.599849e-05
1.5909129e-05 2.0880121e-05 0.35103545 -0.081851326 -0.081977576 -0.0819364 -5.017093e-05 -0.24603789
0.1373143 -0.0001341414 -0.015576421 6.8022106e-05 3.0060644e-05 -0.08187378 -4.371778e-05 -0.037483983
2.4152112e-05 -0.18139349 -0.017850485 -0.00024821353 0.06028278 -9.5229145e-05 -0.000102085316 -7.7184166e-05
-0.009153311 -6.8368565e-05 -5.768279e-05 0.0049686423 -0.00041896352 0.0032717239 0.016241495 9.816336e-05
0.0029343814 -0.018872764 -0.018107818 -7.625991e-05 -0.0060789697 -6.5967746e-05 -0.00022478528 -0.004013419
-0.00019988582 1.4696198e-05 -7.774914e-05 -7.719521e-05 0.08588237 -0.025753958 -0.025791695 -0.025778593
0.0005744134 -0.08238317 0.016119393 -0.01376731 -0.009147346 -5.6380308e-05 -4.0804556e-05 -0.025762407
0.0005598494 -0.011756512 0.0001469703 -0.08657306 -0.0108910445 3.0283496e-05 0.04539695 9.767188e-07
-1.6280066e-05 5.6314293e-06 -0.007109701 -6.8607264e-06 -0.00020579154 0.005589533 -9.111233e-05 0.004161265
0.01585112 -1.16175315e-05 0.0036948246 -0.027415153 -0.019633692 8.9880075e-07 0.022816887 1.675419e-05
3.875627e-06 0.0017781258 4.770593e-06 -9.107574e-05 6.6186567e-06 5.9421313e-06 0.04110258 -0.0072795255
-0.007266924 -0.0072707897 -7.4244313e-06 0.039981708 -0.016902981 -0.013780112 -0.0071010455 -0.00021367146
1.1820772e-05 -0.007278707 -6.4860715e-06 0.0082123885 -1.0343701e-05 0.14581357 0.00028912793 -9.320181e-06
0.0006563545 -3.1834384e-06 -2.5851743e-06 -3.502775e-06 -0.0001913014 -4.459602e-06 -1.0785362e-05 -0.00015998981
1.6327007e-05 -0.00016692137 -0.0004537867 8.2854285e-06 -0.00010317309 -0.000959637 -0.00060963514 -3.6342683e-06
-0.0029289953 -8.439864e-06 -3.6965862e-06 -0.0002270809 -1.1832093e-06 -6.1876117e-06 -4.380123e-06 -8.737008e-06
0.00050691364 0.00060851173 0.0006088311 0.0006088982 5.519045e-06 -0.0008447454 0.0006875455 -0.0005488047
-0.00019128522 -1.209753e-05 -9.443479e-06 0.00060863537 5.619341e-06 -1.0346997e-05 -6.923701e-06 0.0010895737
-0.008795948 2.3205628e-05 0.043414883 2.9294335e-06 -7.0953647e-06 5.501087e-06 -0.0047533363 -2.7329422e-06
-9.6401236e-05 0.0048069116 -6.1893414e-05 0.0037446267 0.013871141 -7.4686045e-06 0.003148895 -0.010966307
-0.010242849 1.6500933e-06 0.0176116 1.45038075e-05 4.9532687e-06 6.868575e-05 3.0053225e-06 -3.9652754e-05
4.644565e-06 4.6301784e-06 0.049119964 -0.0103315525 -0.010335942 -0.010334442 -7.727398e-06 -0.00094140944
0.0031594527 -0.0067191483 -0.004748425 -9.830675e-05 8.233543e-06 -0.010332972 -6.771403e-06 0.00088921393
-3.0212839e-06 0.055937335 0.039815698 5.6024648e-05 -0.09199184 7.703668e-06 -2.7768448e-05 2.5317659e-06
0.023809781 2.936459e-06 3.864029e-05 -0.0028942253 0.0002555369 0.00022533123 -0.021081375 1.6071857e-05
-0.002449186 0.11517588 0.07590636 1.5503114e-05 0.032668065 0.00015854348 -1.38309e-05 0.0023253341
0.00014649334 2.506734e-05 -2.5885272e-05 3.595855e-05 0.1506574 0.031704903 0.031703554 0.03169809
-0.0005864569 0.14716215 0.27131304 0.07099882 0.023752335 7.5316006e-05 4.618662e-06 0.031699467
-0.00054727425 0.0036528471 5.553646e-05 -0.45718044 -0.006359436 2.8413224e-05 0.02150792 1.0743392e-05

module.fc1.bias f4 [50]
00000000: b7d6 d83e 51f3 da3d 26f3 033d d466 9b39
00000010: 8f17 503d 4e84 303e 56ad b2bc 571f fd3e
00000020: 8633 1a3d 6558 db3e 6fd9 aa3b 8531 99b3
00000030: f82f 07be 962d 67bc f930 cf3c 2913 a1bd
00000040: 621e c739 1dc8 053e 71c1 733c ecfc 8239
00000050: a0a0 0ebd 574a 1f3e 6795 e4bc 0d99 6e3c
00000060: 4b58 f9bc f62b 6a3e dc8e d43d 08a9 24b3
00000070: 29ae 35b2 2959 78bc 5815 30bd 4631 b03a
00000080: 2690 66b3 1664 84bd a75b 7c3a a0cf 02bc
00000090: 7917 08bd 07ff b13b 1c83 363e aadd acb3
000000a0: 52f0 903b f476 d239 f9fc 84bd 3008 b63a
000000b0: 7ddb 8eb3 16c6 3cbe 69ac 783c c437 953e
000000c0: 3704 633b 6633 913e
0.42351314 0.1069094 0.032214306 0.00029640517 0.050803717 0.1723797 -0.021811169 0.49437973
0.037646793 0.42840877 0.0052139084 -7.133625e-08 -0.13201892 -0.01410999 0.025291907 -0.07864983
0.00037978875 0.13064618 0.014877663 0.00024983974 -0.034821153 0.15555702 -0.027903272 0.014562857
-0.03043761 0.22868332 0.10378811 -3.833796e-08 -1.0575186e-08 -0.015157976 -0.042989105 0.0013442419
-5.368215e-08 -0.064644024 0.00096266944 -0.007984072 -0.03322551 0.005432013 0.17823452 -8.0496946e-08
0.0044231797 0.00040142948 -0.06493563 0.0013887938 -6.652315e-08 -0.18434939 0.015177825 0.29144108
0.0034639963 0.28359526

module.fc2.weight f4 [30, 50]
00000000: 2b87 303c 6349 403b ad03 8339 86a2 34b8
00000010: ad0c 853a 8321 da3b 7cbd bdba a267 553c
00000020: 2e57 893a 80cd 373c 79e6 043a e212 05b3
00000030: b39d 0cbc 0251 6eba 2957 6eb8 0b5b a9bb
00000040: e400 7737 b704 423b 8ecc 163a 28da ca37
00000050: 2476 10bb 0d6e 693b 78db f8ba 63e5 a039
00000060: 8b96 07bb 483d be3b 7d12 3b3b d52d a332
00000070: 6c05 97b3 6680 7bba b601 37bb 61ee 4bb9
00000080: 0525 1b33 225f 8fbb 11e5 11b9 afb7 03ba
00000090: fc50 0ebb 615d 0a3a 5ec0 903b 87b0 e832
000000a0: 913e e139 91de 74b8 f754 8abb 3aae 6038
000000b0: 5902 70b3 53f0 0bbc 1d71 8ab9 071f dd3b
000000c0: fbe2 a4ba dc5d dd3b b8f6 8f3e 80f6 9c3d
000000d0: 72bc ca3b fbfe 93ba 37b2 d73c 6505 333e
000000e0: 88a5 1cbd 044b ae3e f8ef df3c a009 963e
000000f0: cfb0 583c 7fa9 8533 43cf 65be 66ac c4bc
00000100: c91f f8ba 3acc 0bbe eaef c939 69cb 9d3d
00000110: 7688 773c 51c3 253a b667 6ebd 6ae6 bd3d
00000120: 0b80 4dbd 0aa4 023c dced 5fbd 5723 1b3e
00000130: a8a3 983d f2ac 82b3 2b57 65b3 5682 cfbc
00000140: a80c 97bd 74e8 a6bb d795 46b3 1ac5 ecbd
00000150: 55c0 6ebb b353 59bc 62f2 6abd 1196 613c
00000160: 1ef4 eb3d 6ca7 8ab3 b7a9 373c 973c c8ba
00000170: a514 e2bd c6a0 b83a da83 47b3 8ace 64be
00000180: 2040 eebb 45ef 333e 55a5 09bd be41 343e
00000190: 6b6b bb35 a836 8934 1902 9c34 c93d d432
000001a0: d6e8 a434 c6cc 0734 ab07 4d34 877e ae35
000001b0: 70d3 2034 c72e a935 c958 d032 c019 8133
000001c0: 68a4 12b5 3dcc 2634 3f15 9534 7b26 5b35
000001d0: d9ca 2c32 fd40 2435 57bc 91b3 6775 c2b2
000001e0: 309e c934 695e 3635 b517 bf34 ee8d ec33
000001f0: 0fba ab34 e1c8 5635 ff53 a534 089a 4a33
00000200: e7b8 a1b3 d3e6 f833 c7d7 c734 69b8 1ab3
00000210: 9e03 2eb3 8309 4235 594b b7b3 2c4f 2034
00000220: 3c5a a534 428a ea33 05c8 1835 5864 2f33
00000230: e26f 9933 f5ce 31b3 d6fd 5db4 4520 8131
00000240: 4fde 83b3 4153 0cb5 3b0e af34 825f 9635
00000250: 274e 0635 12e9 8935 ab90 8ab3 bff8 63b3
00000260: f824 2fb3 9e8c 7eb3 bafe 2633 86d8 6f33
00000270: 6e76 b932 3d2f 76b3 aa0b 2032 8194 aab3
00000280: fa77 40b3 9a41 7733 2027 a9b3 49dc 4832
00000290: f9f6 8032 7453 5633 7522 a432 f127 5733
000002a0: 92f8 6d33 82a2 6232 9a38 9cb3 3fe8 9c32
000002b0: b7da acb3 9f00 af33 3a05 5033 66b2 d0b2
000002c0: a72c 3bb3 0f36 3eb3 2962 a4b3 df60 8e33
000002d0: 771f 8cb3 4b20 2d33 db6f 87b3 73bd 87b2
000002e0: fab2 1732 419b b4b0 ced1 9bb3 4fa5 2432
000002f0: 6c2e 0433 bfcb fd32 8a0f d7b2 e1bc a432
00000300: f321 9eb3 7d4a 8533 85a2 2833 3dcb 89b3
00000310: 5ae3 10b3 4654 ea32 8fdb 10b1 9a68 85b3
00000320: 5925 41b9 76b2 84b8 3708 9137 f400 df35
00000330: 1f6e e4b6 a892 41b8 9281 7a38 62d3 77b9
00000340: f814 c8b7 f5b0 54b9 3606 b8b7 bae7 ab33
00000350: f93c cf39 7bfb 1b38 9460 e737 b20f 5f39
00000360: 2115 c1b3 8766 1ab8 ab8f 84b6 d728 95b5
00000370: 2b96 bc38 a695 40b8 2c92 a538 2a0d 42b6
00000380: a655 b438 664e cfb8 b90f 83b8 74f0 90b3
00000390: df49 d5b2 77ee 2338 ca55 f038 cbed f236
000003a0: 7ab5 7f33 7850 3e39 038b ae36 b30a ab37
000003b0: 854b bb38 b565 c0b7 e90a 95b8 9ebc 92b3
000003c0: f452 9bb7 5376 1136 b3d9 4b39 ff3b c0b4
000003d0: b37d 4632 c790 b839 8ffd f537 e824 bdb8
000003e0: f88f 9938 8fe5 cdb8 5c23 cd3e 02e9 df3d
000003f0: 3fa3 073c bab1 d3ba b69a 183d af72 803e
0.010774414 0.0029340617 0.00024989006 -4.3066706e-05 0.0010150872 0.006656827 -0.0014476026 0.013025196
0.0010478252 0.011218429 0.00050697435 -3.098365e-08 -0.00858252 -0.00090910506 -5.6824796e-05 -0.005168324
1.4722555e-05 0.002960486 0.0005752527 2.4181863e-05 -0.0022043074 0.0035618574 -0.0018986305 0.00030688485
-0.0020689096 0.005805645 0.0028544955 1.899654e-08 -7.032472e-08 -0.0009594023 -0.0027924604 -0.00019448392
3.612242e-08 -0.0043753544 -0.00013913611 -0.00050246244 -0.002171575 0.0005278197 0.004417463 2.708863e-08
0.0004296196 -5.8381414e-05 -0.0042215544 5.3568023e-05 -5.588149e-08 -0.0085411845 -0.00026405687 0.0067480835
-0.0012579852 0.0067555737 0.2811792 0.07664204 0.006187015 -0.00112912 0.026330097 0.17482527
-0.0382438 0.34041607 0.027336106 0.29304218 0.013225748 6.224126e-08 -0.22442345 -0.024007987
-0.0018930371 -0.13652125 0.00038516457 0.07704813 0.015108218 0.0006323355 -0.058204375 0.092724636
-0.05017094 0.00797368 -0.0546702 0.151502 0.0745309 -6.085055e-08 -5.3397496e-08 -0.025330704
-0.07375461 -0.0050936285 -4.6236746e-08 -0.11561032 -0.0036430557 -0.013264584 -0.05736006 0.013768689
0.11521171 -6.4565796e-08 0.011209897 -0.0015276846 -0.11039094 0.0014086 -4.6453216e-08 -0.22344413
-0.007270828 0.17571743 -0.03360494 0.17603204 1.3963848e-06 2.5558006e-07 2.905879e-07 2.4708145e-08
3.071679e-07 1.2647351e-07 1.9094902e-07 1.3000835e-06 1.4978082e-07 1.2605095e-06 2.4254762e-08 6.0117145e-08
-5.462848e-07 1.5534256e-07 2.776887e-07 8.1639854e-07 1.005784e-08 6.118933e-07 -6.7863475e-08 -2.263796e-08
3.7554264e-07 6.793767e-07 3.5593771e-07 1.1015423e-07 3.1986607e-07 8.001353e-07 3.079476e-07 4.717188e-08
-7.53078e-08 1.15903866e-07 3.7223637e-07 -3.602364e-08 -4.0515822e-08 7.2284473e-07 -8.535307e-08 1.4929964e-07
3.07993e-07 1.0921623e-07 5.691548e-07 4.0836625e-08 7.144969e-08 -4.139925e-08 -2.0674574e-07 3.7580627e-09
-6.1406006e-08 -5.2275215e-07 3.2606644e-07 1.1203667e-06 5.0032617e-07 1.0275128e-06 -6.452441e-08 -5.307879e-08
-4.0778986e-08 -5.9266874e-08 3.888156e-08 5.584345e-08 2.159069e-08 -5.73193e-08 9.315878e-09 -7.9432546e-08
-4.48126e-08 5.7568833e-08 -7.8767926e-08 1.1691619e-08 1.5013471e-08 4.9901658e-08 1.9107782e-08 5.0094915e-08
5.5406936e-08 1.3191881e-08 -7.274612e-08 1.8266404e-08 -8.049158e-08 8.1491855e-08 4.8433527e-08 -2.4295513e-08
-4.357994e-08 -4.428699e-08 -7.6547e-08 6.630011e-08 -6.5249814e-08 4.030907e-08 -6.306774e-08 -1.580222e-08
8.830051e-09 -1.314085e-09 -7.255913e-08 9.583643e-09 3.0775865e-08 2.954573e-08 -2.503636e-08 1.9178005e-08
-7.363624e-08 6.2068445e-08 3.926336e-08 -6.4165285e-08 -3.3734388e-08 2.7279508e-08 -2.1079563e-09 -6.212322e-08
-0.00018419827 -6.3274914e-05 1.7289172e-05 1.6615072e-06 -6.8077493e-06 -4.615137e-05 5.9725317e-05 -0.00023634502
-2.3851622e-05 -0.00020283817 -2.1937401e-05 8.004959e-08 0.00039527545 3.718909e-05 2.7582319e-05 0.00021272784
-8.991106e-08 -3.6811947e-05 -3.9506317e-06 -1.1113251e-06 8.9925095e-05 -4.5915738e-05 7.89504e-05 -2.8915915e-06
8.599022e-05 -9.885132e-05 -6.249495e-05 -6.749261e-08 -2.4830056e-08 3.9084316e-05 0.00011460071 7.2398448e-06
5.9536866e-08 0.00018149789 5.201787e-06 2.038977e-05 8.9309215e-05 -2.2935545e-05 -7.106906e-05 -6.832964e-08
-1.8516068e-05 2.1675557e-06 0.00019440688 -3.580644e-07 1.15536976e-08 0.00035203082 2.9324348e-05 -9.0190966e-05
7.322425e-05 -9.81792e-05 0.4006604 0.109331146 0.008278667 -0.0016150989 0.03725692 0.25087497

module.fc2.bias f4 [30]
00000000: 3125 113c cff0 6c3e e224 aa35 9c13 0cb2
00000010: 00d6 8738 e9ee a83e 95f6 563d 61ed 8db2
00000020: 881e 903c b6ea 683d 6cc8 ae3d 0f3d 3b3d
00000030: c3f2 a53d 47a2 ad3e 73b3 dd32 7b80 db3c
00000040: b440 a535 4202 d63c f075 43b3 4439 2d3e
00000050: 35c1 3d3e d70c 4eb3 fe13 c43c 4e58 37b3
00000060: 29bf 9db3 b2cc 16b3 5873 d13c 03ef 9cb3
00000070: 0bf0 283d 586e 983d
0.008858965 0.23138736 1.2676721e-06 -8.153531e-09 6.477162e-05 0.32994774 0.052481253 -1.6522508e-08
0.017592683 0.056864463 0.08534321 0.045712527 0.08102944 0.3391287 2.580939e-08 0.026794663
1.2312289e-06 0.026124123 -4.550924e-08 0.16916376 0.18530734 -4.797479e-08 0.023935314 -4.268832e-08
-7.345654e-08 -3.5110766e-08 0.025567695 -7.307792e-08 0.041244548 0.074429214

module.fc3.weight f4 [20, 30]
00000000: 5d3c d03b b3f1 293e 7b0c 4835 be6f 9eb3
00000010: 8f03 18b9 af5e 723e f361 02bd c6a3 b7b3
00000020: f625 2fbc 134d 0dbd 711c 54bd 7e2e e3bc
00000030: 4000 1f3d 1724 793e 8f9d 94b3 1628 85bc
00000040: 8a48 0a34 a00e 82bc 400e e433 378d f83d
00000050: 501e 083e dde6 fab0 a12d 6ebc 7565 79b3
00000060: f4cf 3bb3 b4ff 3db3 e034 7ebc 96dc 8533
00000070: 8712 cdbc e490 5a3d 1cce 2c3c 64ce 8d3e
00000080: 1d5a 3534 b637 89b2 1f54 6035 9a6e cb3e
00000090: 65b9 84be 18bc 80b3 93c1 b1bd a3ce 8fbe
000000a0: 92cd d7be 0135 67be dbf3 acbb b62c d43e
000000b0: 472e b3b2 8e86 07be 0d01 8db6 2ef7 03be
000000c0: c97b cfb3 c0d6 533e 78bf 683e 2c6f 1ab3
000000d0: 99f9 f1bd 34f0 8933 05da 5033 5f43 78b3
000000e0: 6c4c 01be d8f5 7a33 bb8d 50be cc58 bc3d
000000f0: 6fcf f139 1069 463c 1520 a4b2 12b2 e433
00000100: 91fa 3933 0d51 8e3c b4b2 39bc 551d 1ab3
00000110: 11b3 78bb 7135 49bc 71f8 96bc 61bf 21bc
00000120: abf1 71b9 9e6e 943c e91f 8ab3 be9d bdbb
00000130: 38f2 26b4 baa2 b8bb 52bf fdb2 d532 143c
00000140: f5d2 223c a369 4833 1547 a9bb cca9 c833
00000150: 4172 ce31 4911 8232 b1e7 b4bb 854c e533
00000160: 77e6 11bc d9c2 833b 36a0 0bba 590a 6fbc
00000170: f0db ee34 bad5 c432 b56e e738 dfc2 b3bc
00000180: dbe2 103e f26d 24b3 7b10 423d 4ffc 1c3e
00000190: 1b95 6b3e 0c65 fc3d 40ca 2a3d 7313 d0bc
000001a0: 9af1 b8b3 d2f1 933d 3785 1f36 5413 903d
000001b0: 258d c2b2 11e1 50bc c508 6abc 914c b0b3
000001c0: 1215 843d ce7f 71b3 5b2d 7f33 6656 b3b3
000001d0: 6726 8d3d a0c8 cb33 b1ab e33d df82 c6bb
000001e0: 2464 653c 2335 bb3e a9d6 c335 cd9d a933
000001f0: 7167 a7b9 d67e 053f 9dad 8fbd be6a ebb2
00000200: d801 c1bc 8ab5 9bbd 8ebd e9bd 1659 7abd
00000210: 7a22 af3d 9e39 093f d73e 8133 e6bb 12bd
00000220: d27d fb34 4e51 0fbd acc5 b733 91e6 883e
00000230: 48f2 953e fbce bc33 883b 03bd e739 cb32
00000240: 752b a033 6adf 29b3 3110 0cbd 8592 8c32
00000250: 93fb 61bd 3ec5 f03d 8afd 86ba 7210 e7bc
00000260: 20a7 8b35 bbe4 c633 e9df 5f39 e9c2 2dbd
00000270: 1208 8c3e 6c99 6833 ce8f bb3d 9bb9 973e
00000280: 1bb0 e33e 18f0 733e 4d10 a53d 6920 49bd
00000290: 7e53 2eb3 bafc 0e3e 185d 9d36 773f 0b3e
000002a0: de0d ceb1 e7e6 c9bc 6b37 e2bc b45c 7832
000002b0: 2e50 ff3d ab9d 5b33 8ac2 4233 3910 9633
000002c0: 7a6b 083e 1169 aa33 a40a 5c3e 32e1 3fbc
000002d0: 2d16 283b f62b 893d 491c 8434 5c67 3833
000002e0: 6c66 75b8 9ea1 c33d 0d7c 52bc 1558 82b3
000002f0: c25f 8dbb c41b 64bc 4636 abbc a660 37bc
00000300: bd56 803c 8018 c93d af8b da33 2df6 d6bb
00000310: 8e54 4133 ccf5 d1bb 50ec a5b3 e69e 483d
00000320: febc 5b3d 319a a1ae 6440 c0bb 1330 d8b3
00000330: e438 b8b2 5a6a 77b3 b230 cdbb 2cad dab3
00000340: 6687 25bc 216b b03c 342c c93a a62a 243d
00000350: 4773 9c33 6b45 ddb3 1670 13b8 8421 6a3d
00000360: 2fd7 fbbb 4daa d533 0227 29bb 1277 08bc
00000370: 8fda 4cbc e667 dbbb 779b 193c d5ab 703d
00000380: d0b3 d9b3 209a 80bb 5c77 2a34 a337 7bbb
00000390: 07d2 f6b1 031a f03c cb7d 033d 67fb 88b2
000003a0: d707 66bb 52d9 97b3 f914 6133 873c be32
000003b0: f880 75bb 8661 e333 100d c6bb ea22 533c
000003c0: 8b10 67bb d9ca bcbd ce54 acb3 fa33 2d32
000003d0: 7193 1939 61d1 06be fe8f 8c3d abe8 a633
000003e0: e970 bc3c 294f 983d 7696 e43d 1ae1 743d
000003f0: aeae bfbb f106 0bbe ee65 dbb2 4289 0f3d
0.006354852 0.16596107 7.452397e-07 -7.377774e-08 -0.00014497175 0.23668931 -0.031831693 -8.551392e-08
-0.010690203 -0.03449733 -0.051784936 -0.02773213 0.038818598 0.24330173 -6.920447e-08 -0.016254466
1.2878641e-07 -0.015876114 1.06196694e-07 0.121363096 0.13292813 -1.8255509e-09 -0.014537246 -5.8067105e-08
-4.3728463e-08 -4.4237552e-08 -0.015515536 6.2334195e-08 -0.025033249 0.053360835 0.010547187 0.27696526
1.6889722e-07 -1.5974233e-08 8.3568915e-07 0.3973282 -0.25922695 -5.9946785e-08 -0.086794995 -0.2808734
-0.42149025 -0.22578813 -0.0052780933 0.41440362 -2.0859387e-08 -0.13234922 -4.20225e-06 -0.1288726
-9.661705e-08 0.2068739 0.2272929 -3.595703e-08 -0.11815185 6.423252e-08 4.862706e-08 -5.7803273e-08
-0.12626809 5.8431255e-08 -0.20366566 0.09196624 0.00046121652 0.01211001 -1.9106702e-08 1.0649468e-07
4.3301558e-08 0.017372632 -0.01133411 -3.5882596e-08 -0.0037948529 -0.012280808 -0.018429013 -0.009872288
-0.0002307358 0.018119153 -6.43193e-08 -0.0057866266 -1.5548073e-07 -0.005634633 -2.9540079e-08 0.009045322
0.009937991 4.6662205e-08 -0.0051659443 9.3441116e-08 6.0083782e-09 1.5141852e-08 -0.005520784 1.0677562e-07
-0.008905045 0.0040210304 -0.00053263025 -0.014589869 4.449098e-07 2.2914595e-08 0.00011035559 -0.021943508
0.14149038 -3.828422e-08 0.047379 0.15330623 0.23006098 0.12323961 0.041696787 -0.0253999
-8.612115e-08 0.07223858 2.3770388e-06 0.070349365 -2.2648758e-08 -0.0127489725 -0.014284317 -8.209566e-08
0.06449331 -5.6228423e-08 5.9413065e-08 -8.351053e-08 0.0689209 9.4894176e-08 0.11116732 -0.0060580815
0.014000926 0.36563978 1.4591106e-06 7.8983796e-08 -0.00031929792 0.5214666 -0.07015536 -2.7406141e-08
-0.02356045 -0.07602985 -0.11413108 -0.061120115 0.08551498 0.5360354 6.018461e-08 -0.035823725
4.684394e-07 -0.034989648 8.557558e-08 0.26738408 0.29286408 8.792082e-08 -0.032039195 2.3658641e-08
7.4584854e-08 -3.9551573e-08 -0.03419513 1.6364774e-08 -0.05517156 0.11756371 -0.0010298949 -0.028206084
1.0404947e-06 9.261699e-08 0.0002135035 -0.04242221 0.27349907 5.4156246e-08 0.09158288 0.29633793
0.44470295 0.23822057 0.0805975 -0.049103174 -4.0588468e-08 0.13963595 4.689802e-06 0.13598429
-5.9969656e-09 -0.024646236 -0.027614316 1.4456578e-08 0.12466465 5.113331e-08 4.5346077e-08 6.98787e-08
0.13322249 7.935353e-08 0.21488434 -0.011711406 0.0025647983 0.06697838 2.4607496e-07 4.2934843e-08
-5.850794e-05 0.095523104 -0.012846959 -6.069619e-08 -0.0043143937 -0.0139226355 -0.020899903 -0.011192476
0.01566636 0.09819126 1.01768244e-07 -0.006560108 4.5013216e-08 -0.006407475 -7.726396e-08 0.048979662
0.053647034 -7.348822e-11 -0.005867051 -1.00670285e-07 -2.144629e-08 -5.7605895e-08 -0.0062619084 -1.0182916e-07
-0.010103082 0.021535458 0.0015348257 0.040079735 7.285285e-08 -1.03037415e-07 -3.515192e-05 0.05716087
-0.007685564 9.949563e-08 -0.0025810604 -0.00832917 -0.01250328 -0.0066957353 0.009375445 0.05875762
-1.01375576e-07 -0.003924623 1.5875906e-07 -0.0038332723 -7.1834196e-09 0.029309278 0.032102387 -1.5946808e-08
-0.0035099888 -7.071016e-08 5.240597e-08 2.2146436e-08 -0.0037460905 1.05882506e-07 -0.0060440376 0.012886742
-0.0035257663 -0.092183776 -8.0248e-08 1.0081743e-08 0.00014646143 -0.13165809 0.06863402 7.7722994e-08
0.023003059 0.074369736 0.11161511 0.059784986 -0.005849681 -0.13576867 -2.5541308e-08 0.03504301

module.fc3.bias f4 [20]
00000000: 78fc 593d f44d 3f3e 0cd5 053c a03b 7b3d
00000010: 6b3f f03d cadd f23d 32ed af3c 1871 523c
00000020: f209 d03c fbda 9330 c60e fcb3 5ba6 be3d
00000030: 307a 8b3d 4532 8eb2 1bb4 88b3 4037 793d
00000040: 0372 4d3e 3933 3a3e 0fdc f8b3 e47c 953d
0.05321929 0.1868208 0.00816847 0.06133616 0.11730846 0.11858709 0.021475408 0.012844346
0.025395367 1.0757896e-09 -1.1737352e-07 0.093090735 0.06810415 -1.6553836e-08 -6.3657545e-08 0.060843706
0.20063023 0.18183602 -1.1588428e-07 0.072992116

module.fc4.weight f4 [5, 20]
00000000: 0871 e1bc f5ab 72bd 29c3 29bb 53c4 3bbd
00000010: 0450 78bd 2e79 b5bd 46f8 35bc 5bcc d9bb
00000020: 51a1 88bc 2437 a733 010a eb30 8fd7 f1bc
00000030: a94d 10bd a156 3a33 20ff 9c32 1b2c 3abd
00000040: 3c87 19be 558a c0bd bddd 3233 b19f bdbc
00000050: 7f2d 17bd 20b1 69bd 577d 23bb 28b5 11bd
00000060: 6d84 a6bd 93d1 8cbd 3c0d 74bc 1c0e 12bc
00000070: f8df 20bc 0aae c033 6c71 cd33 40e4 e8bc
00000080: 9a89 41bd e4c2 18b2 e3a8 e633 6c75 10bd
00000090: ae45 eebd ca1d 01be 3932 4b33 899e b6bc
000000a0: 4181 a6be 8637 6bbb ba75 24b9 8d6d 8f3e
000000b0: e06b 37bf 47a0 0a3f 5a65 06be ebd7 a0bd
000000c0: fb24 673e 3f45 e6b3 c2fa 01b4 9b68 eaba
000000d0: 3225 d5be 8db5 aab2 6b24 9433 d138 8e3e
000000e0: df8d 6a3f 3636 8ebf 534d 5eb3 cbdd b7ba
000000f0: d600 123e 8d33 27bf 43f0 e9bc 07dd 7c3d
00000100: 3dca a03e c356 f43d 40b4 6b3d 1414 0d3d
00000110: 3460 48be 9385 afb3 ddf9 b833 0fa1 a6be
00000120: dfec 3a3e 91f1 aa33 b057 8933 5c9c 7a3d
00000130: cebb 4e3e 3f61 f93e 29f0 e433 80a6 82be
00000140: 61f8 7c3e 84e3 453f 3370 0a3d e259 85be
00000150: b05a 0b3f cce1 00bf 2f2f cc3d 9256 743d
00000160: 069d 68bb 2944 ce32 40e1 fb33 0b36 c53e
00000170: 10e8 a13e 4a57 0333 cee9 ad32 0b38 84be
00000180: 3912 5abf 5512 583f 8482 7333 70a1 9a3e
-0.027519718 -0.059246022 -0.0025903678 -0.045841526 -0.060623184 -0.08861004 -0.011106556 -0.0066466755
-0.016678484 7.7865735e-08 1.7101344e-09 -0.029521732 -0.035230312 4.338529e-08 1.8276808e-08 -0.04545222
-0.14992994 -0.09401385 4.1645524e-08 -0.023147436 -0.036908623 -0.057053685 -0.0024946535 -0.035573155
-0.08130727 -0.068759106 -0.014895733 -0.008914497 -0.009819023 8.972354e-08 9.566688e-08 -0.02842915
-0.047250368 -8.8918775e-09 1.074093e-07 -0.035268232 -0.11634384 -0.1260902 4.7310298e-08 -0.022292392
-0.32520488 -0.003589125 -0.00015684115 0.28013268 -0.7164898 0.54150814 -0.131246 -0.07853683
0.225727 -1.07228054e-07 -1.2105286e-07 -0.0017883958 -0.4162994 -1.9873164e-08 6.8984114e-08 0.27777722
0.9162273 -1.1110294 -5.175873e-08 -0.0014027891 0.14258131 -0.65313035 -0.028556949 0.061734226
0.31404296 0.11930611 0.057544947 0.034442976 -0.19567949 -8.1733695e-08 8.6136176e-08 -0.32544753
0.18254422 7.9601826e-08 6.39551e-08 0.061184272 0.2018883 0.48707005 1.0660762e-07 -0.25517654
0.24704124 0.77300286 0.033798408 -0.26045138 0.54435253 -0.5034454 0.09969937 0.059652872
-0.0035493984 2.4012552e-08 1.1729071e-07 0.38517794 0.31622362 3.0580203e-08 2.0246173e-08 -0.25824007
-0.85184056 0.8440297 5.669655e-08 0.30201292

module.fc4.bias f4 [5]
00000000: dd7a d0bc 8bbc 613b 3b2b 863d 61f7 08be
00000010: 14d1 b83d
-0.02544921 0.0034444656 0.06551214 -0.13375618 0.090242535
