SAGE/UNSW/UNSW_Dynamite_Selection_Defense/preprocessor/dnn_pytorch_gaussian_augmenter.pt (torch, 23636 bytes, 8 tensors)

fc1.weight f4 [50, 56]
000000 32 15 c6 3d cc 94 ea ba d6 c1 88 bc b6 d4 9a 3e
       0.096720114 -0.0017897128 -0.01669399 0.3024041
000010 04 5e 74 be e8 97 8b bd 72 f5 52 be 95 28 28 3d
       -0.23863989 -0.06816083 -0.20601442 0.041054327
000020 62 d4 1c be 74 ee 9d bc 28 3c fb bc 29 96 df 3d
       -0.15315393 -0.019278742 -0.030668333 0.10917313
000030 7e 3b 11 bd ca aa f9 bd 60 6b 1f bd 77 1a a4 be
       -0.035457127 -0.121907786 -0.03892076 -0.3205144
000040 44 9c 0a 3e f7 3a 9d bd a8 27 eb 3c 82 39 cf 3c
       0.13536173 -0.07677262 0.028705433 0.025295977
000050 b7 89 6e bc 8c 39 20 3e e8 d6 97 bd 8b fc 09 be
       -0.014559201 0.15646952 -0.07414037 -0.13475244
000060 8b b7 c1 3c fb fb 3f bd 3d 24 01 bd ac f8 8a 3e
       0.02364709 -0.046871167 -0.0315287 0.27142847
000070 e0 dc 99 bc b6 bd 34 3d 28 2b 0b 3e 30 a8 52 3c
       -0.01878208 0.044126235 0.13590682 0.012857482
000080 49 10 f5 bc 22 6e 2d 3f 03 aa 39 3d 66 ba 1b 3e
       -0.029914992 0.67746174 0.04532815 0.15207824
000090 6b 5a 85 bc 63 f7 15 bc e8 83 08 3d 1b 05 ba bd
       -0.016278466 -0.00915322 0.03332892 -0.09083005
0000a0 3a 47 2d be 39 10 2b 3d 8f b5 75 3d 31 1f ff 3d
       -0.16921702 0.041763518 0.0599876 0.12457121
0000b0 34 32 b3 3b b4 f4 3f 3f ee 51 78 3e 74 9d 46 bd
       0.005468631 0.7498276 0.24250004 -0.048490003
0000c0 6e a2 d5 3d 24 cb d8 bc 6c 73 b7 3d 45 26 13 3d
       0.10431372 -0.026464052 0.08957562 0.03592517
0000d0 58 18 22 bd a9 c7 29 3e d0 2e 35 bc d6 70 60 3d
       -0.039573997 0.1658007 -0.011058524 0.05479511
0000e0 89 3f 78 be 24 e7 08 3e ca ea 41 3e fb 7a 4f be
       -0.24242987 0.13369423 0.18937221 -0.20261757
0000f0 16 3b 4c be 96 15 c7 3e 6f b8 e7 bd 21 83 da bd
       -0.19944414 0.38883656 -0.11314475 -0.10669542
000100 5b 9d c2 3d 28 7d 8e bc df eb 5d be 6b 41 31 be
       0.095026694 -0.017393664 -0.21672009 -0.17310111
000110 d2 56 41 3c c4 f6 0e 3e 66 66 95 bd 00 eb 25 3c
       0.011800485 0.13961321 -0.072949216 0.010126829
000120 2c 34 53 be 43 5c a4 bd 51 1a 10 3d 10 81 3c be
       -0.2062537 -0.0802541 0.035181347 -0.18408608
000130 cd 1b 0b bd fa 7b 07 3d e9 c1 27 3e 3a d6 0e be
       -0.03396206 0.033077218 0.16382565 -0.13948908
000140 a2 74 f5 3d 79 51 b4 3d 97 77 21 be ae ef b2 3e
       0.119851366 0.08804602 -0.15768276 0.34948486
000150 c2 bc d5 bd 6e 6b ba 3d 2c 4f 81 3d 53 08 94 be
       -0.10436393 0.09102522 0.06313929 -0.289126
000160 a9 d7 2c bc 8d b8 f2 3d cb 58 0b bd 03 32 4b 3a
       -0.010549464 0.118516065 -0.034020226 0.0007751288
000170 97 23 04 3d 53 d7 7c be f3 3f 47 3e 53 da dc 3b
       0.032260504 -0.24691515 0.19457988 0.0067398935
000180 07 61 ae be c5 f3 d0 bd 41 51 34 3e 39 7a 24 be
       -0.340584 -0.10202745 0.17609121 -0.16062249
000190 09 1f f4 3e d8 37 33 be 35 75 57 3e e8 6c a2 be
       0.47679928 -0.17501771 0.21040805 -0.31723714
0001a0 5e 00 c8 3e f8 f3 78 be c0 d4 96 be f8 49 00 be
       0.3906278 -0.24311817 -0.2945919 -0.12528217
0001b0 3b 01 18 be a8 92 52 3e f3 2b 99 3e 4b 2e 9a 3e
       -0.1484422 0.20563757 0.29916343 0.30113444
0001c0 83 49 8d bb 45 84 e1 3d 47 5c 95 3e bc c7 7c 3d
       -0.004311742 0.110115565 0.29171965 0.06171392
0001d0 8a c8 38 bf 61 32 a8 3e d6 d8 07 bd 80 7d 5f 3e
       -0.72181 0.32850936 -0.033165775 0.21825218
0001e0 d6 3a 20 3e af 94 23 3d e0 62 96 bd d7 3b b3 be
       0.15647444 0.039936718 -0.07343078 -0.35006592
0001f0 5e 07 c9 3a b4 95 03 3e d9 30 96 be d1 28 09 be
       0.0015337279 0.12850076 -0.29334143 -0.13394476
000200 59 ca 4a 3b 34 34 06 3e 25 b6 99 3d 23 67 cc 3c
       0.0030943363 0.13105851 0.075054444 0.024951523
000210 2e 62 bd bd 73 fd 05 be ab fb 7a bd 02 b6 2c be
       -0.09247242 -0.13084964 -0.061275166 -0.16866305
000220 a2 4e 2d bd d9 0a 92 3c 02 4e 2f 3e 2d 92 d3 bd
       -0.04231132 0.017827438 0.17119601 -0.10330615
000230 73 98 8a 3c 6d 7b 7d 3e d6 e6 67 be a2 e6 e1 bd
       0.016918397 0.24754114 -0.2264665 -0.11030318
000240 a6 c8 9f be cb ee e1 bd 3e 1f 7e bd 6e 0e 8c be
       -0.3120777 -0.11031874 -0.062041514 -0.2735476
000250 ee 46 8a bd 2f 8a 59 3d ff bb 84 3e 11 fb 9b bd
       -0.0675181 0.053110298 0.2592468 -0.076162465
000260 99 69 5d 3d 26 c6 40 3d 94 a2 0a be cc 21 fa bd
       0.054055784 0.04706397 -0.13538581 -0.122134775
000270 9e e2 0a 3d a3 3a dd 3e 47 b1 60 3e a7 7f fd 3d
       0.033907525 0.432088 0.21942626 0.123778634
000280 95 41 3d 3e 15 ac 2b 3d ab db 59 bd 2f fd be 3c
       0.18482049 0.041912157 -0.053188007 0.023314087
000290 d7 f8 33 3d 58 c3 61 bd 6f 23 49 3d 0c 66 ae 3e
       0.043938484 -0.055117935 0.049106058 0.3406223
0002a0 62 d9 8c be 41 43 14 be ee 6f 2e bd 52 17 76 3e
       -0.275096 -0.1447878 -0.042587213 0.24032333
0002b0 79 76 a8 bd 5e 72 55 bd 8f 82 fe bd ce 37 93 3e
       -0.08225722 -0.052111022 -0.12427246 0.28753513
0002c0 90 fb d4 3c e6 bb cc 3d 40 aa 08 bd 7d dc 7f 3d
       0.02599886 0.09996776 -0.033365488 0.062466133
0002d0 d7 3a 61 3e e9 c6 7d be 6b d9 af bd 35 c5 85 be
       0.21995102 -0.2478291 -0.08586391 -0.2612702
0002e0 47 8a 74 be e7 1c 9e bd 31 71 a7 be 73 f7 e7 3e
       -0.23880874 -0.077203564 -0.32703546 0.45305976
0002f0 2b b6 e3 bd 3b 28 99 bd c9 4b 96 3d 49 fd cc bb
       -0.1111873 -0.074783765 0.073386736 -0.00625578
000300 73 97 f4 bd 6a 98 82 be af 10 15 be 4a ed 80 be
       -0.11942949 -0.25506908 -0.14557146 -0.25181037
000310 ca f1 0b be 4c 4f e1 bd 29 7d 59 3d 71 57 5b bd
       -0.13666454 -0.11001453 0.053097878 -0.053550187
000320 22 e9 82 bd 0d 2c 27 be 01 ae 0b 3e 2c 45 87 3d
       -0.06392123 -0.16325398 0.13640596 0.0660499
000330 eb 81 9c 3e 4d 92 57 3e 5b 45 3a be 7f 14 7b be
       0.3056787 0.21051903 -0.1819052 -0.24519537
000340 4e 0f 95 be ef 43 48 bd 14 93 cb 3d 8f 52 dd 3c
       -0.2911324 -0.04889291 0.09940162 0.027016906
000350 1c bf 3c be d6 dc 09 be 84 74 c5 3d 91 cc bd 3e
       -0.18432277 -0.13463148 0.09641364 0.37070134
000360 f0 77 10 3f 82 1b 01 3e 0a 9d 7f 3e 25 52 65 3e
       0.5643301 0.1260815 0.2496225 0.22394617
000370 9e 0f 9f 3d f5 84 61 3e e2 06 ab 3d db c1 e9 bd
       0.077666506 0.22023375 0.08350922 -0.11413928
000380 f1 d6 5d bd 46 fc a9 3d b6 38 a5 3e ac 2a a8 3d
       -0.054160062 0.083000705 0.3226983 0.08211264
000390 07 80 a3 bd a7 1f 99 3e d0 bb f5 3b e2 d7 9a 3d
       -0.07983404 0.2990696 0.0074991956 0.07560708
0003a0 68 c4 64 bd 0a c5 02 bf cf b0 1f 3d 96 70 32 bf
       -0.05585137 -0.5108191 0.038986977 -0.6970304
0003b0 b8 f4 a0 bd d8 c6 4e 3e ac 6b 2d bb df 87 7e 3c
       -0.078591764 0.2019304 -0.0026461883 0.015535324
0003c0 86 d0 11 3e 05 31 a9 3e 43 10 55 3d ba 65 cf 3c
       0.14239702 0.3304521 0.05201746 0.025317062
0003d0 c5 29 15 be 11 58 56 be fb e0 27 3d 65 f9 9f 3e
       -0.14566715 -0.20932032 0.040986042 0.3124496
0003e0 75 8a 04 be 25 e7 5e be 32 17 0b 3d 6b f0 ad bc
       -0.12943442 -0.21767862 0.033957668 -0.021232804
0003f0 1e 9a 27 3e 69 7e f1 bd 42 9f 8a bc f7 bb 2a bd
       0.16367385 -0.11791689 -0.016921643 -0.041683163

fc1.bias f4 [50]
000000 bf 02 ff be 85 bb b7 bd d1 ce a3 3e 90 2b a9 be
       -0.49806783 -0.089713134 0.31993726 -0.33041048
000010 f1 00 5b bd 1e bb 35 be a1 d3 2d be 0c 43 3e bd
       -0.053467695 -0.17747161 -0.16975261 -0.04645066
000020 b3 61 82 bd 5b 27 d0 bd 14 66 54 bd be 36 1f 3a
       -0.06366291 -0.101637565 -0.05185516 0.0006073526
000030 ca 37 e9 be 0e 23 60 be a5 b6 af be 76 31 be 3d
       -0.45550376 -0.21888372 -0.34319034 0.09286778
000040 08 a9 8d 3e 1d 9e 3b be 9e 72 f4 be b7 bb 44 be
       0.27668023 -0.18322034 -0.47743696 -0.19212233
000050 26 0a 92 be 2e 14 32 be 05 1b 17 be e6 05 20 be
       -0.28523368 -0.1739051 -0.14756401 -0.1562725
000060 0a 4d 6f be 34 62 ec be aa ec 6b be 5c fb 80 be
       -0.23369232 -0.46168673 -0.23039499 -0.25191772
000070 d7 5f 47 be 11 ff e8 bd 1f 88 9d be 78 b8 9c bd
       -0.19470154 -0.11376775 -0.30767915 -0.07652372
000080 9b 08 ba bc a6 24 62 be 57 0c 59 3d d7 b6 06 be
       -0.022709182 -0.22084293 0.052990284 -0.13155685
000090 83 6e 36 be 9a 15 b4 bc a8 ac e1 3d da 91 11 be
       -0.17815594 -0.021982957 0.1101926 -0.14215794
0000a0 ec 85 c3 bd 7e 4f 24 bd 84 ef 77 be e8 8b d7 3d
       -0.09547028 -0.040114872 -0.24212462 0.10524732
0000b0 05 07 4e bd 69 1f f1 bd dd e7 67 3d 68 9f f0 be
       -0.050299663 -0.11773569 0.056617606 -0.46996617
0000c0 33 82 12 bf f2 06 27 bd
       -0.5722992 -0.040778108

fc2.weight f4 [30, 50]
000000 6c 91 a7 bd 0c 0e bd bc 0d 96 6f 3e b3 d7 ae bd
       -0.08182034 -0.023077987 0.23397084 -0.08537235
000010 cb cb b2 be f5 62 9b 3d f9 e8 55 be 0d 1a 48 bd
       -0.34921107 0.07587234 -0.20889653 -0.04885297
000020 64 29 19 be 9d 7b 8a bd 0d ab c3 3d f7 63 4f 3d
       -0.14957196 -0.067618586 0.0955411 0.050632443
000030 07 07 6a be aa 7b 9d be 7e 5e e3 be ac 9a 16 3e
       -0.22854243 -0.3075841 -0.4440803 0.1470744
000040 38 5e 45 3b 2a 1a 3b 3e 8f 65 0b 3e 10 c7 0d be
       0.0030115973 0.182717 0.1361296 -0.13845468
000050 77 73 81 3d 91 dc b7 bd 8c 9d 9f bd ef 16 40 3d
       0.06320851 -0.089776166 -0.077937216 0.04689687
000060 35 c9 da be bb f0 16 bf 26 51 65 bd 91 c3 69 be
       -0.42731634 -0.58961076 -0.055985592 -0.22828509
000070 fd e1 51 be 9f 47 c6 bd 0c f3 c1 bc 92 c8 61 be
       -0.20496364 -0.096816294 -0.023675464 -0.22049168
000080 fb 99 c9 be f8 32 70 be e7 ab d7 3b 7e 86 8c 3e
       -0.3937529 -0.23456943 0.0065817717 0.2744636
000090 be 0c 39 3e 6c 7c 0d bf 96 68 28 3e 90 5e a4 3d
       0.18071267 -0.5526798 0.16446146 0.08025849
0000a0 c1 a0 72 be 79 fd 3f be 80 de b2 3d 32 fe 69 3e
       -0.23694135 -0.18749036 0.08733845 0.22850874
0000b0 f5 5b 2c 3e 5e 7d 62 bc 08 6b 3c 3e dd f5 5d be
       0.16831954 -0.013823835 0.18400204 -0.2167582
0000c0 ff 83 d7 be 39 32 a3 bf 42 da 00 be 69 ae 72 be
       -0.42092893 -1.2749702 -0.12583259 -0.23699345
0000d0 f0 54 7c bd 6b e9 04 bf 4e ac 05 3d 11 95 dd bd
       -0.06160444 -0.5191867 0.032635026 -0.10819448
0000e0 b4 34 eb 3c 04 43 77 3c 84 ce 40 bc c5 cc 36 be
       0.028711654 0.015091661 -0.011767987 -0.17851551
0000f0 7c 19 d0 3d 28 cc 96 bd 01 d3 49 be be 50 d6 bd
       0.10161111 -0.073631585 -0.19709398 -0.10464619
000100 76 ff f2 be 2e 1e 2a 3f c8 c5 08 3e 94 4f 0c 3e
       -0.47460526 0.664523 0.13356698 0.13702232
000110 b5 c3 9f be ba 70 7c bd f9 e3 84 3e 59 fd 1b bf
       -0.31204 -0.061630942 0.2595518 -0.6093345
000120 96 2b 38 3e 90 02 0a be 4b 59 41 be 13 2e da be
       0.17985377 -0.1347754 -0.18881719 -0.42613277
000130 c5 65 d6 3d c0 94 d5 be d5 99 4b be 72 01 70 be
       0.1046863 -0.4171505 -0.19882901 -0.23438051
000140 d7 3b 80 be 43 95 2d be d5 f3 22 3e f7 9c a1 be
       -0.25045654 -0.1695147 0.15913327 -0.31565067
000150 b4 64 e8 bd 2d 6d 60 be 3c 3e 32 be 9f 9c b9 bd
       -0.113473326 -0.21916647 -0.17406553 -0.09063076
000160 11 67 a7 3d a6 8e 36 3e 91 44 60 bf 15 10 a1 bd
       0.08173955 0.17827854 -0.87604624 -0.078643955
000170 81 bc 9b bd ef 03 ae 3e 30 65 26 3e a0 d0 8b 3e
       -0.07604314 0.33987376 0.16249537 0.27307606
000180 72 27 e3 be dc 44 ee bc bf b8 fb be 94 39 93 be
       -0.44366032 -0.02908557 -0.49164388 -0.28754866
000190 26 50 2f be 4e 44 b7 3d 29 26 92 be 20 c6 ae be
       -0.17120418 0.08948575 -0.2854474 -0.34135532
0001a0 13 3e 65 be 7f 40 b6 3d 12 6c f6 be 1f bd a9 bf
       -0.2238696 0.088990204 -0.48129326 -1.326084
0001b0 dc af 61 bd 3b 8e 51 bd 32 55 8c 3d 47 7a d7 3c
       -0.055099353 -0.051161032 0.06852187 0.026303424
0001c0 4b 82 1d be 59 3d 29 3d 86 0a 35 bf 15 4e 66 3b
       -0.15381734 0.04131827 -0.7071918 0.0035141755
0001d0 21 d1 60 3e b5 33 83 be 0b ac a3 39 db 7f af be
       0.21954776 -0.25625387 0.00031217965 -0.34277233
0001e0 e2 b3 6b 3d 02 94 64 3d db 2b 2f 3d 0c be 62 be
       0.057544596 0.055805214 0.042766433 -0.2214281
0001f0 0b 55 ea 3d 01 fb 11 bf e6 cb c7 be 8d bc 19 bf
       0.11442002 -0.57023627 -0.3902275 -0.6005333
000200 0b ff a4 bd d2 c1 d8 3d ab 89 80 3d a2 54 58 be
       -0.08056458 0.10583843 0.06276258 -0.21126035
000210 f0 69 dc 3d a1 53 dc 3d 1a f7 8a 3d 1c 90 51 be
       0.107623935 0.107581384 0.06785412 -0.2046513
000220 40 39 a3 bd 40 10 88 be b9 a4 b3 be 27 90 00 3e
       -0.07969904 -0.26574898 -0.3508661 0.1255499
000230 64 14 00 bf 86 6f 40 3d e8 12 b7 3d 4a b7 c9 3d
       -0.50031114 0.046981357 0.08939153 0.09849413
000240 2c c3 8c 3d f2 dc 04 3e f3 7f 7e be 5b 5c a8 3d
       0.068731636 0.12974909 -0.24853496 0.082207404
000250 0a c1 fe 3d 98 93 90 3e 79 5a eb bd 8d f4 09 3e
       0.12439163 0.28237605 -0.11491866 0.13472195
000260 ed 8b 60 3e 0d e4 31 be b1 ab 1a 3e 69 bf 55 bf
       0.21928377 -0.1737215 0.15104558 -0.83495194
000270 a7 cf 09 bf c5 9e 31 3d c2 e7 63 be 41 5b 95 bd
       -0.5383248 0.043364305 -0.22256377 -0.07292796
000280 b1 7c ab bd d8 17 eb 3d cb 67 b9 3c 4a 83 24 be
       -0.083733924 0.11479157 0.0226325 -0.16065708
000290 48 b9 85 be 0f 50 b1 be 99 65 ac 3c 16 52 49 be
       -0.2611792 -0.34631392 0.02104454 -0.1966022
0002a0 ee 89 f7 3d 70 1b b0 3d 22 cc a1 3d b3 5c b1 be
       0.12086855 0.08598983 0.07900263 -0.34641036
0002b0 46 ed 2c 3e ba 79 9d 3c aa 01 3b 3d a9 76 7c be
       0.16887388 0.019223083 0.045655884 -0.2465464
0002c0 85 9d 5d be 2c f0 35 3e 00 cc f6 bd 26 7f 97 be
       -0.2164212 0.177674 -0.12050629 -0.29589194
0002d0 91 f6 df 3d b1 21 70 be 55 97 10 3d b2 0d 44 be
       0.10935701 -0.23450352 0.03530057 -0.1914585
0002e0 f9 6d 7d be 2c 66 47 3d bc f3 a1 bc 05 14 5b be
       -0.24748982 0.048681423 -0.019769542 -0.21394356
0002f0 fb 61 7b 3e 68 d4 19 3d 69 21 85 3e 41 08 a1 3d
       0.24549095 0.037556082 0.26002052 0.078629024
000300 f0 28 d8 be ec c6 26 be e1 9b c6 3d b4 75 3d 3e
       -0.42218733 -0.1628682 0.096977 0.18501931
000310 81 43 c3 3e bf e1 92 be fa 5d f2 be 42 65 e8 bd
       0.3813744 -0.28687856 -0.47337323 -0.113474384
000320 34 98 73 3f dd 3f 9c be 89 48 bd bc cc ac 02 bf
       0.9515412 -0.30517474 -0.023105877 -0.5104492
000330 43 3e 04 3e 5f c3 4a 3e 46 35 21 be 45 53 9d be
       0.12914376 0.1980109 -0.15742978 -0.30727592
000340 bd 93 93 3d 96 12 b3 3d 09 39 c2 be e0 a8 0a bb
       0.07205913 0.08743779 -0.3793414 -0.0021157786
000350 be 36 87 3d 7d 67 0e be c7 e8 af be de bf 86 ba
       0.06602238 -0.13906665 -0.34357283 -0.001028057
000360 90 82 de 3d bb 4d dd 3b 51 45 c4 be 44 c9 73 be
       0.108647466 0.006753651 -0.38334134 -0.23807245
000370 bd e9 a2 bd 62 06 0a 3e 24 1f 82 bf 5f b4 b5 be
       -0.07954738 0.13478997 -1.0165753 -0.35489175
000380 ed df ea 3d 74 a7 36 be 50 86 ca 3d cc 6d 52 be
       0.11468492 -0.17837316 0.09888899 -0.20549697
000390 de fc 90 be f3 7f 23 3e 58 78 31 3d 1f a9 ed 3d
       -0.28317922 0.15966778 0.04332766 0.11604523
0003a0 10 d0 ec 3d 0e a5 7d be b8 cb 8d bd 72 ef a7 be
       0.11563122 -0.24769995 -0.06923622 -0.3279987
0003b0 d4 98 20 3e ac da cd 3c b0 87 08 3d 84 a2 87 be
       0.156833 0.025128685 0.033332527 -0.26491177
0003c0 14 6b ac bd a4 8a 30 3e 98 dd 0c bf ef cb 6b 3c
       -0.08418861 0.17240387 -0.55025625 0.014391883
0003d0 0a 36 96 bd 3f 48 9d bd 96 ef 3c be 49 2c db bd
       -0.07334526 -0.076797955 -0.1845077 -0.10701806
0003e0 9e 2a 91 3c 87 80 e7 3d 51 51 a1 3d 64 8f a3 bd
       0.017720517 0.113038115 0.07876838 -0.07986334
0003f0 d5 05 d2 3c ae d9 7e be 03 3b 5a bd b1 2d 9f be
       0.025637547 -0.24887726 -0.053278934 -0.31089547

fc2.bias f4 [30]
000000 e6 2e a5 3e d1 99 05 3f 39 65 5b 3e 4e d4 db 3e
       0.32262343 0.5218783 0.21425332 0.42935413
000010 29 80 01 bd 3a 91 76 bd 4e 81 df be c1 08 63 be
       -0.031616364 -0.060197093 -0.4365334 -0.22171308
000020 18 2d cc 3d d3 e6 05 bf c4 27 38 3d f3 51 d0 3e
       0.099695385 -0.52305335 0.0449598 0.40687522
000030 7a d6 94 bd 7a e9 ce 3e 9e 72 22 bd 26 4b e8 3d
       -0.07267471 0.40412503 -0.03966009 0.113424584
000040 63 29 a4 3e 57 7e cf be 37 bc 0b 3f 91 d8 a7 3e
       0.32062826 -0.40526077 0.5458407 0.32782415
000050 f8 d6 0e bc 90 e9 22 3e f7 90 ee 3c 19 35 20 3e
       -0.008718245 0.1590941 0.029121859 0.15645255
000060 81 8d bd 3e e3 af 3e be 0f d7 51 3d 23 89 7e bd
       0.3702202 -0.18621783 0.051230486 -0.062142503
000070 d2 10 ed 3d b6 50 b7 3e
       0.11575474 0.35803765

fc3.weight f4 [20, 30]
000000 3a b7 be be 0b 91 28 bf 64 f8 b2 3e 52 dd aa 3e
       -0.37249166 -0.6584632 0.34955132 0.3337198
000010 a5 a4 29 bf 35 65 00 3f 2d 76 4c be ca c9 34 bf
       -0.6626685 0.5015443 -0.19966955 -0.70620406
000020 f0 78 08 3e cc de 56 3e 5b c4 05 3e b0 7e ff be
       0.13327384 0.20983428 0.13063185 -0.49901342
000030 33 2c 4f bd 23 f6 b0 3e f7 4f ab bc c7 65 5f bd
       -0.05057926 0.34562787 -0.020912154 -0.05454042
000040 e0 1e d8 be fb 17 fe 3d cf c5 7b 3e bc 4a f7 be
       -0.42211056 0.12406918 0.24587177 -0.48299205
000050 5a 6d 88 3d 12 9a fa be d0 2d 88 be 4b bc a1 3e
       0.06661482 -0.4894567 -0.26597452 0.3158897
000060 79 3d 3c bf 88 81 30 be bd 7b 8a bd 3c ce fb 3d
       -0.735313 -0.17236912 -0.067618825 0.122951955
000070 3d 80 40 3f c7 0d 6f be 31 c4 4d be 59 1c 63 be
       0.75195676 -0.233451 -0.20094372 -0.22178783
000080 a7 82 11 3e be 57 6c bc bd 47 8f 3e 84 17 83 3e
       0.14209996 -0.014425216 0.2798442 0.25603878
000090 a5 c9 23 bd fd 19 bf 3d 97 d3 bb 3e a4 ca 2d 3d
       -0.039987225 0.09331129 0.36684868 0.04242958
0000a0 79 cb b9 3d 63 1b bd bd 9e d2 53 3e be 93 51 3e
       0.090720125 -0.09233739 0.20685813 0.20466515
0000b0 df 51 b7 3d fa 1b d3 bd dd e0 b6 bd 68 a2 50 be
       0.089511625 -0.103080705 -0.08929608 -0.20374453
0000c0 ce 4a e8 3d 02 55 ed bd 2c 67 a1 3d cf 2f 05 be
       0.11342393 -0.115884796 0.078810066 -0.13006519
0000d0 76 ac 84 3e 28 f9 7e bc 1e 6e 0d bf c5 15 d8 3d
       0.25912827 -0.015562333 -0.5524615 0.10551027
0000e0 e5 f8 f9 bd 2f 86 0a 3c a7 6b 96 3e a4 4f 6d bd
       -0.12205676 0.008454843 0.29379007 -0.05793728
0000f0 bf 58 cc be 9a c5 4b 3e 48 bd 2f 3e 2e bf 28 be
       -0.39911458 0.19899598 0.17162049 -0.1647918
000100 35 a8 e5 3e f6 e8 1c be 8e ea 0a bf fb 5b 27 bb
       0.44854894 -0.15323243 -0.5426415 -0.0025537002
000110 e9 75 ac be 8b be e1 bd 24 b7 23 3d 14 da c1 be
       -0.33683708 -0.11022671 0.03996958 -0.37861693
000120 47 bc a1 bd 28 48 80 3d be ff 6e 3d 66 4e cf 3d
       -0.07897239 0.06263763 0.058349364 0.10122375
000130 b8 63 98 bd c3 41 35 be 6d 81 5f bf 64 ed 45 3d
       -0.07440895 -0.17700867 -0.87306863 0.048322096
000140 33 7a 2a bd bf 21 27 bd 42 7d 1e 3f 65 82 25 be
       -0.041620445 -0.040803667 0.6190988 -0.16163023
000150 15 0b ce be af 57 7a 3e 27 02 44 3e bb 9a 42 3e
       -0.4024283 0.24447511 0.19141446 0.19004337
000160 2d dd 2c 3f 1e f5 52 be a9 d4 b8 be 15 65 66 3e
       0.6752499 -0.20601317 -0.36099747 0.22499497
000170 3e 19 aa 3e 9c 3a 88 be a2 f6 88 3e 8c 6d aa 3e
       0.33222383 -0.26607215 0.26750666 0.33286703
000180 13 1d 1f bf 92 f6 a7 bc d9 51 de bb c5 80 b6 be
       -0.6215374 -0.020503316 -0.0067846593 -0.35645118
000190 71 a9 61 be 82 3d cd bd a8 d3 0c bf 43 a3 ce 3d
       -0.22037293 -0.10021497 -0.5501046 0.100897335
0001a0 03 8e 37 be bc f9 82 bd 59 87 5f 3e 10 6a 94 be
       -0.17925267 -0.06395289 0.21828975 -0.2898717
0001b0 f9 e1 e5 be bf b7 e8 3e 0a 9b ba be d9 d0 bd be
       -0.44898966 0.45452687 -0.3644641 -0.370734
0001c0 d4 d7 9f 3e 07 06 16 3e 5b 81 61 3e f2 ce 74 be
       0.3121935 0.14650737 0.22022001 -0.23907068
0001d0 a8 05 16 3e 8c 66 60 bd be 3d 65 3e de c5 10 3d
       0.14650595 -0.054785296 0.22386834 0.03534495
0001e0 88 f4 f8 3e 71 5f a0 be ec da 9c 3e f4 79 49 3e
       0.48624063 -0.31322816 0.30635774 0.19675428
0001f0 d2 d8 22 3d 88 54 25 3f 0b 2f 2e bf b2 9b 4f be
       0.039757557 0.6458211 -0.6804053 -0.20274237
000200 b6 4b f8 3e 67 22 49 bc f9 15 d7 bd 45 e1 19 bf
       0.48495263 -0.012276269 -0.10502238 -0.6010936
000210 72 9b 65 be da f3 1b 3f 80 6d a1 bb c8 ab 1f 3e
       -0.22422579 0.6091896 -0.0049263835 0.15592873
000220 a7 fb dd be 0a 91 e3 3d c9 aa 57 3e 0c 77 32 be
       -0.43356058 0.111116484 0.21061243 -0.17428225
000230 58 ea a7 bc e4 14 bd be 71 36 d5 be 0c 02 9a 3e
       -0.020497486 -0.3693 -0.41643098 0.30079687
000240 1d 29 87 be f5 b5 ac 3e 26 dd 5c bf e0 b0 06 3e
       -0.26398554 0.33732572 -0.86274946 0.1315341
000250 7a 08 65 3f 70 d5 02 bf b1 49 92 be a2 c2 5f 3e
       0.8946606 -0.5110693 -0.28571847 0.2185159
000260 49 9d 7d be 23 2a bf be 4a 13 1b 3e d8 a0 bc bd
       -0.24767031 -0.37336835 0.15144077 -0.09210366
000270 58 89 d7 3d 3e ce bd 3e 83 00 ea 3e 5a 57 22 be
       0.10524243 0.37071413 0.45703515 -0.15853634
000280 fb d0 92 3d 1c 5d 8e be d0 56 24 3e ae b4 88 3e
       0.07168766 -0.27805412 0.16048741 0.26700348
000290 64 19 2f 3d aa 1e 21 bf f3 a6 75 3e 3f 68 80 be
       0.042748824 -0.62937415 0.23989467 -0.25079533
0002a0 78 62 2e 3c db 24 ae 3e 07 59 c2 bc a8 ee ce 3d
       0.010643594 0.34012493 -0.023724092 0.10104114
0002b0 2f 52 45 3e bc b4 5a 3c 4e a7 0a be ed 3b 6d 3e
       0.19269632 0.0133487545 -0.13540384 0.23167391
0002c0 af 59 f8 3c 34 f4 a1 3d c8 04 4a 3f 13 a5 d8 bd
       0.030316202 0.07907906 0.78913546 -0.105783604
0002d0 63 7d ef bd aa de ce 3e 7a b6 27 3f 5f b3 b2 be
       -0.116938375 0.40404254 0.6551281 -0.34902474
0002e0 87 fa d0 3c 93 9d 2a 3e 15 25 05 bf ec e4 08 be
       0.025510086 0.16661672 -0.5200971 -0.13368577
0002f0 9e a7 1a 3f e2 a0 90 be 86 c1 26 bf 12 30 ea 3d
       0.60412014 -0.28247744 -0.65139043 0.1143495
000300 50 c4 37 be 86 a9 81 3d 09 d3 2b 3e 03 28 7a bf
       -0.17945981 0.06331162 0.16779722 -0.97717303
000310 75 fd 30 be ef 9c 8e bb 85 e4 2c 3e 4c a9 df be
       -0.17284186 -0.004352204 0.16884048 -0.4368385
000320 a9 0c 9c 3e 87 29 35 3d ac 50 99 be fe 4c ff bd
       0.3047841 0.044229057 -0.2994436 -0.12465857
000330 44 52 04 bf b4 32 26 3e f2 df 39 bf 4c 62 1e bd
       -0.5168803 0.16230279 -0.7260734 -0.038667962
000340 34 11 bb 3e df f6 39 bf c8 d2 89 bc 8e 8e 2a be
       0.36536562 -0.7264232 -0.016824141 -0.16655943
000350 dc c2 78 3e 23 c1 b3 3e a6 d7 2f 3e 79 a0 81 3e
       0.24293083 0.3510829 0.17172107 0.25317743
000360 1d f5 09 bf d9 c2 40 3e 74 ae 1b 3f 5d 34 2a bd
       -0.5388964 0.18824328 0.6081307 -0.041553844
000370 72 f7 0b bf 74 e9 1e be 45 10 01 be df e0 8e 3e
       -0.54674447 -0.15518743 -0.12603863 0.27905938
000380 6a 48 bc be 87 25 27 3e 0a 09 4e 3e 76 85 8e be
       -0.36773998 0.1632291 0.20120636 -0.27836198
000390 88 ba 25 3e 77 39 26 bd 4e c5 28 3e 19 72 cf bd
       0.16184437 -0.040582146 0.16481516 -0.10129184
0003a0 49 c7 2d 3e b8 b0 20 be 10 72 78 bf ae a5 59 be
       0.16970553 -0.15692413 -0.97049046 -0.21254608
0003b0 2b fc 46 b8 87 f5 74 3e be 0b b6 3e 20 ff 91 bd
       -4.744173e-05 0.23921786 0.35555834 -0.07128739
0003c0 32 83 22 be 24 e5 a6 3d 92 07 00 be 35 be 6d be
       -0.1587036 0.08149174 -0.12502888 -0.2321709
0003d0 1e 4b b3 3e 92 c4 06 bd 99 33 7d 3e 1d 1f 06 3e
       0.35018247 -0.032902308 0.24726714 0.13097806
0003e0 34 29 12 3f dc 94 d3 bd bd ba cd bd 32 a9 70 3e
       0.5709412 -0.10331127 -0.10045383 0.23502043
0003f0 dd 2b d9 3d a5 21 f2 bd 01 c2 46 3e 6b eb e1 3d
       0.106040694 -0.118228234 0.19409944 0.110312305

fc3.bias f4 [20]
000000 2c 5b 8e 3e ce d0 a1 3d 53 bc 80 3c 09 b1 9e 3e
       0.27803934 0.079011545 0.0157148 0.30994442
000010 82 b0 02 3e 41 b7 12 3e 21 3d d6 3e d8 85 bd 3e
       0.12762645 0.14327718 0.41843513 0.37016177
000020 d4 b2 49 be d6 c0 be 3d fd f9 a5 3e af 10 03 3f
       -0.19697124 0.09314124 0.32417288 0.5119733
000030 a2 de 89 be 42 58 87 3e bb 9f 54 3e 96 13 59 3d
       -0.26927668 0.26434523 0.20764057 0.052997194
000040 91 82 65 be 04 d7 66 3d bf e0 ac 3d c0 d1 51 3d
       -0.22413088 0.0563574 0.084413044 0.051225424

fc4.weight f4 [2, 20]
000000 26 ab ea 3e 50 13 61 bc 16 9a aa 3e e4 4f 79 3f
       0.458337 -0.013737515 0.33320683 0.9738753
000010 a8 a0 17 3f ce 03 04 3e 3d 3b 93 3f 78 8f 56 3f
       0.59229517 0.12892076 1.1502453 0.83812666
000020 b3 bc 35 3e 44 a3 07 3f 2c 7a 2f 3f 89 51 06 bf
       0.17747764 0.529835 0.68545794 -0.5246816
000030 0b 02 bc 3e d9 17 39 bf 5b 23 ba be ee bd e8 3d
       0.3672031 -0.72302014 -0.363551 0.11364351
000040 0a 8b d7 3e b6 9a 76 be cb 8b 18 be 15 1c 22 bd
       0.42098266 -0.24082455 -0.14897077 -0.039577562
000050 5b 32 ff bd 4b d2 02 bd 0a 8f 1f bf e0 19 83 bf
       -0.124607764 -0.031938832 -0.62327635 -1.0242271
000060 3c 7b 06 bf 5e ea 8d be 7b 8c 9a bf 15 f9 64 bf
       -0.5253179 -0.2771787 -1.2074121 -0.8944257
000070 e0 3c c5 be 18 a7 1c be 00 df c5 be 70 08 ca 3e
       -0.38523006 -0.15298116 -0.38646698 0.39459562
000080 88 09 a7 be 47 ce 15 3f 4d e7 d3 3e aa ff 68 bd
       -0.3262446 0.5851788 0.41387406 -0.056884445
000090 0e b8 8c be 49 96 3b 3e 90 52 1a 3e 27 96 6d be
       -0.27484173 0.18319048 0.15070558 -0.2320181

fc4.bias f4 [2]
000000 e2 aa 56 bb 1e 31 22 bd
       -0.0032755663 -0.039597623
