Sample_Based_Extension/UNSW/UNSW_Defense/RSLAD/RSLAD_10.pt (torch, 23308 bytes, 8 tensors)

module.fc1.weight f4 [50, 56]
0	0x3c317e33	0.010833311
1	0x3ae66b52	0.0017579591
2	0xbb7e5685	-0.0038808894
3	0x3c123e22	0.008925946
4	0x3d50b356	0.050952278
5	0x3a40674c	0.0007339611
6	0x3e6e2a61	0.23258354
7	0xbd8a563b	-0.067547284
8	0x3d1782d0	0.036989987
9	0xbdb5b775	-0.08872882
10	0xbc092292	-0.008370059
11	0xb84db271	-4.9041995e-05
12	0xb8699f2b	-5.5699766e-05
13	0xbc0ab4af	-0.00846593
14	0x3bfead8d	0.0077721537
15	0x3cbeb527	0.02327974
16	0x3b81f900	0.0039664507
17	0xbdc40c05	-0.09572605
18	0xbca39fad	-0.0199736
19	0xbc96458a	-0.018343706
20	0xbbd0f86f	-0.006377272
21	0x3e622c4f	0.22087215
22	0xbdeb843d	-0.11499832
23	0xbe9f1328	-0.31069303
24	0x3dd5f4df	0.10447096
25	0x3d407a76	0.046991788
26	0x3e84ca68	0.25935674
27	0xbe193dfd	-0.14965053
28	0xbda5157b	-0.08060738
29	0xbdc5d5f4	-0.09659949
30	0xbd2f0055	-0.042724926
31	0x3cdeadf0	0.02718255
32	0xbd0fb00c	-0.03508
33	0x3a8ac243	0.0010586459
34	0xbc410b40	-0.011782467
35	0x3bfddf41	0.007747561
36	0xbc4bda09	-0.01244212
37	0xbe30bc89	-0.1725942
38	0xbe5e22a0	-0.21692896
39	0x3ce358cf	0.027752308
40	0x3dbc71f7	0.092014246
41	0x3df76b39	0.12080998
42	0x3cbf0a45	0.023320327
43	0xbd5b3bf3	-0.05352397
44	0x3d503713	0.050833773
45	0x3cacd740	0.021098733
46	0x3d2cf746	0.042228006
47	0x3e261245	0.16217907
48	0x3c55975f	0.013036578
49	0xbf017bf4	-0.5057976
50	0xba2522c0	-0.00062994286
51	0x3cb750b9	0.022377359
52	0x3c05d605	0.008168702
53	0x3da89949	0.08232362
54	0x3d10692a	0.035256542
55	0x3bdd84fd	0.006760238
56	0xbc98bee8	-0.018645719
57	0x3a6ec8e8	0.0009108917
58	0xbb435de1	-0.0029810595
59	0xbc5dbe0b	-0.013534079
60	0x3d3e1105	0.04640295
61	0xbcff4c28	-0.031164244
62	0xbe225915	-0.15854295
63	0x3e9163a4	0.28396332
64	0xbd802bf0	-0.062583804
65	0xbd0b00ce	-0.033936314
66	0xb987d127	-0.00025905037
67	0x390545be	0.0001270985
68	0xb842579c	-4.6334797e-05
69	0x3e33ccd3	0.17558603
70	0xbe0ca865	-0.13736112
71	0xbdb38463	-0.08765485
72	0x3bdf1106	0.0068074493
73	0xbdc820d1	-0.09771884
74	0xbd193a86	-0.037409328
75	0xbd856710	-0.06513798
76	0xbe4114fa	-0.18855658
77	0xbcd8dc74	-0.026472308
78	0xbd726a0b	-0.05918316
79	0x3d8920ee	0.06695734
80	0x3d5aa4b7	0.05337974
81	0xbdb9342a	-0.09043153
82	0x3c845658	0.016154453
83	0xbcd59e87	-0.026076568
84	0xbc981bf5	-0.018568018
85	0x3c3f7d1c	0.011687543
86	0x3d2f4e0b	0.042799037
87	0x3c672de8	0.014110066
88	0x3c57a5e7	0.013162113
89	0x3bd34028	0.006446857
90	0x3d02227d	0.03177117
91	0x3d4dc37d	0.05023526
92	0x3c82349f	0.015894232
93	0x3d8c0bd3	0.06838193
94	0x3d3873bd	0.04503225
95	0x3c1c12a6	0.0095259305
96	0xbe996421	-0.29959205
97	0x3d014f68	0.03156987
98	0xbd8e1e3c	-0.069393605
99	0xbc3719dd	-0.0111756
100	0x3eb91790	0.3615079
101	0x3e185822	0.1487737
102	0x3d514ec0	0.051100492
103	0x3dbd6353	0.0924746
104	0x3d718ea9	0.058973942
105	0xbe311c45	-0.1729594
106	0xbce275c4	-0.027644046
107	0xbc304a96	-0.01075997
108	0xbda2ebc7	-0.07955127
109	0x3d94692d	0.07246623
110	0x3e85ebf2	0.26156574
111	0x3c0733d0	0.008252099
112	0x3e92506f	0.2857699
113	0xbab5396e	-0.001382632
114	0x3d865f26	0.06561117
115	0xbd981b27	-0.07427054
116	0xbf2ad8ea	-0.66737235
117	0x3f0a5e99	0.54050595
118	0xbf267028	-0.65014887
119	0x3ec933ea	0.3929742
120	0xbdb86f0c	-0.090055555
121	0x3d885603	0.066570304
122	0x3e9b93b5	0.3038613
123	0xb905414c	-0.00012708193
124	0xb9944766	-0.00028281956
125	0xbd9f5b45	-0.0778108
126	0x3c373d20	0.011184007
127	0x3e6d99cd	0.23203202
128	0xbaa6b0af	-0.0012717451
129	0x3d765655	0.060140926
130	0x3dee10be	0.11624287
131	0xbe0be2e5	-0.13660772
132	0x3d3c7f9f	0.046020146
133	0xbd40e737	-0.047095504
134	0x3e18b3b1	0.14912297
135	0x3e1080da	0.14111653
136	0x3d435308	0.047686607
137	0x3e74709a	0.23871079
138	0xbe243625	-0.1603628
139	0x3dc4a0ad	0.09600959
140	0x3e847125	0.25867572
141	0x3e2df474	0.16987783
142	0xbd9ca9d9	-0.07649583
143	0x3d2de130	0.042451084
144	0xbdf6a92a	-0.12043984
145	0xbd1e34db	-0.038624626
146	0xbd61cc69	-0.05512658
147	0x3b654c5a	0.0034988136
148	0xbc96777e	-0.018367525
149	0xbc9a2f98	-0.018821523
150	0xbcae4a7a	-0.021275748
151	0xbd1ce3e4	-0.03830327
152	0xbdb20d1c	-0.08693907
153	0xbd43557f	-0.047688957
154	0xbe8e22cf	-0.27760932
155	0xbd7f7388	-0.06236604
156	0x3e15e701	0.14638902
157	0x3e0def18	0.13860738
158	0xbe7e50a4	-0.2483545
159	0xbe63dd98	-0.222525
160	0x3ea7b220	0.32753086
161	0x3e28741c	0.16450542
162	0xbe1e251f	-0.15443848
163	0xbe4aff4a	-0.19823948
164	0xbe97d595	-0.29655138
165	0x3e01f183	0.12689786
166	0x3e1deb60	0.1542182
167	0xbd2b9ffc	-0.04190062
168	0xbd3f44d2	-0.04669649
169	0x3aff97b4	0.0019500167
170	0x3a1fcff1	0.00060963543
171	0x3d2b890c	0.041878745
172	0xbcc0298c	-0.023457311
173	0xba84dc9f	-0.0010136551
174	0xbe4eca57	-0.20194374
175	0xbbe7693e	-0.0070621064
176	0x3d0968c2	0.03354717
177	0x3df4a45c	0.119454116
178	0x3b5aedcf	0.0033405905
179	0xb7aec78c	-2.0835338e-05
180	0x38b88b4d	8.7997505e-05
181	0xbd2910e1	-0.041275863
182	0x3da56769	0.080763645
183	0xbc6cf6ec	-0.014463168
184	0x3b44277d	0.0029930763
185	0xbe280f09	-0.16411985
186	0xbbf225ca	-0.0073897587
187	0xbdaa4925	-0.083147325
188	0x3c90bb02	0.017667297
189	0x3c8b38bb	0.016994825
190	0x3d63de7c	0.0556321
191	0x3de65340	0.112463474
192	0x3e849351	0.25893643
193	0x3e39fbd4	0.18162471
194	0x3e5d6b80	0.21623039
195	0xbe30819f	-0.17236947
196	0x3d39fbf7	0.045406308
197	0xbd6b05f5	-0.057378728
198	0xbbe7ad0f	-0.0070701907
199	0x3a63430a	0.00086693524
200	0xbbe52282	-0.006992639
201	0x3cb49b99	0.022046851
202	0x3d30d7ac	0.04317443
203	0x3d525390	0.051349223
204	0x3cb68baa	0.022283394
205	0xbe77bf98	-0.24194181
206	0xbe8f430f	-0.2798085
207	0xbd0f7c55	-0.03503068
208	0x3e0b3a2f	0.13596414
209	0xbd6a3a53	-0.05718453
210	0x3d3864bd	0.045017947
211	0xbe13750b	-0.14400117
212	0xbbd2f54c	-0.006437933
213	0x3d21be78	0.039488286
214	0xbdcfab0c	-0.101400465
215	0xbbf66e20	-0.007520452
216	0x3da241d8	0.07922715
217	0xbf11dec8	-0.5698056
218	0xbd6f735c	-0.058459625
219	0xbcf4516a	-0.029823978
220	0x3d806a24	0.06270245
221	0xbc0f94ea	-0.008763531
222	0xbcabd2d4	-0.020974554
223	0x3ccc5b05	0.024945745
224	0xbcad8a41	-0.021184089
225	0xbaa014c4	-0.001221322
226	0xba8ed173	-0.0010896161
227	0x3d261946	0.040551446
228	0xbd9553ce	-0.07291375
229	0xbb43e034	-0.0029888274
230	0x3c6d69bf	0.014490544
231	0xbc79f9e6	-0.015257334
232	0xbc998cc6	-0.018743884
233	0xbc720549	-0.014771768
234	0x3affd579	0.0019518576
235	0x37f8e5c9	2.9670906e-05
236	0xb9615836	-0.00021490533
237	0xbd1165af	-0.035497364
238	0x3d606b89	0.054790054
239	0xbdaea07c	-0.08526704
240	0x3c0e96f9	0.008702987
241	0xbe3c7c84	-0.18406874
242	0x3d595df6	0.053068124
243	0xbe089d30	-0.13341212
244	0xbe471201	-0.19440462
245	0x3c3020cc	0.010750007
246	0xbd4115d1	-0.047139946
247	0x3d6a5f0d	0.057219554
248	0x3d57b955	0.05266698
249	0xbdcf90cb	-0.10135039
250	0x3de7aee2	0.11312653
251	0xbcd43a7a	-0.02590679
252	0x3d775e2a	0.060392536
253	0xbdf83392	-0.12119211
254	0xbd2c4425	-0.042057175
255	0xbccdca77	-0.025120957

module.fc1.bias f4 [50]
0	0x3d7175a7	0.058950093
1	0xbc6b6794	-0.014367957
2	0x3e9146e2	0.28374392
3	0x3b235e8a	0.0024928176
4	0xbd8271a1	-0.06369329
5	0x3d2d7523	0.04234804
6	0xbdc3d2cc	-0.09561691
7	0xbd1d4329	-0.038394127
8	0xbe071241	-0.13190557
9	0xbd92cedb	-0.07168361
10	0xbc9c80e7	-0.019104434
11	0x3c0fe517	0.008782647
12	0xbcb26169	-0.021774964
13	0xbe2597c4	-0.16171175
14	0x3e44f46b	0.19233863
15	0x3cd216a0	0.025645554
16	0x3cc886dd	0.02447837
17	0xbd477ce6	-0.048703097
18	0xbcfb22b6	-0.0306562
19	0xbd249ade	-0.040186755
20	0x3e6620f3	0.22473507
21	0xbd84fc96	-0.064934894
22	0x3e06de33	0.131707
23	0x3c87fec7	0.01660098
24	0xbe2366bd	-0.1595716
25	0xbdc878f3	-0.09788694
26	0xbd7c473d	-0.061591376
27	0x3ce1012a	0.027466375
28	0xbcfa81cc	-0.03057947
29	0xbda2d3b2	-0.07950534
30	0xbdb6969e	-0.08915447
31	0x3de6be09	0.11266715
32	0xbcfa7f29	-0.030578213
33	0xbe4b7f6b	-0.19872825
34	0x3e033b85	0.12815674
35	0x3bf4042a	0.0074467855
36	0xbd32007f	-0.043457504
37	0xbd557296	-0.05211123
38	0x3d2c4f97	0.04206809
39	0xbcaaa67f	-0.020831345
40	0xbc3fb31a	-0.011700416
41	0xbc9a9cb0	-0.018873543
42	0x3c3e34de	0.011609284
43	0xbdc1e32e	-0.09467159
44	0xbce0fb51	-0.027463587
45	0x3d833dfd	0.06408308
46	0xbd7350cb	-0.059403222
47	0xbd1ba448	-0.037998468
48	0xbdb8d6c4	-0.09025338
49	0x3e7a2e4a	0.2443172

module.fc2.weight f4 [30, 50]
0	0x3d204a92	0.039133616
1	0x3c05b9fd	0.008162019
2	0x3dbfdeb2	0.09368648
3	0x3d58dafa	0.052943207
4	0xbd482508	-0.04886344
5	0x3c34b5a6	0.0110296365
6	0xbd0016b6	-0.03127166
7	0x3cfb78f4	0.030697323
8	0x3daf8851	0.08570922
9	0xbd68e465	-0.05685844
10	0xbcc8be34	-0.024504758
11	0x3d0a0215	0.03369339
12	0x3b1671d1	0.0022956023
13	0x3d9f56d6	0.077802345
14	0xbd35cb1c	-0.044383153
15	0x3d08dcae	0.03341358
16	0xbdb1937c	-0.086707085
17	0x3b5c52df	0.003361873
18	0x3bc7d5e2	0.006098495
19	0x3d09bd2e	0.03362768
20	0xbc27dd36	-0.010245612
21	0x3d8598f1	0.06523312
22	0xbd95e21f	-0.0731852
23	0x3c9672a9	0.018365221
24	0xbd6da028	-0.058014065
25	0xbd561aa7	-0.05227151
26	0x3ce4d393	0.027932918
27	0x3c7b5dc6	0.015342182
28	0x3bc69397	0.0060600745
29	0xbd8a3e0a	-0.06750114
30	0x3d67e01f	0.056610223
31	0x3cd32ab1	0.025777193
32	0xbdc2cf1d	-0.0951216
33	0xbd0c6b04	-0.034281746
34	0xbcd51712	-0.026011977
35	0xbbbde157	-0.005794685
36	0x3ce1159f	0.02747613
37	0x3d31fd02	0.043454178
38	0x3c81c9b8	0.015843257
39	0xbcad0bf5	-0.021123866
40	0xbc935c73	-0.01798842
41	0x3b5df792	0.0033869487
42	0xbd7cd63c	-0.061727747
43	0x3caf9494	0.021433152
44	0x3c4fb81b	0.0126781715
45	0x3d2a2d50	0.04154712
46	0xbd4ee3c3	-0.05051018
47	0x3d0d0a7d	0.03443383
48	0x3a408723	0.00073443557
49	0xbe13e122	-0.1444135
50	0xbd845c0e	-0.064628705
51	0xbcddba09	-0.027066248
52	0xbe0b0013	-0.13574247
53	0x3bd29637	0.0064265984
54	0x3db2519a	0.087069705
55	0x3ca9c8c7	0.02072562
56	0x3d502c2b	0.05082337
57	0xbe037093	-0.12835912
58	0xbdb8e9a4	-0.090289384
59	0x3df4a3b0	0.119452834
60	0xbb3ad9b5	-0.002851111
61	0xbc095ec4	-0.00838441
62	0x3b3bc88c	0.002865347
63	0x3c112913	0.0088598905
64	0x3cce477e	0.025180575
65	0xbddb47ff	-0.107070915
66	0xbdb74339	-0.089483686
67	0x3c887ada	0.016660143
68	0x3d391a16	0.045190893
69	0x3dd18da8	0.10232097
70	0x3e1441e5	0.14478262
71	0xbc790308	-0.015198477
72	0x3d8f60ff	0.070009224
73	0xbc8f4818	-0.017490432
74	0x3e261355	0.16218312
75	0x3e5244ae	0.20534012
76	0xbe9ad911	-0.30243734
77	0x3d7c4c9f	0.06159651
78	0xbd0a9525	-0.03383364
79	0x3da262b9	0.07928986
80	0x3cc38e62	0.023871604
81	0xba71148a	-0.0009196481
82	0x3d9fb13b	0.07797476
83	0x3d323bde	0.043514125
84	0x3d5ec887	0.054390457
85	0x3d2c8064	0.04211463
86	0xbc19293b	-0.009348209
87	0xbe10c58a	-0.14137855
88	0xbd165130	-0.03669852
89	0xbc3673d0	-0.01113601
90	0x3d6b5ee0	0.057463527
91	0xbd069527	-0.032857087
92	0x3e083d0e	0.1330454
93	0xbc4ce4b1	-0.012505696
94	0xbc6d7d35	-0.014495184
95	0xbbcc8b80	-0.0062422156
96	0x3e041c16	0.12901339
97	0xbc75bcb4	-0.014998604
98	0xbc98c320	-0.01864773
99	0xbd02b035	-0.031906325
100	0x3c44b746	0.012006586
101	0xbab5e46d	-0.001387728
102	0xbc9d7b90	-0.019223958
103	0xbcc38eb5	-0.023871759
104	0xbc65fba6	-0.014037048
105	0xbcfccd6b	-0.03085967
106	0x3c3ed6e2	0.011647912
107	0xb9cba0a9	-0.00038838878
108	0xbd1b3f06	-0.0379019
109	0x3ca9340a	0.020654697
110	0xbc605a2b	-0.013693373
111	0x3c51a3f2	0.012795435
112	0xbc4bd81a	-0.012441659
113	0xbc861f00	-0.016372204
114	0xbcd9efc5	-0.026603589
115	0x3c77e460	0.015130132
116	0xbb7a493e	-0.0038190628
117	0xbb40cc92	-0.0029418808
118	0x3c1cecc1	0.009577931
119	0xbb29d12d	-0.0025912032
120	0xbd0b3e4f	-0.03399497
121	0xbcbc1784	-0.022960432
122	0x3c00c143	0.007858577
123	0xbc1bce9d	-0.00950971
124	0x3d6d7a8b	0.057978194
125	0x3d3fc6f9	0.046820614
126	0x3caf3f30	0.021392435
127	0x3cc5283c	0.024067037
128	0xbbd13ef4	-0.0063856784
129	0x3ce5b2ef	0.028039424
130	0x3cbef1ba	0.023308624
131	0xbc858483	-0.016298538
132	0x3a647f6d	0.00087164977
133	0x3bfb51c4	0.0076696593
134	0xbc1f7d20	-0.009734422
135	0xbc1361d9	-0.008995497
136	0xbcbfe623	-0.023425167
137	0x3b0d1341	0.0021526369
138	0xbcd884ed	-0.026430571
139	0xbc27ab9e	-0.010233788
140	0x3bc5e85b	0.006039662
141	0xbcbdaa44	-0.023152478
142	0x3d1f3341	0.03886724
143	0xbba6daf5	-0.0050920197
144	0x3bed37fa	0.007239339
145	0xbc46fbda	-0.012145007
146	0x3cae2128	0.021256045
147	0xbc48c12c	-0.012253087
148	0x3d52b0e1	0.051438216
149	0xbc355814	-0.011068363
150	0x3c99ad7f	0.018759487
151	0xbcac15e0	-0.021006525
152	0x3c5a8c24	0.013339076
153	0xbc2eeb6f	-0.010676249
154	0x3bcfeb62	0.0063451985
155	0x3c27533a	0.010212714
156	0x3ac2ada8	0.0014852779
157	0xbc987760	-0.01861161
158	0x3ab8c4fd	0.0014096793
159	0x397fe50c	0.00024404022
160	0x3cbca048	0.023025647
161	0xbcc80ce1	-0.024420204
162	0x3c04083c	0.008058604
163	0xbcaa19c0	-0.020764232
164	0xbcd15455	-0.025552908
165	0xbcbe41ea	-0.02322479
166	0xbad04018	-0.0015888242
167	0x3c1a8ff7	0.009433738
168	0xbcbcd973	-0.023052907
169	0x3cd93049	0.026512282
170	0x3ca14d2a	0.019690115
171	0x3c9e3403	0.01931191
172	0x3cdec0c1	0.027191522
173	0xbc44e85d	-0.01201829
174	0xbcb5d4e1	-0.022196235
175	0x3cb670b6	0.022270542
176	0x3b26d696	0.0025457493
177	0x3c1ece3d	0.009692726
178	0xbcc2589a	-0.02372389
179	0x3b6aedbf	0.0035847274
180	0xbcb46e51	-0.02202526
181	0x3bb9f1a3	0.0056745573
182	0xbbf8ec85	-0.0075965547
183	0x3c9627f9	0.018329607
184	0x3c349248	0.011021204
185	0xbc491f6a	-0.012275556
186	0xbbf7f521	-0.0075670634
187	0xbcad88ec	-0.021183454
188	0xbc7d0b78	-0.015444629
189	0x3c677d16	0.014128944
190	0x3cd77854	0.026302494
191	0xbccb3ab8	-0.024808273
192	0xbcad0c81	-0.021124126
193	0xbca65295	-0.02030305
194	0xbcba248c	-0.022722505
195	0x3c1c2daf	0.009532376
196	0xba28b541	-0.00064357003
197	0xbc8f381b	-0.017482808
198	0xbca68876	-0.020328742
199	0x3c5ad8cd	0.013357353
200	0x3d2c5099	0.04206905
201	0x3cd7e961	0.0263564
202	0x3cfd9523	0.030954903
203	0xb8ec5906	-0.00011269939
204	0xbca23f54	-0.019805588
205	0x3d045745	0.03230979
206	0xbc2d0712	-0.010560768
207	0x3d09e261	0.033663157
208	0xbc9b8480	-0.01898408
209	0x3ccb3ea5	0.024810145
210	0xbc641200	-0.013920307
211	0xbcd05011	-0.025428804
212	0xbc5a95b6	-0.013341358
213	0xbcf6a421	-0.03010756
214	0xbc8944b3	-0.016756391
215	0xbcc667f1	-0.024219485
216	0xbb97b6db	-0.0046299524
217	0xbcf0aca0	-0.029379189
218	0xbb924cd4	-0.004464725
219	0x3b7c2cef	0.003847893
220	0x3db8d4c9	0.090249605
221	0x3d1d6c5c	0.038433418
222	0x3d8db6f6	0.06919663
223	0x3c4c7639	0.012479358
224	0x3b8d33c8	0.0043091513
225	0xbbdd97cc	-0.0067624804
226	0x3d4c6fb9	0.049911235
227	0xbcee997f	-0.029125927
228	0xbbe0de3a	-0.006862429
229	0x3cc482cc	0.02398815
230	0xbccdac20	-0.02510649
231	0xbbe7b7d3	-0.007071474
232	0x3c8808b6	0.016605716
233	0xbcb30ca9	-0.021856623
234	0xbccf86bb	-0.0253328
235	0xbb74a5f2	-0.0037330356
236	0x3ba1cd1c	0.004937781
237	0x3c9dff33	0.019286728
238	0x3b6eee38	0.0036457907
239	0x3b964103	0.0045853867
240	0x3ce3aeb1	0.02779326
241	0x3c81fbc3	0.01586712
242	0x3d89c548	0.067270815
243	0x3cfe7ec1	0.0310663
244	0x3d053c8d	0.03252845
245	0xbc5cfe34	-0.013488341
246	0x3b93bb70	0.0045084283
247	0x3a17e47b	0.0005794239
248	0xbc385ab3	-0.011252093
249	0xbc0b4484	-0.008500222
250	0xbca84b48	-0.02054371
251	0xbcd4c5b9	-0.025973188
252	0xbbe5200c	-0.0069923457
253	0xbcdc61c4	-0.026902087
254	0xbbba9980	-0.005694568
255	0xbcdc5e6f	-0.026900498

module.fc2.bias f4 [30]
0	0x3e05f51e	0.13081786
1	0xbcc6fb2e	-0.024289694
2	0xbca541be	-0.02017295
3	0xbcad7b6c	-0.021177016
4	0xbd4c5334	-0.049884036
5	0xbc771842	-0.015081467
6	0x3d5d4977	0.05402514
7	0xbcc97078	-0.024589762
8	0xbe29edd1	-0.16594626
9	0xbda19ba5	-0.07891015
10	0x3d40d759	0.04708037
11	0x3dc374b4	0.09543744
12	0xbcffdc57	-0.031232996
13	0x3db3b9e6	0.08775692
14	0xbd94c00b	-0.07263192
15	0x3e3ffcc7	0.1874877
16	0x3d0db571	0.034596864
17	0x3e557278	0.20844448
18	0xbd93282b	-0.07185396
19	0x3e0056d6	0.12533125
20	0xbcdb4364	-0.026765533
21	0x3d1b9b1e	0.03798973
22	0xbc2008e3	-0.009767744
23	0x3e5c8232	0.2153404
24	0x3e39c4ec	0.18141526
25	0x3e3f20e5	0.18664892
26	0xbc851737	-0.016246421
27	0xbda9ea47	-0.08296638
28	0xbd58f649	-0.05296925
29	0xbd91bda8	-0.07116252

module.fc3.weight f4 [20, 30]
0	0x3d946bfb	0.07247158
1	0xbe0288e7	-0.12747537
2	0xbcae3f6c	-0.021270476
3	0xbb902c06	-0.0043997793
4	0x3d67d613	0.05660064
5	0xbd302349	-0.0430024
6	0x3ce9730c	0.028497241
7	0xbd2f7fcc	-0.042846486
8	0xbe76824c	-0.24073142
9	0x3e9ac0e4	0.3022529
10	0xbda114d4	-0.07865301
11	0x3e30dafd	0.17271037
12	0xbd9e91d9	-0.07742662
13	0x3e7a08a6	0.24417362
14	0x3edec07b	0.43506226
15	0x3e16d530	0.14729762
16	0x3d9f0fc1	0.07766677
17	0x3e2e8c44	0.17045695
18	0xbe504dda	-0.20342198
19	0x3eeb3a5a	0.45942956
20	0x3ce08747	0.027408255
21	0xbe173660	-0.14766836
22	0x3daefab8	0.085439146
23	0xbcc424cc	-0.023943327
24	0x3e0c6771	0.13711335
25	0xbd0a21c4	-0.033723608
26	0x3ea49765	0.32146755
27	0xbe094ef9	-0.13409032
28	0x3e220bf3	0.15824871
29	0x3e83788d	0.2567791
30	0x3db531fc	0.088474244
31	0xbe0bab1b	-0.1363949
32	0xbd295ac8	-0.04134634
33	0x3bdcabc9	0.0067343456
34	0x3da07f8f	0.0783683
35	0x3c96ad29	0.018393116
36	0x3d39fbf5	0.0454063
37	0xbd27c299	-0.040957067
38	0xbe5d8915	-0.21634324
39	0x3e878e1b	0.26475605
40	0xbd1986e9	-0.037482176
41	0x3e236798	0.15957487
42	0xbdafe3cc	-0.08588371
43	0x3e531201	0.20612337
44	0x3ec312b6	0.38100213
45	0x3e0d1ba5	0.13780077
46	0x3dc41da4	0.09575966
47	0x3e09b358	0.1344732
48	0xbe4f7ea8	-0.2026316
49	0x3ed4bd07	0.41550466
50	0x3cea23fd	0.028581614
51	0xbe117779	-0.14205731
52	0x3daebe04	0.08532336
53	0xbcd020a6	-0.025406193
54	0x3e1db6bb	0.15401737
55	0xbcfc170c	-0.030772708
56	0x3e8de21e	0.27711576
57	0xbdbe23da	-0.09284182
58	0x3e119a6f	0.14219068
59	0x3e77d7a3	0.24203353
60	0x3c952109	0.018204229
61	0x3d8e1ef7	0.069395
62	0xbc834e2a	-0.016028482
63	0x3ceaaea6	0.028647732
64	0xbd259e32	-0.04043407
65	0xbc95f06f	-0.018303124
66	0x3d7d16c8	0.061789304
67	0x3a3c5bb4	0.00071852957
68	0x3e88a5f1	0.26689103
69	0xbe328077	-0.17431818
70	0x3e085b36	0.13316044
71	0xbc5f373a	-0.013624007
72	0x3da6bb62	0.08141209
73	0xbd4d20f8	-0.05008027
74	0xbe07bc8e	-0.13255522
75	0x3bc31627	0.0059535685
76	0xb8fba864	-0.00011999978
77	0xbd3a82df	-0.045534965
78	0x3e4a29d2	0.19742516
79	0xbdf3a4ba	-0.118966535
80	0xbb93e71e	-0.0045136353
81	0x3e1f0024	0.15527397
82	0xbc8f69d0	-0.01750651
83	0x3e6848a5	0.22683962
84	0xbd004b97	-0.031322088
85	0x3e2b2c7d	0.1671619
86	0xbe022591	-0.12709643
87	0x3e0ba781	0.13638116
88	0xbd6d1d1e	-0.057889096
89	0xbdda060d	-0.10645685
90	0xbc1f7bdb	-0.009734119
91	0x3be1aaa4	0.006886797
92	0xbcbc1176	-0.022957545
93	0xbc8999d1	-0.016796978
94	0x3d0314d2	0.032002278
95	0x3caeadc6	0.021323096
96	0x3b1f1307	0.0024272816
97	0x3a8b423c	0.0010624598
98	0xbcbde1bb	-0.023178926
99	0x3cea2d5e	0.028586086
100	0x3d08ffbd	0.033447016
101	0x3d4afa33	0.049555015
102	0x3cd20ee6	0.02564187
103	0x3d1ec569	0.038762484
104	0x3d1b6610	0.03793913
105	0x3caf2973	0.02138207
106	0x3b00ab3d	0.0019633316
107	0x3c9be0b5	0.019028047
108	0xbce2fbad	-0.027707899
109	0x3c80115a	0.015633274
110	0x3cd2e415	0.025743524
111	0xbcfa80a0	-0.030578911
112	0x3bc23301	0.0059264903
113	0xbcf7ccad	-0.030248964
114	0x3d00b303	0.03142072
115	0x3c94381d	0.018093163
116	0x3d8901ce	0.06689797
117	0xbd08d2c9	-0.033404145
118	0x3d0e60ec	0.0347604
119	0xba9f3aed	-0.0012148299
120	0x3cff3115	0.031151334
121	0xbcce9e53	-0.02522198
122	0xbcd161bf	-0.025559304
123	0x3d0d6a3a	0.034525134
124	0x3d050df6	0.032484017
125	0x3c7be943	0.015375438
126	0x3b863de1	0.004096732
127	0xbc2de3c4	-0.010613386
128	0xbc605ae9	-0.01369355
129	0x3dae14d7	0.08500069
130	0xbc3f8270	-0.011688814
131	0x3e122606	0.14272317
132	0x3c1ef7be	0.009702621
133	0x3deb9eb5	0.1150488
134	0x3db1fbec	0.086906284
135	0x3cb9e6e1	0.0226931
136	0x3c240f8a	0.01001347
137	0xba832f98	-0.0010008691
138	0xbcc20706	-0.02368499
139	0x3dfa6f48	0.122282565
140	0x3ced637a	0.028978098
141	0xbc90298b	-0.017597934
142	0x3d1a0eeb	0.037611883
143	0xbdf20a3c	-0.11818358
144	0x3db34823	0.08753993
145	0xbdca2918	-0.09871119
146	0x3da1e66f	0.0790528
147	0x3c837d0a	0.016050834
148	0x3c4eacba	0.012614423
149	0x3d2ae1e0	0.041719317
150	0x3bb900ed	0.0056458623
151	0xbdbcd6f4	-0.092206866
152	0x3baf6110	0.005352147
153	0xbc881b9d	-0.01661473
154	0x3c2b42ef	0.01045297
155	0xbcbca0c1	-0.023025872
156	0xbc4ca9ec	-0.012491684
157	0xbd2b6edc	-0.04185377
158	0xbddefe58	-0.10888356
159	0x3dd1b5b9	0.10239739
160	0xbccd91e4	-0.02509398
161	0x3cd1ca17	0.02560906
162	0x3c29dc72	0.0103675
163	0x3de43beb	0.11144241
164	0x3e524e15	0.20537598
165	0x3d94ddc0	0.07268858
166	0x3d0c5a4c	0.0342658
167	0x3dc3485d	0.095352866
168	0xbd21f979	-0.039544556
169	0x3e52b2c1	0.20576002
170	0xbc15ee57	-0.009151063
171	0xbd4476f4	-0.047965005
172	0x3c096cc2	0.008387746
173	0xbcda2283	-0.026627785
174	0x3dcb5b16	0.09929483
175	0xbd7b0808	-0.061286956
176	0x3de618ac	0.112351745
177	0xbd70c053	-0.058777165
178	0x3d841f7a	0.06451316
179	0x3d9e914f	0.07742559
180	0x3dd43de1	0.10363365
181	0xbe670b8f	-0.22563003
182	0xbc681834	-0.014165927
183	0xbc832df2	-0.01601312
184	0x3d85d70c	0.065351576
185	0x3c252823	0.01008037
186	0x3d5e0ef3	0.054213475
187	0xbd581990	-0.052758753
188	0xbe24e391	-0.16102435
189	0x3e7728bc	0.24136633
190	0xbddb88cd	-0.10719452
191	0x3da9b6d1	0.082868226
192	0xbd54323e	-0.051805727
193	0x3e774325	0.24146707
194	0x3eb657a1	0.3561373
195	0x3e1df6c1	0.1542616
196	0x3dec4af0	0.11537731
197	0x3df7abdd	0.12093327
198	0xbe2f0dd9	-0.17095126
199	0x3ec772ef	0.38954875
200	0x3bfea37a	0.007770953
201	0xbdca508f	-0.098786466
202	0x3dabf530	0.08396375
203	0xbd720bfa	-0.059093453
204	0x3e054c9a	0.13017502
205	0xbdc36df0	-0.09542453
206	0x3e84d585	0.25944152
207	0xbd6575aa	-0.056020416
208	0x3d5e4f31	0.05427474
209	0x3e7a8154	0.24463397
210	0xbd2b525d	-0.041826595
211	0x3db1926a	0.086705044
212	0x3acbd6e0	0.0015551709
213	0x3c556444	0.0130243935
214	0xbc73913a	-0.014866168
215	0xbb68d421	-0.003552683
216	0x3d34b4e6	0.04411783
217	0x3cda81e2	0.026673261
218	0x3e5d13a3	0.21589522
219	0xbe3bfff7	-0.18359362
220	0x3e05f356	0.13081107
221	0xbd10eb50	-0.03538066
222	0x3d9ff0d8	0.07809609
223	0xbd94f695	-0.07273594
224	0xbe1081d9	-0.14112033
225	0xbb78563b	-0.0037893194
226	0xbc9e7a0e	-0.01934531
227	0x3a495efa	0.0007681694
228	0x3e5563d2	0.2083886
229	0xbde58fcc	-0.11209068
230	0x3b421991	0.002961729
231	0x3e185079	0.14874448
232	0xbd440aa7	-0.04786172
233	0x3e623abc	0.22092718
234	0xbd6a2d89	-0.057172332
235	0x3e45fd03	0.19334798
236	0xbdf5b5ff	-0.119976036
237	0x3e01e4fc	0.12685007
238	0xbccafa56	-0.024777573
239	0xbe01855c	-0.12648529
240	0xbcc484e0	-0.023989141
241	0xbb098444	-0.0020983377
242	0x3cb19056	0.02167527
243	0xbceed714	-0.029155292
244	0x3d29051d	0.041264642
245	0xbbb8bd35	-0.0056377896
246	0x3c896159	0.016770052
247	0xbcf27ef9	-0.02960156
248	0xbd1f5fe9	-0.038909826
249	0x3e055dd9	0.13024081
250	0xbc999843	-0.018749362
251	0x3e038fd9	0.12847842
252	0x3cfd8c8f	0.030950813
253	0x3e00b3f1	0.12568642
254	0x3e4736f0	0.1945455
255	0x3ca443c4	0.020051844

module.fc3.bias f4 [20]
0	0x3e79f5ff	0.24410246
1	0x3e5cc84d	0.21560784
2	0x3e10e552	0.14149979
3	0xbcac36b0	-0.02102217
4	0xbc937585	-0.018000374
5	0x3db5e3c6	0.08881335
6	0x3e2354d4	0.15950328
7	0x3e2c2d3e	0.16814134
8	0xbc4a2295	-0.012337347
9	0x3ddca8a3	0.107743524
10	0x3ddde474	0.108345896
11	0x3e0d22d2	0.13782814
12	0x3dc744aa	0.097298935
13	0x3e5ade69	0.21373905
14	0xbcf264a3	-0.029589003
15	0x3e16e174	0.14734441
16	0x3e0a3eca	0.13500515
17	0xbcab5e07	-0.02091886
18	0x3e8f3bfb	0.2797545
19	0x3d8fc296	0.07019536

module.fc4.weight f4 [2, 20]
0	0xbf239cf3	-0.6391136
1	0xbf156c0f	-0.5836801
2	0x3ec23f42	0.37938887
3	0xbdb4bca6	-0.08825044
4	0xbe3d66b0	-0.18496203
5	0xbe8caa65	-0.2747375
6	0xbf0a1ef6	-0.5395349
7	0x3ebfca52	0.37459046
8	0xbe9a3984	-0.30122006
9	0x3e9093c3	0.28237733
10	0x3e808225	0.25099292
11	0xbec7326a	-0.3890565
12	0x3e392daa	0.18083826
13	0x3f1293fa	0.57257044
14	0x3cb2bddc	0.021819048
15	0xbeb0ed70	-0.3455615
16	0x3ebea570	0.37235594
17	0x3dff496d	0.12465177
18	0x3f33b618	0.7019973
19	0xbe41e84d	-0.18936272
20	0x3f26a7c0	0.65099716
21	0x3f14b697	0.5809111
22	0xbec06f1f	-0.3758478
23	0x3d41a9c7	0.047281053
24	0x3e72e8d5	0.23721631
25	0x3e819c50	0.2531457
26	0x3f0c5496	0.5481657
27	0xbec55378	-0.38540244
28	0x3e847ca3	0.2587634
29	0xbe83bc22	-0.2572947
30	0xbe85775e	-0.26067632
31	0x3ec580ab	0.38574728
32	0xbe5a10b5	-0.21295436
33	0xbf0b730b	-0.54472417
34	0xbcbbfebc	-0.022948615
35	0x3ec72579	0.38895777
36	0xbeaa36a1	-0.33244804
37	0xbe189479	-0.14900388
38	0xbf2ad0c6	-0.66724813
39	0x3e06e260	0.13172293

module.fc4.bias f4 [2]
0	0xbd2260b9	-0.039643023
1	0xbc3d1565	-0.011540745
