Sample_Based_Extension/WUSTL/WUSTL_Defense/Defense_Distillation/student_model.pth (torch, 20680 bytes, 8 tensors)

fc1.weight f4 [50, 42]
000000 62 37 00 bf ee f8 fd bf 48 fa 2c bf ed 7d 21 3e
       -0.5008451 -1.9841592 -0.675694 0.15770693
000010 18 05 8f be a2 32 c2 3d 91 08 7f be 6b de d5 3e
       -0.27933574 0.09482314 -0.24905612 0.41771254
000020 a7 9e 48 be 3f b8 7d bf 8b 9e cc be e4 55 7d bf
       -0.19591771 -0.9910926 -0.3996471 -0.98959184
000030 9b d5 47 bf db 78 f8 bd c1 c0 60 bf c5 1a 1f be
       -0.7806031 -0.12132426 -0.8779412 -0.15537556
000040 2d f6 35 bd 88 43 02 3e b3 a4 3c bf 7a d9 19 3e
       -0.044424225 0.12721074 -0.7368881 0.15024367
000050 0f ba 8a bf 5e 4e bb be 02 48 28 3e 43 81 f6 be
       -1.083803 -0.36583227 0.16433719 -0.48145494
000060 d4 dd cf ba 89 c1 d2 3e e6 3e a4 be e3 f7 b3 bd
       -0.0015858957 0.4116328 -0.32079238 -0.08787515
000070 17 ef 82 be cd 58 fe bd c6 32 bd be 1e 46 87 be
       -0.25573036 -0.12419281 -0.369528 -0.26420683
000080 ff 72 92 be e6 a2 07 bf be 01 81 be 80 71 ad be
       -0.2860336 -0.5298294 -0.25196642 -0.33875656
000090 1e 90 b1 3e 04 63 69 be 03 51 ba be bb 21 b7 3f
       0.34680265 -0.22791678 -0.36389932 1.4307169
0000a0 c2 42 7e 3f ef 6b 4e c0 f4 25 ff be 0f 65 bf be
       0.99320614 -3.2253377 -0.49833643 -0.3738179
0000b0 f2 51 55 c0 4a 9b d1 bf db e7 f2 bf 34 c2 b9 bf
       -3.3331265 -1.6375515 -1.8977007 -1.4512391
0000c0 b2 d6 c1 bf d8 f3 d8 bf 27 dd e8 bf 7d d0 56 be
       -1.5143645 -1.6949415 -1.819249 -0.2097797
0000d0 19 ca 07 bf 8c 13 ed be 62 92 8f be 2e 94 db be
       -0.5304275 -0.46303976 -0.2804137 -0.4288649
0000e0 77 a5 a5 be a3 d4 12 40 8f 23 e5 bf 15 e5 b8 3f
       -0.32352802 2.2942283 -1.7901477 1.444491
0000f0 25 79 da 3e e7 00 7a 3d 3f 0b 00 bf bf 0c 3e 3f
       0.4267055 0.061036017 -0.5001716 0.742382
000100 22 e3 89 bf 55 ba 60 c0 58 be c3 3b bf 35 f9 be
       -1.077244 -3.5113728 0.0059736185 -0.48673818
000110 11 11 35 bf 00 a1 51 be eb 18 9d be b8 ea cc bd
       -0.70729166 -0.20471573 -0.30683073 -0.100057065
000120 46 b1 85 3e 8d 68 77 40 06 16 1d c0 50 56 1d c0
       0.2611181 3.8657563 -2.4544692 -2.458393
000130 7b 63 39 bf 59 fc dd bf fb 05 20 bf 85 82 17 be
       -0.7241742 -1.7342635 -0.62509125 -0.14795883
000140 3c 5d 85 3e 77 ed 6a 3f e4 dd c7 be 73 ad 29 3e
       0.26047695 0.9176859 -0.39036477 0.16570072
000150 3a 36 67 bf 15 40 83 40 10 0b 3e 40 22 b8 ac bf
       -0.9031712 4.1015725 2.9694252 -1.3493693
000160 01 68 12 c0 db 4e d0 bf 50 6a dc bf a4 d6 9e bf
       -2.287598 -1.6274065 -1.7219944 -1.2409253
000170 02 2f be bf bf 98 ff be d7 19 92 bf 09 e7 81 bf
       -1.4858096 -0.49921224 -1.1414136 -1.0148631
000180 bf 8c 6a 3e e5 9f 80 bf f3 98 26 bf 30 46 b2 be
       0.22905253 -1.0048796 -0.6507713 -0.34819174
000190 45 82 1d c0 82 43 d5 bf 55 f4 61 3e 5d 47 92 3f
       -2.461076 -1.6661227 0.22065862 1.1428028
0001a0 81 3a 90 3f f3 b5 0a be 8c f5 94 3f 01 89 93 c0
       1.1267854 -0.1354597 1.1637435 -4.610474
0001b0 0c cf 39 be de d8 b4 c0 7f dc 31 bf 10 a1 3a 3e
       -0.18145388 -5.651473 -0.69477075 0.18225503
0001c0 46 92 aa 3e 16 33 8f 3e fc c3 de bf f6 bd 8e bf
       0.33314723 0.27968663 -1.740356 -1.1151721
0001d0 26 4e 5d 3e 3a 4c 71 c0 94 11 b5 bf 72 be d9 bf
       0.21611843 -3.7702775 -1.414599 -1.7011244
0001e0 96 c4 c2 c0 9b 41 13 3e d1 b7 c3 bf 4f 78 d6 bd
       -6.0864973 0.14380495 -1.5290471 -0.10472166
0001f0 21 8a 29 c0 8e 73 09 40 80 0e c0 be a3 df e2 bf
       -2.6490557 2.147678 -0.37511063 -1.7724499
000200 09 60 03 bf 7d bd 61 3e d7 24 ae be e9 55 fe 3d
       -0.51318413 0.2204494 -0.34012482 0.1241873
000210 9d 15 d6 3e 6e 47 b8 3e 30 0e be 3e 83 2a be 3b
       0.41813365 0.35991997 0.371202 0.0058034076
000220 0a 3f 2e be 33 92 25 bf b0 69 3e bd a6 d7 56 3e
       -0.17016235 -0.6467621 -0.04648751 0.20980701
000230 10 bf 35 bf be 4c 79 bf e2 77 dc 3d 4a 08 f9 bc
       -0.70994663 -0.97382724 0.10765053 -0.03039946
000240 be b2 ae be 95 23 61 bf f5 a5 ea bf 4b 67 ae bf
       -0.34120744 -0.8794492 -1.8331896 -1.3625273
000250 f1 97 cd bd 37 bf 41 3f 3f 7a e0 be fe 69 4b 3d
       -0.10038746 0.75682396 -0.43843266 0.04966163
000260 1a c3 4a bc 61 0a ff be b1 11 1b bf e8 01 28 bf
       -0.012375617 -0.49812606 -0.6057387 -0.6562791
000270 7f 49 27 3d ea 7e 68 be 6b 0e 92 bd 92 3c b9 3e
       0.040841576 -0.22704664 -0.07131656 0.36179024
000280 9a 0c c2 3e 01 f4 8e bf 01 74 11 be b1 e4 0c bf
       0.3790024 -1.1168214 -0.14204408 -0.55036455
000290 fb 37 86 bd ff 3b a2 bf f1 c6 d5 3f 6b f9 ca bf
       -0.06553646 -1.2674559 1.6701337 -1.5857366
0002a0 1b 86 94 be a2 2e 01 c0 9f 2d 1f be 5d 3f a3 3e
       -0.29008564 -2.0184712 -0.15544747 0.3188428
0002b0 12 d1 ea 3e 2b 9a d6 3e 21 ca 6d 3f f5 9d 8a 3f
       0.45862633 0.41914496 0.9288655 1.0829455
0002c0 87 2f 71 3f 55 9d 17 bf 02 f7 67 3f d9 d9 8b be
       0.94213146 -0.59224445 0.9061128 -0.27314642
0002d0 01 bc 1a bf 64 9a a6 3f 39 8f ba be 4f f5 af bf
       -0.6044312 1.3015866 -0.36437395 -1.3746737
0002e0 fc f1 84 3e b0 99 f8 3d 64 f3 a9 3e 26 60 26 3f
       0.2596587 0.121386886 0.33193505 0.6499046
0002f0 ed d6 01 3e 07 9a 57 3e 5d f2 9a 3f 41 6e ae 40
       0.12679644 0.2105485 1.2105213 5.4509587
000300 2f c0 b0 3f 9a 62 12 40 c1 f9 4c 3f 7d 4b 18 be
       1.380865 2.2872682 0.80068594 -0.14872546
000310 71 87 7e 3c f0 8a 27 be f5 5e a8 3d 72 86 a8 3f
       0.015535221 -0.16361594 0.082212366 1.316603
000320 2f a1 cc 3e 7b c0 13 40 06 a6 38 3f 57 98 f5 3f
       0.39966723 2.308623 0.7212833 1.9187115
000330 95 07 03 40 48 4e cc bd ae a2 ca bd bb 4f 83 3e
       2.0473378 -0.099758685 -0.0989431 0.25646767
000340 3d 7f 65 40 09 25 00 c0 f8 7f 8b 3e 47 24 f8 bf
       3.585891 -2.0022604 0.2724607 -1.9386071
000350 49 3c 94 bf 7f 55 f7 3e 76 e5 1e 3f 88 18 f0 3e
       -1.1580898 0.48307416 0.6206888 0.46893716
000360 77 1f 7c 3f dc c9 80 3f 1c a2 b0 3f cf 0d a6 3d
       0.9848551 1.0061603 1.3799472 0.081081025
000370 80 8e 89 3f 9f 25 08 3f 2c 50 82 be 9d 9f a3 3f
       1.0746613 0.53182405 -0.2545179 1.2783085
000380 a2 b4 18 be 20 77 d0 bf 50 6c 4e 3f 74 1e 0b 3f
       -0.14912656 -1.6286354 0.8063402 0.5434334
000390 0a f5 ab be 17 93 40 3f 51 94 76 3f 92 58 44 3f
       -0.33585387 0.7522444 0.9632006 0.7669765
0003a0 5d 08 e6 3f a1 1b b3 40 1e ea c2 3f 7f aa 0f 40
       1.7971302 5.5971227 1.5227697 2.2447813
0003b0 c0 3a 66 3f 64 09 aa bd d5 d0 4a be 70 37 71 be
       0.89933395 -0.08302572 -0.19806226 -0.23556304
0003c0 d0 af 10 3f 56 94 5b 3f 8f 83 4d 3f ee c1 25 40
       0.5651827 0.8577322 0.8027887 2.5899615
0003d0 6e 2a 8f 3f 43 eb f8 3f 69 f2 15 40 1c c7 27 be
       1.1184824 1.9446796 2.3429205 -0.16384548
0003e0 9c a9 c8 3e 47 82 9f 3e 06 c8 73 40 6b ea 25 c0
       0.39191902 0.3115408 3.8090835 -2.5924327
0003f0 4e 7c 83 be c6 f0 06 c0 d3 2d 2c bf 02 24 d5 3e
       -0.25680774 -2.1084456 -0.6725742 0.41629034

fc1.bias f4 [50]
000000 a9 6c 77 bf f5 38 4a bf d4 c0 06 bf 84 38 57 bf
       -0.9665018 -0.7899316 -0.5263798 -0.8407061
000010 f5 05 2a 3f c4 72 7e 3f 2e f2 61 3f a8 bd 88 be
       0.6641534 0.9939387 0.8826016 -0.26707196
000020 01 ce 43 3f b7 f4 c7 be 37 99 5e 3f 6b 41 1e be
       0.7648621 -0.3905389 0.8695254 -0.15454642
000030 42 4c 87 3f ea 02 24 3f 1d ff 2b 3f 84 8f 1e be
       1.0570147 0.64066947 0.67186147 -0.15484434
000040 17 3b 37 bf 4a 03 db 3e 54 f4 81 bf 96 8d 83 bf
       -0.7157454 0.42775947 -1.0152688 -1.0277584
000050 bf 3b ea 3e f9 91 f0 bd 6e ff 18 be 43 63 39 3f
       0.45748708 -0.11746592 -0.14941189 0.72417086
000060 b2 d0 65 bf 80 75 61 bc a6 ae b5 be 2f 17 68 3f
       -0.8977157 -0.013760924 -0.3548481 0.90660375
000070 5a d4 b8 be 8b 78 82 3f 09 90 16 bf 87 b4 17 3d
       -0.3609951 1.0193037 -0.5881353 0.0370374
000080 a1 a5 64 bf 7f 00 cf be 4f 1a 76 bd 8b d6 1c bf
       -0.8931523 -0.40430066 -0.060083684 -0.61264867
000090 a5 f9 62 bf 41 1d 2a 3f 52 ac 09 3f cc 7d f8 be
       -0.8866218 0.6645089 0.53778565 -0.48533475
0000a0 48 d7 66 bd 54 50 b1 bf 56 1b 42 be ca 55 f4 bd
       -0.056357652 -1.3852639 -0.1895574 -0.119304255
0000b0 af 22 f2 bd bf 4d 79 3f e1 1a 5a bf 14 0d 4a 3f
       -0.118230216 0.97384256 -0.85197264 0.78926206
0000c0 d3 6e ec be f0 6b d4 bd
       -0.46178302 -0.1037215

fc2.weight f4 [30, 50]
000000 6d fa 6b be 67 64 a4 bf 36 8f 5d bf 20 64 4e 3d
       -0.23044749 -1.284314 -0.8654665 0.050388455
000010 34 d2 d5 3e 91 0f c8 3e 56 5c 74 3e 05 f5 52 be
       0.41761935 0.39074376 0.23863348 -0.2060128
000020 27 e1 12 3f 86 5b b7 bc d8 04 90 3e b6 1a f0 bd
       0.57374805 -0.022382509 0.28128695 -0.11723845
000030 33 68 1e 3f 1d b9 fb 3c d4 84 f1 3e fa fe d7 3c
       0.61877745 0.030727917 0.47171652 0.0263667
000040 ed e2 58 bf cd 01 30 3f 9f 51 ae be 4b 4e 5f 3e
       -0.8472126 0.6875275 -0.34046647 0.2180721
000050 f3 f8 48 3e 44 31 23 be ba 09 4b bd 81 86 f4 3e
       0.19626217 -0.15936762 -0.049569823 0.47758868
000060 5b 67 e8 be 58 f6 4e 3e 56 e3 d0 3e 4a 0d 84 bf
       -0.45391354 0.2021116 0.40798444 -1.0316556
000070 fa e5 b4 be 63 88 36 3f dc c0 93 be 0a 9a 03 bb
       -0.35331708 0.7130186 -0.28858078 -0.0020080828
000080 b6 0b 94 bf e1 e2 51 3e 36 23 fb 3c 66 56 ac be
       -1.1566074 0.20496704 0.030656438 -0.33659667
000090 f1 cb 36 bf 63 db 08 3f c7 62 3a 3e 23 00 f1 bd
       -0.7140494 0.5345976 0.18201743 -0.11767604
0000a0 69 43 71 bc 13 fc cd 3e 50 7d af 3c a6 25 85 3d
       -0.0147255445 0.4023138 0.021422058 0.065013215
0000b0 b9 1a 89 be 61 56 d7 3f 21 5d 52 3d 30 7c ba 3e
       -0.267782 1.6823236 0.051358346 0.36422873
0000c0 a1 31 31 c0 53 81 0d be 76 5c 8f bd 9f ea 35 bb
       -2.768654 -0.13818865 -0.070000574 -0.0027758253
0000d0 9b 6b d3 be 76 ee d2 3c 2f 16 44 bd 65 35 05 bd
       -0.41293034 0.025748473 -0.04787272 -0.032521624
0000e0 b7 a5 e9 bd 86 92 f5 bd 57 8d 41 be a1 34 be bd
       -0.11408561 -0.11990838 -0.18901573 -0.09287382
0000f0 1e af 93 3d fa c6 fd 3d 00 da 0f be af 34 dc 3d
       0.07211135 0.123914674 -0.14048004 0.10752236
000100 51 e5 3a be 88 ea 5f 3c 54 97 0e be 18 7e 9f be
       -0.1825154 0.013666756 -0.13924915 -0.3115089
000110 2c 81 4e be e0 a1 83 3d 24 9c 6b 3c b3 ea b6 bd
       -0.20166463 0.064273596 0.014380489 -0.08931484
000120 51 30 ff bd c4 9f 15 3c af 1c 3a be 8a 6c e5 bc
       -0.124603875 0.009132329 -0.18175004 -0.028005857
000130 de 54 d2 be 52 c1 b0 be b2 0b 95 bd 66 b7 36 b7
       -0.41080374 -0.34522492 -0.07277621 -1.0890746e-05
000140 d9 9c 1e bd 01 5f b1 bc f5 36 51 bd 03 99 41 bd
       -0.0387238 -0.021651747 -0.0510778 -0.047265064
000150 cc 6d 40 bd 03 80 aa be 2b 20 37 be bd 22 04 3e
       -0.04697971 -0.3330079 -0.17883365 0.12903877
000160 7d ce 1c bd 87 e1 71 be 38 39 5e bc e1 90 c3 be
       -0.03828286 -0.23621188 -0.013563447 -0.3819647
000170 70 e0 96 bd a1 ad e6 3d ce 51 bf bd d4 9d 7b be
       -0.07367027 0.11263586 -0.09341775 -0.24571925
000180 78 26 d4 bd 2a 1f 0f bd 4d 3e c0 be 33 c3 cd bd
       -0.103589 -0.03494183 -0.37547532 -0.10046997
000190 a3 7f 55 be 46 c9 f0 bc 14 a7 a1 bd aa 4b 89 be
       -0.20849471 -0.02939285 -0.07893196 -0.2681554
0001a0 70 11 03 bd 43 37 49 bd da 1b 7d be 65 88 94 3d
       -0.03199905 -0.049124967 -0.24717656 0.07252578
0001b0 98 69 79 be 4b c6 70 be b8 38 55 be 80 16 5e 3c
       -0.24356687 -0.23513143 -0.20822418 0.013555169
0001c0 fd 58 76 be 32 72 f1 bd ae 63 69 be 92 ca 4d 3d
       -0.24057384 -0.11789359 -0.22791931 0.050242014
0001d0 09 a8 63 be 6d 91 dd bd 7e 51 82 be 82 4b 08 be
       -0.22232069 -0.108187534 -0.254528 -0.13310054
0001e0 3c e8 b8 3b b8 b9 d3 3a 12 d3 db 3d d9 3a 31 be
       0.005642919 0.0016153371 0.10733618 -0.17307605
0001f0 ba d9 69 be 27 31 00 be 6f af 80 be aa 8f 59 bc
       -0.22836962 -0.1251875 -0.25133845 -0.013278881
000200 12 0e 3d be 34 6c 54 be 1f ed 02 3e 68 de 5a be
       -0.18462399 -0.20744401 0.12785767 -0.21373904
000210 38 8e 87 be e7 67 da bd 60 bc d4 3c e1 79 9a bd
       -0.26475692 -0.10664349 0.02596873 -0.07542778
000220 69 d2 3a bb fa e2 99 bc ca 8d 9d bd b3 c2 3a be
       -0.0028506762 -0.018784989 -0.0769306 -0.18238334
000230 55 1d 52 3d 20 41 6c bd bb 5c 9f 3d 57 e8 b6 bd
       0.051297504 -0.057679296 0.07781359 -0.08931034
000240 38 54 73 be 93 12 05 be d9 f8 91 bd af 82 e0 bd
       -0.23762596 -0.12995367 -0.07127542 -0.10962426
000250 a7 e3 4c be c7 25 ef bd fe b2 90 be 72 0c 90 be
       -0.20008717 -0.11677127 -0.2826156 -0.28134495
000260 fb f6 15 c0 fa 08 53 bd 35 c5 ca 3e 1b 6a db 3e
       -2.3431995 -0.051522233 0.39603582 0.4285439
000270 c9 5e 82 3e a8 7a 25 bf d0 db 8b 3e d6 f6 04 be
       0.2546294 -0.64640284 0.2731614 -0.12984785
000280 e6 db 42 3e 93 25 2a bd 85 9d 10 3f 9c 77 42 3e
       0.19029197 -0.04153974 0.56490356 0.1899094
000290 74 bc 8d 3e a3 d8 f0 3d ff aa 99 3e c6 a2 73 3e
       0.2768284 0.1176007 0.30013272 0.23792562
0002a0 f4 f2 7c be 02 b9 1e bc f9 5f 61 3e e0 49 d9 bd
       -0.24702054 -0.009687664 0.22009267 -0.10609794
0002b0 c0 df a5 be e2 77 d8 3e 80 33 60 c0 59 9d b1 3e
       -0.3239727 0.42278963 -3.5031433 0.3469036
0002c0 a7 02 ae 3f a2 2c c6 3f 7f 54 ad bb 5f ae c7 3e
       1.359456 1.5482371 -0.0052896137 0.39000222
0002d0 7a aa 85 be b7 6a 89 3a 1a 5f 22 bf e6 b0 57 be
       -0.26106626 0.0010484074 -0.63426363 -0.21063575
0002e0 3c bf 86 3d a8 1e 2f bf 46 57 b0 3b 54 8a fb 3d
       0.06579444 -0.6840615 0.0053814976 0.12282243
0002f0 c2 43 9d bc b7 ce d8 bf 03 07 59 bd 5f 1b 16 3c
       -0.019197349 -1.6938084 -0.052985203 0.009161799
000300 8f c3 31 3c 79 aa a7 3c 0e be 8a 3e 61 97 3b be
       0.010849847 0.02046703 0.27098125 -0.18319465
000310 b9 4a c6 bd 77 17 25 3f b9 08 00 c1 b4 aa 03 be
       -0.09682221 0.6448893 -8.00213 -0.12858087
000320 9a ad 92 be 87 05 9d bf 06 58 5f be fe 47 a0 3e
       -0.28648072 -1.2267312 -0.21810922 0.31304926
000330 9e e9 fb 3e 57 c9 29 3f 02 87 12 3f 5f 4c 13 bf
       0.49201673 0.66322845 0.57237256 -0.5753841
000340 b9 21 d6 3e 87 f0 03 be ad 12 be 3e 38 a3 2e bd
       0.41822603 -0.12884723 0.37123623 -0.042636126
000350 47 8a 2a 3f 58 b2 81 3e b8 98 d4 3e 76 1b 3a bd
       0.66617244 0.25331378 0.41522765 -0.045436345
000360 83 ac 8d bd 90 b4 16 3f 29 cd a2 be 6d eb 4e 3e
       -0.069176696 0.58869267 -0.3179715 0.20206995
000370 6b 11 e5 bc 8e aa 5c 3d c7 7b bc be dd fe a4 3e
       -0.027962407 0.05387359 -0.36813185 0.32225695
000380 0d 85 c3 be 66 29 1b 3e ab a9 a9 3c 78 5f 20 bd
       -0.38187447 0.15152511 0.020710787 -0.039153546
000390 27 7e 8a be 3f 52 e7 3e cf 51 af bd f9 9b a8 bc
       -0.27049372 0.45179936 -0.085605256 -0.020582186
0003a0 36 5b b9 bd 24 0b b0 3d c9 1a 05 3d c5 ba 76 be
       -0.090506 0.08595875 0.032496247 -0.24094684
0003b0 34 de e7 be 05 70 0b 3f dc 3c 61 3e 59 f1 69 bf
       -0.45286715 0.54467803 0.21995872 -0.9138389
0003c0 e3 7c 32 3e b0 cf b5 be d4 83 34 3e 0f 59 4d 3e
       0.17430453 -0.35510015 0.17628413 0.20053504
0003d0 35 f0 4c 3e 51 72 4a 3e 99 70 fd 3d 28 29 60 3f
       0.20013507 0.19770171 0.12374992 0.875628
0003e0 d4 f8 45 c0 fa 95 fc bd 79 19 b8 bd 1d e0 a9 bf
       -3.0933123 -0.12333293 -0.089892335 -1.3271519
0003f0 d4 36 8b bf d1 b5 1d bd 7d 12 5c 3d 39 39 db 3e
       -1.0876107 -0.03850347 0.05372857 0.42817095

fc2.bias f4 [30]
000000 3a b9 8a 3f c1 aa da be 2d 2d 68 bd a4 08 aa 3f
       1.0837777 -0.427084 -0.056683708 1.3283887
000010 36 98 a5 3f 6a 6e 9e 3f ee ee ba 3f c5 03 39 3f
       1.2937076 1.2377446 1.4604166 0.72271377
000020 7c 1f b3 bd 1a 46 e7 ba e2 71 f9 bd 63 8a 9f bd
       -0.087462395 -0.0017644793 -0.121799245 -0.07790067
000030 db 79 ae 3f 24 cc 94 3f f5 4f af 3f 12 9a 2d be
       1.3630937 1.1624799 1.3696276 -0.16953304
000040 c1 6d 49 3f c2 9c ab 3f 97 12 5a bf 62 3f c7 3e
       0.78683096 1.3407214 -0.85184616 0.38915545
000050 e1 5b d1 be 28 af 9b 3f ba 8d b1 3e 80 ee 0f bf
       -0.4089041 1.2162828 0.3467844 -0.562233
000060 c2 00 6c be 7b ab 92 3f 42 80 6c 3f d7 fe 85 bf
       -0.23047164 1.1458582 0.92383206 -1.0468396
000070 e3 aa e8 be dd c3 bd be
       -0.45442876 -0.37063494

fc3.weight f4 [20, 30]
000000 ee 83 12 3e 95 96 84 bd d0 e6 e5 bd 3d c3 0e be
       0.1430814 -0.06474034 -0.112256646 -0.13941665
000010 01 79 ba be bb f2 91 bd 04 89 46 bf e4 7e c3 3e
       -0.36420444 -0.07126375 -0.7755282 0.38182747
000020 f8 4d 9f be 89 8c 3f be b9 d0 68 bd b5 bf 22 be
       -0.31114173 -0.18705954 -0.05683968 -0.15893443
000030 28 dd 69 3e 63 bb c7 bb 6b d1 22 bf e7 d1 3d be
       0.2283827 -0.0060953363 -0.63600796 -0.18537103
000040 fe b0 17 be d2 cd 8b 3d bf da 7d 3e 2a 81 fa be
       -0.14813611 0.068263665 0.24790476 -0.4892667
000050 59 be c5 bd be 65 99 3e aa 8d 2c 3e a3 b8 3f 3e
       -0.096554466 0.29960436 0.16850916 0.18722777
000060 2f 2e 88 bc d5 a6 94 bf 3d 5e 5f 3f 2f 9b 85 be
       -0.016623585 -1.1613413 0.8725317 -0.26094958
000070 dc ba 03 3e e3 ac a5 be 88 13 9b 3e 4d 73 b9 3e
       0.1286425 -0.32358465 0.3028834 0.3622078
000080 b1 77 4d be 32 60 0e 3f 93 89 04 3f 0a 96 82 3e
       -0.2006519 0.5561553 0.5177242 0.25505096
000090 9d 03 28 3f 84 28 31 40 76 8d 95 c0 73 0a 4a bd
       0.65630513 2.7680979 -4.673518 -0.04932637
0000a0 6e a2 fd 3d 26 7e ac bd 8c 4d b6 3e eb 3f 8a 3e
       0.12384497 -0.084224984 0.3560604 0.2700189
0000b0 56 00 cc 3e 7f 75 42 3e 74 ce 88 bc 28 36 28 3f
       0.39844006 0.18990134 -0.016700007 0.65707636
0000c0 58 08 87 3f b7 52 23 bf e4 0a 01 3e 48 54 31 3e
       1.0549421 -0.6379809 0.1260181 0.17317307
0000d0 7e 6c ca c0 83 35 98 3e c1 c8 27 be be 51 ef 3e
       -6.3257437 0.29728326 -0.16385175 0.46742052
0000e0 13 ad 93 c0 59 8a 81 3f f4 e7 6b be 1c ec 57 3d
       -4.614877 1.0120345 -0.23037702 0.052715406
0000f0 c2 57 08 bf c5 7c 98 bd e4 10 c5 3c 09 7f 98 3e
       -0.5325891 -0.07445673 0.024055906 0.2978442
000100 43 d5 f6 3e e9 cf 85 bf 85 7c 4a 3f df 6b 9c 3f
       0.4820958 -1.0454074 0.7909625 1.222042
000110 e7 39 8b 3d 07 2f a7 3e 67 26 67 3d 98 3a 34 3c
       0.06798153 0.32653067 0.056433108 0.011000298
000120 b8 a8 2d 3f 12 5c 51 c0 0c d5 19 3f 14 03 fd bd
       0.6783557 -3.2712445 0.6009071 -0.12354103
000130 04 bb c8 be 4c c5 54 3f 05 b0 98 be f3 73 59 3f
       -0.39205182 0.8311355 -0.29821792 0.8494255
000140 41 b0 aa 3c 29 f9 8b bf a0 79 44 3f 6a 81 cd 3e
       0.020835998 -1.0935413 0.76748085 0.40137798
000150 1c 74 a0 c0 52 74 ef be 33 54 5a be 25 d1 71 3f
       -5.0141735 -0.46768433 -0.21321182 0.94459754
000160 1f ce 04 bd 43 13 3d 3e 2a 07 05 be 24 d3 32 be
       -0.032423135 0.18464379 -0.12991014 -0.17463356
000170 11 5e 22 be 44 1b f2 be 5a 0e 71 3a b8 c4 1d 3e
       -0.15856196 -0.47286427 0.0009195559 0.15407073
000180 86 39 aa 3c 67 81 27 be f1 90 8d bd 60 92 13 be
       0.020779382 -0.16357957 -0.06912411 -0.14411306
000190 c7 d8 ea 3d 75 4a a1 bc d4 e0 c4 3d f8 e9 f7 bd
       0.11467128 -0.019688824 0.09613195 -0.12105173
0001a0 50 04 fb bd 15 7a d9 3d 6b 12 6e be 2c bb 74 3d
       -0.12256682 0.106189884 -0.23249213 0.059748814
0001b0 c6 39 f2 be fc 64 9f be b2 b3 8c bd 94 c2 13 be
       -0.47309703 -0.31131732 -0.06870212 -0.14429694
0001c0 e8 db ab be 48 1e ef 3d ab 28 06 be bf 4f a9 3d
       -0.33566213 0.116756976 -0.13101451 0.082671635
0001d0 d6 b9 c5 3d 94 af 2c be 4c 57 2c 3e 0e 22 44 bc
       0.09654586 -0.16863853 0.16830176 -0.01197101
0001e0 73 06 ff bd 9d 21 9e bd 0d 9a 00 bd 45 dd c0 be
       -0.12452402 -0.07721255 -0.031396914 -0.37668815
0001f0 55 c5 81 bb 53 e4 b9 3a 46 a2 1a 3b b6 b9 32 be
       -0.0039602914 0.0014182426 0.0023595258 -0.17453656
000200 bf 12 9a bd cc 06 ef bd 68 0b d9 3d 88 62 9e 3c
       -0.07523107 -0.11671218 0.10597879 0.019334093
000210 4f 20 8a be 87 8d f3 3d a4 18 80 be 46 09 2d be
       -0.26977775 0.118922286 -0.250188 -0.16898069
000220 33 f0 88 be c0 95 f6 bd 69 28 4a be f1 e7 88 be
       -0.26745757 -0.12040281 -0.19741978 -0.26739457
000230 dc dc 86 bd 3d a6 34 bd 96 0e 45 be d2 59 e0 bc
       -0.06585094 -0.04410385 -0.19243845 -0.02738658
000240 36 83 a1 ba 2b e3 9f be 6b a8 99 bd 0c 88 be be
       -0.0012322429 -0.31228003 -0.07502826 -0.3721317
000250 50 88 14 be ee 25 9a bd 01 6b 61 3e 65 ff ee 3d
       -0.14505124 -0.07526766 0.22013475 0.116698064
000260 e9 d2 bd 3c e2 50 85 bd 4b f5 bf bf 0e 75 0f 3f
       0.023171859 -0.06509568 -1.4996732 0.56037986
000270 ff 1e 3a bf fa d6 8b 3e a7 fb d1 3e b1 1e bf 3e
       -0.72703546 0.27312452 0.41012308 0.37328103
000280 ac 50 c1 bc 70 e6 a8 3d 1b 46 0a be d0 75 f3 be
       -0.023598038 0.082470775 -0.13503306 -0.4755082
000290 87 3c 74 bf 69 85 f8 3c ad 32 fa bf b0 c3 05 bf
       -0.9540486 0.030337052 -1.9546715 -0.5225172
0002a0 40 69 4f be 9b b9 4f bf cb 4c 50 3e 4f a6 f3 be
       -0.20254993 -0.81142586 0.20341794 -0.4758782
0002b0 1f 19 8d be 8b 78 d7 be f1 d5 80 be a9 80 8e bf
       -0.27558228 -0.42084154 -0.25163224 -1.1133014
0002c0 a6 99 c3 3f de bc 25 bf 86 7a 20 bd 2e ef e0 be
       1.5281265 -0.64741313 -0.039179347 -0.4393248
0002d0 4a 2b 52 3d bc 1e 99 bd 8d bb 58 be 24 9f ef 3c
       0.051310815 -0.07476565 -0.21165295 0.029250689
0002e0 66 cb e2 bf e5 2f b1 3e d2 f8 f7 be 5d 6b 98 3f
       -1.7718322 0.34606853 -0.48432022 1.1907765
0002f0 aa 42 20 3e 7b 11 ef be 96 eb a8 bd 18 a9 b2 3d
       0.1565043 -0.46693024 -0.082480595 0.08723658
000300 36 41 95 be 9c a1 8a 3f 8e f9 03 3e 82 c1 ad bd
       -0.29151314 1.0830569 0.12888166 -0.08484174
000310 77 81 6b bc 1a 00 3b bf c1 24 d2 3d eb 14 60 bf
       -0.014374129 -0.7304703 0.102609165 -0.8753192
000320 7f c8 89 be a8 1e 96 3e 24 75 6a 3f 2e 7c 63 3e
       -0.2691078 0.29320264 0.9158499 0.2221534
000330 0c 3a 92 3f b8 c7 19 c0 d5 bb c1 3f ef e0 ca be
       1.1423965 -2.4028149 1.5135447 -0.39624736
000340 39 8d 70 3d b4 a0 30 be 63 1e e9 3d 31 b8 11 3e
       0.05872843 -0.17248803 0.11382749 0.1423042
000350 dd c8 31 be 1d 24 6e be 1b bb 98 bd a6 4c ea bd
       -0.1736178 -0.23255964 -0.074575625 -0.11440401
000360 9e 9d 46 be d3 3a 98 bd b6 50 2f 3e cd 3c f7 bd
       -0.19396064 -0.07433095 0.17120633 -0.12072144
000370 8c 6f 01 3d 9f 16 df bd 9c 14 db bd 56 db 20 3d
       0.03160052 -0.108929865 -0.1069729 0.039271675
000380 6e d3 2d be bc cb 16 be 3e 71 c4 be be a6 0d 3d
       -0.16975185 -0.14726156 -0.38367647 0.034582846
000390 2a fc c7 bd be fc 55 be a1 26 c5 bd 1a 22 39 3d
       -0.09764893 -0.20897195 -0.096265085 0.045198537
0003a0 14 5f 7e be bc 25 68 3e 3d 75 2a be 74 62 63 be
       -0.24840957 0.22670645 -0.16646285 -0.22205526
0003b0 10 f1 d3 bd 3b dc fe be 90 f6 33 bd d3 42 22 be
       -0.103487134 -0.49777398 -0.043936312 -0.15845804
0003c0 26 81 cc 3d b7 9a 8f 3d f4 55 03 3e 04 16 a4 be
       0.099855706 0.070119314 0.12825757 -0.32048047
0003d0 63 68 76 be 6d 6f 6f 3d 3a 14 bd 3d f7 09 aa be
       -0.24063258 0.058455873 0.092323735 -0.33210728
0003e0 27 88 a3 be ad dc db 3c 23 28 1d bd 51 7e 90 bd
       -0.31939813 0.026838625 -0.038368355 -0.07055343
0003f0 99 43 8a bc fd b2 5a be f4 d1 ac 3d dc e9 62 3c
       -0.016877936 -0.21357341 0.08438483 0.013849702

fc3.bias f4 [20]
000000 d9 00 ae bf 29 c7 fb 3f e7 a5 18 40 e5 7a 89 be
       -1.3594009 1.9670154 2.3851259 -0.26851574
000010 01 36 15 bf 17 2b d9 3e 1f b4 e8 3f f4 a3 96 be
       -0.5828553 0.42415687 1.8179969 -0.2942196
000020 64 7b 64 be ca 53 bf 3f e7 28 51 bb eb e6 ce be
       -0.22312695 1.4947445 -0.003191525 -0.4041055
000030 7e f0 1b 40 c6 3a 0a bf ae 13 48 3f 3d 5c 11 40
       2.4365535 -0.5399593 0.7815503 2.2712548
000040 06 d2 96 3f 6d cf 01 40 37 c6 88 3f e2 88 00 40
       1.1782844 2.0282853 1.068549 2.0083547

fc4.weight f4 [5, 20]
000000 1f 34 41 3f 9d 0e 3e 3d 7c 36 b4 3e c5 08 26 bd
       0.75470155 0.046400655 0.35197818 -0.040535707
000010 ed eb a7 bd 03 2c b4 3f 5e 29 52 3e 87 47 87 be
       -0.08199296 1.4075931 0.20523593 -0.2642176
000020 77 69 6a 3e 8b b0 b1 3c dc 82 50 bd 0b d2 39 be
       0.22891794 0.021690628 -0.050906047 -0.18146531
000030 b3 8e 48 3e 13 27 39 be c1 d3 c3 3e 28 4e 0a 3f
       0.19585685 -0.18081312 0.38247493 0.54025507
000040 4e f9 99 3f 44 9b b4 be 2b 42 a5 3c 8b 25 53 3f
       1.2029207 -0.35274708 0.020173153 0.8247916
000050 fa a2 e1 3e e9 6e df be 86 c4 a4 be 63 3e 25 bd
       0.44069654 -0.43639305 -0.32181185 -0.0403427
000060 db a0 a7 3e 37 c4 94 3f 9a f3 69 bf 62 17 97 be
       0.3273991 1.162238 -0.9138733 -0.29510027
000070 b8 ce 54 bd 1a ee ab 3d 85 3f 1d 3d c1 04 12 3e
       -0.051954955 0.08395024 0.038390655 0.14259626
000080 4e 7e 27 3f 20 63 8c be 30 81 45 3f 65 b8 c4 bd
       0.654271 -0.27419376 0.7715025 -0.09605483
000090 d0 61 19 3f d8 a2 e4 bd 09 ac 95 be f2 df 36 3f
       0.59914875 -0.111638725 -0.29232815 0.71435463
0000a0 39 e0 ef 3e 58 87 cd bc 8b cc 7c 3f b8 89 a3 3d
       0.46850756 -0.025088951 0.9874961 0.07985252
0000b0 8e ad 0b bf f2 81 94 bd 39 8c ae 3f e6 63 9c be
       -0.545617 -0.072513476 1.3636543 -0.30544966
0000c0 34 98 5a bd 40 cc 39 3e c1 27 82 be 42 53 b0 3e
       -0.05336781 0.18144321 -0.25420955 0.3443852
0000d0 b2 13 b5 be f9 98 53 3e c2 f5 1d be dc e3 50 be
       -0.3536659 0.20663823 -0.1542578 -0.20399421
0000e0 e5 0f bf bf 76 98 15 bf b7 35 fd 3e 65 1e a1 bf
       -1.4926726 -0.5843576 0.49455044 -1.2587401
0000f0 ec cd 49 3f 67 7b 30 bf bf af f2 bd ee 4c 6f bc
       0.78829837 -0.689383 -0.11849927 -0.014605744
000100 f1 4c 91 3e a1 c9 86 3c 0e 58 0a bf f4 b1 41 3e
       0.28379014 0.016453566 -0.5404061 0.1891554
000110 e0 d4 07 bd 77 54 3d be 83 33 b9 3d 46 6f 83 3e
       -0.033161998 -0.18489252 0.09043028 0.25670832
000120 e9 72 c5 3e 74 dd 12 be 0f 90 ff be 69 57 a5 be
       0.38564232 -0.1434229 -0.49914595 -0.3229325
000130 29 6b 12 bf 2c b2 45 bf 91 33 ca bc 34 ee db 3f
       -0.57194763 -0.77224994 -0.024682792 1.7182069
000140 fe b6 d6 bf e8 8c 15 3f 12 39 0b bf bf 4e 16 bd
       -1.6774595 0.5841813 -0.5438396 -0.036696192
000150 fb 44 bb be 21 65 e3 be fe ed d4 bf 71 62 39 3e
       -0.36576065 -0.44413093 -1.663513 0.18103959
000160 05 db a7 bd 2d aa 0e 3d f4 0c d6 3d 59 4a 9f 3d
       -0.081960715 0.03483026 0.10451689 0.077778526
000170 03 eb 15 be 83 cc 9f 3e f0 7d 03 bf 63 bc 62 3e
       -0.14640431 0.31210718 -0.5136404 0.22142176
000180 39 5f 0e 3f 23 97 24 3f b2 22 b2 3d 5a fc b6 be
       0.5561405 0.64293116 0.08698024 -0.35739404

fc4.bias f4 [5]
000000 2c 15 8a bf e2 34 9a 3e 3d 00 ac bf 61 2f 42 bf
       -1.0787711 0.3011847 -1.3437573 -0.75853544
000010 56 17 4c 3f
       0.7972311
