Sample_Based_Extension/WUSTL/WUSTL_Defense/Defense_Distillation/teacher_model.pth (torch, 20680 bytes, 8 tensors)

fc1.weight f4 [50, 42]
000000 2f d5 be be df 91 c0 bf 17 f9 dd bc de 66 cb 3e
       -0.3727202 -1.5044516 -0.027096314 0.3972692
000010 17 cd 4b 3e bb 63 06 3f ba 01 d8 3f fb 98 34 3f
       0.19902454 0.52495927 1.6875527 0.7054593
000020 f7 5d 3e 40 f2 c9 2f 3e f8 37 05 40 63 0a 08 3f
       2.9744852 0.1716688 2.081541 0.5314085
000030 3a 5f 34 3d 98 8e ae 3f 79 99 19 3e 0d 3a 72 bf
       0.044036128 1.3637266 0.14999951 -0.9461983
000040 65 04 44 3f b9 ac f3 3d f9 45 7d be 4f 1f 1e 40
       0.76569206 0.118981786 -0.24733724 2.470661
000050 56 53 a1 3f 79 6b ac 3f d3 00 1d 40 43 9b 79 bd
       1.2603557 1.3470298 2.4531753 -0.060939085
000060 64 7b 4a be e1 0c 89 3f 55 44 a0 be b4 88 b2 bd
       -0.19773632 1.0707055 -0.31302133 -0.0871748
000070 26 bd ef bd a9 6f 00 be 19 ab 30 3e 86 14 84 3e
       -0.11705999 -0.12542595 0.17252769 0.25796908
000080 bc f2 25 3f 95 7e 21 bf 33 26 e7 3f 30 ce 35 40
       0.6482351 -0.63083774 1.8058532 2.8407097
000090 c7 0d 68 3f b8 02 5c 3c 6d 42 a0 bd c3 f8 b8 3f
       0.9064602 0.013428383 -0.0782517 1.4450916
0000a0 b2 65 03 3f 84 7a 10 c0 57 0d 02 3f f7 2a 34 bf
       0.5132705 -2.2574778 0.50801605 -0.7037806
0000b0 77 5f 64 bf 5b ed c6 3e aa b2 90 3f 96 64 25 3f
       -0.8920817 0.38852963 1.1304524 0.64606607
0000c0 d2 08 b2 bf 2a fd 57 3f be 3d a3 bf 81 e6 6f be
       -1.3908942 0.8437067 -1.2753217 -0.23427774
0000d0 3f 44 0b bf 6a 22 2a bf 6f 6e f5 bd 1f 64 f3 3e
       -0.5440101 -0.6645876 -0.11983954 0.47537324
0000e0 66 64 09 bf 92 b8 09 40 c7 75 00 3f 15 bf 8b 3f
       -0.5366882 2.1518903 0.50179714 1.0917689
0000f0 f9 96 69 3f b3 80 76 3e 8b 9d b7 bf 83 ac 47 bc
       0.9124599 0.24072532 -1.4344953 -0.012187126
000100 4e 3d 93 bf 5e 38 69 40 a9 af 3e bd 22 f3 26 40
       -1.1503084 3.6440654 -0.04655424 2.6085896
000110 0b 96 84 3f 3d 5e e6 3d 09 ed 55 3e e5 04 4d 3e
       1.035829 0.11248443 0.20891203 0.20021398
000120 4b cb e1 bd ec c2 e9 3e b5 07 09 3e ea da 41 40
       -0.11025103 0.45656526 0.13381846 3.0289865
000130 06 d8 c2 bf ea a1 fb be cd 7a 44 40 72 52 83 3d
       -1.5222175 -0.49146968 3.0699952 0.064122096
000140 56 38 1e bb 57 c9 c3 3d 73 45 bf 3f e5 7e 5f c0
       -0.0024142466 0.09559887 1.4943069 -3.49212
000150 c7 fa 1a be 4a 2c 89 3d e6 0b 07 bf cc 7f d8 3e
       -0.15134726 0.066979006 -0.5275253 0.42285
000160 33 e5 d4 3e 9f 9b cc 3e 75 6c 45 3e 57 61 0d 3f
       0.41581115 0.3996248 0.19279654 0.55226654
000170 c4 9b bb 3e f2 23 c8 be 6a 80 bb be e5 d7 c1 be
       0.36642277 -0.39089924 -0.3662141 -0.37860027
000180 4e 0f 65 be 8c e6 94 bd cb 62 05 bf bc 5f bc 3e
       -0.2236912 -0.07270536 -0.5210387 0.3679179
000190 af bc 46 3d 32 f1 bc 3d 32 76 50 be ba 26 f8 3e
       0.048519786 0.09225692 -0.20357588 0.48467046
0001a0 b1 e3 17 3c e5 f7 09 be 71 ec 13 3f 97 d5 72 3f
       0.009270594 -0.1347347 0.57782656 0.9485716
0001b0 46 23 2f 3d 33 8b 43 3c 46 70 56 be c8 a7 9d be
       0.04275825 0.011935043 -0.20941266 -0.3079207
0001c0 01 22 5c be 0c c9 49 be 89 7f 2d 3e 03 6b b3 be
       -0.21497346 -0.197056 0.16943182 -0.3504258
0001d0 55 a1 1d 3d 7a 30 f8 3e 06 2d 78 3e 92 12 52 3f
       0.038483936 0.48474485 0.24235925 0.82059586
0001e0 92 be f1 3d 47 6b 30 be 08 20 88 3d 5b 3d ca be
       0.118039265 -0.17228423 0.066467345 -0.39499936
0001f0 24 8d 39 3f 6f e1 6d bf d9 f1 b8 be 47 ca 35 3d
       0.7248099 -0.9292211 -0.36122015 0.04438236
000200 d3 60 28 3f 13 56 78 be c7 c2 2a be a8 40 ad bd
       0.6577274 -0.24251585 -0.16675864 -0.08459598
000210 ca 10 36 be 86 64 63 be a8 5e cf 3d 46 a5 f7 be
       -0.17779842 -0.22206315 0.10125476 -0.4836828
000220 07 ad 54 bf 11 61 29 bf ae ce d8 be ec ea 1b bf
       -0.8307652 -0.66163737 -0.42345184 -0.6090534
000230 2b c2 e5 be 84 7d 53 be 69 13 c3 be 11 c0 0e be
       -0.448747 -0.20653349 -0.38100746 -0.13940455
000240 21 58 03 bf 88 ff f3 be f4 de ca bc d5 38 3c bf
       -0.5130635 -0.47655892 -0.024764515 -0.7352422
000250 00 c2 f2 3d 4a ea 66 bf 26 2a 45 be a0 14 16 be
       0.11853409 -0.90201247 -0.1925436 -0.14656305
000260 dc b5 ad be c2 1f ef be 5f 83 85 be 9d c5 84 be
       -0.3392781 -0.46703917 -0.2607679 -0.25932017
000270 d7 57 1a bd 76 60 26 bf 0d 3a 44 bd b4 bb 89 be
       -0.037681427 -0.6499094 -0.047906924 -0.2690102
000280 89 6e 3d be c1 26 9a 3e c7 6e 7c be 1c f8 05 bf
       -0.18499197 0.30107692 -0.24651633 -0.5233171
000290 41 ba 60 bd 3c 98 f8 be 96 6b af bd 41 dc 81 bf
       -0.054865126 -0.48553646 -0.08565442 -1.0145341
0002a0 38 41 17 3f 3c 6b 59 40 73 46 6f 40 82 d6 c1 be
       0.5908389 3.39717 3.7386749 -0.3785897
0002b0 42 d7 2d bf da 4e f5 be e4 f4 98 bf 61 13 cc be
       -0.6790658 -0.4791172 -1.1949735 -0.39858535
0002c0 2f 5a 72 bf 67 f1 80 3e 51 af 94 c0 44 76 2c bf
       -0.9466886 0.25184175 -4.646401 -0.6736796
0002d0 80 47 9e 3e bf 6c b2 c0 fb 79 07 bf 9e 54 b3 3e
       0.30913925 -5.5757747 -0.529205 0.35025495
0002e0 b4 9f cb be 3d e8 f1 bd a8 e8 8b 3f f7 0b 6a c0
       -0.3977028 -0.11811874 1.0930376 -3.6569803
0002f0 a4 e4 f8 bf cf 21 dc bf e5 a1 6f c0 8e d2 c9 c0
       -1.9444776 -1.7197818 -3.7442563 -6.3069525
000300 5b 86 12 3f de 74 16 c1 f0 42 9b be be fd 07 3f
       0.5723626 -9.403532 -0.30324507 0.53121555
000310 14 23 1d 3f 1c 03 33 3f dd 66 04 bf ab 8c bd bf
       0.6138165 0.6992662 -0.51719457 -1.4808553
000320 ec da fc bf c8 49 cf 3e 39 db c2 bf ed 36 b4 bf
       -1.975431 0.40485978 -1.5223151 -1.4079262
000330 14 ff 09 c1 2f 9e 21 3f f8 2c 08 bf 83 4a 9d bf
       -8.624775 0.63131994 -0.53193617 -1.2288364
000340 bd a2 d4 be cb 89 f2 3f fd 76 fe 3d e0 12 c7 bf
       -0.4153041 1.8948301 0.12425039 -1.5552635
000350 12 f8 8d 3f 25 44 4d bf dd c0 1f bf 75 4d 59 bf
       1.109133 -0.80182105 -0.6240366 -0.84883815
000360 e0 4e 06 3f 70 35 f1 be ea 31 24 3f 94 72 05 3e
       0.52464104 -0.47111082 0.6413866 0.1303199
000370 d3 f8 25 3f 67 6f dd 3e cf db 8e 3d b6 77 f7 3e
       0.648328 0.43249056 0.06975519 0.4833352
000380 c9 36 5a bb 0a b0 b2 bf e6 e5 46 bf 59 ac 80 bf
       -0.0033296815 -1.3959973 -0.7769455 -1.0052596
000390 8b 18 9d be 05 00 00 3f 4f 95 72 bf df c8 c4 3e
       -0.30682787 0.5000003 -0.94759077 0.38434502
0003a0 9b 2e e9 bd de 3b fb 3f d9 9f fd be 46 3a 17 3e
       -0.113858424 1.9627645 -0.49536017 0.14768323
0003b0 c7 e5 e3 3e 2e 61 a1 3e 3d ca 97 3e 08 20 a4 3e
       0.44511244 0.31519455 0.29646483 0.32055688
0003c0 e4 d1 32 bf 8d 6b 2d 3f 40 e2 de 3e 77 a2 12 bf
       -0.6985152 0.67742234 0.4353199 -0.5727915
0003d0 1d d0 05 3f 43 1e 56 3f 9b 87 05 3f 5c f1 28 3e
       0.5227068 0.83639926 0.5216004 0.16498321
0003e0 d0 71 18 bf d1 93 d8 3d 14 8e 83 3f ca 8b 51 c0
       -0.59548664 0.10575069 1.0277734 -3.274157
0003f0 ff 2f ce be 0d 87 61 40 34 9a 87 bf e0 e5 e2 bf
       -0.40270993 3.5238678 -1.0593934 -1.7726402

fc1.bias f4 [50]
000000 e9 ff 78 be 4b 2f 97 3f d3 e3 32 3e 66 75 07 bf
       -0.24316372 1.1811308 0.1746972 -0.5291351
000010 e5 7e 70 be e3 65 59 3e e0 df 97 be a5 1f b6 be
       -0.23485906 0.21230273 -0.2966299 -0.35571018
000020 df be 75 bd e7 ee 91 bf 6a f2 3a bf fc 7e 84 bf
       -0.059996482 -1.1401032 -0.73026145 -1.0351253
000030 a2 c1 27 be 97 9c be be f5 a7 f7 bd 67 cb ca 3e
       -0.16382459 -0.37228844 -0.12092582 0.3960831
000040 48 1a 80 be bc c6 5b bf 8c 2c f2 be 39 c8 a1 bd
       -0.2502005 -0.8585012 -0.47299612 -0.078995176
000050 05 83 71 3f 0c 5c f0 be d3 21 19 bf f5 41 9f 3e
       0.94340545 -0.46945226 -0.59817237 0.3110501
000060 84 ca f3 bd 7f 66 88 3f 24 20 16 be fb 0b 79 bf
       -0.11903861 1.0656279 -0.14660698 -0.97283906
000070 92 38 03 3f b9 f7 dc bd ec 52 d2 3d 0f da 9e 3e
       0.51258194 -0.10789437 0.10269722 0.3102574
000080 df cb 00 bf a3 be ba be b4 0b 96 3e 46 bb 56 3e
       -0.5031108 -0.3647357 0.29305804 0.20969877
000090 c6 e8 f3 bd b2 06 90 be 0a 8b 33 3e 5c 63 be 3d
       -0.119096324 -0.28130108 0.17533508 0.09296295
0000a0 e6 34 0a be a5 84 01 3c 53 e4 bd bd cb 69 06 be
       -0.13496742 0.00790516 -0.09272065 -0.13126294
0000b0 80 71 5a 3f 92 b4 7f 3f c1 60 5b be cd 76 89 3d
       0.8532944 0.99884903 -0.21423627 0.067121126
0000c0 b9 33 24 3f 29 36 98 3f
       0.6414142 1.1891528

fc2.weight f4 [30, 50]
000000 45 19 ef 3f 90 ba 19 40 0d cd a3 3e e3 72 21 3f
       1.8679587 2.4020119 0.3199238 0.6306593
000010 11 32 ab bf 21 71 df 3f 08 6a fb 3e 06 25 45 3e
       -1.3374654 1.7456399 0.49104333 0.19252405
000020 99 47 32 40 ad b2 c0 be e3 b0 89 bf 43 36 02 bf
       2.78562 -0.3763632 -1.0757107 -0.50864047
000030 33 5b 0e 3e 1e e6 41 3f b4 da e8 3d 5c 2f 40 40
       0.13901977 0.75741756 0.11369839 3.0028906
000040 68 66 59 3e 75 72 db 3e f3 3c ad bf 08 49 1c 3e
       0.21230471 0.4286076 -1.3534225 0.15262234
000050 bb 53 1f 40 f4 b8 c9 3f c8 55 f9 3f 69 58 d2 3f
       2.4894855 1.5759568 1.9479303 1.6433231
000060 7b b5 21 bd f3 b0 2b 40 32 a1 bb 3e cb 01 1a 3f
       -0.039479714 2.6826751 0.3664642 0.60158986
000070 57 98 83 bf 1c ae 93 3d af 4f 84 3f 91 df 05 40
       -1.0280865 0.07210943 1.0336818 2.0917704
000080 e1 15 99 be 20 2c 90 3e 11 dc 86 3f 41 de 99 3f
       -0.29899505 0.28158665 1.0535909 1.2020952
000090 91 bb 83 bd 44 11 a1 bc bc 48 77 3f e0 98 38 c0
       -0.0643226 -0.019661553 0.9659536 -2.8843307
0000a0 0f 7d fb bd 4b c8 44 bc 46 89 ba bd d6 fa a6 3d
       -0.122797124 -0.012010644 -0.09108214 0.08153312
0000b0 3c 6b 2d 40 c5 f7 36 40 a0 f5 f4 bc cc 26 19 3f
       2.70967 2.8588727 -0.02990228 0.59824824
0000c0 d1 e6 95 3f 18 51 03 40 5e 6d be bc 6a 55 07 bd
       1.1711065 2.0518246 -0.02324551 -0.03304044
0000d0 7f 5f 89 3d 79 18 44 be 1e eb b5 3c 1a ab 9a bc
       0.067076676 -0.1914996 0.02220684 -0.018880416
0000e0 82 af d0 3a 8b 7e 57 bd 0c 5c 1d be 1b 3c cf bd
       0.0015921446 -0.052610915 -0.15367144 -0.10118886
0000f0 7f 92 a7 bd 9b dd 21 be cc 17 02 bd 83 7d 8d bd
       -0.08182239 -0.15807192 -0.031760976 -0.06908705
000100 30 0f 16 3d 1a 11 35 be c8 59 7e bd f5 e0 e6 bd
       0.036635578 -0.17682305 -0.06209734 -0.11273376
000110 80 8e ba ba b6 74 46 be 80 1c c7 bc d7 21 fb bd
       -0.0014233142 -0.19380459 -0.024305582 -0.12262314
000120 7c 5a 4f bb f8 d7 21 be 90 b2 83 3d 77 38 4d be
       -0.0031639626 -0.15805042 0.064305425 -0.20041071
000130 1d ac 1c bd 7a 47 af bc 12 22 df ba 73 bd da bd
       -0.038250078 -0.021396387 -0.0017023704 -0.10680666
000140 5d 2d 88 bd 12 a7 6e 3d 0a 11 ef bd 24 b0 18 be
       -0.06649277 0.0582648 -0.11673172 -0.14910942
000150 19 6c ea bd b8 05 8e 3d d7 e3 06 be 60 d5 44 3d
       -0.11446399 0.069346845 -0.13172852 0.048055053
000160 6d 07 01 be f0 18 47 be 42 68 08 3c bc 59 1c be
       -0.12600489 -0.19443107 0.008325638 -0.15268606
000170 80 09 af 3b 03 fe aa 3d 35 8e eb bd fc 34 88 bd
       0.0053417087 0.0834923 -0.11501733 -0.06650731
000180 32 f2 17 be f4 63 5b be c3 ab 37 bd 9f 71 0e bd
       -0.14838484 -0.21424848 -0.04484154 -0.034776326
000190 f4 d3 40 3f 9b ef 89 bf 4d 1d a9 be 72 6e 37 bd
       0.75323415 -1.0776247 -0.33030167 -0.044783063
0001a0 fd 29 05 3e e7 25 a9 be 7a bc 06 40 ab fa f7 3f
       0.13004299 -0.3303673 2.1052537 1.9373373
0001b0 67 f8 c4 bd 62 ee 65 bf 0e a6 30 3e 0d 14 95 be
       -0.096176915 -0.8981687 0.17250845 -0.2911686
0001c0 39 f4 5b bd bd 54 91 bf bd 0b 64 bd 8f 1c f6 bf
       -0.053699706 -1.1353985 -0.055675257 -1.9227465
0001d0 17 8e b8 be 13 9c be 40 42 5e 99 3e af c4 60 bc
       -0.36045906 5.956552 0.29954726 -0.013718768
0001e0 b4 bd ac 3f 4b d3 ba be 2f f0 49 bf bd 01 90 3e
       1.3495393 -0.3648933 -0.78882116 0.28126326
0001f0 8e 66 9b bd d3 07 11 bb cf 18 eb be e3 42 58 3e
       -0.0758792 -0.0022129908 -0.45917365 0.21119265
000200 18 fd 34 3f ad 67 de ba b9 99 36 3c 32 56 e7 be
       0.7069869 -0.0016968154 0.011145049 -0.4518295
000210 56 95 f8 3e 8a 72 1f be f3 9b 6d bf ce f9 6b be
       0.48551434 -0.15571037 -0.92816085 -0.23044512
000220 25 b8 fd 3d 6f 17 2e be 9a db c4 be 8f ef a3 be
       0.123886384 -0.17001127 -0.38448793 -0.32018706
000230 b1 83 4c bd 7a 47 d2 3d 49 e6 06 be fa 84 1b 3d
       -0.04993028 0.10267539 -0.13173784 0.037968613
000240 f9 2f bd be 42 93 3f 3e 5e 47 75 3b c4 f9 0d 3e
       -0.36950663 0.18708518 0.0037426571 0.1386481
000250 0a c2 b6 bf ee 43 62 bf 06 41 b5 3d ef 2a 7c bd
       -1.4277966 -0.883849 0.08850293 -0.061564382
000260 2a 0a ab 3d fe 32 16 be 37 96 c3 be 26 13 7e bd
       0.08351548 -0.1466789 -0.38200542 -0.06202998
000270 88 0f 2c be 05 28 54 be c4 57 aa bd 5e fd b7 bd
       -0.168028 -0.20718391 -0.08317521 -0.08983873
000280 00 bf 10 bd e8 e6 db bd ac b3 9a bd 07 4b c3 bd
       -0.0353384 -0.10737401 -0.07553801 -0.09535795
000290 6a 55 2a 3d 79 39 75 be 37 e8 43 be 94 c6 43 be
       0.041585363 -0.23947705 -0.19131552 -0.1911872
0002a0 97 e2 54 bd c0 b1 aa 3c b4 4a 39 be d9 ee 5f bc
       -0.051973905 0.02083671 -0.18094903 -0.013667786
0002b0 97 7f 26 be 3d eb 23 be c1 a1 0c 3e 49 de 9d be
       -0.16259609 -0.16007705 0.13733579 -0.30833653
0002c0 4d 5b bb bc d9 c4 91 bd f8 f2 31 be df 6c 02 be
       -0.022870684 -0.07117624 -0.17377841 -0.12736844
0002d0 35 87 c2 bd b8 3f c3 bd 71 6c 85 3c f1 2c bf bd
       -0.09498445 -0.09533638 0.01628706 -0.09334744
0002e0 a6 4c 1c bd 57 b3 2f 3d 3d 3f 26 bd a1 4d 44 3c
       -0.038159035 0.04289564 -0.040587652 0.011981399
0002f0 8a 8b 4d 3c d2 56 a1 be ed 1f e2 bd 47 22 41 be
       0.012545476 -0.3151155 -0.110412456 -0.18860732
000300 71 9e 06 bd fb c8 77 bd a3 a9 80 3d 33 69 37 be
       -0.032865945 -0.060494404 0.06282356 -0.17911224
000310 82 ed f1 bb 34 31 ef bd cf 7a 01 be 39 6a a8 bd
       -0.0073830495 -0.116793066 -0.12644504 -0.08223385
000320 c2 5e 3a 3d 76 d8 9b 3c 95 fa cf bd 01 4f 00 bd
       0.045500524 0.019024115 -0.101552166 -0.031325344
000330 a9 c5 f4 bd e6 18 cd bd 71 f7 14 be 3a c5 14 be
       -0.11951763 -0.100145146 -0.14547516 -0.14528361
000340 99 3e 32 3c 0e 90 bb be 2e 69 39 be 87 26 f5 bd
       0.010879182 -0.36633343 -0.18106529 -0.11970239
000350 0b bd 91 bd 89 63 86 be c7 1b 87 3d 5b e5 41 bd
       -0.07116135 -0.26247814 0.06597095 -0.04733787
000360 1a 4f 3d bd f4 c7 8a be 41 71 7a be ec 9f 43 bc
       -0.046218015 -0.27105677 -0.24457265 -0.011939984
000370 56 c9 9c bd cd 4a 8f bd 10 ef 0b 3e 30 f9 cd 3c
       -0.07655589 -0.06996689 0.13665414 0.025143236
000380 8a 67 1f 3d 21 44 f0 bd 1a 22 37 3d 33 25 dd bc
       0.038917102 -0.117317446 0.044710256 -0.026995277
000390 18 4b cb bd 62 18 05 bd 5a c9 ea bc 86 50 d5 bd
       -0.09926432 -0.032493956 -0.028660465 -0.10415749
0003a0 cb de 5a be d3 df 0f 3e 0a 0e 3b bd 97 30 99 bd
       -0.21374051 0.14050226 -0.045667686 -0.07479971
0003b0 3a 19 6c bd eb 10 af 3d 3f 4e 85 bd ae b6 66 be
       -0.057641245 0.08548149 -0.06509065 -0.22530624
0003c0 08 49 26 3c ed 6f e4 3c 37 53 52 bd 0f d4 3b 3d
       0.010149248 0.027885402 -0.05134889 0.04585653
0003d0 67 93 aa bd c0 1b 9e 3b 3c e8 de bd 96 f4 a7 bd
       -0.08328896 0.0048250854 -0.10884139 -0.08200948
0003e0 80 11 04 be cd bb d9 bd 79 f5 0c 3f 32 94 d7 3f
       -0.128973 -0.10631523 0.5506206 1.6842101
0003f0 33 48 e9 3e 42 43 88 3e cb a9 86 bf f8 f9 e3 3e
       0.45562896 0.26613814 -1.0520567 0.4452665

fc2.bias f4 [30]
000000 98 55 24 c0 bb 82 9e bc 5e 1a ab bf 39 76 cf be
       -2.5677242 -0.019349447 -1.3367422 -0.40519884
000010 5d fd 07 bf 1c fc 76 bf 0d 0f 9f be 72 b9 d6 be
       -0.53120977 -0.9647844 -0.3106617 -0.4193836
000020 39 b7 cc bd 7b f5 f0 be 5b 70 76 bf b5 ed a9 be
       -0.099958844 -0.47062287 -0.9626519 -0.3318917
000030 50 7c a8 be 5d 13 36 bf e9 1e 20 bf a1 25 8f be
       -0.32907343 -0.71123296 -0.62547165 -0.27958396
000040 e4 80 6c 3e 8d 48 89 be 74 12 85 bf 1d de cf be
       0.23096043 -0.26813164 -1.0396256 -0.40599146
000050 35 71 dc be 37 53 cb be 3d e7 07 c0 62 5c 10 3f
       -0.4305512 -0.39711925 -2.1234887 0.56390965
000060 87 82 34 be 0c 53 9c bf 3e 20 b4 bd 68 78 dd be
       -0.17627917 -1.2212844 -0.08795212 -0.43255925
000070 53 b9 9c bf 50 ad f4 be
       -1.2244056 -0.47788477

fc3.weight f4 [20, 30]
000000 c9 20 8d 3c 47 dd 0e be 06 9c 94 be 97 78 76 bd
       0.017227547 -0.13951598 -0.29025286 -0.060173597
000010 eb 09 07 3e 9f a0 9f bd 18 20 1a be 52 1d 9d bc
       0.13187377 -0.07794308 -0.15051305 -0.01917902
000020 72 d7 61 be 4a 0b c5 bd 6d d2 13 3d 23 45 20 3e
       -0.22054842 -0.09621294 0.03608935 0.15651374
000030 b8 9e 25 be 59 35 23 be 7f 9b f4 3d dd 03 c7 bd
       -0.16173828 -0.1593832 0.11943721 -0.09717534
000040 d7 04 3b be d6 a0 37 3d 89 8a 7c be 9c d4 80 be
       -0.18263565 0.04483112 -0.24662222 -0.25162208
000050 74 13 04 3e 58 5a b5 3d 13 57 ef bd 43 44 4a be
       0.12898046 0.08855122 -0.1168653 -0.19752602
000060 a6 a4 8d bd 37 8c 8f be e4 c6 5e be 85 7b ac 3d
       -0.0691617 -0.28036663 -0.21755558 0.08421997
000070 66 9e 5b bb 44 9f 06 bf d1 e5 a1 bf 1c e4 c2 bd
       -0.003351116 -0.5258677 -1.2648259 -0.09516165
000080 c4 3c 0d bf e1 0a 51 bc 2c 86 64 3d 6a e2 bb 3c
       -0.55170846 -0.012758941 0.05579202 0.022935111
000090 36 95 1d be 39 57 a9 bd 12 a5 00 bf b5 9c b0 be
       -0.1538895 -0.082685895 -0.5025188 -0.34494558
0000a0 d1 51 60 be bd 45 a1 bd 47 f5 4d bd 44 24 9b be
       -0.2190621 -0.0787463 -0.050282743 -0.30301106
0000b0 a6 e9 37 3e f4 4e 42 3d 03 e0 cc bf 4c 26 69 be
       0.17960224 0.047438577 -1.6005863 -0.22768515
0000c0 b2 b4 19 3f 80 73 04 40 cd 82 c5 bd e7 df 41 bd
       0.60041344 2.0695496 -0.09644089 -0.04733267
0000d0 02 76 be 3e c8 48 9a bd a4 40 9b 3d 5a 74 5a be
       0.37199408 -0.07533413 0.075806886 -0.21333447
0000e0 5a 16 ec bb 42 51 bf 3c 12 e6 23 bf b7 5a 0e 3f
       -0.007204813 0.023354176 -0.64022934 0.5560717
0000f0 02 77 09 3f ce 27 3b 3e f1 4b 4e bf 60 07 8e be
       0.53697217 0.18276903 -0.8058463 -0.27740002
000100 e2 f7 a5 bd 8c e5 2a bf cc b9 85 be 79 40 9d 3e
       -0.081039205 -0.6675651 -0.26118314 0.3071325
000110 cf 52 d7 be 16 dc 92 be 0a 09 1c be c2 5c 9d bd
       -0.42055365 -0.28683537 -0.15237823 -0.07683708
000120 db 75 b1 be f6 aa 8c be bb 9b c9 3c 4e c8 19 be
       -0.3466023 -0.27474183 0.02461039 -0.15017816
000130 15 fb 13 bf fa df 48 3f 36 cd 2b bf 3f 09 ef 3e
       -0.57804996 0.7846676 -0.6711 0.46686742
000140 fe 0a f4 be 72 ba 00 be 77 d3 38 3e 95 05 54 be
       -0.47664636 -0.12571123 0.18049417 -0.20705254
000150 70 4c a3 3c c5 97 18 3e 12 e9 06 bc 86 27 17 be
       0.01993391 0.14901645 -0.008234279 -0.1476117
000160 7a d0 d8 3e b9 7e 19 be c6 92 df be fb 99 09 bd
       0.42346555 -0.14989747 -0.43666667 -0.033594113
000170 e9 6b a8 be 4c 9c 6f bd 7d e7 af bd 52 70 b3 be
       -0.3289483 -0.058498666 -0.08589075 -0.3504663
000180 ce 7a ad be 4e 1d 4c 3e 5d 7c 99 be 51 12 74 be
       -0.33882755 0.19933054 -0.29977694 -0.23835112
000190 35 b4 e7 bd 56 5e 84 be 10 03 4d be c3 3a af bd
       -0.11313669 -0.25853223 -0.200207 -0.0855613
0001a0 1c 49 cb 3e cc 11 8e bc 01 2a 92 bf 76 28 ae 3b
       0.39704216 -0.01734247 -1.1419069 0.005314882
0001b0 73 e8 31 bf 4b b3 ea be 08 c5 5f 3e 15 89 92 bd
       -0.69495314 -0.45839915 0.21852505 -0.071550526
0001c0 63 44 a2 3f a9 7e ad 3f b0 4c 70 3d df 48 04 bf
       1.267712 1.3554279 0.058666885 -0.5167369
0001d0 d2 e3 b5 bd ab fb 0e 3e cb 75 0e 3e 36 4b 26 3b
       -0.08881344 0.13963191 0.13912122 0.002537442
0001e0 d7 35 31 bf 1e 46 d3 3d 05 8b 0f be f3 8f fa bd
       -0.6922278 0.10316108 -0.14017875 -0.122344874
0001f0 ce 1e 31 be a6 50 03 be 9d 7b c5 3d 3d 02 2f bf
       -0.17296907 -0.12823734 0.09642718 -0.6836279
000200 3f 94 1f bf 0d 29 1d be fb 35 d4 be 02 06 e5 3c
       -0.6233558 -0.15347691 -0.41447434 0.027956966
000210 7b fe 38 be e9 5d 8f be 35 e9 91 3e 76 a0 a4 3e
       -0.18065827 -0.28001335 0.28498235 0.32153672
000220 71 f4 07 bd e9 86 80 bf 67 64 c1 bf 63 bd 47 3f
       -0.033192102 -1.0041171 -1.5108765 0.78023356
000230 08 87 ee ba 84 d3 e2 3d c0 e6 88 3f db 8e a3 bf
       -0.0018198201 0.110755 1.0695419 -1.2777971
000240 df f7 f5 3d a7 29 a6 bf 4b 80 82 3d 73 3a 2f 3e
       0.12010168 -1.2981461 0.06372126 0.1711214
000250 4e d4 84 bf 19 53 6c bf 76 15 b8 bf 2d f6 d7 bd
       -1.037729 -0.92314297 -1.4381549 -0.10545001
000260 86 48 26 3c 50 8b 2d be b7 ea 0a be ab 49 39 be
       0.010149127 -0.16947675 -0.13566099 -0.18094508
000270 2b 5f 01 3e a2 c4 22 3e 7b 9e 0d bf 1d b5 8d 3d
       0.1263396 0.15895322 -0.55319947 0.0691931
000280 e5 4f 12 be c9 46 0a 3d 92 b6 b3 bd 6e 43 3f be
       -0.1428829 0.033758912 -0.08775057 -0.18678066
000290 e1 f8 82 3e 62 11 f7 bc d6 17 c5 bd 73 85 45 be
       0.25580505 -0.030159656 -0.09623687 -0.19289188
0002a0 ac f7 49 3c 0f 71 85 3e 43 d7 1d be 52 82 2c be
       0.012327116 0.2606282 -0.15414147 -0.16846588
0002b0 d3 ba 7f 3f db 2a 88 be a7 b2 10 3e de 55 2d 3f
       0.99894446 -0.26595196 0.1413065 0.6770915
0002c0 32 9e e6 3d 87 38 76 bd be 43 32 be 59 3d 86 be
       0.11260642 -0.060112502 -0.17408654 -0.2621868
0002d0 6f a2 db bd c6 11 2d be ba 0e 0f be eb 1d 4f bd
       -0.10724341 -0.16901311 -0.13970461 -0.05056564
0002e0 1d 2e 2c 3e 21 34 68 be 48 4c 69 3d 5e 54 b6 bb
       0.16814466 -0.22676136 0.056957513 -0.0055642566
0002f0 c7 94 0b be bd 2d 5f 3d 6b 28 11 bd 0d e4 ce 3d
       -0.13630973 0.05448698 -0.035438936 0.10102091
000300 67 2a ec bd a5 0e 30 be 38 87 0d 3e ad fd 2d 3e
       -0.11531525 -0.17193086 0.13821113 0.16991301
000310 50 19 ca bb ea 32 a3 be 8b be 97 be c7 85 9d bd
       -0.0061675683 -0.31874782 -0.2963756 -0.07691532
000320 52 f8 25 3e 5f 66 15 3c 16 1b 2d be f8 3e fa bd
       0.16208008 0.009118645 -0.16904864 -0.122190416
000330 53 69 54 3d 4c 9a d3 3c 24 ba cb bc 03 9c 1c be
       0.051858258 0.02583041 -0.024869032 -0.15293889
000340 3c bd 20 be 0e 06 16 be 8d 59 9a bf b5 4a b9 3d
       -0.15697187 -0.14650747 -1.2058579 0.09047452
000350 28 33 87 3e 6a 3a 7e 3d fa 96 95 3d f2 18 f0 be
       0.26406217 0.062067427 0.07304187 -0.46894032
000360 22 12 14 3e 68 8f 03 be 39 f5 1e bf fd 9c 1d be
       0.14460042 -0.12847674 -0.6209293 -0.15391918
000370 99 a8 04 be 03 44 08 be 2b b3 1d bc 31 d8 f4 bd
       -0.1295494 -0.13307194 -0.0096252365 -0.11955298
000380 a9 1f bb 3d e3 8b ad bd 7a c5 8e be 5e 50 2f be
       0.09136898 -0.08473947 -0.27885038 -0.17120501
000390 46 60 04 bf ce 1b 37 40 b2 35 60 3c 87 40 9b 3d
       -0.517094 2.861072 0.013684677 0.07580667
0003a0 1e 7f 88 3d 78 f7 44 bf 1a ed 81 3d 80 b1 91 be
       0.06664871 -0.7694011 0.06344052 -0.28455734
0003b0 48 3e d8 3d b6 5d d1 3c e6 46 fe bd d3 3a 1b bf
       0.10558754 0.02555738 -0.124158666 -0.60636634
0003c0 6e 46 ff be 5f db b2 bc b6 b9 6a 3e 67 5c 64 bc
       -0.4985842 -0.02183312 0.22922406 -0.013938046
0003d0 a6 dc 28 be df ce 66 be e2 d8 59 3d 0e a6 67 3e
       -0.1649042 -0.22539853 0.05318535 0.22621939
0003e0 5f 5d cb be 10 b9 4d bd 3b 5f 83 3e 88 69 64 3e
       -0.39719674 -0.050225317 0.25658593 0.22305882
0003f0 b9 44 3d bd 00 42 30 3d 1f 74 ff 3e 4e 5d 7a 3e
       -0.046208117 0.043031693 0.4989328 0.24449655

fc3.bias f4 [20]
000000 59 f5 b0 be 03 83 18 bf 59 ac f5 bf 4b 9d 8d bc
       -0.34562185 -0.5957491 -1.9193221 -0.017286917
000010 e9 ec 42 bf 85 e9 88 bf d0 7b 58 be ac e9 1e bf
       -0.76142746 -1.0696265 -0.2114098 -0.62075305
000020 f5 1a b2 be d4 35 01 bf 69 a9 8f 3f db 5f 96 bf
       -0.34786192 -0.5047276 1.1223575 -1.1748003
000030 4e 28 96 be f3 07 93 bf 1e 4d 80 bf b7 12 08 c0
       -0.29327625 -1.1486801 -1.0023534 -2.1261423
000040 5a e2 16 3f 3d 4a 4b bf 5e 9e 3f bf e9 f2 de bf
       0.58939135 -0.79410154 -0.74851024 -1.741788

fc4.weight f4 [5, 20]
000000 29 69 6e be de 4b 08 3f 4f 5f 39 be 3a 3b 3d be
       -0.23282303 0.53240764 -0.18102764 -0.18479624
000010 26 7e 31 bf 1d 88 6b bf 1a 8f 54 be ce 92 b8 bf
       -0.6933311 -0.9200457 -0.20757714 -1.4419801
000020 74 1b d5 be a7 01 1c 3e c6 c5 ef be a6 ba a4 be
       -0.41622508 0.15235005 -0.46830577 -0.3217365
000030 32 95 28 be 81 95 64 3e f1 e7 11 bf 2d 20 1b bf
       -0.16463163 0.22322656 -0.5699454 -0.6059597
000040 b6 90 91 be 8c 00 0f bf d1 cd c2 bf 99 30 2e bf
       -0.28430718 -0.5586021 -1.521906 -0.68042904
000050 4b 10 85 3e 54 eb 00 3f 89 57 13 be d6 37 5b bf
       0.25988993 0.5035908 -0.14388861 -0.85632074
000060 c5 91 04 c0 28 77 08 c0 e8 b9 32 be 78 1f a2 bf
       -2.071397 -2.1322727 -0.1745373 -1.2665854
000070 37 3d 0b c0 1e b9 01 3e 14 b3 ce 3f 61 0d 43 be
       -2.1756113 0.12668273 1.61484 -0.19048072
000080 fb ec 0a 3e 83 cb b9 bd 94 40 51 bf cf 83 fb be
       0.13566963 -0.0907202 -0.81739163 -0.49124
000090 68 7f 8f bf a0 3e 90 bf 1f 89 8a bf 0d f0 77 bf
       -1.1210756 -1.1269112 -1.0823096 -0.96850663
0000a0 c3 b1 92 be 25 38 a4 bf ce 94 71 bb b7 02 05 c0
       -0.28651246 -1.2829634 -0.0036862376 -2.0782907
0000b0 20 1c cc be ae e7 93 bf 44 83 36 bd a1 c2 a1 be
       -0.39865208 -1.1555078 -0.04455878 -0.31593803
0000c0 b2 97 08 be 1a 0d e6 be f3 54 7b c0 dc ca de be
       -0.13339117 -0.4493187 -3.92706 -0.43514144
0000d0 98 c6 3e 3d e0 33 9e bf de 69 aa 3e 78 a9 8f be
       0.046576113 -1.2359581 0.33283895 -0.28058982
0000e0 fb 2d c9 c0 8e 6e 90 c0 11 c7 36 bf 31 a2 96 bf
       -6.286863 -4.5134954 -0.713975 -1.1768247
0000f0 db 01 86 be 60 fb 8b bf c9 fc 46 bf c0 28 5f bf
       -0.2617329 -1.0936089 -0.7772947 -0.87171555
000100 90 ff c3 be f9 84 73 bf 6c 31 a3 bd 28 51 8b bf
       -0.38280916 -0.95124775 -0.07968411 -1.0884142
000110 bb 60 ff bf 51 d6 94 be 2e a7 b8 c0 ce f4 75 bf
       -1.9951395 -0.2906976 -5.7704077 -0.9607667
000120 d4 8a 73 3c 63 96 05 c0 e8 33 bc be f5 ee 68 bf
       0.014864642 -2.0873039 -0.3675835 -0.9098962
000130 52 dc 98 bc e3 1a 1a c0 c2 86 36 3d 05 55 e0 bf
       -0.018659744 -2.407891 0.04456211 -1.7525946
000140 87 d4 e8 3a ab 5c 98 bf 37 0b 7b 3e 93 aa 57 3e
       0.0017763533 -1.190328 0.24515997 0.21061163
000150 1d ec a6 c0 9e 55 2e c1 0f 8d ae bb 47 0d 48 c0
       -5.2163224 -10.895903 -0.005326874 -3.1258104
000160 a7 da 8a be 5e 8f 5a bf 3e 9b 14 c1 0d c6 18 be
       -0.27119943 -0.8537501 -9.287901 -0.149193
000170 fc a3 48 bd 69 e6 bd bf bc 83 2b be 2c 4c 0d 3d
       -0.048984513 -1.4835941 -0.16749471 0.03449647
000180 72 25 8d c0 0c de 82 bf 71 00 e8 bc fb a3 07 3f
       -4.410821 -1.0224013 -0.028320523 0.5298459

fc4.bias f4 [5]
000000 9e 34 0e be b1 c3 2d 3e 45 83 a6 be f2 59 30 be
       -0.1388726 0.16969182 -0.32522026 -0.17221811
000010 da aa 5a c0
       -3.416678
