SAGE/UNSW/UNSW_Defense/Adversarial_Training/Adversarial_Training_pgd.pt (torch, 23564 bytes, 8 tensors)

fc1.weight f4 [50, 56]
00000000: 6679 0c3c 41da 0339 bdc2 b4ba a49c 5aba
00000010: 3e8f 553c 17f6 593c a4ef 35be 521f b83c
00000020: ddcb 89bd e4f9 143d 5c71 8d3e fee9 70b9
00000030: 5caf 1739 1c93 ab3b 0b53 efbb c461 3b3c
00000040: 2e85 4ebb 7201 25bb e1ec 263c 3cb3 c9ba
00000050: 9314 823b 12f4 923d 7b90 253e 538d b9be
00000060: b35e a43d bb60 ae3d 0c32 b33c f002 373d
00000070: bd9a 8e3f eb65 70bd 7b18 15be 9853 1dbb
00000080: da06 38bd 8d47 d8bd ab26 b0bb 5b3e 4cbc
00000090: 23c2 9fbc 5283 01bc afcb 54bc 1b57 53bb
000000a0: 32ef cc3c 3066 f8bc d80a 96bb 4f32 003e
000000b0: d8e5 133e f254 8f3d aac5 c7bd 13cb bd3d
000000c0: d2dc 6b3b 2b2f 8ebe 4030 22bc 1e5e 25bc
000000d0: 9bc9 a0ba 410a fc3d 30c2 cc3d ae94 de39
000000e0: 3d5e b23d 44b0 cbbc 980c 923e e027 903c
000000f0: 8df0 efbd 4e2e 6f3e 63d4 2dbd 3135 f63d
00000100: 3764 4e3d 6d6e cbbb 1ae8 8cbd 76a2 bc3c
00000110: 7c75 7fba 4451 083e 0e68 b33d a87b b73d
00000120: ffa1 efbd 974c 6a3c c8eb 813e 940e c0bd
00000130: a3e5 d0bd 1515 2d3e 3480 0ebd ba28 023e
00000140: 5918 ac3a c617 7b3d d032 67bd 7f26 31be
00000150: 0bc0 a63d 7197 09be 16a7 f1bd afa9 c33d
00000160: 4528 48bd dda7 c4be 550f 9dbd b56a 57be
00000170: 159a 04be 6146 0ebe 67db d4bd ef6f f1bc
00000180: c1d1 e53c ecb2 da3d 2440 83bd fd4a 6abd
00000190: 7fb5 06be 2a5d 033d 0706 aabc 7b9a 08be
000001a0: 4c3d 783e f0f2 283e 3399 95bc 23e3 a23d
000001b0: 01ac 33bd 504f 363e c161 d8bb 93a1 bfbd
000001c0: 2aa2 773c f1c5 7f3d 7268 9d3d c95b af3a
000001d0: 52c5 e03d 8565 6a3c 166e 90bc c805 263b
000001e0: 4b40 acbb 06a1 993d 9d3d 3e3d 04c3 003d
000001f0: 6958 8e3d 9b34 b53d f69a b63c 799b 0d3d
00000200: 38d6 b4bd 8e6a a6bd 57e4 8dbc 3afd a13d
00000210: 9b5e 0fbd 12d9 04bd 7d7f 3b3c f6d8 fe3d
00000220: 5146 8f3e 6eff 9dbd 631a 443d 4945 853d
00000230: 9daa 343e e2d1 8c3d 988c 653d 79a5 aabd
00000240: 316c 883c 2b3f fdbd cc34 8abc 402d eb3d
00000250: bcf7 a2bd fc36 99be 18c6 2abe 13e1 193d
00000260: cc2c b03d ddd7 cd3c 9a66 c13d 310b 5cbe
00000270: c1d7 c7bb a0ce 2a3c 5184 8ebd e3bb 11be
00000280: c2f1 c33d 100b 85be 47b5 42bd 856d ed3c
00000290: 36fb 7d3d 786f 7b3d a6a3 babc 587e 263d
000002a0: 6296 75bd d31f c93c 3200 86bd 5244 d33d
000002b0: 81dc 0fbd 1173 39be 2720 53bd feb9 17be
000002c0: e151 a83d e820 273d 9720 5d3d 52b3 c7ba
000002d0: 25a0 0f3b 2f03 373e 5781 ad3d 0fac 10bc
000002e0: 104f b53c b3e7 4cbd b685 353e a1cc 28bd
000002f0: bc08 3a3d a8b8 d93d 97bb 8b3d 28f0 f5be
00000300: 25e3 3abe 0c05 71bd 5541 233d 10a3 2f3e
00000310: bc4a a33e 4999 c2bc a349 2dbd 7621 88bc
00000320: dc9c 88bd 8f50 11be 1198 86bc 96a9 993d
00000330: ce90 d03d de64 34bd bef8 f93c fa0a 3e3d
00000340: cc76 c33d 93d6 263a 383c 863c b4c4 9b3d
00000350: 0526 1b3d d7ee 2f3e f6f4 e73e b905 8dbb
00000360: d002 2ebd abed 023e 3ded ce3c 3982 373c
00000370: 1da9 013c a1df 68be 5639 aebd 20fc b0bb
00000380: ff6e 71be 86e7 8cbd ebd9 82bd 70e5 8e3c
00000390: 7107 703e a4ca 08be 4d9a 2b3d f563 d8bd
000003a0: f16c 103d 8c8f 15be 4864 01be ed31 a03c
000003b0: f75c 43bd 8759 18bd 21a8 733c 3e5f c6bd
000003c0: 1ee8 51bd eaf0 a53d 4f83 04be d901 44bd
000003d0: 06cb 943d f0a2 9f3d 5cfc 73be cbca 443c
000003e0: ec90 a23e ad09 f1bd c8d4 ce3c 7f3b b23a
000003f0: 4e27 0a3e eb85 b3bc eff0 2e3d fa3f bbbb
0.0085738655 0.0001257444 -0.0013790947 -0.00083393813 0.01303464 0.013303301 -0.17767197 0.022475872
-0.06728337 0.036371127 0.2762555 -0.00022975352 0.00014465809 0.0052360427 -0.0073036007 0.011436883
-0.0031512487 -0.0025177863 0.010188312 -0.0015388499 0.003969738 0.07175459 0.16168396 -0.36240634
0.08025875 0.085145436 0.02187445 0.044680536 1.1140972 -0.058690947 -0.1456012 -0.0024006125
-0.04492841 -0.10560522 -0.0053757033 -0.012466039 -0.019501751 -0.007904844 -0.012988015 -0.0032247964
0.025016401 -0.030322164 -0.0045789294 0.12519191 0.14443147 0.06998624 -0.09754498 0.09267249
0.0035989773 -0.2777036 -0.009899199 -0.01009324 -0.0012267114 0.12306643 0.09997976 0.00042453915
0.08709381 -0.024864323 0.28525233 0.017597139 -0.11715803 0.23357508 -0.042438876 0.12021864
0.05038854 -0.006208232 -0.06880207 0.023026686 -0.00097449846 0.1331225 0.08760081 0.089591324
-0.1170082 0.014300487 0.253752 -0.093777806 -0.1020005 0.16902573 -0.034790233 0.12710848
0.0013129815 0.06130197 -0.056444943 -0.17299841 0.08142098 -0.13436677 -0.11799447 0.09553849
-0.04886653 -0.3840932 -0.0766894 -0.21036799 -0.12949403 -0.13894035 -0.1039341 -0.02947232
0.02805412 0.10678658 -0.06408718 -0.05720042 -0.13155173 0.03207127 -0.020754827 -0.1334018
0.24242133 0.16498923 -0.018261528 0.07953479 -0.043865208 0.17803693 -0.00660345 -0.0935699
0.0151143465 0.06244463 0.07685937 0.0013378795 0.10975136 0.014306431 -0.017630618 0.0025333036
-0.0052566878 0.07501416 0.046445478 0.03143598 0.06950457 0.08847924 0.022290688 0.0345721
-0.088299215 -0.081257924 -0.017320795 0.07909627 -0.035002332 -0.032433577 0.01144397 0.12443726
0.27983335 -0.07714735 0.047876727 0.06507356 0.17643209 0.068759695 0.056042284 -0.08332343
0.016653152 -0.12365564 -0.016870879 0.1148324 -0.07957408 -0.29924762 -0.1667713 0.037568163
0.08602294 0.025127346 0.09443398 -0.21488644 -0.006098718 0.01042524 -0.06958831 -0.1423183
0.09567596 -0.25985003 -0.04753616 0.028982887 0.06200715 0.0613856 -0.022783112 0.040647835
-0.05995787 0.024551308 -0.06543006 0.103157654 -0.0351224 -0.181103 -0.051544335 -0.14817044
0.08218742 0.040802866 0.05398616 -0.0015235937 0.0021915522 0.17872308 0.08471935 -0.008830084
0.022132427 -0.050025653 0.17726788 -0.041210774 0.045418486 0.106309235 0.06822889 -0.48034787
-0.18250711 -0.058842704 0.039857227 0.17152047 0.31892955 -0.023754733 -0.042306554 -0.016617518
-0.066705436 -0.14190887 -0.016429933 0.07503049 0.10183869 -0.044041507 0.030514117 0.046397187
0.09544143 0.00063643715 0.016386136 0.076058775 0.037878055 0.17180954 0.45304078 -0.0043036607
-0.04248315 0.12785976 0.025259608 0.011200481 0.007913855 -0.22741558 -0.0850703 -0.0054011494
-0.23577498 -0.06880097 -0.06389221 0.017443389 0.23440339 -0.13358551 0.0418952 -0.1056594
0.035260145 -0.1460554 -0.1263591 0.019555056 -0.04769608 -0.037194755 0.014871628 -0.09686135
-0.051246755 0.08102591 -0.12940715 -0.047853325 0.07265286 0.0779475 -0.23826736 0.01201124
0.31751192 -0.11769424 0.025247946 0.0013598053 0.13491556 -0.021914443 0.04271024 -0.0057144137

fc1.bias f4 [50]
00000000: 05d8 2c3e c465 bd3d a5d0 533e 8729 113d
00000010: 29e1 9abd 4358 003e 1183 6c3d 314f c3bc
00000020: 0b25 c83c 36d6 4a3e 7ab9 08be b6c5 e23d
00000030: 4b18 3d3d e3df 183e 2f40 1a3e c9d5 f53d
00000040: d336 7d3d d499 da3d cfc0 a1bd 6490 433e
00000050: dba2 ea3d f1f4 03bc 1b63 a6bc 3565 d2bd
00000060: 0c6e 0b3d 060f 363e a571 b03d 30cf 083e
00000070: be9e 283e b71b 95bc 7f4c b83d 418e fb3d
00000080: 63d5 60bd e878 513d 706e 733e 4e63 3b3e
00000090: 6d29 a23d 4ca6 1a3e 2651 f63c 1f30 053e
000000a0: da00 623c 894f fa3d b888 643e e04f b13d
000000b0: cbfe 9fbd 0039 a93d 9f56 b43d d83c d63d
000000c0: 8bbb 303e 6c69 4cbc
0.1687928 0.09247926 0.2068506 0.035439994 -0.07562477 0.12533669 0.057742182 -0.023841472
0.024431726 0.19808277 -0.13352004 0.110728666 0.046165746 0.14929156 0.15063547 0.12003667
0.061819863 0.10673872 -0.078981034 0.1909805 0.114568435 -0.008054004 -0.020310929 -0.1027321
0.034040496 0.17779168 0.08615426 0.13360286 0.16466805 -0.018201692 0.089989655 0.12282992
-0.054891 0.051140696 0.23772597 0.182996 0.079180576 0.151025 0.030067991 0.13006638
0.013794148 0.122222014 0.22317779 0.08657813 -0.0781227 0.08262825 0.08805584 0.10460824
0.17259042 -0.012476306

fc2.weight f4 [30, 50]
00000000: 0e65 cdbe 1cec 34bd c707 e73d c1d9 54be
00000010: 8dcb 083e b67e f7bd a053 28bf e826 6c3c
00000020: dbde 3ebe eaf7 55bc 2a7e 50bc 3fd7 aa3d
00000030: 818d 6f3d 5f5a 693e 10ea e6be 3bdb d03e
00000040: 0508 563e ee65 abbe 8049 2bbe e826 3bbe
00000050: cc3a 89be dce1 923e c2f5 7a3c 1047 fa3d
00000060: 4982 15bd 2593 93bd 4f42 eb3e a722 6c3e
00000070: 8e02 94be a117 76bc 9d41 533e 1b7b 70bd
00000080: 5daa a83d ab94 9d3d 6b1d e93c a470 95bd
00000090: 851c 433e 05e1 323d c86a 31bc 6d6f 293e
000000a0: 42c8 8dbe d1c0 b5bd 3205 b33d 68d0 30bc
000000b0: 5383 e1bd e269 823e 0a9b 7bbc 7f5f 1a3e
000000c0: e4f1 0e3e 9d92 083f 32ec 2c3e 5657 80bd
000000d0: d4e5 833d a543 803e df18 ac3d c7d5 dc3e
000000e0: 8fad be3d fc36 3b3e 92a2 81bd d6dc 073e
000000f0: 7862 ad3d 24de 923d c6fa f5bd 63e6 5e3e
00000100: 4a4b 673b 07a3 0ebe 764f 993e 4db2 4a3f
00000110: e9df 253e f306 143e 1f0d 58bd 6d33 6fbd
00000120: f5d3 a43d 655b 8c3c 8721 4ebd d727 3a3e
00000130: bc03 4cbe 20b8 9f3d e2fd 203f d60c 97bd
00000140: 9542 06be 71d1 1e3e 7979 153e d6f6 49bd
00000150: f5f4 d3bc 5aca 133e 9b72 52bd 7401 603e
00000160: c938 a53d f335 133e dc95 5c3f 5431 153e
00000170: 199a ac3c f650 af3d 6fe3 2b3e ba85 47bc
00000180: c2ac d93c c870 92bd 2224 69bc 6390 8ebd
00000190: 9c6f 1bbe ee7f f1bd adaf 8f3d 272a 06bd
000001a0: d955 193d 8dbe 1a3f 86df a23b 0140 173e
000001b0: 7840 453e 5787 d33c 8f02 003e cd49 f73d
000001c0: b2b3 42be 3a01 413d baa7 88be 0a7a febe
000001d0: 4cdf 06bd 39d8 463f 7da4 b43e de1d 273e
000001e0: 3fe2 28be 2c48 77be 560e 4a3e dd6c 24bd
000001f0: 33ba 79bd ec8b 5c3e 7871 83be 96ff 54be
00000200: ee5a 313f 471d 83bd 3874 d8bd b8d9 803e
00000210: 7c3f 33bc 9541 583e 143d 34bd 5b33 4e3c
00000220: 890b 19be 7eea 433e 1c8d cfbd b112 e23d
00000230: 9ea1 063f edfc 86bd 6b9a 2f3e 639a 2cbd
00000240: 61b4 903e aa80 7bbd 0860 1ebd bd34 2c3e
00000250: 1cec 86bd ae38 683d 66ce 00bd a151 babd
00000260: 3fc0 64bc 62ff 4f3d 82c9 723d 62b3 acbb
00000270: f08b 13bd 477a 24bd 782e e8bd a17e b0bc
00000280: 8b35 363d 92b9 97bd 86b5 c3bc da78 273d
00000290: 6c20 1fbd 856a cbbd 0c4b 59bd 95c7 293d
000002a0: a7f2 8fbd 18b1 f3bd 3fec 9e3c 82a8 01bd
000002b0: d83c 9b3b e330 2dbd d18a 123e 27f6 ffbd
000002c0: 1382 8fbe 61c8 42be e391 783e 4582 d23d
000002d0: d2b2 883c bf84 043d dff0 a63d 06ee 9fbd
000002e0: 3f06 4b3e 24eb 64bd 404d fdbd faf7 a53d
000002f0: 8851 493e 305e a7bd dc7d b83d 473d 84bd
00000300: 6a4a 373d 1476 a0bd e51c a13d 0c89 943d
00000310: 2185 773d ebf5 5b3d b527 943c 66b8 14be
00000320: bc65 29be de2b 583d a8af f93c 06e9 d1bd
00000330: 2364 a33d 70a4 bc3e 4642 2d3e a381 723e
00000340: c314 293d a5c1 5bb9 48d3 a8bd c3a3 debb
00000350: 3189 48be a912 1e3b 2b89 a7be e801 8cbe
00000360: 9ffa 673e 4cc3 123f 82d7 323e 6950 1e3d
00000370: 78d4 c5bb d09b 56be c4fc 2c3e 058b 9cbd
00000380: 7845 cd3d e61e 853d f0a9 cf3b 049d 933d
00000390: 342c f93e 9e73 493b 8a7d eebc cb42 5e3e
000003a0: 92e3 3d3e 3ec2 973d 708a 653d 6e72 623e
000003b0: 2503 633e 6d7a b2bd faa2 5bbc caee 093e
000003c0: fa03 fe3e 2dfe 2c3d ee3c 033e 5423 293e
000003d0: d6af 733e 25b4 893e 61dd f73d 4bf9 213e
000003e0: c3d5 793e ce7a f03d 5165 f23e 9182 9a3d
000003f0: 0390 3f3e 4d01 673d 2ccf 913d 358b edbe
-0.4011616 -0.044170484 0.1128078 -0.20786192 0.13358898 -0.12084715 -0.657526 0.014413573
-0.186397 -0.013059596 -0.012725392 0.08341836 0.058484558 0.2278838 -0.4510045 0.4079226
0.20901497 -0.33476204 -0.16727257 -0.1827656 -0.2680267 0.28687942 0.015317382 0.12220585
-0.036501203 -0.072058 0.45949027 0.23060094 -0.289082 -0.015020282 0.20630498 -0.058711153
0.08235619 0.07694372 0.02845641 -0.07296875 0.19053848 0.043671627 -0.010828681 0.16546412
-0.27691847 -0.088746674 0.08741225 -0.010791875 -0.11011376 0.25471407 -0.015356788 0.15075491
0.13959461 0.53348714 0.16886976 -0.06266658 0.064403206 0.2505161 0.08403181 0.4313185
0.093104474 0.18282694 -0.06329836 0.13267836 0.08466047 0.07171276 -0.12010722 0.21767573
0.0035292679 -0.13929377 0.29943436 0.79178315 0.16198696 0.14455776 -0.05274689 -0.058398653
0.0804824 0.017133424 -0.050324943 0.1817926 -0.199233 0.07798791 0.62887394 -0.07375495
-0.13111337 0.15509583 0.1459712 -0.049307667 -0.02587364 0.1443266 -0.051378828 0.21875554
0.080674715 0.14376049 0.8616617 0.14569598 0.021069573 0.08560364 0.16785978 -0.012177879
0.026571635 -0.071504176 -0.014229806 -0.06961133 -0.15179294 -0.11791979 0.07015929 -0.032755043
0.037435386 0.6044701 0.0049704937 0.1477051 0.19262874 0.025821371 0.12500976 0.12074623
-0.19013861 0.04712031 -0.26690465 -0.49702483 -0.032927796 0.7767368 0.35281745 0.16319987
-0.16492556 -0.24148625 0.19732031 -0.040142883 -0.06096859 0.21537751 -0.25672507 -0.20800623
0.6927937 -0.064020686 -0.10569042 0.25166106 -0.010940429 0.21118768 -0.04400356 0.012585486
-0.14945807 0.1913242 -0.10134336 0.11038721 0.5259036 -0.065912105 0.1714875 -0.042139422
0.28262618 -0.061402 -0.0386658 0.16816993 -0.06588003 0.05669468 -0.031446837 -0.09097601
-0.013961851 0.05078066 0.059274204 -0.0052704075 -0.036022127 -0.040155675 -0.11336988 -0.021544756
0.044484656 -0.074084416 -0.023890268 0.040886737 -0.03884928 -0.09932426 -0.053050086 0.041450102
-0.07028704 -0.11899012 0.01939976 -0.031654842 0.0047374777 -0.04228295 0.14310767 -0.12498122
-0.28028926 -0.19021751 0.24274401 0.10278753 0.01668683 0.03235316 0.08151411 -0.07809071
0.19826601 -0.05588831 -0.1236825 0.081039384 0.19660008 -0.08172262 0.09008381 -0.06457
0.0447487 -0.078350216 0.07866839 0.07252702 0.060429696 0.053701323 0.01808534 -0.14523467
-0.16542715 0.05277621 0.030479267 -0.10249524 0.07978084 0.36844206 0.16919813 0.23682265
0.041279566 -0.00020957606 -0.08243424 -0.0067944243 -0.19583584 0.002412001 -0.32721838 -0.27345204
0.22654198 0.5732925 0.17465022 0.038650904 -0.006037291 -0.20957875 0.16893297 -0.07643703
0.10023016 0.06500034 0.006337397 0.07207683 0.48666537 0.003073908 -0.029112596 0.21705167
0.18543842 0.07410096 0.056040227 0.22113964 0.22169168 -0.08714757 -0.013405556 0.13469997
0.4961241 0.04223459 0.12816212 0.16517383 0.23797545 0.26895252 0.121027716 0.15817754
0.2439795 0.11742173 0.47342923 0.07544435 0.1870728 0.056397725 0.07119593 -0.4639527

fc2.bias f4 [30]
00000000: 7e84 2e3e e326 193e aeea 863d 3e97 95bd
00000010: 10b1 933d 875d 1abd 219b 983c 3e57 9ebd
00000020: 34fb a03c da2f 593d d990 4cbd caab 12be
00000030: 8add b2bd 8adb b43d 8ccf 453c a400 be3d
00000040: eead a63d 7e6b 2abd c5fa d5bd 4305 973d
00000050: ca75 1dbe 1055 213e abc7 25bd 146b a4bb
00000060: 5a53 db3d 4af3 fd3d 498d 8f3d c4b5 3b3e
00000070: 861f 3ebd 040b da3d
0.1704273 0.1495624 0.0658773 -0.07304238 0.07211506 -0.03768685 0.018628659 -0.07731484
0.019651033 0.05302415 -0.049942825 -0.14323345 -0.087336615 0.08830936 0.012073409 0.09277466
0.08138643 -0.04160642 -0.10448221 0.073740505 -0.15376964 0.15755105 -0.04047362 -0.0050176475
0.107092574 0.12399919 0.0700937 0.18331057 -0.04641678 0.10646632

fc3.weight f4 [20, 30]
00000000: f7a0 89be 6f11 993e 6242 8b3e cc34 adbd
00000010: 8e4e 563e b16a 81be b5a8 13bc 4893 ec3b
00000020: 1f0c 5bbe 8d07 fbbc 28dd 10bd 81c0 c93d
00000030: b35e 2bbf 8449 7cbd 889c 083d db05 ff3d
00000040: 6407 1abd 9ae2 f93d 8449 bfbe 8cd7 22bc
00000050: 8136 e3bc 81a6 10be dddd 083e 07a7 3abe
00000060: 0cf3 a53e 2a07 203e f656 eebb 1bbb c33d
00000070: 073c 883d e2c9 393e e1e3 83be 9613 203e
00000080: 7e9f 993e e599 c83d c37f 5d3d b3d6 aebe
00000090: af0c 90bd 221b 12be 2aed 6dbe 3432 f7bd
000000a0: 54ac 363d a5e8 253e d8a6 9ebe 0099 51bc
000000b0: 5f1d fc3d 6b81 6b3e d357 5e3d 51f9 fcbd
000000c0: d849 09be 78e0 5e3e 6c46 3ebd 2b3a fabc
000000d0: a574 28be 0271 71bc 3184 433e 4b31 b13d
000000e0: d365 a3bc 7715 453e 5d9f 4cbd 7a15 83bd
000000f0: f291 e93d 731e e3bd ab29 c4bd e2d6 abbb
00000100: 2c86 2f3e b0e3 81bc 06a9 343e f130 06be
00000110: a89f 1bbe 3208 1c3d 4f64 0abe b0de 043e
00000120: 3d91 c5bd 604a 1cbe fb02 4d3d e834 273e
00000130: bf10 dcbd 6423 b5bd a342 8cbc ce9f 8bbd
00000140: ddf1 ecbd 29c8 32be 510a 46bd 2475 9a3d
00000150: 2c2d 3abc b332 13be 156c 293e c4e8 05be
00000160: 6fd8 b1bd f687 4d3c 60ee 403e 7b36 6e3e
00000170: bd5e 24bb 4c46 8b3d 6ec7 a2bd 6ef5 57be
00000180: ee48 1e3d 2585 f7be 7c99 24bf 1261 ab3d
00000190: 6840 e9bd 50f1 1bbe 7a5b 19bf a12b ddbd
000001a0: be70 883b e6ec 133e b7f0 2cbe 1804 56b8
000001b0: 3927 dcbe 4fb6 513e 5a1a 94bd 0448 5fbd
000001c0: 66b3 d8bd bb5c a5bb 2936 493e 22e9 853e
000001d0: 74c7 c73c e448 c4bc f8e0 0b3e 1d3f 1bbe
000001e0: 3cb0 853d 6d33 913d 851b 16be fec3 0dbe
000001f0: 6aaf 8b3b 7d73 8d3c ea23 2e3d 188c 6fbe
00000200: b7af 103e 2bdc 8ebd 8a70 75bd 1eba c4bd
00000210: e6e4 1e3e ce77 c53d 4288 62be 5802 e7bd
00000220: 562a e1bd e3b7 893d 8e9d 01be 4d13 ba3d
00000230: d988 3dbd 935f c1b9 78a2 a9bd fe35 60bd
00000240: 8546 ae3d 01a8 33be bdc1 24be 392b 36be
00000250: 7ff2 b13d c087 803d 3b35 023e c623 bebc
00000260: 6637 5bbe 37f6 ad3c 17e8 b23d 3190 c53e
00000270: 76fd 083e 9245 4e3e 398c 653e bdd8 b73e
00000280: e93e 053e 747e 163e d76c 003f e83b b93c
00000290: 9fd1 45be 3045 43be 9df9 d93d 8317 18be
000002a0: 1a5a 643e a594 9f3e bbc9 f03d 90a9 a93e
000002b0: f541 9d3e 1969 163e ff6f e23d be1b 373e
000002c0: 3236 4a3d 6beb c0bd f5c5 283e aa3d 813e
000002d0: e8cb 8dbe b426 7f3d 10ef 953e f532 b1bb
000002e0: 8df1 25bd f8fd b5be b275 10be bd84 8a3d
000002f0: 6151 4cbe cd34 c2bd e9a6 07be 7868 2ebd
00000300: 039f 08bf 5f11 3c3d b797 553e 5545 0f3e
00000310: 466c a9bd 7e16 b3bd 5eb2 8bbe 4cc2 333e
00000320: cea8 f1bd e763 f4bd 1e4a 4a3d 2d1c 75bd
00000330: b859 cc3e 1525 803e 38a4 5e3d 5305 983e
00000340: a403 c23d 5f55 c43d 31fd 2fbc d7c1 07be
00000350: 8ae0 e43d 357a e03d 34fc fa3d 79e7 00be
00000360: ea7d 08be 4909 083e 424f 303c b196 143d
00000370: 517c 303e 229d 1ebe f2f2 d9bc bb44 9fbd
00000380: 569b e1bb 596a 573d d2bd 0abd 111e c1bd
00000390: e4b8 50bb 8155 b1bd 768d 293c 30d9 71bc
000003a0: 91c8 90bc 9948 debd 3a6e f2bd 3cf1 3abe
000003b0: 5988 5e3d c7b3 febd 8d4a 283e 65e2 43bd
000003c0: 5f21 61be 1f51 6d3e 8f44 143e 35eb 0d3e
000003d0: dea0 273e 90fc 11be 7570 0e3e 5766 f0bd
000003e0: f30e 1cbe 4dac 35be 7362 423e 5aee 5c3d
000003f0: 7d5a c3be bfea d6bd fe75 213d 86ea 613d
-0.2688062 0.29896113 0.27199084 -0.08457336 0.20928404 -0.25276712 -0.009012391 0.0072197057
-0.21391343 -0.030643249 -0.03536716 0.0985117 -0.66941375 -0.061593547 0.033352405 0.12452289
-0.037604704 0.12201424 -0.37360775 -0.009939086 -0.02773595 -0.14126016 0.13365884 -0.18227778
0.32411993 0.15627733 -0.00727355 0.09557172 0.06652074 0.18143418 -0.25759795 0.15632471
0.30004495 0.09794978 0.05407692 -0.34148178 -0.07033669 -0.14268163 -0.23235002 -0.12070122
0.04459794 0.16202028 -0.30986667 -0.012792826 0.123102896 0.22998588 0.054282974 -0.12352241
-0.13407075 0.21765316 -0.04645388 -0.030545315 -0.16450746 -0.014736416 0.19093396 0.0865198
-0.019946015 0.1924647 -0.04995667 -0.06400581 0.1140479 -0.11089792 -0.0957826 -0.005244122
0.17141026 -0.01585564 0.17642602 -0.13104607 -0.15197623 0.038093753 -0.13514827 0.12975574
-0.09646843 -0.15262747 0.05005167 0.16328776 -0.107453816 -0.08844641 -0.017121619 -0.0681759
-0.11569569 -0.17459168 -0.048349682 0.07541874 -0.011363309 -0.14374809 0.16545136 -0.13077074
-0.086838596 0.012544623 0.18840933 0.2326297 -0.0025080882 0.068005174 -0.079481944 -0.21089718
0.03864377 -0.4834377 -0.642967 0.08368124 -0.11389238 -0.15228772 -0.5990521 -0.10799337
0.0041638305 0.14445838 -0.168887 -5.102539e-05 -0.42998675 0.20479701 -0.07231589 -0.05451204
-0.105810925 -0.0050464547 0.19649567 0.2615443 0.024387099 -0.023960538 0.13660038 -0.15160795
0.06527755 0.07089887 -0.14658935 -0.13844296 0.0042628543 0.017266983 0.04251472 -0.23393285
0.1412953 -0.069755875 -0.05992178 -0.096058115 0.15517005 0.096419916 -0.2212229 -0.11279744
-0.10994403 0.06724527 -0.12657759 0.090857126 -0.046273086 -0.00036883037 -0.082829416 -0.05473899
0.08509544 -0.17544557 -0.1608953 -0.17789926 0.086888306 0.06275892 0.12715618 -0.023210417
-0.21407852 0.021235568 0.08735674 0.38586572 0.13377938 0.20143726 0.22416772 0.35907546
0.1301228 0.14696676 0.50166076 0.022611573 -0.19318245 -0.19069362 0.10643313 -0.14852719
0.22299996 0.31168094 0.11757227 0.33137178 0.30714384 0.14688529 0.11056518 0.17881677
0.04936809 -0.094199024 0.16481765 0.25242358 -0.2769463 0.06229277 0.29283953 -0.005407686
-0.040513564 -0.35545325 -0.14107397 0.06763599 -0.19952919 -0.09482727 -0.13247265 -0.042580098
-0.5336763 0.045915004 0.20858656 0.13991292 -0.08272605 -0.087445244 -0.2728452 0.17554587
-0.11799775 -0.11933117 0.04938709 -0.059841324 0.399122 0.2502829 0.05435583 0.29691562
0.09473351 0.09586596 -0.010741518 -0.13257538 0.1117564 0.10960809 0.12255135 -0.125883
-0.13329282 0.13284792 0.010761084 0.036276523 0.17234923 -0.15489629 -0.026605103 -0.07776781
-0.0068849726 0.052591655 -0.033872433 -0.09429563 -0.0031848485 -0.08658887 0.010348668 -0.014761254
-0.017673763 -0.10853691 -0.1183743 -0.18256086 0.05432925 -0.124366336 0.16434689 -0.04782333
-0.21985386 0.23175476 0.14479278 0.13859256 0.1636996 -0.14256501 0.13910086 -0.1173827
-0.15240078 -0.17741509 0.18982868 0.053938247 -0.38154975 -0.10493993 0.039419167 0.0551553

fc3.bias f4 [20]
00000000: 8b14 8a3d 5513 5d3e a83f b6bd 63f9 123e
00000010: 9ce5 12be 660c 363e 1cfe 5b3c 03f6 29be
00000020: efa9 9f3c 51f3 893d fa05 96bd 0722 443e
00000030: 8286 213e d808 863d d659 ab3d d936 1dbd
00000040: 1d57 5f3d f9b1 98bd 9612 01be 07b5 b0bd
0.067421995 0.21589406 -0.0889886 0.14352946 -0.14345402 0.17778167 0.013427284 -0.16597752
0.01949021 0.06735862 -0.07325359 0.19153605 0.15773967 0.065446556 0.08366744 -0.038382385
0.054526437 -0.074558206 -0.12604746 -0.08628278

fc4.weight f4 [2, 20]
00000000: 8c5c d73e 3de8 9c3d 78f7 8cbd 26cf 453e
00000010: 8ac9 fd3d 1333 56be 1d89 8a3e ffb1 c2bd
00000020: c517 693e 39de cc3e 100f c3bd ee20 2b3e
00000030: 6508 94be 6b9b 3ebe 217a 88be e35e 2d3d
00000040: 8dbc a83e 24d5 c1be 991c 09be 300a e0be
00000050: b120 02be 7f65 b6be 493e 603e 7b68 f3be
00000060: 5b5d 8fbc e845 a13e c13c d6bd cccd 5abe
00000070: 5e69 7cbe 7735 0fbe e4e8 8fbd aae9 71be
00000080: 4f31 bc3e 4dc7 4c3e 4f59 9f3e 4538 d7be
00000090: b2fa 8cbd 5679 f13d bc5d fc3d de90 4f3e
0.42062795 0.076614834 -0.068831384 0.19317302 0.12391956 -0.20917921 0.27057734 -0.09506606
0.22762974 0.40013292 -0.09524357 0.1671178 -0.28912655 -0.18613975 -0.26655677 0.04232682
0.32956353 -0.37857926 -0.13389815 -0.43757772 -0.12707783 -0.3562431 0.2189876 -0.4754065
-0.01750057 0.31498647 -0.10460807 -0.21367568 -0.2464957 -0.13985239 -0.07026842 -0.23624292
0.3675637 0.19997902 0.31122825 -0.42035118 -0.06883754 0.11790721 0.12322566 0.20270106

fc4.bias f4 [2]
00000000: 2047 65be 69b8 153d
-0.22390413 0.03655282
