Sample_Based_Extension/UNSW/UNSW_Dynamite_Selection_Defense/TRADES/TRADES.pt (torch, 23092 bytes, 8 tensors)

fc1.weight f4 [50, 56]
00000000: 9613 083e d91b b2bd 9f66 113b c371 98bd
00000010: 0dda 05bd 08e1 933c 8e86 babc ad57 e8be
00000020: 0e7f bbbd a975 89be 3c7f 67be f35c 8bbc
00000030: dd3d 96bc 4d0c 913d 35c1 c73b 04d4 99bc
00000040: 71e4 48be a9f3 ecbc 1f66 6fbc a67f b23d
00000050: b786 8bbe b9a2 b43d 5d6a 383e 1ab2 46be
00000060: 0c31 32bd f064 163d 6c4f 503e b595 b63d
00000070: 24b4 b6bd d710 3cbe 4e13 d5bc 6c03 07be
00000080: f572 abbd b981 403a 499d 08be 8482 303d
00000090: f11b 323c a720 963c d910 b6bc c28e aa3d
000000a0: 368a f6be 394a 0f3e 5f1e 03bd 74cc 203a
000000b0: 1e85 a7bc 5d4b 52be 8176 06bd 49b2 753e
000000c0: 4638 31bd ca13 193e b620 d1bc 0af1 54bd
000000d0: 84ca a2bd 6fa8 b13c 9310 c9bd 195c 13bd
000000e0: 0b7b 41be 30ca a6b9 4ed0 003e b9dd a3be
000000f0: 2e3b 453e 466a abbe 51ee 9fbd bb08 4e3e
00000100: f6b1 0d3e b177 32be 0cd5 43be a977 053b
00000110: 35c0 523c de71 b73d 6952 a9be 3138 d6bc
00000120: 1247 263d 4fa5 053d 207b 8a3d ae8f 3ebe
00000130: 8aef 1dbe 63b3 40be 2109 cf3d 6751 303d
00000140: a359 b93c e5cb 263e 7fca 37bb 8a12 abbd
00000150: f2c5 963b d825 02be bd24 bbbd 2abd cf3d
00000160: 822e 23be cecd a73d f0c3 e3bd c3f0 4abd
00000170: df01 1ebe 5a39 d0bd f38d 59bc 7c72 9b3b
00000180: 5909 543d cc69 883b ac3c 41be ca47 2dbe
00000190: 198b 913d f088 973d 758a fe3c e0fa 173d
000001a0: a94c 3ebd ce47 393e d9dc c2bd d4e6 b6bd
000001b0: 327b b13c 51d5 ee3d 929d 1d3d 85a7 fdbd
000001c0: 56e5 cabd 534d 823d b3c1 0e3e b6fb ba3c
000001d0: eb42 ff3c 1731 ae3d ee37 6abd cd1f 613e
000001e0: a4bd 063d f426 cabc 75b4 61bd 8c75 21ba
000001f0: afd4 523a 7b16 f7bc 1fa0 523d 1b17 813d
00000200: 6db3 403d f869 323c afbc 1abd 6a12 4f3c
00000210: 551c 953c fbc2 133d 0e96 a63c d5f6 9bbe
00000220: 8200 afbe fc0f 43bd 5c0b 563e 1b27 d0bd
00000230: 8898 cf3e b217 ba3d dc87 b23d f48a f13c
00000240: 4d40 9f3c 666c eebc 3949 f63d 5a57 963b
00000250: 0910 0f3e a3f3 933b 462d 87bd 5e9a 07bd
00000260: 8ffc a7bd 4c22 c53d e8db 39be 3c22 503d
00000270: 834a 443d 5092 32bf c715 bfbd 683b 0e3e
00000280: b876 ac3d 3fbe 983e 89d8 a6bc dc94 b73a
00000290: 8277 55bd 8526 9dbe cce8 debd 7e90 13bc
000002a0: d6c0 b7be 1842 7b3d aa0b 64bc 36a6 d73d
000002b0: 9928 6dbd 09d9 6dbc cd23 c3bd f21f 67bc
000002c0: 931c 2f3d 5cf3 f13d 9cec 66be d0ad 8eb8
000002d0: c832 033b 411b 003e 86e2 e13d 03fe 74bd
000002e0: f613 f93d e7f9 14bd ace6 4a3d cd9b 943b
000002f0: 0060 d5bd 4819 79bc c182 123e e51d f3be
00000300: 0a59 f53e 40b6 ea3d 488b 1f3c bbe1 31be
00000310: e7ab 573d 7a48 493d 3039 243e c813 96bc
00000320: 3506 86bd 1127 303e 7ba5 d93d c299 78bc
00000330: 59d4 f4bb a7af 023e 6c82 103e aca1 bcbd
00000340: abfd 2fbe c67b 29be 1760 133d 3739 e6bd
00000350: 306e 39bb cc0e 04bf 87a2 7b3e be8d 1ebe
00000360: 9e7d cebd 579f 0dbe d70f 003d e35b 62bc
00000370: b7d3 4b3d d408 2d3e 17d0 4f3d d7e3 ec3d
00000380: e566 f9bd 2d93 9e3e 7ae2 5a3e 1ae4 d9bd
00000390: eb43 0fbd a474 d53e 9143 89bd 57be a03e
000003a0: d859 993c b49b 49bd 64a2 723d b559 213a
000003b0: 03fd 193b a54f bb3d 8249 c5bc 462a f8bc
000003c0: d1c5 b13d 8c86 91bc 58b4 653e 408a 133e
000003d0: e39e 2e3d 2dd9 283e 6fe2 fbbd 39b5 e33e
000003e0: 2586 093f 75ab ef3c ec6d 153e 3aa8 8e3d
000003f0: f807 1c3e e5d7 993c 7917 1b3e 43be 09be
0.13288721 -0.08696718 0.002218641 -0.07443573 -0.032678653 0.01805164 -0.022769239 -0.4537939
-0.09155093 -0.2684758 -0.2260713 -0.017012095 -0.018340046 0.07082424 0.00609603 -0.018777855
-0.19618393 -0.02892478 -0.01461175 0.08715753 -0.27251217 0.088200994 0.18009324 -0.19403878
-0.043503806 0.036717355 0.20342797 0.08915273 -0.08921078 -0.18365799 -0.026010182 -0.13184899
-0.08371536 0.0007343549 -0.1334125 0.04309322 0.01087092 0.018326117 -0.02222483 0.0832801
-0.48152322 0.13993157 -0.032011386 0.00061339815 -0.020449217 -0.20536561 -0.032827858 0.23993792
-0.043266557 0.14948955 -0.025528293 -0.051987685 -0.07948783 0.02168676 -0.098176144 -0.035976503
-0.18894593 -0.0003181263 0.12579462 -0.32005098 0.19260857 -0.33479518 -0.07809127 0.20120518
0.13837418 -0.17428471 -0.1912424 0.0020365512 0.012863209 0.08957265 -0.33070686 -0.026149841
0.04059512 0.032628354 0.067617655 -0.18609497 -0.15423408 -0.1881843 0.10109163 0.04304638
0.02262575 0.16288717 -0.002804428 -0.083531454 0.0046012336 -0.12709749 -0.09137867 0.10143502
-0.1593571 0.08193551 -0.111213565 -0.049546015 -0.15430401 -0.10167189 -0.013278472 0.004743872
0.051766727 0.0041630026 -0.188708 -0.16921917 0.07106609 0.07399166 0.03107188 0.037104487
-0.046459828 0.18093798 -0.095147796 -0.08930746 0.02166519 0.116617806 0.03848035 -0.123854674
-0.099070236 0.06362405 0.13941078 0.022825103 0.031159839 0.08505457 -0.057182245 0.21984787
0.0328957 -0.024676777 -0.055103738 -0.00061591784 0.00080425566 -0.030162087 0.051422235 0.06303235
0.047046114 0.010889523 -0.0377776 0.012638668 0.018201986 0.03607462 0.020335224 -0.30461755
-0.34180075 -0.047622666 0.20902771 -0.10163709 0.4054606 0.09086551 0.08717319 0.029485203
0.01943984 -0.029104423 0.12025685 0.00458805 0.1397096 0.0045151277 -0.06600432 -0.0331062
-0.082024686 0.09625682 -0.18150294 0.0508139 0.047922622 -0.69754505 -0.093303256 0.13889849
0.08421081 0.29832646 -0.020366924 0.0014006156 -0.052115925 -0.3069345 -0.10884246 -0.009006618
-0.3588931 0.06134233 -0.013918797 0.10529749 -0.057900045 -0.014517077 -0.09528313 -0.014106737
0.04275186 0.11813995 -0.22551197 -6.803463e-05 0.0020019282 0.12510397 0.11029534 -0.059812557
0.1216201 -0.036371138 0.049536392 0.0045351745 -0.10418701 -0.015203781 0.14307691 -0.47483745
0.47919494 0.11460543 0.009737797 -0.17371266 0.052654173 0.049141385 0.1603744 -0.01831998
-0.06544153 0.17202403 0.10627266 -0.0151733775 -0.007471603 0.12762319 0.14112252 -0.09210524
-0.1718661 -0.16551122 0.03598031 -0.112413816 -0.0028294437 -0.5158508 0.24573718 -0.15483758
-0.10082553 -0.13830315 0.031265106 -0.013815853 0.049762454 0.16897899 0.05073556 0.115668945
-0.12177829 0.3097166 0.21375456 -0.1063921 -0.03497688 0.41690552 -0.067023404 0.31395218
0.018719599 -0.049220756 0.0592369 0.000615503 0.0023496754 0.0914605 -0.024082903 -0.030293595
0.086803086 -0.017764352 0.22432077 0.14408207 0.042631995 0.16489096 -0.12299048 0.444742
0.53720313 0.029256562 0.14592713 0.069656804 0.15237415 0.018779704 0.15145673 -0.13451485

fc1.bias f4 [50]
00000000: f3c3 33be 4601 53bd 418a 653e b501 29be
00000010: f512 81be 75b1 60bd ad4d 453d 697a 503d
00000020: b1b8 22bd 4636 c6bc ecac 033d 7fe6 ad3d
00000030: 9ebf 153e 6862 753e 436d 52bd 17e7 97bd
00000040: ed32 d63d 3742 6cbe ad12 35bd 329c 0d3e
00000050: e2a7 d5bd 266f 1d3e 5bd4 1f3d ac60 23bd
00000060: a2af b93d 975a c93d b1a1 813d dd9e 53be
00000070: b838 383e 8e89 3f3d 8620 b9bd 4fee 963e
00000080: 70a8 40bd ddba 163d 8e8d 7c3d 676d 0fbe
00000090: 72a8 893d ea9d 26bd 7bb9 8ebd 79ec 913e
000000a0: c965 09bd d532 ff3d 97f2 583e 8f86 7c3d
000000b0: e0c7 1d3e 63d1 363e 5223 003e ae5a b93d
000000c0: eee8 80bc 6d38 e73d
-0.17555217 -0.051514886 0.22416021 -0.16504557 -0.25209776 -0.054856736 0.04816978 0.05089799
-0.039726917 -0.024195801 0.032147333 0.08491229 0.14623877 0.2396332 -0.05137373 -0.07417124
0.10458932 -0.23072134 -0.044207264 0.13829115 -0.10432412 0.15374431 0.039020877 -0.039887115
0.090667024 0.09831732 0.06329668 -0.2066607 0.17990386 0.04676204 -0.090394065 0.2947869
-0.047035635 0.0367993 0.061658435 -0.14006577 0.067215815 -0.040677942 -0.06968971 0.28500727
-0.033544336 0.12460867 0.2118629 0.061651763 0.15408278 0.17853312 0.12513474 0.09050499
-0.01573607 0.11290059

fc2.weight f4 [30, 50]
00000000: 5db2 67be 14d1 a7be e12c ea3e 1388 08bf
00000010: 8d7f 54bf a0c6 79bd a41b 11bf ef6f bbbe
00000020: bdb5 cdbd 33fa 3cbd 9126 5d3d 1db1 db3d
00000030: 8c1e 2a3e d85b abbd 6d0c 943d 5450 463c
00000040: 44e7 febc df12 f0bd 62ad 0ebd 4d2f cf3e
00000050: df18 59be 01ae 4abe c943 a23e b5ca c1bc
00000060: 76ac cb3d ac30 f8bd 9a24 c0bd 35e2 dabd
00000070: ce8b 5e3f f4aa 193e c925 5cbd a509 083f
00000080: b3b7 863e 86d2 c2bc 561a 39bd 2f93 3b3c
00000090: a18d 4dbe 7f0e 02bd 086b a7be 8e17 3a3e
000000a0: a04f 493d c35c 2fbc 9bba af3d 71ef 243e
000000b0: 8905 db3d 22d7 1c3e 715d 6dbd d837 013d
000000c0: 944d 8bbe e813 e23d 0f02 f6bd b7fe babd
000000d0: 766e 83bd 9e36 c7bc e139 3fbb 2b5b 093e
000000e0: 8792 b03e 2f9b 093e afe9 0fbd 0461 1dbd
000000f0: ef76 483e fb48 3cbe 19ac 1f3e 320b ab3d
00000100: 61df 37bc 2180 733e d0c5 16be a330 db3c
00000110: d089 dcbd d094 b9be 4c1e af3e b54b 353e
00000120: 9e19 4abd 22aa cb3d 1050 1a3e 07b4 4ebe
00000130: fcf7 3c3e 6c12 383f 7633 073e 66e5 253e
00000140: de37 f0bc b4f3 f83d bc75 673d 8bf7 413e
00000150: 1675 533c 6d2e 84be 2524 45be 4a38 ecbd
00000160: 0472 fabe bacd b23d 934d 5b3e 421b 523e
00000170: 9357 2e3e 4789 2e3e 08d4 a43c da5f eebd
00000180: 53fd 08be 66dc d93d 9cf6 393e 5072 9d3e
00000190: af80 203d f361 373e 8a9f 3a3f 4b5e c9be
000001a0: f6f8 01bf 1eb5 7cbe 20db 5abe 0367 69bd
000001b0: 12b3 adbe 91db 91bc 2403 4ebd 235a 3c3e
000001c0: 8f57 5d3e 8553 213d 9022 903d 9c1c 7bbd
000001d0: c4a8 e13d 834c d4be 4194 233e 0f2c cf3e
000001e0: 4e28 c0be ff47 97bd 6c14 f53d 48e4 24be
000001f0: 35a6 633e 84bb 74be 2978 633d 7768 9abe
00000200: 7992 b33e 4539 aabd 86ba e1bc d277 103e
00000210: 520a ee37 d34f e1bd 03fb 3e3e e4be 15be
00000220: 1855 f9bd 1007 433e bd96 10bd eba7 5d3d
00000230: 0091 103e cceb 063e 6b29 ab3d 7c4d 5f3e
00000240: 090c 9f3d aa1c a23b e311 8d3d 5df7 a63d
00000250: 948d dabe b796 2dbe 0353 0dbe b347 5abd
00000260: 4525 12be 29eb 0ebe e77e cf3d 368e 143e
00000270: 873f 0c3e bafe a4bd 795b 473e eede 3e3e
00000280: 2fa7 9b3d 2cf5 8e3b 9bba 6d3e c16f 363e
00000290: 6d08 843d 08e6 133e ca13 14bd 38c5 893d
000002a0: cd10 de3d 7f94 36be 158d 2abd 9108 40bd
000002b0: 7ba8 81be 52f8 d3bd ef1d 743d 96bd 7f3d
000002c0: 5eb0 1a3d 47f6 ff3e 209f 08be 07eb 8d3d
000002d0: f214 9bbd 025c 273e a0bd f3bd c92b 84bc
000002e0: a438 a0bc 09f9 7cbe d3a1 d2bd 457b d23d
000002f0: e01d 2a3d 9e02 0a3e 8683 6f3e d81f e23d
00000300: 2e0b c53d ff16 ba3c f57a f3bb f802 953d
00000310: 00a7 123e acef 413e 86ff 883d 61e1 553e
00000320: eba3 e23d fc0d 163e a95b 3a3d 9616 213d
00000330: 3d53 963d e24f d13d c9d6 383e c677 fc3d
00000340: cd2c 2d3e d5e0 803d 147f c83c 5cba 8f3c
00000350: 2292 233e 5246 313e e144 4cbd eaf3 22bb
00000360: 09fb 99bd 8b00 cd3d 3059 fe3d 3cf2 a7be
00000370: 9b8a a73d f9c0 f63d bc91 80be 529a aabb
00000380: 80c2 ef3c 79b4 ec3c 34d3 4d3e 86ff f83e
00000390: fad2 a9bd a46f a73d da8a 83bb 1c1f c83d
000003a0: f3ed 85be 166a 993d f022 12be 613d 41be
000003b0: d833 46be 6ca6 a43d 2514 22be b039 763e
000003c0: bb41 393e b3e7 043e f7e5 4c3e 2e8a 053e
000003d0: a2ce e03c b488 0fbe b272 4c3d 392c 7a3c
000003e0: 6f89 96bd e94c 8e3e c616 433e 5be8 1f3c
000003f0: 714f 363f a684 10bf 119c e2be 0e1a 62be
-0.22626634 -0.327767 0.45737365 -0.5333263 -0.8300713 -0.06098044 -0.566828 -0.36608836
-0.100444295 -0.046137046 0.053991858 0.10727141 0.16613215 -0.08367127 0.072289325 0.012104113
-0.031116135 -0.117223494 -0.03483332 0.40465775 -0.21200894 -0.1979294 0.3169234 -0.023656229
0.09945004 -0.121186584 -0.09381981 -0.10687677 0.86932075 0.1500662 -0.053746972 0.53139716
0.26312026 -0.023782026 -0.04519113 0.0114486655 -0.20073558 -0.031752106 -0.32698846 0.18173048
0.049148202 -0.010703268 0.08580514 0.16106965 0.10694415 0.15316442 -0.05795044 0.031547397
-0.27207625 0.11038953 -0.120121114 -0.09130614 -0.06417553 -0.024318036 -0.0029178786 0.13413684
0.34486791 0.13438104 -0.035134967 -0.0384226 0.1957662 -0.18387215 0.15592994 0.08351745
-0.011222691 0.23779346 -0.14723897 0.02675659 -0.10768473 -0.36246347 0.34202802 0.17704661
-0.049340837 0.0994456 0.15069604 -0.20185862 0.18453974 0.7190311 0.13203225 0.1620079
-0.029323515 0.12155858 0.056508765 0.18942086 0.012906333 -0.2581667 -0.1925207 -0.11534174
-0.48915112 0.087306455 0.21416311 0.2051821 0.17025594 0.17044555 0.020120636 -0.11639376
-0.13377886 0.10637741 0.1816048 0.30751276 0.039185222 0.17908458 0.7289969 -0.39329752
-0.5077051 -0.24678466 -0.21372652 -0.056983005 -0.33925682 -0.017804893 -0.050295964 0.1839376
0.21615432 0.03938629 0.07037842 -0.06130658 0.110185176 -0.41464624 0.15974523 0.40463302
-0.3753075 -0.07386779 0.11966786 -0.16102707 0.22231372 -0.23899657 0.055534516 -0.30157825
0.35072687 -0.083117045 -0.027554762 0.14108208 2.8376617e-05 -0.110015534 0.18650441 -0.146236
-0.121744335 0.19045663 -0.035300005 0.054115217 0.14117813 0.13175887 0.08357509 0.21806902
0.077659674 0.0049472647 0.06888177 0.081526496 -0.4268614 -0.16952024 -0.13801198 -0.053291034
-0.1427203 -0.13956894 0.101316266 0.14507374 0.13696109 -0.08056398 0.19468488 0.18639728
0.07600247 0.004362723 0.23215716 0.17816068 0.064469196 0.14443219 -0.036151685 0.067270696
0.10843048 -0.17830084 -0.041638453 -0.04688317 -0.25323853 -0.10350098 0.05959886 0.062436663
0.037765853 0.49992582 -0.13341951 0.069295935 -0.075723544 0.16343692 -0.119014025 -0.01613416
-0.019558258 -0.24704374 -0.10284772 0.10277418 0.041532397 0.13477561 0.23390016 0.1104123
0.09621273 0.022716044 -0.007430429 0.07275957 0.14321518 0.18939084 0.06689362 0.20886756
0.11066421 0.14653772 0.04549757 0.03932818 0.07340095 0.102203146 0.18050684 0.123275325
0.16911621 0.06292883 0.024474658 0.017544918 0.15973714 0.17311981 -0.049870376 -0.0024864622
-0.07518584 0.10009869 0.12419355 -0.32801998 0.08180734 0.12048525 -0.25111187 -0.0052063847
0.02926755 0.02889465 0.20100099 0.4863245 -0.08292194 0.08175591 -0.004014355 0.09771559
-0.26158103 0.074909374 -0.1427114 -0.1887107 -0.19355714 0.08039555 -0.15827997 0.24045444
0.1809148 0.12979011 0.200096 0.13040993 0.02744228 -0.14016992 0.04991407 0.015269333
-0.07350432 0.27793053 0.19051656 0.009759988 0.7121497 -0.56452405 -0.44259694 -0.22080252

fc2.bias f4 [30]
00000000: a336 2b3e 65b1 ea3c 1208 82bd 631b ff3c
00000010: c70a 283e 3421 ec3d 6a7a 023e 4b9e 73ba
00000020: 2c38 2c3e 4898 a53e e15b 29bd 23e8 f8bd
00000030: e092 183e 0aba 88b9 fcb0 f9bd 5e2a 823d
00000040: de58 143e f86a 1e3e b327 d63d f2d0 f1bb
00000050: c4d5 cc3d 9b49 e6bd 1f26 a9bd 5a4e eebd
00000060: b849 bcba 64e3 8b3d b4b2 e33d 5ea3 543d
00000070: f302 1d3d 0126 013e
0.16720061 0.028649041 -0.063491955 0.031140989 0.16410361 0.115297705 0.1274201 -0.0009293302
0.16818303 0.32342744 -0.04134739 -0.121536516 0.14899778 -0.0002607855 -0.1219196 0.06355737
0.14487025 0.15470493 0.10456791 -0.0073796446 0.1000171 -0.11244508 -0.08259224 -0.11636038
-0.0014365232 0.06830481 0.11118069 0.05191361 0.03833289 0.12612154

fc3.weight f4 [20, 30]
00000000: c924 2abf 4834 c83d 53c0 023d d92c 543e
00000010: b118 953d 9b9b 89bd a9e6 b03d 15b6 02bf
00000020: a38d 45bf fccd 4cbe fd5f f5bd 01c4 fa3b
00000030: f94b e1bd 5c42 a3be 0b5e 36be b2e0 dcbe
00000040: 6be6 3ebe 5489 d6be 905c a93d d7b3 ee3b
00000050: 0900 a7bd 2565 033f 8782 463d 464e 813e
00000060: d1b7 27be 9030 12be 20d8 69be 9471 3d3e
00000070: 079b f83d 2e8d 14bf bc4b 0e3f 4d35 813e
00000080: 4891 3f3e 0a7f cd3d f959 f8bd a2ba 903d
00000090: 9ed6 25bb a5ad bebc c062 5bbe 68d1 36be
000000a0: 7b83 b83d ea3c dcbb b0d3 c6bc b843 163c
000000b0: 163c 4a3d 3dec a5bc 726b 273e 4b5c ef3d
000000c0: b61e 44be 0f84 053d a31b 06be 93b0 a93e
000000d0: 991d 21be 7e3b a1be d749 19be e313 e53d
000000e0: 76b1 3cbd 5023 123e c663 f33c 744b f63d
000000f0: 9c40 0cbf 66f8 653e 50e2 3c3e 35f0 fdbd
00000100: b420 373e 6ad5 5c3e 8f1a 6d3e 819e 08be
00000110: b4e8 b13e cfad 18be 16c2 073e e3e2 0c3e
00000120: 3642 293e 927b a53b 2244 b73d c391 f7be
00000130: 9354 9abe 5f32 5ebd 2287 49bd ba44 20be
00000140: ead6 603e 8ad6 7e3d d8d5 f0be d4e5 133f
00000150: 79fd c2be a4bc 603d dcf3 d7be 4fff 283e
00000160: a3fa fb3d 3ae6 f8be 1109 1a3f 4607 423c
00000170: b6a2 883e 4ffa efbd 29c3 7d3c bb96 d43e
00000180: c134 58bd e06c e4bd dab0 7b3e 061b df3d
00000190: 09b9 983d eebe a23b 654f 2bbf 207a 0c3e
000001a0: 32d7 10be f317 603e dbc4 69bb 6249 273e
000001b0: 4b3a 803e 9422 583e 1113 453d cc6f 05be
000001c0: 9f39 f2be 2883 66be 4a84 35bb dc44 cabd
000001d0: 40d9 923d fa8c 1d3e 2230 35bd d1ea 033e
000001e0: cb59 c6be 818a 333e 9264 0f3c def2 673d
000001f0: 84eb a73d 98b9 b8bd f1c7 053e 2a65 fd3c
00000200: 8a3d 9ebe 798a 72bd 2da7 17bd 4794 193e
00000210: df8b 48be b997 a63d d9b6 39be 4bc7 0d3e
00000220: c797 c83d 366a 2a3c 40d6 af3c c59f d7bd
00000230: cb3c 8bbd 9667 a63e ff40 16be bab5 0cbe
00000240: 4f97 033e eb0b 76be 7b23 7cbc 0ad5 553d
00000250: 367a d83d e5d4 f1bd 48d2 163f 7f5c 20be
00000260: dd21 353e 2bee 173c 866a df3c 5503 b43e
00000270: c2e9 723d f84e 2ebe a381 543e 9649 593d
00000280: 58fe 7e3e 4983 babc 1945 1cbf 96e8 473e
00000290: fe57 083e 23f8 9a3d 3381 90bd c32f 7f3d
000002a0: a26f 893e 64dd 183e fb8c 043e 2835 9ebe
000002b0: f854 bebe 8b28 3cbe ec31 8d3d be37 df3d
000002c0: 166c 563e 89c4 0cbe d757 e4bc 1c62 893e
000002d0: cc14 21bf f96d ba3e 9f20 6dbd 3ace 693e
000002e0: 4616 743e 98c0 c7be d545 0a3e 9c59 933e
000002f0: 394e 2fbc 95a9 a23e 1ffa 913d 1bcd 633d
00000300: 3a4e 1d3f a83c 8dbe 246c 8fbd 6563 8a3d
00000310: 9f25 343e 20bc 9dbd e43a 7cbe edfe 79be
00000320: 6e47 4b3e 84f6 3a3e 2950 e93e 7409 083e
00000330: 1f63 0cbe b1f1 743e 8024 25be 5349 b93d
00000340: 4058 8a3e fc0c 913d c145 29be 839e 72bb
00000350: 199e 5c3e 74c1 2ebe 7eab 60be 8e31 bdbe
00000360: 04f1 583e bbe3 e2be 8a8d 133d de42 7fbe
00000370: 0fc3 00bd 9b05 00be 0c0e 623e 842d 3d3d
00000380: aaee 9a3d f39f ce39 f5a0 83be 56f9 3fbd
00000390: b655 cd3d 3ba2 febe bb8b b7bd 2355 bf3e
000003a0: 43a9 203e f6cb ac3e f7f5 23be 0f4d 4abd
000003b0: 47a9 e13d f122 a43d 7f01 95bd 4d3e f0bd
000003c0: 499b 2dbf 863b 80be e666 333e 5cec 85bd
000003d0: 6b03 ddbc ff59 3f3e 40d9 573e 9611 d4be
000003e0: 302c 03be 071a 32bd 192e 9c3d 2e2e 8cbd
000003f0: e296 c7bd 69f4 773e 7221 ce3d c97c 903d
-0.6646238 0.09775597 0.031921696 0.20720233 0.072801 -0.067191325 0.08637745 -0.51059085
-0.77169245 -0.20000452 -0.11981199 0.00765276 -0.11000819 -0.31886566 -0.17809312 -0.4314018
-0.18642585 -0.41901648 0.08269608 0.007284622 -0.081543036 0.5132621 0.048464324 0.2525503
-0.16378714 -0.14276338 -0.22836351 0.18500358 0.12138944 -0.58027923 0.5558431 0.25235978
0.18707764 0.100339964 -0.12126536 0.070668474 -0.0025304924 -0.02327616 -0.21424389 -0.1785332
0.09009453 -0.0067211287 -0.024270862 0.009171419 0.04937371 -0.020254249 0.16349581 0.11687525
-0.1915234 0.032596644 -0.1309648 0.33142528 -0.15733947 -0.314907 -0.14969574 0.11185434
-0.046067677 0.14271283 0.029710662 0.1202611 -0.54786086 0.22458038 0.18445706 -0.123993315
0.17883569 0.21565786 0.23154663 -0.13341714 0.3474785 -0.14910053 0.13257632 0.13758425
0.16529164 0.005050131 0.08948542 -0.48353395 -0.3014265 -0.054247256 -0.04920114 -0.15651217
0.21956983 0.06221632 -0.4703815 0.57772565 -0.3808401 0.0548674 -0.42178237 0.16503642
0.123036645 -0.4861315 0.60170084 0.011842554 0.2668664 -0.117176645 0.015488424 0.41521248
-0.052784685 -0.11153579 0.24579182 0.10893826 0.07457168 0.0049666082 -0.6691802 0.13718462
-0.1414459 0.21884136 -0.0035670314 0.16336587 0.25044474 0.2110694 0.048113886 -0.13030928
-0.47309586 -0.2251097 -0.0027697259 -0.09876415 0.071703434 0.1538581 -0.044235356 0.12882544
-0.38740382 0.17533304 0.008752005 0.0566281 0.08199218 -0.09019774 0.13064553 0.030932028
-0.30906326 -0.05921409 -0.037024666 0.1499797 -0.19584607 0.081344076 -0.18136157 0.13845555
0.09794574 0.010401299 0.021464467 -0.105285205 -0.06798705 0.32500905 -0.14673232 -0.13741198
0.12850688 -0.24027984 -0.015389319 0.052205123 0.10570185 -0.118081845 0.58914614 -0.15660284
0.17688699 0.009273092 0.027272474 0.35158792 0.05930496 -0.17022312 0.20752577 0.053048693
0.24901712 -0.02276768 -0.61042935 0.19522318 0.13314816 0.075668596 -0.07055893 0.06230141
0.26842982 0.14928204 0.12944405 -0.3089993 -0.371742 -0.18374841 0.068942875 0.10899304
0.20939669 -0.13746847 -0.027873917 0.26832664 -0.6292236 0.36412027 -0.057892438 0.22832575
0.23836622 -0.39014125 0.13503201 0.28779304 -0.010699802 0.31770006 0.07127785 0.055615526
0.6144749 -0.2758534 -0.07003048 0.06757239 0.17592476 -0.077018976 -0.2463184 -0.24413653
0.19851467 0.18258101 0.4556897 0.13284856 -0.13709687 0.23920323 -0.16127205 0.090471886
0.27020454 0.07082555 -0.16530515 -0.003702075 0.21544684 -0.17065984 -0.21940419 -0.3695187
0.2118569 -0.4431437 0.036023654 -0.24927852 -0.031436022 -0.12502138 0.22075671 0.046185985
0.07565053 0.00039410553 -0.25708738 -0.046868645 0.10026114 -0.49733147 -0.08962198 0.37369642
0.15689568 0.3374936 -0.16011797 -0.049389895 0.11018615 0.08014477 -0.07275676 -0.11730633
-0.6781507 -0.25045413 0.17519721 -0.065392226 -0.026979169 0.18686675 0.21078968 -0.41419667
-0.12809825 -0.043481853 0.0762598 -0.068447456 -0.097455755 0.24214329 0.10064973 0.07055051

fc3.bias f4 [20]
00000000: beb9 6ebe 567d 54bc ab0d 94be 2019 d93d
00000010: ad28 09be 1d17 443e 09b7 463c 62ad 7b3c
00000020: 1226 22be a448 46bd 61e3 ef3c 4504 113e
00000030: 7a2d b63d 8067 c53d fa7d 753e 22e8 383e
00000040: 64de ebbd 5a1c 693e ba5b 253e cedc 35bd
-0.23313043 -0.012969336 -0.28916678 0.10600495 -0.13394423 0.19149442 0.0121286 0.015361162
-0.15834835 -0.04840912 0.029283227 0.14161785 0.08895393 0.09638882 0.23973837 0.18057302
-0.11517027 0.22764722 0.16148272 -0.04440003

fc4.weight f4 [2, 20]
00000000: f4ca e83e 8430 363e 85aa 6e3f 23c5 a53e
00000010: ad85 7d3d 400e a93e 17a9 f1bc 8fbe 853e
00000020: 1437 01bf 6780 a83e ee72 b03e ce55 ba3e
00000030: 4c97 bf3e 6365 aebe 54c3 74be 56bc 82be
00000040: 1989 c1be 9397 a1be 637d bbbe 5694 ae3d
00000050: ea17 07bf 029f fdbd 653a 05bf 797f 55be
00000060: ff96 f4bd 02ab c3bd 57a9 c23e cb7e e7be
00000070: 13c6 223f df8e 2dbe 1534 d1bd ad2b c3be
00000080: 3b99 aebe e4af 293e 0071 913e 49e4 ac3e
00000090: 20bc 133f a291 2d3e 1800 403e 1785 393d
0.4546734 0.17791945 0.9322894 0.32376966 0.06189506 0.33018684 -0.029499574 0.26121947
-0.5047467 0.32910463 0.34462684 0.3639359 0.37420118 -0.34061727 -0.23902637 -0.25534314
-0.3779991 -0.31560954 -0.366191 0.085243866 -0.52770865 -0.12383844 -0.5204223 -0.20849408
-0.11942863 -0.095541015 0.3801982 -0.45213923 0.6358349 -0.16949032 -0.10215012 -0.3811926
-0.3410128 0.16571003 0.28406525 0.33767918 0.5770893 0.16950086 0.18750036 0.04529294

fc4.bias f4 [2]
00000000: c1e5 1c3e ae46 f13d
0.15322019 0.11781059
