Sample_Based_Extension/UNSW/UNSW_Dynamite_Selection_Defense/preprocessor/dnn_pytorch_FeatureSqueezing.pt (torch, 23612 bytes, 8 tensors)

fc1.weight f4 [50, 56]
00000000: 9f70 de3d 2f79 a13d ef85 f93d 8788 693e
00000010: 7e24 e23d 5aba b83d a205 9a3c efe4 c63e
00000020: 8b2a 4dbe a7db 6b3e 0f9a 123f 9188 193e
00000030: a353 3e3e 41b2 b2bc 9cb7 3d3e 28cf cf3d
00000040: 2552 19be 4db9 ae3b 28ef a4bd c972 c63d
00000050: db9c 493e e470 28be bc1d c13c fa50 efbe
00000060: ba84 833d c9ee 02be 2981 0d3e e801 2dbe
00000070: 3e52 c83e 2c1e 2a3c b8fa c6bd 7b04 cd3c
00000080: cc60 2cbe 89ad d6bc 06b8 d13d 98bb ca3d
00000090: 3fc5 1f3e 3065 3e3e 9a0b a13d 33ad 813d
000000a0: a88d f43d 518a b33e 6213 e23c 1a35 a2be
000000b0: dff3 7a3e 4234 2dbf b157 6b3e 3332 363e
000000c0: f93c 90bd 7397 6abc a3c3 21bd 7b2e 683d
000000d0: 00b0 64bd a010 5e3e 2d9a 273e a36d 2f3e
000000e0: 58a5 04bf 1138 e83e 1247 603f 0d15 453e
000000f0: c325 5ebe 61d7 903f 4b10 46bc 103f 5c3f
00000100: 2b8f 123f 4e79 d2bd d7be 833f f0aa ff3e
00000110: e275 6b3e 126f 933d c381 063e 135b 99be
00000120: 61ad 3b3f b76e cbbc 0b18 87be 800e 7cbd
00000130: 1b1d 82bd eed6 a2bd df4c ee3c e11f 33be
00000140: b7ac bb3b a83d dfbd bdab 83be 6c40 3a3d
00000150: c0d0 403d 3cd9 b9bd cacb b43d 4a3e d13d
00000160: ab72 14be 33c5 6a3e 4ec6 e7bc b858 933d
00000170: 879b 4a3e a638 54bd dd80 0fbd e50c 7a3d
00000180: f500 f53d 1f82 94be 5024 e8bd c5cc 1e3c
00000190: f275 153e 78ae a83e 45a0 4ebf e952 16bc
000001a0: 648d 813d cb87 c2bd 49b4 0bbe 2a94 82bc
000001b0: 769d a8bd 8481 a0be 2296 823e 0433 463e
000001c0: b038 c7be b408 9fbe 771d 913e 8dd5 e2bb
000001d0: 1490 13be 1a7b b03e bea9 70bd 57c5 263e
000001e0: f61d bcbd 15be a43c 142c 2e3e 0db6 5dbe
000001f0: f403 8b3e 9a6b fc3d 4e44 f13d 840f bfbd
00000200: 1f6f 0c3d ad43 3ebe 3a48 f7bd d58e e53c
00000210: 8f1e 913d d56e 7abd 1b85 4cbc 0db2 4e3e
00000220: 738b e23c ce78 b4bd f471 20bd 0cfc 3fbe
00000230: 737c 1dbe eba8 6bbc f841 13be c666 f53c
00000240: d985 c03d 73a3 0dbe 36fc dc3d bba6 44bd
00000250: 4045 053e e565 20be 3725 f83c 672b 613d
00000260: 6534 213d bc5c c13d b198 4b3e 6f12 87bd
00000270: 3565 083d 1a60 453d bae5 aa3d b1b5 773e
00000280: 71af 273e 968f 1ebf 314e 22bd 2835 493c
00000290: 72ca ed3d 66d4 c0bd 46c2 1c3f 1908 16bd
000002a0: 97e3 9d3b 3dac 043f 41e6 58be c5f1 613d
000002b0: 564a d4bc ca55 66be 2134 423d 4c8d 90be
000002c0: e06b 4c3d fce7 90be 96fc 03bf ceaa d63e
000002d0: e6c2 81be c4d6 abbe 5791 f7bc bb48 1ebd
000002e0: a981 543f 31be 69be ac13 223e 9775 f0bd
000002f0: fdbe 263d 0a38 eabd fe1c b6bd ba32 b0bd
00000300: 725e 6dbe 51f4 39bd 6419 da3d 3469 38bd
00000310: 8b2b 643e b827 22bd e649 2dbc 226e e2bd
00000320: bc57 16be a772 bcbd 6ff1 30bd 5955 71bd
00000330: a5e7 343d 3b45 b5bc a373 6abd 72c1 ddbc
00000340: 7424 49bf 670e c33e e5e7 e9bc 0b59 b9be
00000350: dcc6 20be 894f bebe 1ecd 24bd 772c 94bd
00000360: 58e9 69be 322f 203e 642e 26be f785 eb3c
00000370: da43 51be 95b6 35be e8bb 2fbe 8fd8 853d
00000380: 3bfb 94be a341 023f e88a a8be a8fc b23d
00000390: 5237 f7be 41c4 5f3d 270c d93c 47cc b2be
000003a0: eecb 083e a8b7 51bc 35bd 893e 5297 c7bc
000003b0: d0c5 33be eaab a13e 60c8 573c ab48 10bf
000003c0: 304f 453f 7e8c 25bb 3f93 aa3d 3630 01be
000003d0: baa5 40be d61b 83be d3c1 76bd 4b8a 46be
000003e0: f5a3 0cbe 2fa5 57be 91c8 03be fd0c d53d
000003f0: 4b90 70be 864e 77bd 8d21 5ebc b76e 503d
0.108613245 0.07884442 0.12183749 0.22805987 0.110421166 0.09019919 0.018801514 0.38846537
-0.2003576 0.2303301 0.57266325 0.14993502 0.18586592 -0.021813514 0.18527073 0.10146934
-0.14972742 0.005332148 -0.08053428 0.09689862 0.19688742 -0.16449314 0.023573749 -0.46741468
0.064218 -0.12786402 0.13818802 -0.16895258 0.39125246 0.01038317 -0.097157896 0.02502655
-0.168338 -0.026205795 0.10240178 0.09899062 0.15602587 0.18593287 0.07863541 0.06331863
0.11941081 0.35066465 0.027597133 -0.31681138 0.24507092 -0.67657864 0.2298267 0.17792587
-0.070428796 -0.014318335 -0.039493214 0.056684952 -0.05583191 0.2168603 0.16367407 0.17131667
-0.51814795 0.45355275 0.87608445 0.19246311 -0.21694092 1.1315728 -0.0120888455 0.86033726
0.57249707 -0.10277043 1.0292615 0.49935102 0.22994187 0.07198919 0.13135438 -0.29952297
0.7331143 -0.024833066 -0.2638553 -0.061537266 -0.06353208 -0.07951151 0.02908939 -0.1749263
0.0057273763 -0.10900432 -0.25716963 0.045471594 0.04707408 -0.09074637 0.08827932 0.10216959
-0.14496867 0.22926788 -0.028292801 0.07194656 0.19785891 -0.051811837 -0.035035003 0.061047453
0.11963073 -0.29005525 -0.11335051 0.009692376 0.14595774 0.3294561 -0.807133 -0.009175041
0.06325796 -0.09498557 -0.13642992 -0.01593979 -0.08233158 -0.31348813 0.25505167 0.19355398
-0.38910437 -0.31061327 0.28342792 -0.00692243 -0.1441043 0.3446892 -0.05875563 0.16286217
-0.09185402 0.02011017 0.17009002 -0.21651478 0.27151453 0.12325211 0.11780606 -0.09329131
0.03428566 -0.18580504 -0.12074323 0.02802221 0.07085907 -0.061140854 -0.012482907 0.20185108
0.027654385 -0.08812104 -0.039171174 -0.18748492 -0.15379505 -0.014383535 -0.14380634 0.029956233
0.094005294 -0.13831882 0.10790293 -0.04801057 0.13014698 -0.1566387 0.030291183 0.054973032
0.039356608 0.09441516 0.19882466 -0.06595313 0.033299644 0.048187353 0.08344598 0.24190404
0.1637552 -0.61937845 -0.03962535 0.01228074 0.11610879 -0.09415512 0.6123394 -0.036628816
0.0048183906 0.51825315 -0.21181585 0.05516221 -0.025914352 -0.22493663 0.047412995 -0.282328
0.049907565 -0.2830199 -0.5155729 0.4192719 -0.25344008 -0.3356229 -0.03022067 -0.03864358
0.83010346 -0.22826459 0.15827817 -0.117411785 0.040709484 -0.1143647 -0.088922486 -0.08603425
-0.2318056 -0.045399014 0.10649374 -0.045022205 0.22282235 -0.03958866 -0.010576701 -0.110561624
-0.14681906 -0.09201556 -0.043199 -0.058919284 0.044166226 -0.022127738 -0.057239186 -0.027069781
-0.7857125 0.38096926 -0.028552959 -0.36200747 -0.15700859 -0.37170056 -0.040234677 -0.072350435
-0.2284292 0.15643004 -0.16228634 0.028750403 -0.2043604 -0.17745431 -0.17161524 0.06535446
-0.29097924 0.50881404 -0.32918477 0.087395966 -0.48284394 0.05463052 0.026495053 -0.34921476
0.13359043 -0.012800135 0.26902166 -0.024364147 -0.17555928 0.31576473 0.013170332 -0.5636088
0.77073956 -0.0025260742 0.08328866 -0.12616047 -0.1881322 -0.25607175 -0.06024344 -0.19388692
-0.1373442 -0.21059106 -0.12869479 0.10402868 -0.23492543 -0.06037762 -0.013557804 0.050886836

fc1.bias f4 [50]
00000000: 69ff db3d e17e 72bd 2183 473d 7412 6a3d
00000010: 8bf9 90bd f498 05be e78a 9e3d 5d58 08bc
00000020: 0643 0fbe 24f2 963b cbdd 89bd 57ac 15be
00000030: c283 dfbd fb1e 69be 62de 1c3c a6ad 533e
00000040: 7cf4 97bc 1632 0f3d 8845 f93d 77ca 8b3d
00000050: 18c8 ed3c 5630 a83d 4d11 c3bd 59c7 26be
00000060: 6b98 08be 147f fc3b 97ca e83d 1ed0 1b3e
00000070: 87e3 753d 8c73 453c a22e 08be 5a7f 77bc
00000080: 3870 c8bd 20b3 d83c f9f4 f6bc 6fec 3c3d
00000090: 3563 d73d 29d2 21bd 45a5 d93d 628d e6bd
000000a0: ca10 9b3d cdd0 e1bd 25aa b6bd 3530 d73d
000000b0: 3122 7a3d 0a0c 7dbc 5dfb 00bc 2fcd 7ebc
000000c0: cab3 043e 1de7 603a
0.10742075 -0.059203032 0.04870904 0.057146505 -0.070788465 -0.13046628 0.07741337 -0.008321849
-0.13990411 0.004606502 -0.06731757 -0.14616524 -0.10913803 -0.22765724 0.009574505 0.2067171
-0.018549196 0.034959875 0.12171465 0.068257265 0.029026076 0.08212344 -0.09524784 -0.16286983
-0.13339393 0.0077055786 0.11366766 0.15216109 0.06003144 0.012051474 -0.13299039 -0.015106047
-0.09787029 0.026452601 -0.030146109 0.04612392 0.10516969 -0.039507065 0.10627226 -0.112574354
0.07571562 -0.11026154 -0.08919171 0.10507242 0.061067764 -0.015444765 -0.00787243 -0.015551849
0.12959209 0.00085793604

fc2.weight f4 [30, 50]
00000000: 955a 4abe 15f8 443e db78 48be 2295 8b3e
00000010: 4725 c23c 7137 b9be f844 453e 2dd3 9e3e
00000020: 9b27 753d f133 93bc 49ce 093b de49 69bd
00000030: 05a6 d13d 7e3b 16be 9b33 89bd c4c8 b6be
00000040: 9a07 26be e861 373e 8c57 0b3e df40 043e
00000050: 20f8 bbbe cd0d 7e3d bf89 533e 14e6 803d
00000060: cf6f 2c3e 3dfb a7be 18f0 12bd 5243 da3c
00000070: 2678 8b3e 7671 19be 4f1f 2d3e d254 a83e
00000080: bf8a 33be 132c 823e 2c34 22be 0a74 d3bc
00000090: 2a20 293e 1662 7ebe d5cf 1fbd bc3c a2be
000000a0: 898c eabd 2280 563e 4406 973b 9073 763e
000000b0: 1242 35be f703 92be fd99 ee3d 041e 1e3e
000000c0: 287d 913c bb03 b8be 95b8 2cbe 2971 b7be
000000d0: 51d5 61be 20da 003d 2201 dabc 4380 173d
000000e0: 13dd a23e 586c 84bc 8fd5 d9bd c8de c6be
000000f0: e8f1 033d ae7f 11be 4c5a 11bf 046f 0e3f
00000100: 5d5b 203d 2e98 b7bd 2c0d 863d 0b1f bdbe
00000110: 9be8 c03d a218 543c e559 7cbe 77ab 3fbe
00000120: 675c 8c3e c008 19be a9e9 00be d9ff d5bd
00000130: 6a06 973d 935f 1abd ad82 9ebe f100 e6be
00000140: 0160 82be e5d2 88be c4d0 34be 0cfb f43d
00000150: ae47 e4be 943e bebc c8ed 133b 3cf7 b23d
00000160: 4704 91bb ea10 433e d89e 04bf d40a d93d
00000170: 298c 71b8 ed2e aebe 05ed 2cbd 685b 87bc
00000180: 8588 6b3e 62f8 043e 83f7 303d f1a2 6b3e
00000190: 8092 a1bc b8b0 9a3d deca 253e 1ff9 0bbe
000001a0: 7f0e 103e ec84 0d3d d634 32bd 16e4 68be
000001b0: 28fb 113e 3055 013e 96c2 cc3d 229b 383e
000001c0: ec1f 873e 34ff b33c e74c cdbd cf5d 213e
000001d0: 1b0b ce3d 89f2 7ebe 218c 3b3e 9966 edbc
000001e0: f920 893e de3f 883c 577e 26bd e870 6a3d
000001f0: f1d4 25be c40f 763d 36e5 733e 2a39 8dbd
00000200: e1d0 3abe e970 b33c ec28 0ebd 136c 90bd
00000210: 544e c23e 3343 e3be 5b9f f33d 8e55 a4bd
00000220: 365c b03d 8e4c 20bd ca21 2ebe c999 ef3e
00000230: 41fa b43e 8721 65bd a04e 55bd 1ccd 013c
00000240: 2d69 dc3c af10 e93d 2041 583d 5d41 1d3e
00000250: a22c 74be 4009 0e3e fcf9 0fbe 3dce 14bd
00000260: fd77 94be 1573 253e 4898 213e 4ade 563c
00000270: f824 2c3e 3aa9 c13e 252c 28be c8ff 5a3d
00000280: bd22 6dbd f001 64be e85d 9e3d d9b1 1abe
00000290: a8bb 8a3d 2fd7 703c ecb6 fc3d b243 2c3e
000002a0: 2b5b 763d c840 5cbd 6d62 d0be 09cd 82bc
000002b0: ffc0 713e f623 823d c77d 0a3e e777 653c
000002c0: a931 9abd c89c d3bb e5b0 d03c 1a3b 583d
000002d0: 42d5 19bd 0e4b a03d 234b 74be 57d1 903e
000002e0: 43e3 503d 0bdc 2b3e a3b7 cfbd 12dd 4f3c
000002f0: 72cc e33d 68ca 61be 6d0b 5cbe 44f3 1d3e
00000300: 936c b63d eaa9 a83e e774 80bd 8bdd c2bd
00000310: c378 09be 5a07 f8bd e86f 543e 812e 073e
00000320: c593 5fbe 69a6 883e 9c4b 5f3e 8aea c0be
00000330: 0dac 4cbe 2ebf aa3d 7e2e bd3d 6ea0 34be
00000340: b37a b73e 2a99 1b3c cb6f 15be 7298 193e
00000350: b00b bc3e bb3b 6abd 5623 c7be d709 e83d
00000360: 3b67 27bb d6e1 e0be e754 93be 4edc 85be
00000370: e7b0 7f3e d17b 4e3d f896 093e e9fd c8bc
00000380: daf0 543d 439c 4e3e b369 eabd aa93 bcbd
00000390: 978c ddbe 18d4 893d c835 b6bd 01b4 59be
000003a0: 617a 1c3e 24a0 70be 6d3d 723e 6552 c03c
000003b0: 9447 e23d b465 85bd 5201 6d3e 8998 dc3e
000003c0: 4366 ccbd e43f 7a3c 6622 8dbe bebf 553e
000003d0: cd6f afbc c781 233e e96a 66be 15d9 b73d
000003e0: 1c4f 36be e4e8 6c3e c682 833e ca6e 65bd
000003f0: 0e92 2e3c 1066 043e 69cf 2e3e 320c 553d
-0.19761117 0.19235261 -0.19577353 0.27262217 0.023699416 -0.3617511 0.1926459 0.3102049
0.059852224 -0.017969104 0.0021027497 -0.05695521 0.10236744 -0.14671132 -0.06699296 -0.35700047
-0.16213837 0.17908442 0.13607615 0.12915371 -0.36712742 0.06202488 0.20658015 0.06293884
0.16839527 -0.32808867 -0.035873502 0.026643429 0.27240103 -0.14984688 0.16906475 0.32877213
-0.17533396 0.2542425 -0.15840214 -0.025812168 0.16516176 -0.24842104 -0.039016563 -0.31686962
-0.11452586 0.20947316 0.004608901 0.24067521 -0.17700985 -0.2851865 0.11650465 0.15441138
0.017759874 -0.35940346 -0.16867287 -0.35828522 -0.2205403 0.03145802 -0.026611868 0.036987554
0.3180929 -0.016164944 -0.10636436 -0.38841844 0.03221312 -0.14208862 -0.5677841 0.55638146
0.03914963 -0.08964573 0.06545481 -0.36937746 0.09419366 0.012945326 -0.24643667 -0.18717752
0.27414247 -0.14944744 -0.12589134 -0.1044919 0.0737427 -0.037688803 -0.30959073 -0.44922593
-0.2546387 -0.267234 -0.17657763 0.11961946 -0.44585937 -0.023223199 0.0022572149 0.087385625
-0.0044255587 0.19049421 -0.51804876 0.105977684 -5.7589412e-05 -0.34020177 -0.042218227 -0.016523078
0.23001297 0.12985376 0.043204796 0.23011376 -0.019723177 0.07553238 0.16190669 -0.13669251
0.1406803 0.034550592 -0.04350742 -0.22743258 0.14255965 0.12630153 0.09998052 0.18027928
0.26391542 0.021972276 -0.100244336 0.15758441 0.10060712 -0.24897207 0.18315174 -0.028979586
0.2678297 0.016632017 -0.04064783 0.057236582 -0.16194512 0.06007363 0.23817906 -0.06895669
-0.18243743 0.021904426 -0.034706995 -0.070518635 0.37950385 -0.44387206 0.11895629 -0.08024131
0.08611338 -0.03913551 -0.17005077 0.46797016 0.3534718 -0.055940177 -0.052076936 0.007922437
0.02690562 0.11380135 0.052796483 0.15356965 -0.23845151 0.13870716 -0.14060205 -0.036329497
-0.28997794 0.16157182 0.15780747 0.013114521 0.16810977 0.37824422 -0.1642309 0.05346659
-0.057894457 -0.22266364 0.07732755 -0.15106906 0.06774074 0.014699741 0.12339577 0.16822699
0.06014554 -0.053772718 -0.40700093 -0.015966909 0.23608778 0.06354515 0.13524543 0.014005638
-0.07529003 -0.0064578988 0.025474975 0.05279074 -0.037556894 0.078268155 -0.23856787 0.28284714
0.050997984 0.16783158 -0.10142448 0.012686985 0.11122979 -0.22049868 -0.21488734 0.1542483
0.08907428 0.32942134 -0.06272297 -0.09514912 -0.13424973 -0.12110777 0.20745814 0.13201334
-0.21833713 0.2668946 0.21806186 -0.3767894 -0.19987507 0.08337246 0.09237383 -0.17639324
0.358358 0.009496966 -0.14593427 0.1499956 0.36727667 -0.05718587 -0.38894147 0.11330002
-0.0025543708 -0.439223 -0.28775713 -0.26144642 0.24969827 0.05041105 0.13436496 -0.024535136
0.051987506 0.20176797 -0.11445942 -0.09207852 -0.43271324 0.06729907 -0.08896977 -0.21260072
0.15281059 -0.23498589 0.23656245 0.023476789 0.11048809 -0.06513539 0.23145035 0.43085125
-0.099804424 0.015274022 -0.27565306 0.20873925 -0.021415615 0.15967475 -0.2250172 0.08976952
-0.17803615 0.23135716 0.2568571 -0.05601386 0.010654939 0.12929559 0.17071308 0.052013583

fc2.bias f4 [30]
00000000: 4509 64ba c29d 00be e769 1a3e 0551 1f3e
00000010: b13d 0bbd b25c 663d 36db 613d 22dc d4bd
00000020: 92de 2d3d c19d 21be 1930 2d3e 546e a7ba
00000030: b683 31be be29 063e ef8c a4bd 397c 5fbd
00000040: cf3f 1d3e f9b8 2bbd 0580 fdbd 694b c7bd
00000050: 0481 50bd aaa3 8c3e b7d1 be3d 9886 2e3e
00000060: ff6e e23d f1a2 183d 0bc5 f83d 8df2 0abe
00000070: 2837 c6bd d2f6 bbbc
-0.0008698891 -0.1256018 0.15079461 0.1555825 -0.03399438 0.056240745 0.055140696 -0.103935495
0.042448588 -0.15782835 0.16912879 -0.0012773969 -0.173354 0.13101861 -0.080346934 -0.054561827
0.15356372 -0.04192445 -0.123779334 -0.0973118 -0.05090429 0.27468616 0.09317344 0.17043531
0.11056327 0.037264768 0.12146958 -0.13569088 -0.09678489 -0.022944842

fc3.weight f4 [20, 30]
00000000: 6b8b 163e 2273 543d 31eb 0dbe b0ac 663d
00000010: 9663 39be 8e48 b43d eca8 933e 8351 343c
00000020: a67c ebbd 036c 00bf c378 f7bd 9c85 953e
00000030: 6f5e 11be d36c 61be f017 8e3e 9b71 523e
00000040: 1833 363e a986 013e ddf5 313e 7ab8 9e3e
00000050: 7176 a03e 0bd8 b63d da85 aa3d d106 c73e
00000060: fa1a c03c ec21 eb3d f402 c43d 2a37 2abf
00000070: b62b 8bbe 8139 07be 6e5d 9f3b 00d3 9ebe
00000080: 0567 33bd ecc9 e6bc 7e18 d43e a234 3ebe
00000090: a90d 143e aa92 8e3e d106 293e ba38 ca3e
000000a0: 9c2e 65bd 8ceb e6bd 7783 e83e 6e02 533e
000000b0: 0535 54be 8380 8d3e 1872 03bc 4860 953e
000000c0: ac97 45be 9500 e4be d5f1 33be 368b 923d
000000d0: f789 99bd a196 eebd 65ed bf3e cf89 d93d
000000e0: 8848 53be 827f e93e d1d5 123f 0e8a 643e
000000f0: 9d9d 67be 57ff 3ebe 4b55 3d3e bb91 f73d
00000100: c6f3 543e 05cd babd 590d 2a3e c16b c13e
00000110: 77a3 293c aa4e e33e 34fa 90bc b6d6 493e
00000120: f129 d93e 578a 3fbd 1e99 d1be 4604 25bd
00000130: cedb 8b3d 681f 3a3c 5ea8 edbd 384b 1bbf
00000140: 59a1 8cbe 185a b13d 633a 0a3e 63f1 e3be
00000150: 3781 623e f776 083e ed0b 80be a0d1 b73e
00000160: 220f 313e 240a 94bd df7a 45be 2d3a 2abf
00000170: 1485 5b3d ecf4 e63d 64b6 773e cbc2 ce3d
00000180: 1197 d63c bdb3 913e 8065 50bd 8d01 e93e
00000190: 8579 623e 4693 31be 1249 6f3e 1211 503e
000001a0: 7142 09bf fd5d 173e 3fc5 28bd fb4e 773e
000001b0: c5d6 2bbe abf1 ebbe eefd 91be d621 503e
000001c0: 7f9f dfbc bd8b a4be 0865 7c3e 1568 38bd
000001d0: 185b 313e 0716 ed3e b01a 013f 6502 1c3e
000001e0: 0373 1abd 094d 27be fd9a 7f3c d333 0e3e
000001f0: 88ea 953e 4f05 b9bd 5f59 0a3e 6206 043e
00000200: 9686 393e 5c5c 043f 4f65 9e3d bd1a a7bd
00000210: 6125 813e 785c 953d 4a23 45bd 00f8 953e
00000220: a135 62be 69a8 343e 7e00 7cbe 09ac e3be
00000230: cb22 a5be b2f4 063d 313a febd ff20 85be
00000240: 8530 8a3e af8f 22bc a98d 6d3d 5849 0e3f
00000250: 9982 f63e d93e 853e cd11 85be 09da 36bf
00000260: 49d2 823d 40a1 df3c b794 bc3e fdca 433e
00000270: f960 183e d4e6 db3e 0c52 9abc fc32 f33d
00000280: 9202 653e f2a0 06be ec70 733e a112 4b3e
00000290: 6d14 d4be afb0 e4ba 61d7 2fbe 0ad2 81bb
000002a0: f262 abbd 070b 1fbf c972 a4be 9f8c dd3d
000002b0: e8db dbbd 7ddd 01be a3ef b83e 9c21 373d
000002c0: 6149 fbbc c57d fb3e 9145 ee3e 9fab 1d3d
000002d0: e11e 8abe 109e a2be ec0d 553e ad70 27be
000002e0: 6e41 883e e714 c1bd 0163 dc3d a9f7 d63e
000002f0: d83d 473e 4bf9 893d 5393 533e 5fa7 723e
00000300: 83ca fb3e 666f 813e f80f d7be aaac 88bd
00000310: 2fe7 6abd 2b6f 2b3d a4f8 d8bd c1c7 e6be
00000320: ef5b acbd f88e 143e 763c ff3d 70a4 e3be
00000330: 3160 af3e 0c42 06be 05f8 053e 4b59 6b3e
00000340: 8ff9 063f dbeb 3a3e d4f4 36be 25ce 0fbe
00000350: 7c33 c738 e514 f2bd 3e45 97bd eb48 cbbb
00000360: 4d6b 6d3d 01cd 9f3d e01a cabd 9d35 103e
00000370: 4ae3 873c 8b0b a13d ea5b ad3e 9186 0fbe
00000380: 9944 a4be 1e36 ccbd 057c bcbd 6473 afbc
00000390: 4275 bebc ad84 d2be f548 0ebe 9237 8bbd
000003a0: 6eb4 c73d 937c c2be d048 133d 10d2 f1bd
000003b0: 2dd6 f9bc 5288 ca3e f14f ad3e 186f 97bd
000003c0: 93fd 2d3e 1962 b33e 5968 66bd 5bf9 1d3e
000003d0: 0ad8 8abe f1d0 133d d7c7 b23e 997f c0bd
000003e0: 6248 a4be d367 9abe 3ab2 19be 4a02 ea3d
000003f0: 1d19 e4be b820 15be c6a4 cb3e 12cb 903e
0.14701621 0.05186761 -0.1385925 0.05631703 -0.18104395 0.08802901 0.28839815 0.011005762
-0.11498384 -0.5016481 -0.1208358 0.29203498 -0.1419618 -0.2201417 0.27752638 0.2055115
0.17792928 0.12649025 0.17378946 0.3100012 0.31340364 0.08927926 0.083263114 0.38872388
0.023450363 0.114810795 0.09570876 -0.66490424 -0.27181786 -0.1320553 0.0048634326 -0.31020355
-0.04379942 -0.028172456 0.41424936 -0.18574765 0.14458336 0.2784627 0.16506507 0.39496404
-0.055952653 -0.11275396 0.454128 0.20606396 -0.2072335 0.2763711 -0.008022808 0.2917502
-0.1929614 -0.44531694 -0.1757272 0.07155459 -0.07497018 -0.11649824 0.37485805 0.10621988
-0.20633137 0.45605093 0.5735751 0.22318289 -0.22618718 -0.18652092 0.18489568 0.12088343
0.20796117 -0.091211356 0.16606654 0.37777522 0.010353914 0.44395953 -0.017697431 0.19710812
0.4241481 -0.04676279 -0.40937132 -0.04028728 0.06829034 0.011360027 -0.11604379 -0.6066165
-0.27466848 0.08659762 0.13498835 -0.445201 0.22119604 0.13326631 -0.250091 0.3590212
0.17290929 -0.07228497 -0.19285153 -0.6649502 0.05359371 0.11277184 0.2419067 0.100957476
0.026195081 0.28457442 -0.050878048 0.45508996 0.22116669 -0.17341337 0.23367718 0.20319012
-0.53617007 0.14781947 -0.041203734 0.24151222 -0.16781147 -0.46082816 -0.28514045 0.20325407
-0.027297733 -0.32137862 0.24647915 -0.045021135 0.17319906 0.46305868 0.50431347 0.15235288
-0.03770734 -0.1633798 0.015600917 0.13886957 0.29280496 -0.09034216 0.13510655 0.1289306
0.18117747 0.5170343 0.07734167 -0.08159397 0.2522383 0.07293028 -0.048129357 0.2929077
-0.2209077 0.17642368 -0.24609563 -0.4446719 -0.32253107 0.032948203 -0.12413443 -0.26001737
0.26990142 -0.009921952 0.057996426 0.55580664 0.48146513 0.2602451 -0.25990143 -0.71426445
0.06387765 0.02729857 0.3683221 0.19120403 0.14880742 0.42949545 -0.018837951 0.11874959
0.22364262 -0.13147333 0.23773545 0.19831325 -0.41421834 -0.0017447675 -0.17172004 -0.003961806
-0.08368482 -0.621262 -0.32118824 0.10817837 -0.10735303 -0.12682147 0.36120328 0.044709787
-0.030674638 0.49119392 0.4653745 0.03849375 -0.26976684 -0.31761217 0.20806092 -0.16351576
0.2661242 -0.09427815 0.10761071 0.41985825 0.19457185 0.06737002 0.20661668 0.2369666
0.49177942 0.25280303 -0.4200437 -0.06673558 -0.05734938 0.041854065 -0.105942994 -0.45074275
-0.084159724 0.14507663 0.12462704 -0.44461393 0.34253076 -0.13111132 0.13082893 0.22983281
0.52724546 0.18254034 -0.17866832 -0.14043482 9.498649e-05 -0.118203916 -0.07386254 -0.006203761
0.057963658 0.07802773 -0.09868407 0.14082952 0.016587872 0.0786353 0.33859187 -0.14016177
-0.32083586 -0.099712595 -0.09203342 -0.021417327 -0.023249272 -0.4111685 -0.13895018 -0.067977086
0.09751211 -0.37985668 0.03595811 -0.11807644 -0.030497635 0.3955713 0.33850053 -0.07394236
0.16991262 0.3503578 -0.056251857 0.15427153 -0.2711795 0.036087934 0.3491809 -0.09399337
-0.32086474 -0.30157337 -0.15009394 0.11426218 -0.4455041 -0.14563262 0.3977415 0.2827993

fc3.bias f4 [20]
00000000: 576f 3f3e 7d80 6b3c 9f16 323e 04f7 083e
00000010: f3e0 663b f4f4 f93d 83ba a63d 59aa c8ba
00000020: 9d68 41bd 3327 e5bd e371 be3c 7e47 b5bd
00000030: 420c 493d fea7 6b3e a411 dfbd 9434 3fbe
00000040: 30f7 2d3e 28a3 ecbd 3590 743e 001a 54bd
0.18694817 0.014373896 0.17391442 0.13375479 0.0035229295 0.12204924 0.08141043 -0.0015309557
-0.047218908 -0.11189117 0.023247665 -0.08851527 0.049083956 0.23013303 -0.108920366 -0.186724
0.16988826 -0.11554557 0.23883136 -0.051782608

fc4.weight f4 [2, 20]
00000000: 8851 523e da70 4fbe cfdb 9abe 0b51 9abe
00000010: e8b5 abbe 3aeb 6bbd 5fb8 a0be 9c10 4cbe
00000020: 36a9 c13e 3fe5 813f a4b4 3dbe 4f14 1ebf
00000030: 7dee 0cbe 0345 513e 66a6 c8be 304c 0bbc
00000040: 0654 853e c4e3 cebe fdaf 423e a377 00be
00000050: 29eb 39be db95 c33e caf2 e83d b4ac a83e
00000060: 5bb9 393e 82fb 4d3e 90c7 6a3e 9769 4abe
00000070: 8a4a 2cbb 7170 8bbf ae57 cc3e efc5 ee3e
00000080: 2a99 0cbc 9aff b5bd 9455 913e 2b3c 74bd
00000090: 688e 7fbe 597b 3b3f 57b6 c3be 7f45 8ebd
0.20538914 -0.20257893 -0.30245826 -0.30139956 -0.3353722 -0.057597376 -0.31390664 -0.19928211
0.3782441 1.0148085 -0.1852594 -0.6174974 -0.13762851 0.20436482 -0.39189452 -0.008502051
0.26040667 -0.40408146 0.19012447 -0.12545638 -0.18156113 0.38200268 0.11374433 0.32944262
0.18137114 0.20115474 0.2292769 -0.19766842 -0.0026289546 -1.0893689 0.39910644 0.46635386
-0.008581439 -0.08886643 0.28385603 -0.059627693 -0.24956667 0.7323509 -0.38225052 -0.06946849

fc4.bias f4 [2]
00000000: a5de 723d c0ef b83d
0.05929436 0.09030104
