Sample_Based_Extension/UNSW/UNSW_Dynamite_Selection_Defense/Defense_Distillation/teacher_model.pth (torch, 23240 bytes, 8 tensors)

fc1.weight f4 [50, 56]
0	0x3f3a91f0	0.7287893
1	0xbd911713	-0.07084479
2	0x409967d5	4.793925
3	0x3e2246ab	0.1584727
4	0x3f1e0b41	0.6173592
5	0x408af158	4.341961
6	0xbda2f75d	-0.07957337
7	0x400a9d8c	2.165866
8	0x3edf084a	0.43561012
9	0xbeafdf0c	-0.3434986
10	0x40695d00	3.6463013
11	0xbe923e21	-0.28563026
12	0x3ea481aa	0.32130176
13	0xbf83b524	-1.0289655
14	0x3e5f768f	0.2182257
15	0x3f45c568	0.77254343
16	0xbe7d3ea2	-0.24730924
17	0xbeebd956	-0.46064252
18	0xbf1217b0	-0.57067394
19	0xbe5569c4	-0.20841128
20	0x3da8b6cd	0.082379915
21	0xbe1e51ba	-0.15460864
22	0xbc37b96f	-0.011213644
23	0x3f0e2cf4	0.55537343
24	0x3e052b29	0.13004746
25	0xbe2adc56	-0.16685614
26	0xbec7c7a2	-0.39019495
27	0x3eb1d516	0.34732884
28	0xbe56c67b	-0.20974152
29	0x3e07f00b	0.13275163
30	0x3b75f146	0.0037527843
31	0x3dc4d059	0.09610052
32	0x3b84f496	0.004057477
33	0xba800540	-0.000976719
34	0x3cb47c66	0.022031974
35	0x3d378dad	0.044812847
36	0x3d43846d	0.047733713
37	0x3ea80316	0.32814854
38	0x3f0a536c	0.5403354
39	0x3b6262a3	0.0034543655
40	0xbe7575ae	-0.23970672
41	0x3e275933	0.1634262
42	0x3ce3219c	0.027725987
43	0xbf0cdadd	-0.5502146
44	0x3fedb283	1.8570102
45	0x3e9abc9e	0.30222028
46	0x3e94a728	0.2903378
47	0x3f833e0a	1.0253308
48	0x3f2e4656	0.68076074
49	0xc07d8f63	-3.9618766
50	0xbeb4262f	-0.35185382
51	0xbee6a45a	-0.45047265
52	0xbe0868be	-0.13321206
53	0xbea7cc10	-0.32772875
54	0x403d1a2b	2.9547222
55	0xbe833a99	-0.25630644
56	0xbfb547a7	-1.4162492
57	0xbec477d7	-0.3837268
58	0xbe4df261	-0.20111991
59	0xbed994a6	-0.42496222
60	0xbea2b621	-0.31779578
61	0xbf2651c3	-0.6496851
62	0xbede4b68	-0.43416905
63	0xbf8a6163	-1.081097
64	0xbf7b80d2	-0.9824344
65	0xbf2d9121	-0.67799574
66	0xbf12f779	-0.57408863
67	0x3e187452	0.14888123
68	0xbe311046	-0.17291364
69	0x3e781633	0.24227218
70	0xbf1d5b66	-0.6146759
71	0xbf240a90	-0.6407862
72	0x3ea3bc3e	0.31979555
73	0xbf4361f6	-0.7632135
74	0xbcc2d0d8	-0.023781225
75	0x3c062060	0.00818643
76	0xbdce8620	-0.10084176
77	0xbe1984fb	-0.14992134
78	0x3e5e5fda	0.21716252
79	0xbf3d2337	-0.7388186
80	0xbd0553d4	-0.032550648
81	0x3c4071ae	0.011745853
82	0x3d8fba0a	0.07017906
83	0x3ea568a8	0.3230641
84	0x3be282ac	0.00691255
85	0xbd6cc0b8	-0.05780098
86	0xbe479244	-0.1948939
87	0xbe3a8368	-0.1821419
88	0xbe604d80	-0.21904564
89	0x3e2ec600	0.17067719
90	0x3d9eab47	0.07747512
91	0x3e10f647	0.14156447
92	0x3c5070b6	0.012722185
93	0x3d1bcad0	0.038035214
94	0x3e6114ba	0.21980563
95	0xbd0e94c4	-0.034809843
96	0xbe8eeaca	-0.27913505
97	0xbe4f849f	-0.20265435
98	0x3e12bf61	0.14330818
99	0x3e307563	0.1723228
100	0x3ef58b20	0.47957706
101	0x3c70837e	0.014679788
102	0x3dc0edbc	0.09420344
103	0x3eb83848	0.3598044
104	0x3f1ee2d0	0.6206484
105	0x3e8510d6	0.25989407
106	0x3dacc6e7	0.08436375
107	0x3d3d2525	0.046178002
108	0x3e4d46d9	0.20046557
109	0x3f9c1cd1	1.2196294
110	0x3ef6c468	0.4819672
111	0x3f4df679	0.8045421
112	0xbfd56304	-1.6670842
113	0x3f9ed6d7	1.2409314
114	0x3f8ace17	1.0844144
115	0xbeecd44d	-0.46255723
116	0xbecbdbe5	-0.39816204
117	0xbef1f2c4	-0.47255528
118	0xbeb6f87a	-0.35736448
119	0x3ea2f9c1	0.31831172
120	0xbe8b588f	-0.27216002
121	0xbe9af2b8	-0.30263305
122	0xbe68fddf	-0.22753094
123	0x3d26a289	0.04068235
124	0x3e4b319f	0.19843148
125	0x3f00bdb9	0.50289494
126	0xbf111493	-0.5667202
127	0xbf4b9a5e	-0.7953242
128	0x3ed4cf65	0.4156448
129	0xbe959f67	-0.29223177
130	0x3e6b2204	0.22962195
131	0x3e59495c	0.2121939
132	0x3eb8544e	0.3600182
133	0x3e032c4b	0.12809865
134	0x3e7b3c08	0.24534619
135	0xbfe0360e	-1.7516496
136	0xc000a60d	-2.010135
137	0xbd1573af	-0.036487278
138	0x3e6ffb10	0.23435616
139	0x3ea1b325	0.3158199
140	0x3da05bce	0.0783001
141	0xbd8cb6db	-0.068708144
142	0xbe95bb39	-0.29244402
143	0xbdeb5e9a	-0.11492653
144	0xbe2c77d7	-0.1684259
145	0x3e88dda8	0.2673161
146	0x3e84302b	0.25818
147	0x3e83be3e	0.2573108
148	0x3c983c89	0.018583553
149	0xbf2b5cf4	-0.6693871
150	0xbeadfd4b	-0.3398231
151	0xbf762b38	-0.96159697
152	0xbcdc8feb	-0.026924094
153	0xbe0ff005	-0.14056404
154	0x3c21da0f	0.009878649
155	0xbea52fe7	-0.3226311
156	0x3f71fdf9	0.94528157
157	0xc006edc6	-2.1082625
158	0x3f8bc7ef	1.092039
159	0x3ee874b3	0.45401534
160	0xbc877763	-0.01653642
161	0x3f89ed6e	1.0775583
162	0x3d543d5e	0.051816337
163	0xbda811a3	-0.08206489
164	0x3d9164e9	0.07099325
165	0x3f1a5ff4	0.6030266
166	0x3ea935e2	0.33048922
167	0x3f51f775	0.82018214
168	0x3f1d9589	0.615563
169	0xbf341060	-0.70337486
170	0x3ebba588	0.36649728
171	0xbfa6c498	-1.3028746
172	0xbf5f3ee6	-0.8720535
173	0x3f4a79ec	0.7909229
174	0xbf6dd968	-0.9290986
175	0x3eb5b053	0.35486087
176	0xbf5b0883	-0.8555986
177	0xbd4948b9	-0.04914162
178	0x3e67292c	0.225743
179	0xbd566835	-0.052345473
180	0x3e021ba2	0.12705854
181	0x3eab689f	0.33478257
182	0xbf8af171	-1.0854932
183	0xbf01a67c	-0.5064466
184	0xbefd2703	-0.49443826
185	0xbf501bb8	-0.81292295
186	0x3d463931	0.048394386
187	0x3e6f775b	0.23385374
188	0x3dd46791	0.10371316
189	0x3e4a5e2b	0.19762485
190	0xbeaab888	-0.3334391
191	0xbef7d6ef	-0.4840617
192	0xbe863822	-0.262147
193	0xbe11cc28	-0.14238036
194	0x3e8161bf	0.25269887
195	0x3e0331dc	0.12811989
196	0x3eeb6ea4	0.4598285
197	0xbca4d563	-0.020121282
198	0xbe791924	-0.24325997
199	0xbcb3a142	-0.02192748
200	0xbdda5f3b	-0.10662695
201	0xbe89fc1a	-0.2695015
202	0x3afcc967	0.0019286097
203	0xbd9b8b47	-0.075949244
204	0xbd14bcc3	-0.03631283
205	0xbec6d802	-0.38836676
206	0xbec75187	-0.38929388
207	0xbf189cfd	-0.59614545
208	0x3e0cd97a	0.13754836
209	0x3ea37810	0.31927538
210	0x3ceee73a	0.029162992
211	0xbd21fb57	-0.039546337
212	0x3d1d5756	0.03841337
213	0xbe41a5a2	-0.1891084
214	0x3f4e01ee	0.80471694
215	0x3ebab190	0.36463594
216	0x3fc97c71	1.5741102
217	0xbe288877	-0.16458307
218	0x3e62bf99	0.22143401
219	0x3e3ff1cc	0.18744582
220	0x3c11ffd7	0.008911095
221	0x3f489fd5	0.78368884
222	0x3e5733b4	0.21015817
223	0x3f6c212f	0.92238134
224	0xbf8a1c7b	-1.0789942
225	0x3f89a547	1.0753564
226	0x3eceb5ac	0.4037298
227	0xbeb14b10	-0.3462758
228	0xbfae5be2	-1.362179
229	0xbf8c7230	-1.0972347
230	0xbfa92c0d	-1.3216568
231	0xbed9a8cd	-0.42511597
232	0xbf46860d	-0.77548295
233	0xbe15c5ba	-0.14626208
234	0xbf456766	-0.771109
235	0xbc7682cb	-0.015045832
236	0xbea3ac9d	-0.3196763
237	0x3fcb6a27	1.589177
238	0xc00e9831	-2.228039
239	0xbfc673a8	-1.5504045
240	0x3f2c82c2	0.6738702
241	0xbf7c4331	-0.98540026
242	0x3d47b7bd	0.04875921
243	0xbf306005	-0.68896514
244	0xbe22c8aa	-0.1589686
245	0xbf049a3c	-0.5179784
246	0xbf1c67c7	-0.6109585
247	0xbfedd84f	-1.8581637
248	0x3ef35345	0.47524467
249	0xbef412de	-0.47670645
250	0xbe2c98ed	-0.16855212
251	0x3e237bf3	0.15965252
252	0x3e902d18	0.28159404
253	0x3eb0a18a	0.34498245
254	0xbfda6c24	-1.7064252
255	0x3ea992d8	0.33119845

fc1.bias f4 [50]
0	0x3e74e059	0.23913707
1	0xbf7e145b	-0.9924981
2	0xbf2553f1	-0.6458121
3	0xbf7a5398	-0.97783804
4	0xbf9edeea	-1.2411778
5	0xbed3885e	-0.41314977
6	0xbf0828c2	-0.5318719
7	0x3d8e4ebd	0.06948612
8	0xbf2ed79b	-0.6829774
9	0xbf2be6c4	-0.67148995
10	0xbf35381a	-0.7078873
11	0xbf69bf4f	-0.9130754
12	0xbf095d12	-0.5365764
13	0xbf3972db	-0.7244088
14	0xbddb2520	-0.107004404
15	0xbf1fd19e	-0.62429225
16	0xbf4d1229	-0.80105835
17	0xbe8ab306	-0.2708971
18	0xbf25dda7	-0.6479134
19	0xbf154477	-0.58307594
20	0xbd4dd0bb	-0.05024789
21	0x3e3b9156	0.1831716
22	0xbf4d3e42	-0.8017312
23	0xbeb46acf	-0.35237738
24	0xbf06ca55	-0.52652484
25	0xbef6508b	-0.48108324
26	0xbf3b5b30	-0.73186016
27	0xbf3392f1	-0.7014609
28	0xbf9d6f0f	-1.2299517
29	0x3e2ed409	0.17073072
30	0xbe9a971d	-0.30193415
31	0xbf145f24	-0.57957673
32	0xbe81b8fe	-0.2533645
33	0xbe36ce26	-0.17852077
34	0xbefa2328	-0.48854947
35	0xbcbbb48e	-0.022913244
36	0xbf367602	-0.71273816
37	0xbf601f83	-0.87548083
38	0xbf6dcea8	-0.9289346
39	0xbe592c75	-0.21208365
40	0xbf235bb6	-0.63811815
41	0xbd12a0d0	-0.035797894
42	0x3d0130e4	0.031540766
43	0xbf4a5284	-0.7903216
44	0xbf351c75	-0.70746547
45	0xbf2944c5	-0.6612056
46	0xbf174206	-0.5908512
47	0xbf52d7fa	-0.82360804
48	0xbe7e7ea2	-0.24852994
49	0xbe1101e2	-0.14160874

fc2.weight f4 [30, 50]
0	0xbe3b2092	-0.18274143
1	0xbd9d6192	-0.07684626
2	0xbe697e9f	-0.22802208
3	0xbe5930b0	-0.21209979
4	0xbe452d59	-0.1925558
5	0x3da7567a	0.08170791
6	0xbe3dc25c	-0.18531173
7	0xbda5c1da	-0.08093615
8	0x3e13c663	0.14431147
9	0x3c05ee9d	0.008174566
10	0x3d833cd9	0.0640809
11	0x3d16f6cb	0.036856454
12	0x3da124d8	0.078683555
13	0x3d3773d3	0.044788193
14	0xbdbc5f7e	-0.09197901
15	0xbe2490a2	-0.16070798
16	0xbdcb4c8c	-0.099267095
17	0xbe48bbbd	-0.19602866
18	0xbeaee8f9	-0.3416212
19	0xbee115a8	-0.43961835
20	0x3e1a5174	0.15070134
21	0xbf124174	-0.57131124
22	0x3ced3c6c	0.028959475
23	0xbea57d36	-0.3232209
24	0xbf10337d	-0.56328565
25	0xbe8f2a9a	-0.2796219
26	0xbd85460d	-0.06507502
27	0xbc6bc32d	-0.014389795
28	0xbe5f3310	-0.21796823
29	0xbf2ae1e7	-0.6675095
30	0xbdadf009	-0.08493049
31	0xbe46e671	-0.19423844
32	0xbe9cea79	-0.30647638
33	0xbee9777d	-0.45598975
34	0xbcf9508e	-0.03043392
35	0xbe170d40	-0.14751148
36	0xbc5145ea	-0.0127730165
37	0x3dca6f48	0.098845065
38	0xbe6f589e	-0.23373649
39	0xbe9659ee	-0.29365486
40	0xbd847ce4	-0.064691335
41	0xbe7f013a	-0.24902812
42	0xbea8ce02	-0.3296967
43	0xbef32984	-0.4749261
44	0xbdf7cc38	-0.120994985
45	0xbdbd8cb2	-0.09255351
46	0x3e80fa4a	0.25190955
47	0x3d93512f	0.07193219
48	0xbe93b5ea	-0.28849727
49	0x3d9ce655	0.0766112
50	0xbee68825	-0.45025745
51	0xbde2a4c4	-0.11066583
52	0xbe5a0ec3	-0.21294694
53	0xbeb5b889	-0.35492352
54	0xbe998ced	-0.2999033
55	0x3fbca5d6	1.4738109
56	0xbea43123	-0.32068738
57	0x3e3a73fd	0.18208309
58	0xbd3a17d3	-0.045432877
59	0x3fba0e36	1.4535587
60	0xbe99c0db	-0.3002995
61	0x3d7d3cea	0.06182567
62	0xbeb12def	-0.34605357
63	0xbe60235d	-0.2188849
64	0xbf6f28bb	-0.93421525
65	0x3e5f92a2	0.2183328
66	0xbe643dd7	-0.22289215
67	0xbed92294	-0.42409194
68	0x3d2667f4	0.04062648
69	0xbeb5e9b9	-0.3552988
70	0xbe2d01ac	-0.16895169
71	0xbefebef5	-0.49755064
72	0x3e97e784	0.2966882
73	0xbf09a988	-0.5377431
74	0xbe412615	-0.18862183
75	0xbec052dd	-0.3756322
76	0xbeb204b4	-0.34769213
77	0xbeb5dfc4	-0.35522282
78	0x3e96dcc4	0.29465306
79	0xbf1c27d3	-0.60998267
80	0x3eddb32e	0.43300766
81	0xbee0b36a	-0.43886882
82	0xbf0a5904	-0.5404208
83	0xbec05ac3	-0.37569246
84	0x3e1755ad	0.14778776
85	0xbf1c04c8	-0.60944796
86	0xbe65d816	-0.22445711
87	0x3ebe6964	0.37189782
88	0xbf079c33	-0.52972716
89	0xbd9d15ba	-0.0767016
90	0xbf0656ee	-0.52476394
91	0xbe399e49	-0.18126787
92	0xbe7869a0	-0.24259043
93	0xbe70e93c	-0.23526472
94	0xbda8e0f5	-0.08246032
95	0xbea6c91f	-0.32575318
96	0x3e7037e7	0.23458825
97	0xbe65df44	-0.2244845
98	0xbe3793ac	-0.17927426
99	0xbf1a141b	-0.6018693
100	0x3e228aba	0.15873232
101	0xbd0bad35	-0.03410073
102	0xbf1ce9c6	-0.6129421
103	0xbcdd075f	-0.026981054
104	0xbe7beda7	-0.24602376
105	0xbe47cda9	-0.19512047
106	0xbf00dabd	-0.5033377
107	0x3f0eed3c	0.5583074
108	0x3e44745b	0.19185011
109	0x3e34b25e	0.17646167
110	0xbf38bb9b	-0.72161263
111	0x3de16c80	0.11007023
112	0xbeec1c51	-0.46115354
113	0xbd82d306	-0.06387906
114	0xbf3a1f35	-0.7270387
115	0x3d262c3e	0.040569536
116	0x3e26275a	0.16225949
117	0xbecfbdce	-0.40574497
118	0xbed782b7	-0.42091915
119	0xbf3a13aa	-0.72686255
120	0xbf63cbec	-0.88983035
121	0xbf7cb69b	-0.98716134
122	0x3d3f147e	0.046650402
123	0x3f483c29	0.782168
124	0xbe7ab43a	-0.24482813
125	0xbf6fbe63	-0.9364988
126	0x3e2e33e6	0.17011985
127	0xbe7880a8	-0.24267828
128	0xbf3840c7	-0.7197384
129	0xbf7d0c8a	-0.9884726
130	0x3f034886	0.51282537
131	0x3efbae2b	0.49156317
132	0xbf049a5f	-0.5179805
133	0xbd79b146	-0.060960077
134	0xbe97f6cc	-0.2968048
135	0xbe279337	-0.16364752
136	0xbdd1b35b	-0.102392875
137	0xbe4f179d	-0.20223852
138	0x3de1d698	0.11027259
139	0x3e2d1699	0.16903152
140	0xbf10a5b8	-0.56502867
141	0xbf022811	-0.50842386
142	0xbeb42b54	-0.35189307
143	0xbe6e2d3f	-0.23259448
144	0xbe66125f	-0.22467946
145	0xbee90dfe	-0.45518488
146	0x3ec5e29f	0.3864946
147	0xbf5dbc8e	-0.86615837
148	0x3dd55f58	0.10418576
149	0x3ee5f830	0.44915915
150	0x3f01fe2b	0.50778455
151	0xbd5fa8db	-0.054604392
152	0xbf783444	-0.9695475
153	0x3d9df84c	0.077133745
154	0x3f356e69	0.708716
155	0x3f2f4e86	0.6847919
156	0xbe45dee9	-0.19323315
157	0xbe429603	-0.19002537
158	0x3ed086bf	0.40727803
159	0xbf4e1c05	-0.80511504
160	0xbee44593	-0.4458433
161	0xbc411da2	-0.01178685
162	0x3ed4aec7	0.41539595
163	0x3f02b33e	0.5105475
164	0xbfa2d2f9	-1.2720634
165	0x3f40058e	0.75008476
166	0xbdb56de2	-0.08858849
167	0xbf3b3b13	-0.73137015
168	0xbeb624a4	-0.3557483
169	0xbfb1d568	-1.3893251
170	0x3f90ad1f	1.1302832
171	0xbf11732b	-0.5681636
172	0xbfa3396b	-1.2751898
173	0xbf0c72a3	-0.5486242
174	0xbf3a1331	-0.72685534
175	0xbf593aa6	-0.84855115
176	0xbe9cee86	-0.3065073
177	0x3daf6c6e	0.08565603
178	0xbedf8179	-0.43653467
179	0xbda6a4f0	-0.08136928
180	0xbf3894c6	-0.7210201
181	0xbde4a0a5	-0.11163453
182	0xbf6fd0de	-0.9367808
183	0x3e0adde4	0.13561207
184	0x3efd0868	0.49420476
185	0x3f066dda	0.5251137
186	0xbedaa776	-0.42705888
187	0x3de28f31	0.11062468
188	0x3f84d482	1.0377352
189	0x3e34c27a	0.17652312
190	0xbf2cad0e	-0.6745156
191	0xbf0c0cc8	-0.54707
192	0x3e5f5af2	0.21812037
193	0xbf7106be	-0.9415091
194	0xbee000ee	-0.4375071
195	0xbf1163ee	-0.56793106
196	0x3f898348	1.0743189
197	0xbdffc9e3	-0.12489679
198	0xbe463dbb	-0.19359486
199	0x3f91520c	1.1353164
200	0x3f3537ba	0.70788157
201	0xbe000bda	-0.12504521
202	0xbe2251f6	-0.15851578
203	0x3ea263ab	0.31716666
204	0xbf31569d	-0.69272786
205	0x3d9327ac	0.07185301
206	0xbf1b75b1	-0.6072646
207	0x3f92f123	1.1479839
208	0xbe7195ed	-0.23592348
209	0x3ee1275f	0.4397535
210	0x3e0e2d4b	0.13884465
211	0x3f15dfa1	0.58544356
212	0x3e614491	0.21998812
213	0x3ecab188	0.3958857
214	0x3f77d880	0.9681473
215	0xbe76f068	-0.24115145
216	0x3e895c27	0.2682812
217	0xbcc9f499	-0.024652766
218	0xbe3dd2dd	-0.18537469
219	0xbde8c7f1	-0.11366261
220	0xbf068cdc	-0.52558684
221	0xbf07bc8e	-0.53022087
222	0x3e4c7666	0.1996704
223	0xbd9295d7	-0.07157486
224	0x3f0e983b	0.55701035
225	0xbeffca3a	-0.49958974
226	0x3f4d656a	0.8023287
227	0x3e9ac27d	0.30226508
228	0xbcd0920d	-0.025460267
229	0xbf758c88	-0.9591756
230	0x3edb22b5	0.42799917
231	0x3e477e84	0.19481856
232	0x3eb411ea	0.35169917
233	0x3bb4c58a	0.0055167126
234	0x3e5a08e3	0.21292453
235	0x3e1967a0	0.14980936
236	0xbdedf860	-0.116196394
237	0xbd186773	-0.037208032
238	0xbeff5a58	-0.49873614
239	0x3db9e8b7	0.0907759
240	0x3c284b3c	0.0102718435
241	0xbeaa4133	-0.33252868
242	0xbf3424bc	-0.7036855
243	0x3f118e39	0.5685764
244	0x3dd4c763	0.103895925
245	0xbe629893	-0.22128515
246	0xbf5a0a07	-0.8517155
247	0xbd47e1cf	-0.048799332
248	0xbe1c2114	-0.15246993
249	0x3fbd02a4	1.4766431
250	0xbf6bc359	-0.9209495
251	0x3dbe9154	0.09305063
252	0xbf6c7b7f	-0.9237594
253	0x3d8f6ba7	0.07002955
254	0xbe7eed81	-0.24895288
255	0x3e81ae65	0.25328365

fc2.bias f4 [30]
0	0xbe8823b6	-0.26589745
1	0xbf09b401	-0.5379029
2	0x3e8a3e64	0.27000725
3	0x3f6dc201	0.9287415
4	0x3efe5cd6	0.49680203
5	0xbe188338	-0.14893806
6	0xbf6ae9d2	-0.9176303
7	0x3ec69d23	0.3879176
8	0xbf3f7fc3	-0.74804324
9	0xbf86b46d	-1.0523812
10	0xbe11f0a4	-0.14251953
11	0x3f5a7733	0.85338134
12	0xbe6f4217	-0.23365055
13	0xbd931f19	-0.07183666
14	0xbe99bfa9	-0.30029038
15	0x3dd06650	0.101757646
16	0x3f72e3bf	0.9487876
17	0xbf724843	-0.9464151
18	0x3e06a528	0.1314894
19	0x3ea2d706	0.31804675
20	0x3e640d0e	0.22270605
21	0x3edf262c	0.4358381
22	0x3e6d7a43	0.2319117
23	0xbdc9739f	-0.09836506
24	0x3e4eb8d1	0.2018769
25	0x3da27af8	0.07933611
26	0xbf10c1ab	-0.56545514
27	0xbe039924	-0.12851387
28	0xbf3b64a2	-0.7320043
29	0x3f89c46f	1.0763072

fc3.weight f4 [20, 30]
0	0x3e42677d	0.1898479
1	0x3a7e399f	0.0009697917
2	0x3c8ea5fe	0.017413136
3	0xbf896130	-1.0732784
4	0xbf3a41fd	-0.7275694
5	0xbf274627	-0.6534142
6	0x3e2219f1	0.15830208
7	0xbf966fff	-1.1752928
8	0xbe20792f	-0.15671228
9	0x3f41c088	0.75684404
10	0xbe1fe3c0	-0.15614223
11	0xbf1b1dbc	-0.60592246
12	0xbf871b5e	-1.0555227
13	0xbf029dd7	-0.51022094
14	0xbeb9513f	-0.36194798
15	0xbf233935	-0.63759166
16	0xbf4357b3	-0.76305693
17	0x3de4ca88	0.11171442
18	0x3ddf5cfd	0.10906408
19	0x3e0ce584	0.13759428
20	0xbf29bd59	-0.66304547
21	0xbf0aeb8b	-0.5426566
22	0xbf3a4f42	-0.7277719
23	0xbe0e1771	-0.1387613
24	0x3eb5e857	0.35528824
25	0x3dcbeee2	0.09957673
26	0xbe9b1762	-0.30291277
27	0x3df2df89	0.11859042
28	0x3e84472b	0.25835547
29	0xbf957768	-1.1677065
30	0xbb9aa57d	-0.004719435
31	0xbc4e74e7	-0.012601114
32	0xbe3f2156	-0.1866506
33	0xbccceff2	-0.025016759
34	0xbebee96b	-0.3728746
35	0x3e85c779	0.26128748
36	0x3ec53b5d	0.38521853
37	0x3e8f8a63	0.28035268
38	0x3d0fe294	0.03512819
39	0xbeb86622	-0.3601542
40	0xbe0a26ae	-0.13491318
41	0x3f0a85a8	0.54110193
42	0xbf5c016a	-0.8593966
43	0xbf8816d9	-1.0631973
44	0x3f1563fb	0.58355683
45	0xbed4dc1d	-0.41574183
46	0x3d8842bd	0.06653354
47	0x3e75372b	0.23946826
48	0xbf142332	-0.57866204
49	0xbe9ffce0	-0.31247616
50	0x3e5c12e0	0.21491575
51	0xbede5dee	-0.43431038
52	0x3e015fdb	0.12634222
53	0xbf5b65cf	-0.8570222
54	0xbea381da	-0.31935006
55	0xbd8a77db	-0.06761142
56	0xbe3cb469	-0.18428196
57	0xbd5f57e5	-0.054527182
58	0x3f280962	0.6563932
59	0x3dd661fe	0.10467909
60	0x3dd9d00f	0.10635387
61	0xbda2f061	-0.07956005
62	0xbe48afb4	-0.19598275
63	0x3d954a7a	0.07289596
64	0xbe94f048	-0.2908957
65	0xbef30d71	-0.47471192
66	0x3a837500	0.0010029376
67	0xbea9ce2e	-0.33165115
68	0x3c57ce85	0.013171797
69	0xbdd583e6	-0.10425548
70	0x3eb5d6e8	0.35515523
71	0xbea19307	-0.31557485
72	0xbe234c79	-0.15947141
73	0xbf5dc5f7	-0.86630195
74	0x3ce705c4	0.028200991
75	0xbf0f1e26	-0.5590538
76	0xbeae7466	-0.3407318
77	0xbd42f38e	-0.047595553
78	0xbef03793	-0.469174
79	0xbe0fd025	-0.14044245
80	0xbe3db2c2	-0.18525222
81	0xbe1d3896	-0.15353617
82	0xbe7c1e27	-0.24620877
83	0x3d554cf8	0.052075356
84	0xbd95495f	-0.07289385
85	0xbca11eb8	-0.019667968
86	0x3e1dedd3	0.15422754
87	0x3e54b3fa	0.2077178
88	0x3dee7be8	0.11644727
89	0xbd933e55	-0.07189623
90	0x3bd29be5	0.0064272755
91	0xbe87fe44	-0.26561177
92	0xbe2568c3	-0.16153245
93	0xbe716a45	-0.23575695
94	0x3d2498c3	0.040184747
95	0xbe8c18d8	-0.27362704
96	0x3d145d12	0.03622157
97	0xbe05095e	-0.12991855
98	0xbeb78905	-0.35846725
99	0xbfb064c2	-1.3780749
100	0x3e0786fe	0.13235089
101	0xbe57beec	-0.21068925
102	0xbc3912e4	-0.011296008
103	0xbe68d132	-0.22736052
104	0xbe6b32ee	-0.22968647
105	0xbe9d6512	-0.30741173
106	0xbed91d7c	-0.42405307
107	0xbce01ef8	-0.027358517
108	0xbef3779a	-0.47552186
109	0xbe6b2f34	-0.22967225
110	0xbdea67a7	-0.11445551
111	0xbe075880	-0.13217354
112	0xbdf7945b	-0.120888434
113	0x3d841318	0.06448954
114	0x3d96fe56	0.073727295
115	0x3de1a01c	0.110168666
116	0xbd88fb06	-0.06688504
117	0xbe87df0e	-0.26537365
118	0x3e49ff1b	0.19726221
119	0xbdd8d2c9	-0.10587079
120	0x3cc8820d	0.024476076
121	0xbe75450d	-0.23952122
122	0xbe980d17	-0.29697487
123	0x3d6eb1fc	0.058275208
124	0xbee37fb4	-0.44433367
125	0xbed3bd74	-0.4135548
126	0x3e0b3255	0.13593419
127	0xbe9e539c	-0.30923164
128	0xbdb80f1d	-0.08987258
129	0xbf29af64	-0.6628325
130	0x3e85b803	0.26116952
131	0xbe373ae9	-0.17893566
132	0xbe2dd8ae	-0.16977188
133	0xbef60836	-0.4805314
134	0xbde60409	-0.112312384
135	0xbe0bf9b4	-0.13669473
136	0xbf258444	-0.64654946
137	0xbd64d057	-0.05586275
138	0xbebd5dd1	-0.3698564
139	0xbedb86a2	-0.42876154
140	0xbde70bd4	-0.11281553
141	0xbefa8ef6	-0.48937196
142	0xbe40914e	-0.1880543
143	0xbd6c496a	-0.0576872
144	0xbe3210de	-0.17389247
145	0x3e0bd2d0	0.13654637
146	0x3dc196e3	0.094526075
147	0xbd5ff889	-0.05468038
148	0x3e0c35fe	0.13692471
149	0xbe01368a	-0.12618461
150	0xbe27ce96	-0.163874
151	0x3d6618c4	0.056175962
152	0xbe8b93e8	-0.2726128
153	0xbee2946f	-0.4425387
154	0xbe1b7676	-0.15181908
155	0xbef24751	-0.47320035
156	0xbeeb0446	-0.45901698
157	0xbeccd745	-0.40007988
158	0xbe80e4ae	-0.2517447
159	0xbe72f315	-0.23725541
160	0x3f361200	0.71121216
161	0x3d8140ff	0.06311225
162	0xbf0e1e01	-0.5551453
163	0xbda23dc5	-0.07921938
164	0xbe53eefd	-0.20696636
165	0xbea24cb9	-0.3169916
166	0xbe907288	-0.2821238
167	0xbf3fb178	-0.7488017
168	0xbe24ef1c	-0.16106838
169	0x3ddd5eed	0.10809121
170	0xbf7bdb69	-0.9838167
171	0x3c9702f1	0.01843402
172	0xbf1a0b28	-0.60173273
173	0xbe075ded	-0.13219424
174	0x3e05a616	0.13051638
175	0xbf393a64	-0.7235472
176	0xbe9c71d3	-0.3055559
177	0x3d545a87	0.051844146
178	0xbee39386	-0.4444849
179	0x3b8df222	0.004331843
180	0x3d3c7e0b	0.04601864
181	0x3e21541f	0.15754746
182	0xbd7941c4	-0.060853735
183	0x3ed2321e	0.4105386
184	0xbe0248c9	-0.12723078
185	0x3e45de68	0.19323123
186	0x3f479777	0.7796549
187	0x3ef13775	0.47112623
188	0x3eba321c	0.36366355
189	0x3f169254	0.5881703
190	0xbf2040f7	-0.6259913
191	0xbf81694a	-1.0110257
192	0xbee4edc8	-0.44712663
193	0xbf6a7f60	-0.9160061
194	0x3f0a2886	0.53968084
195	0xbefe03cf	-0.4961228
196	0x3d9dab74	0.07698718
197	0x3f3ec493	0.745187
198	0xbf2b496e	-0.6690892
199	0xbf1bbb1f	-0.608324
200	0x3e274a99	0.1633705
201	0x3e577e2d	0.21044226
202	0x3e8d6031	0.2761245
203	0xbf0bc80f	-0.5460214
204	0x3f1fd7b5	0.6243852
205	0xbe2f590b	-0.17123811
206	0xbe885445	-0.26626793
207	0xbd818e67	-0.06325989
208	0x3f764c23	0.96209925
209	0xbf82bff6	-1.0214832
210	0x3e2ff0af	0.17181657
211	0xbdcb94ee	-0.099405155
212	0xbdbe2206	-0.09283833
213	0xbdb4fb69	-0.08837015
214	0xbf14b1eb	-0.5808398
215	0xbe90b1a2	-0.28260523
216	0xbed11b4a	-0.40841132
217	0xbee34f72	-0.4439655
218	0xbea5e3c2	-0.32400328
219	0xbeb2b139	-0.34900835
220	0xbec7563a	-0.38932973
221	0xbe8efdaf	-0.2792792
222	0xbf2be4cd	-0.67146
223	0xbf4aa18b	-0.79152745
224	0xbccf281d	-0.025287682
225	0xbeb9d1d2	-0.36292893
226	0xbf25f450	-0.64825916
227	0xbee16657	-0.44023392
228	0xbeeba7e8	-0.4602654
229	0xbe0dc1cb	-0.13843457
230	0xbe95e673	-0.2927738
231	0x3dba06cb	0.09083327
232	0xbea827f7	-0.3284299
233	0xbd7eb67f	-0.06218576
234	0xbf19fc3a	-0.6015049
235	0xbe529ceb	-0.20567672
236	0xbe340bfc	-0.17582697
237	0x3d801fb9	0.062560506
238	0xbea3942f	-0.31948993
239	0x3ee7047d	0.45120612
240	0xbdb0e583	-0.08637526
241	0xbda7a8d6	-0.081865
242	0x3e17302f	0.14764474
243	0x3b333706	0.002734603
244	0x3e9451bd	0.2896861
245	0xbe902f0e	-0.281609
246	0xbf2f3557	-0.68440765
247	0xbee1f2c6	-0.44130534
248	0xbe96be6f	-0.29442164
249	0x3ceb5cb4	0.028730728
250	0x3fb113f6	1.3834217
251	0x3f893466	1.0719116
252	0xbeeffbfc	-0.46871936
253	0x3f222944	0.63344216
254	0xbf871c35	-1.0555483
255	0x3eee6496	0.46561116

fc3.bias f4 [20]
0	0xbfb3c390	-1.4044056
1	0x3f7a935f	0.9788112
2	0xbce771f0	-0.028252572
3	0xbf31d68f	-0.69468015
4	0xbf3aa594	-0.729089
5	0x3e8c06d9	0.27348974
6	0x3fc22208	1.5166636
7	0xbebd4918	-0.3696983
8	0x3efcc06d	0.4936556
9	0x3f1dcef0	0.61643887
10	0xbeed695c	-0.46369445
11	0xbf1c1b93	-0.60979575
12	0xbf8b8810	-1.0900898
13	0xbf5be9f9	-0.8590389
14	0xbef272b7	-0.47353145
15	0xbe2cbc52	-0.16868713
16	0x3e35bb99	0.17747344
17	0xbf7e3460	-0.9929867
18	0xbf0048eb	-0.50111264
19	0xbf15d626	-0.5852989

fc4.weight f4 [2, 20]
0	0xbecba2fa	-0.3977278
1	0xbc63c0ab	-0.013900916
2	0xbcd5c816	-0.026096385
3	0xbdbb0a83	-0.09132864
4	0xbdfab1d7	-0.122409515
5	0x3da934fb	0.08262058
6	0x3e358b78	0.17728984
7	0xbdef526e	-0.11685644
8	0xbe9c0fb3	-0.30480728
9	0x3e4c8bc7	0.19975196
10	0xbd6a88b6	-0.057259284
11	0x3d04b49b	0.0323988
12	0xbd70f802	-0.05883027
13	0x3e145cdf	0.14488553
14	0xbe7b117d	-0.2451839
15	0x3db6107a	0.088898614
16	0xbdc1b58b	-0.09458455
17	0x3eccf5bd	0.40031233
18	0x3c547317	0.012966893
19	0xbc645cc4	-0.013938133
20	0xbd0424d7	-0.032261696
21	0xbe11f6aa	-0.14254251
22	0xbe2f3ee5	-0.17113836
23	0xbdf7893f	-0.120867245
24	0x3e8e1a4f	0.27754447
25	0xbcd479b4	-0.025936939
26	0xbea09fc9	-0.31371906
27	0xbe5b0c2f	-0.21391366
28	0x3e28dad1	0.16489722
29	0x3ceb9b76	0.028760653
30	0xbbc6a2d7	-0.0060618925
31	0x3e55fbb6	0.20896801
32	0x3e41705a	0.18890515
33	0x3e445ec4	0.19176775
34	0x3e82c10f	0.25537917
35	0xbd4573cc	-0.048206136
36	0xbdfda497	-0.12384909
37	0xbedc8054	-0.43066657
38	0xbd4ad7bb	-0.049522143
39	0x3e801f2a	0.25023776

fc4.bias f4 [2]
0	0x3f4161e4	0.75539994
1	0xbf1ccc97	-0.6124968
