Sample_Based_Extension/UNSW/UNSW_Dynamite_Selection_Defense/Free_Adversarial_Training/Free_Adversarial_Training.pt (torch, 23576 bytes, 8 tensors)

fc1.weight f4 [50, 56]
-0.17687431 0.30032673 -0.12200923 -0.016852235 -0.043188162 -0.25300112 0.034353565 -0.02566295
0.17442322 0.050494753 0.18545218 -0.09817054 0.079391286 0.22942093 -0.0133185005 -0.14085276
-0.07446038 -0.10337409 0.023492329 -0.053837653 0.038624145 0.17144348 -0.047100525 -0.1681488
-1.0366527 0.0014746502 0.16195127 -0.007666269 0.12871726 -0.095028594 0.10868186 -0.060583103
0.06559665 0.020185046 0.06503286 0.11381986 0.2091319 -0.3476531 -0.36566544 -0.5959202
0.13588588 0.18550305 -0.08166147 0.04558933 -0.09281947 -0.24840464 -0.3305812 -0.17740698
-0.182724 0.18579097 -0.056232207 -0.021127304 -0.08368387 0.16539457 0.028708715 0.23879543
-0.6013659 0.061836142 -0.1015096 -0.08317575 -0.011064048 0.054077357 0.12331892 -0.05625701
0.008432303 -0.1694376 -0.18247238 0.02330065 -0.12843859 0.08616225 -0.025207866 0.040030837
0.12921056 0.05793394 -0.12450928 -0.14604811 -0.58537173 -0.2048547 -0.031151095 0.034129295
-0.30660647 0.1607452 0.07781087 -0.064166896 0.015044887 -0.2561911 -0.09923925 -0.18632193
-0.07559895 0.03676473 -0.16312781 0.04751088 0.01378552 -0.20195372 -0.014179094 -0.17512925
-0.60536164 -0.0049531506 -0.08231243 -0.17599562 -0.23572034 0.032836825 0.034601875 0.15499306
0.027716039 0.58839697 0.17235546 0.20960486 -0.094499454 0.23219867 -0.3834898 0.17119059
-0.30541703 0.07099278 -0.65140647 0.008574421 0.050892204 -1.0042884 0.27129367 -1.327103
-0.084066615 -1.2209765 -0.93557507 0.18790957 -0.5012621 -1.2553755 -0.00020955403 0.11750381
-0.14219622 -0.0058617806 0.010619043 -0.050263632 0.0054570134 -0.12225261 0.10316186 0.6626865
-0.0477852 0.026447384 0.05119522 -0.020427786 0.044782095 0.029632892 0.067094676 -0.033827882
-0.088346 0.055460148 0.025010884 0.017048704 0.024507698 0.30405378 0.23475046 0.0021733718
0.10329527 -0.122382194 -0.16195343 -0.8253253 -0.28624365 0.108627476 -0.3952608 -0.059241362
-0.50529045 0.95313025 0.03210198 0.1373953 -0.26224723 0.115747094 -0.093883604 0.02506793
0.38413563 0.03336744 1.2208301 0.015534058 0.15725894 0.004472085 0.01421356 -0.1308114
0.08354354 -0.08221719 0.11489425 -0.17771468 0.034009364 0.2970497 0.013520745 -0.06718799
0.53970534 -0.043424036 -0.071868785 -0.012662885 0.13515966 0.020010464 -0.7150702 0.012704
-0.24098185 -0.5549512 -0.025955264 -0.21275496 -0.086906545 -0.100319095 -0.08270422 -0.122571565
-0.16000995 -0.1240698 -0.17445694 -0.23353894 -0.1917754 -0.31240565 -0.2531434 0.024992513
0.5957464 0.2335143 -0.1188887 -0.094679385 -0.34987622 -0.31024098 0.3139106 -0.25642988
1.6351604 -0.34454903 -0.07956928 -0.029928997 -0.24960436 -0.30425596 -0.46183708 -0.11019529
-1.2059802 0.02993141 -0.09736469 0.02998293 -0.021699317 -0.48448175 0.06308807 -1.1801987
-0.35310617 -0.20663051 -0.9623045 -0.45733175 -0.45513493 -0.64298457 0.021082437 -0.042013895
-0.8140047 0.011487314 -0.036751248 -0.02817693 -0.06470274 -0.019441914 -0.1656217 0.43956223
0.05696869 -0.37628943 0.46641296 0.21609792 0.043820802 -0.025703492 0.16577497 0.097715095
00000000: 8a1e 35be 6dc4 993e fadf f9bd b30d 8abc
00000010: 12e6 30bd 5d89 81be 53b6 0c3d 1b3b d2bc
00000020: 009c 323e 96d3 4e3d 2de7 3d3e a30d c9bd
00000030: e697 a23d 52ed 6a3e d735 5abc b53b 10be
00000040: af7e 98bd cbb5 d3bd fc72 c03c df84 5cbd
00000050: 5a34 1e3d e18e 2f3e 7bec 40bd 332f 2cbe
00000060: 09b1 84bf 0d49 c13a 8ed6 253e 5335 fbbb
00000070: 75ce 033e 5a9e c2bd 9894 de3d fd25 78bd
00000080: 8957 863d 1c5b a53c f32f 853d 631a e93d
00000090: ac26 563e 96ff b1be 8038 bbbe 3a8e 18bf
000000a0: ab25 0b3e 83f4 3d3e 213e a7bd e1bb 3a3d
000000b0: 2218 bebd c95d 7ebe f041 a9be 2daa 35be
000000c0: 001c 3bbe fd3f 3e3e be53 66bd 2b13 adbc
000000d0: 7362 abbd 325d 293e 8a2e eb3c ca86 743e
000000e0: 1ef3 19bf e547 7d3d 44e4 cfbd 0c58 aabd
000000f0: fb45 35bc 3880 5d3d a18e fc3d c06d 66bd
00000100: a427 0a3c 0d81 2dbe 0ada 3abe 01e1 be3c
00000110: 6885 03be d575 b03d ba80 cebc 60f7 233d
00000120: c64f 043e 244c 6d3d b9fe febd a38d 15be
00000130: ecda 15bf 6ec5 51be 9530 ffbc 29cb 0b3d
00000140: 86fb 9cbe 649a 243e 4e5b 9f3d ef69 83bd
00000150: d47e 763c 7b2b 83be f33d cbbd 2dcb 3ebe
00000160: 9fd3 9abd 9d96 163d fa0a 27be c59a 423d
00000170: a9dc 613c f5cc 4ebe 6e4f 68bc 1555 33be
00000180: fbf8 1abf 0a4e a2bb 6b93 a8bd 3238 34be
00000190: ac60 71be e87f 063d b2ba 0d3d 80b6 1e3e
000001a0: bf0c e33c 2fa1 163f f37d 303e a8a2 563e
000001b0: ee88 c1bd 7dc5 6d3e c658 c4be 964c 2f3e
000001c0: 9f5f 9cbe aa64 913d 93c2 26bf ba7b 0c3c
000001d0: 5874 503d 868c 80bf 01e7 8a3e 83de a9bf
000001e0: 1e2b acbd f548 9cbf d981 6fbf 5e6b 403e
000001f0: b752 00bf 25b0 a0bf bbbb 5bb9 d6a5 f03d
00000200: e39b 11be 2e14 c0bb 7ffb 2d3c 3de1 4dbd
00000210: bfd0 b23b 945f fabd 8646 d33d d3a5 293f
00000220: 6aba 43bd 2fa8 d83c 14b2 513d 2c58 a7bc
00000230: 6e6d 373d aec0 f23c ef68 893d 1b8f 0abd
00000240: bfee b4bd 2e2a 633d a0e3 cc3c b9a9 8b3c
00000250: 5ec4 c83c f0ac 9b3e 6d62 703e 216f 0e3b
00000260: 788c d33d 84a3 fabd 1fd7 25be 8548 53bf
00000270: 878e 92be 1578 de3d a05f cabe 12a7 72bd
00000280: b75a 01bf 5800 743f 5e7d 033d 5bb1 0c3e
00000290: 4545 86be d00c ed3d 0c46 c0bd 425b cd3c
000002a0: 6dad c43e 4cac 083d 2944 9c3f 9082 7e3c
000002b0: 7d08 213e 918a 923b fedf 683c 6cf3 05be
000002c0: e018 ab3d 7c61 a8bd ad4d eb3d d6fa 35be
000002d0: 674d 0b3d e616 983e 1d86 5d3c db99 89bd
000002e0: 212a 0a3f 67dd 31bd f12f 93bd fd77 4fbc
000002f0: 4b67 0a3e fcec a33c d70e 37bf 7024 503c
00000300: f2c3 76be 4811 0ebf 22a0 d4bc 70dc 59be
00000310: 0ffc b1bd 1974 cdbd d560 a9bd cd06 fbbd
00000320: a6d9 23be 4f18 febd d7a4 32be d524 6fbe
00000330: c560 44be a2f3 9fbe 039c 81be 19bd cc3c
00000340: d682 183f 5f1e 6f3e eb7b f3bd 44e7 c1bd
00000350: fa22 b3be e8d7 9ebe e4b8 a03e c74a 83be
00000360: f04c d13f bb68 b0be 38f5 a2bd a82d f5bc
00000370: 4998 7fbe 70c7 9bbe e975 ecbe 11ae e1bd
00000380: 8f5d 9abf b732 f53c 2367 c7bd c39e f53c
00000390: c4c2 b1bc fe0d f8be 5134 813d c010 97bf
000003a0: 55ca b4be f396 53be 9659 76bf 6327 eabe
000003b0: 7207 e9be a39a 24bf 13b5 ac3c c316 2cbd
000003c0: 9d62 50bf 4935 3c3c 7a88 16bd 4ed3 e6bc
000003d0: df82 84bd a644 9fbc bc98 29be 4d0e e13e
000003e0: 0058 693d 02a9 c0be aecd ee3e c648 5d3e
000003f0: 717d 333d 2190 d2bc eac0 293e da1e c83d

fc1.bias f4 [50]
-0.010491456 0.06780509 -0.06783033 -0.06086831 -0.20205607 -0.29905847 -0.03078724 0.21146432
-0.098915264 -0.22151707 0.024592163 -0.09412993 -0.32544664 0.10270127 -0.1410339 -0.21908729
0.12632748 0.037962846 -0.19229513 -0.14222296 0.01745549 -0.1118636 0.077558 0.14698114
-0.07200799 0.15596928 -0.09054148 -0.12093362 0.11518914 -0.0055261906 -0.04001116 -0.06823367
0.07204987 0.07218381 -0.13085556 -0.0018346574 -0.050703816 0.3251798 0.006920586 0.030567097
-0.17798102 -0.087258466 0.021146595 -0.048143454 -0.026509747 0.11301331 -0.18701693 -0.09921934
-0.051334456 -0.05389181
00000000: 5be4 2bbc 65dd 8a3d a1ea 8abd 0d51 79bd
00000010: c9e7 4ebe 311e 99be 8635 fcbc 1a8a 583e
00000020: 1694 cabd 5fd5 62be 8175 c93c 31c7 c0bd
00000030: f1a0 a6be 0b55 d23d 316b 10be 6b58 60be
00000040: fe5b 013e ee7e 1b3d 04e9 44be e5a2 11be
00000050: d1fe 8e3c be18 e5bd bbd6 9e3d 3982 163e
00000060: ed78 93bd 69b6 1f3e d06d b9bd 0cac f7bd
00000070: 49e8 eb3d 0c15 b5bb bee2 23bd 18be 8bbd
00000080: e28e 933d 1bd5 933d 00ff 05be e378 f0ba
00000090: ceae 4fbd f77d a63e 15c6 e23b d967 fa3c
000000a0: a840 36be 91b4 b2bd a03b ad3c 1232 45bd
000000b0: f82a d9bc 8673 e73d 5e81 3fbe 8233 cbbd
000000c0: 1444 52bd a9bd 5cbd

fc2.weight f4 [30, 50]
-0.1307843 0.3216972 0.032661833 -0.14164247 0.16174136 -0.1703626 0.13829213 -0.06135363
0.04027619 -0.18010958 -0.13077024 0.33612353 -0.67156965 -0.11718207 0.23564327 -0.106056064
-0.48476467 -0.25649792 -0.14096075 0.21597576 0.03846681 0.24520332 0.3965378 -0.17444031
0.17354232 -0.2667087 0.06780582 -0.13129288 0.40638384 -0.003469151 -0.36768207 -0.5151871
-0.27478632 -0.40925515 0.22808895 -0.22306797 0.4035346 -0.08584117 -0.31294516 0.3610477
-0.17140953 0.09665882 -0.25681895 0.20956671 -0.20020959 -0.30349782 -0.07494571 -0.18007891
-0.21328115 0.20912908 0.13121223 -0.13366243 -0.062230133 -0.41802597 0.110733256 0.026975378
0.1049347 -0.026996963 -0.027858526 -0.1007502 0.15988378 -0.11832922 -0.12281218 -0.9619333
-0.39019 -0.97323 0.33212283 0.0023012713 -0.10550877 -0.30214727 -0.15098499 0.05932915
-0.08893852 -0.49797073 -0.80599296 -0.012280146 0.043907743 0.10046835 -0.087042265 0.14084153
0.13729286 0.19370343 0.059182625 0.37903875 0.02122173 0.095678285 0.1021022 0.080204
-0.41217598 -0.16677101 -0.5428493 -0.008348122 -0.70644385 -0.12650318 0.25422624 0.2110776
-0.08691306 -0.00076223223 0.39310357 -0.24258824 0.25801292 0.023317495 -0.35740918 0.41089302
-0.28819743 -0.19848122 0.14300355 -0.16579297 -0.07513409 0.2729444 0.14262085 0.11193718
0.29741737 -0.06650074 -0.2941488 0.13776287 1.546868 1.8740463 -0.1148126 0.08117957
-0.016117277 -0.11166754 -0.034060396 0.5572769 -0.3707137 -0.43004543 0.011772914 -0.003154051
0.07398227 -0.09727296 -0.22534057 -0.19991836 0.23713434 1.6306993 0.4464475 0.06767666
-0.20781904 -0.005225233 0.01476256 0.031913653 -0.030216182 0.91193813 -0.63589644 -0.076028086
1.0516415 -0.051802773 1.0824798 0.041888885 -0.07860723 -0.35344934 -0.2957175 -0.2663643
-0.17485179 0.1987062 -0.19000176 0.13816455 -0.20562512 0.1698522 -0.12887529 0.0550481
0.17519581 0.2455004 -0.32715362 -0.20461251 0.07604927 1.1515534 -0.53975844 -0.24144942
0.27468425 0.07229375 -0.16076504 0.13287756 0.11929884 -0.3352322 -0.14226747 -0.010119882
-0.070072114 0.061785113 -0.23929268 -0.20027742 -0.18591836 -0.11812597 -0.22533694 -0.4774994
0.16369694 0.16617136 0.026536752 -0.15898144 -0.053202625 0.1291085 0.075282216 0.33906096
-0.119479865 0.20067774 -0.37561208 0.14308745 -0.23065475 0.12828064 -0.33704388 -0.02758348
-0.13450065 -0.17804578 -0.24148053 0.12492603 -0.12800954 0.26815602 -0.19586605 -0.21319386
-0.10737527 0.28742498 -0.23761162 0.15691853 0.54065144 0.18977658 0.28283012 0.28103474
-0.57728714 -0.039850537 0.14206871 0.004041257 -0.35002887 0.10050777 0.09730884 0.43762183
0.15582244 -0.2904499 0.040712997 0.11788132 0.08562299 0.18055534 0.08177363 0.13074987
-0.068179235 -0.4592434 -0.09984164 0.35065457 -0.052049022 0.12971145 -0.62975866 -0.10706637
0.473404 0.23736082 0.07549125 0.08770687 -0.34719676 0.03695667 -0.2745487 -0.19322975
-0.917194 0.07764967 0.034503583 0.13001096 0.067638636 -0.06824333 -0.41344228 -0.06536092
00000000: 52ec 05be 7fb5 a43e 6ac8 053d b90a 11be
00000010: 879f 253e 8973 2ebe 749c 0d3e f24d 7bbd
00000020: a5f8 243d a56e 38be a2e8 05be 6218 ac3e
00000030: fdeb 2bbf 27fd efbd 784c 713e ec33 d9bd
00000040: 1333 f8be b253 83be 0458 10be c028 5d3e
00000050: 608f 1d3d 9416 7b3e 0107 cb3e 7ba0 32be
00000060: 14b5 313e 0b8e 88be c7dd 8a3d a471 06be
00000070: 8b11 d03e b25a 63bb d340 bcbe 4de3 03bf
00000080: cbb0 8cbe e489 d1be 2690 693e ee6b 64be
00000090: 169c ce3e 7fcd afbd 593a a0be 3edb b83e
000000a0: fb85 2fbe 0ff5 c53d c67d 83be a898 563e
000000b0: be03 4dbe 1164 9bbe 237d 99bd 9b66 38be
000000c0: 6066 5abe ef25 563e 805c 063e cede 08be
000000d0: 06e5 7ebd 8007 d6be 1ec8 e23d 78fb dc3c
000000e0: 01e8 d63d bc28 ddbc 9037 e4bc 1f56 cebd
000000f0: 93b8 233e 9756 f2bd f484 fbbd 4341 76bf
00000100: fcc6 c7be 9a25 79bf 010c aa3e edd0 163b
00000110: fb14 d8bd 0cb3 9abe cf9b 1abe 1f03 733d
00000120: 6625 b6bd 05f6 febe 8e55 4ebf aa32 49bc
00000130: 9bd8 333d 5ac2 cd3d 3743 b2bd c338 103e
00000140: 8096 0c3e 315a 463e 7b69 723d 5e11 c23e
00000150: 32d9 ad3c faf2 c33d f51a d13d ff41 a43d
00000160: bb08 d3be 05c6 2abe 2cf8 0abf 90c6 08bc
00000170: 81d9 34bf 0d8a 01be f129 823e ba24 583e
00000180: 79ff b1bd 8ad0 47ba df44 c93e 0d69 78be
00000190: 451a 843e 5504 bf3c 56fe b6be 9260 d23e
000001a0: 9d8e 93be a93e 4bbe 866f 123e a2c5 29be
000001b0: e7df 99bd 5ebf 8b3e 330b 123e 523f e53d
000001c0: 1747 983e 8a31 88bd ac9a 96be b611 0d3e
000001d0: c5ff c53f c0e0 ef3f de22 ebbd 7941 a63d
000001e0: 6108 84bc f4b1 e4bd ea82 0bbd b3a9 0e3f
000001f0: 30ce bdbe ea2e dcbe 2ee3 403c 32b4 4ebb
00000200: 0484 973d 0c37 c7bd aebf 66be 66b7 4cbe
00000210: 58d3 723e c1ba d03f c494 e43e 109a 8a3d
00000220: 84ce 54be 6e38 abbb aade 713c e4b7 023d
00000230: ed87 f7bc c774 693f 1cca 22bf 9db4 9bbd
00000240: 309c 863f 252f 54bd b38e 8a3f ae93 2b3d
00000250: d4fc a0bd 50f7 b4be 4968 97be e760 88be
00000260: 590c 33be a379 4b3e d28f 42be 027b 0d3e
00000270: 648f 52be bced 2d3e e2f7 03be 1e7a 613d
00000280: 8866 333e 7564 7b3e ae80 a7be f185 51be
00000290: b8bf 9b3d 1a66 933f 9c2d 0abf 843e 77be
000002a0: 6aa3 8c3e bf0e 943d 979f 24be 0e11 083e
000002b0: f352 f43d 8ea3 abbe 90ae 11be ddcd 25bc
000002c0: f881 8fbd 6312 7d3d 2409 75be 8615 4dbe
000002d0: 6261 3ebe 07ec f1bd babe 66be cd7a f4be
000002e0: 2ca0 273e d328 2a3e 9a63 d93c 08cc 22be
000002f0: ffea 59bd 0535 043e 902d 9a3d 6699 ad3e
00000300: dcb1 f4bd 777e 4d3e 3a50 c0be 8485 123e
00000310: c230 6cbe 005c 033e 0491 acbe c0f6 e1bc
00000320: 8aba 09be a251 36be ac46 77be 38d9 ff3d
00000330: ef14 03be bf4b 893e 1c91 48be 7e4f 5abe
00000340: 91e7 dbbd 5e29 933e 7650 73be 40af 203e
00000350: 2268 0a3f cb54 423e 1ccf 903e c9e3 8f3e
00000360: 17c9 13bf 513a 23bd 767a 113e 856c 843b
00000370: fc36 b3be 05d7 cd3d db49 c73d f80f e03e
00000380: eb8f 1f3e d9b5 94be acc2 263d c36b f13d
00000390: 1b5b af3d 80e3 383e ef78 a73d 4be3 053e
000003a0: 8ea1 8bbd f321 ebbe c679 ccbd ff88 b33e
000003b0: 5b31 55bd 14d3 043e dd37 21bf 9d45 dbbd
000003c0: 0262 f23e b70e 733e 289b 9a3d a99f b33d
000003d0: c6c3 b1be e15f 173d a691 8cbe 05de 45be
000003e0: 3acd 6abf ca06 9f3d a153 0d3d 9821 053e
000003f0: 2086 8a3d 29c3 8bbd b5ae d3be f2db 85bd

fc2.bias f4 [30]
-0.15908031 0.27852008 -0.4139454 -0.1356124 -0.0421745 -0.17116603 0.002937474 -0.07459298
0.17426775 -0.03880318 -0.16582045 0.12910858 -0.06354027 0.34028903 -0.09236575 -0.069028094
-0.10689301 -0.17092143 0.2602644 -0.1392452 0.12828363 0.10053992 0.15149489 -0.029878126
-0.12003156 0.004899644 -0.10775524 -0.037139926 0.20394447 0.30987906
00000000: f3e5 22be 2f9a 8e3e a7f0 d3be fadd 0abe
00000010: 2bbf 2cbd 2646 2fbe a382 403b 34c4 98bd
00000020: 3f73 323e 15f0 1ebd d6cc 29be 0a35 043e
00000030: 6721 82bd 5d3a ae3e 412a bdbd 9a5e 8dbd
00000040: b9ea dabd 0706 2fbe 6041 853e 4b96 0ebe
00000050: c95c 033e e0e7 cd3d 7a21 1b3e f9c2 f4bc
00000060: 1bd3 f5bd 318d a03b c7ae dcbd 0920 18bd
00000070: d2d6 503e 78a8 9e3e

fc3.weight f4 [20, 30]
-0.060571007 -0.09570948 -0.13918217 0.00015959043 -0.2999303 0.028718825 -0.13861872 -0.021141177
-0.105401225 -0.011981893 -0.06707842 -0.02446929 0.06764291 -0.08580159 -0.16916755 -0.053189695
-0.20116866 -0.0011462077 0.15549448 -0.06514107 -0.02162693 -0.30047977 -0.20807864 -0.11045394
-0.33918142 0.06929295 0.10211693 -0.1647112 -0.11775774 -0.24677126 -0.39919057 -0.1259181
0.9577047 -0.23032087 -0.42011425 -0.025959114 0.016554436 0.09115297 0.37017435 -0.0062508597
0.11015217 0.18643318 -0.042146716 0.4374215 0.07249006 -0.16214085 -0.19351773 0.014330934
-0.35890707 0.42950797 0.61321515 -0.07865352 0.53452 -0.13243665 0.13813744 -0.08517311
0.5514858 -0.40703988 0.4923889 0.18174134 -0.001670552 0.16717237 0.7402169 0.01611087
0.20773792 -0.14560246 -0.1074931 -0.04042259 -0.035979487 -0.31128255 0.12200137 0.26298073
-0.045985125 0.34867498 -0.31261733 -0.09598553 0.033039648 0.13108347 -0.33825132 0.265312
0.7892182 -0.33227965 -0.013767916 0.008369632 -0.12374885 -0.08583258 -0.094890885 -0.10746502
0.40888983 0.28443602 0.11253758 -0.061069302 0.19278252 -0.29691753 0.13375162 0.23754898
-0.0018162084 0.2200025 0.0691555 -0.04911999 0.13992365 0.121319555 -0.32605776 0.12216963
0.08553025 0.12984537 -0.030309943 0.05833362 0.047433052 0.0701693 0.12562446 -0.21177934
0.06642438 -0.08509726 -0.08151322 0.109184615 -0.46541885 -0.106142946 0.18064219 -0.014121288
-0.30713576 0.058734782 0.7618551 -0.024965167 0.19982317 -0.05334576 -0.11969921 -0.08017091
0.26577446 0.17306738 0.1624832 -0.060490888 0.030858614 0.05892986 -0.0404997 0.18019149
0.0536856 0.082480446 -0.57475597 0.4440994 0.866639 -0.16566458 -0.32422867 0.022546165
0.073833205 -0.17467988 0.042103946 0.008829681 0.4719293 0.5955786 -0.03716265 -0.19650348
0.04224139 0.014475224 -0.278034 -0.22859788 -0.08058927 -0.09718145 -0.06403814 -0.13731828
0.053585798 0.045888655 -0.25107622 -0.29063946 0.18951584 -0.15959762 0.2719144 -0.20470168
-0.25781953 -0.29683092 0.09878599 0.07522382 0.121877 -0.35857198 0.030820431 -0.03939717
-0.06673458 -0.16656725 -0.25198084 -0.40194792 0.060473803 -0.19291866 0.04043424 -0.24267901
-0.28929585 -0.3102587 -0.061001886 -0.016990641 -0.13420413 -0.09330747 0.2476407 0.38295132
-0.33798876 -0.27911615 -0.08596312 -0.21551071 0.15897362 -0.11385358 -0.24517095 -0.5721947
0.20177484 0.0685127 -0.115506455 -0.14775026 0.056833174 0.038900763 0.014086526 -0.09270649
-0.38198772 -0.21497832 0.13536958 0.21671751 0.587431 -0.105456725 -0.010947609 -0.05453179
-0.30101848 0.011714614 -0.016580222 -0.2093316 0.4238502 -0.24575283 -0.19873634 0.38020122
0.09180077 -0.066157885 0.279778 -0.02335868 -0.39311218 0.20877133 0.6544323 -0.31275085
-0.21294378 0.031289496 -0.05590863 -0.13987531 -0.016356375 -0.22002624 0.61671585 0.21144782
0.18108018 -0.3366372 -0.029406931 -0.2516462 0.008545205 -0.5268024 0.041278988 -0.17305408
-0.36055523 -0.32697433 0.11615921 -0.0052377214 -0.10096801 -0.249534 -0.13165636 0.0054454277
00000000: 4e19 78bd 5503 c4bd c585 0ebe bb57 2739
00000010: 7790 99be be43 eb3c 11f2 0dbe 4330 adbc
00000020: 99dc d7bd b44f 44bc 6960 89bd d273 c8bc
00000030: 5e88 8a3d beb8 afbd 423a 2dbe 70dd 59bd
00000040: 28ff 4dbe 593c 96ba f239 1f3e ae68 85bd
00000050: f62a b1bc 7cd8 99be 9112 55be ad35 e2bd
00000060: 30a9 adbe 76e9 8d3d ae22 d13d 0eaa 28be
00000070: f82a f1bd 9bb1 7cbe b562 ccbe adf0 00be
00000080: 232c 753f 3cd9 6bbe 3719 d7be 35a8 d4bc
00000090: 2b9d 873c 69ae ba3d 7e87 bd3e 03d4 ccbb
000000a0: 7697 e13d 57e8 3e3e 09a2 2cbd b6f5 df3e
000000b0: ab75 943d 4008 26be 8329 46be 4bcc 6a3c
000000c0: abc2 b7be 78e8 db3e abfb 1c3f 1915 a1bd
000000d0: 4dd6 083f 799d 07be e773 0d3e 3d6f aebd
000000e0: 2c2e 0d3f 8867 d0be 661a fc3e 671a 3a3e
000000f0: 6cf6 daba 3c2f 2b3e db7e 3d3f f1fa 833c
00000100: 40b9 543e d018 15be 5825 dcbd 2892 25bd
00000110: 3a5f 13bd 6d60 9fbe dbdb f93d 69a5 863e
00000120: e65a 3cbd 8785 b23e 610f a0be 1094 c4bd
00000130: 9554 073d bf3a 063e 472f adbe f9d6 873e
00000140: 340a 4a3f 8f20 aabe d392 61bc c820 093c
00000150: 0970 fdbd fec8 afbd 2756 c2bd 9f16 dcbd
00000160: 025a d13e 99a1 913e 1a7a e63d ce23 7abd
00000170: c868 453e 9305 98be 2ff6 083e 0a40 733e
00000180: d70d eeba 5648 613e 66a1 8d3d 0b32 49bd
00000190: 2548 0f3e 6376 f83d 0bf1 a6be 1234 fa3d
000001a0: 7c2a af3d 2ff6 043e 8f4c f8bc 3cef 6e3d
000001b0: 2949 423d ecb4 8f3d b3a3 003e afdc 58be
000001c0: 8109 883d 7947 aebd 67f0 a6bd 2f9c df3d
000001d0: 614b eebe 7961 d9bd 44fa 383e fa5c 67bc
000001e0: e640 9dbe e293 703d f008 433f c083 ccbc
000001f0: 729e 4c3e 1581 5abd dc24 f5bd a530 a4bd
00000200: 9713 883e 9338 313e ff61 263e 4bc5 77bd
00000210: 34cb fc3c 7060 713d 03e3 25bd 1e84 383e
00000220: 6fe5 5b3d 82eb a83d 3523 13bf ff60 e33e
00000230: 0edc 5d3f faa3 29be 4d01 a6be bcb2 b83c
00000240: dd35 973d 48df 32be 3075 2c3d 5eaa 103c
00000250: b8a0 f13e d777 183f dd37 18bd 3538 49be
00000260: 4f05 2d3d 7d29 6d3c 795a 8ebe 9015 6abe
00000270: fd0b a5bd 1107 c7bd 6e26 83bd 2a9d 0cbe
00000280: c87c 5b3d bef5 3b3d 108d 80be b2ce 94be
00000290: 7110 423e 8f6d 23be 5d38 8b3e 519d 51be
000002a0: ec00 84be 39fa 97be 4f50 ca3d f20e 9a3d
000002b0: a69a f93d bf96 b7be 217b fc3c ed5e 21bd
000002c0: 24ac 88bd 9b90 2abe a203 81be 1ecc cdbe
000002d0: 61b3 773d 788c 45be 609e 253d d980 78be
000002e0: 961e 94be 3ada 9ebe 1ddd 79bd f52f 8bbc
000002f0: cf6c 09be fd17 bfbd 8695 7d3e 3212 c43e
00000300: dd0c adbe 50e8 8ebe 6f0d b0bd d7ae 5cbe
00000310: fbc9 223e 112c e9bd 180e 7bbe 5a7b 12bf
00000320: 109e 4e3e 6350 8c3d a68e ecbd d84b 17be
00000330: e7c9 683d 6856 1f3d 2ccb 663c e6dc bdbd
00000340: e593 c3be 4723 5cbe 539e 0a3e 32eb 5d3e
00000350: e161 163f b2f9 d7bd 9a5d 33bc ba5c 5fbd
00000360: 181f 9abe a7ee 3f3c 3fd3 87bc 065b 56be
00000370: e502 d93e a1a6 7bbe 8a81 4bbe bca9 c23e
00000380: 0b02 bc3d c97d 87bd 103f 8f3e b45a bfbc
00000390: 0046 c9be 27c8 553e e088 273f e120 a0be
000003a0: ef0d 5abe 6a29 003d 7300 65bd 793b 0fbe
000003b0: cefd 85bc 8f4e 61be 17e1 1d3f c785 583e
000003c0: 156d 393e b65b acbe cee6 f0bc c5d7 80be
000003d0: 3001 0c3c 86dc 06bf 2814 293d 1735 31be
000003e0: b29a b8be 2e69 a7be e1e4 ed3d 31a1 abbb
000003f0: 51c8 cebd d785 7fbe edd0 06be 8f6f b23b

fc3.bias f4 [20]
-0.19165078 -0.03755172 -0.045619834 -0.08904139 0.19379786 0.01932908 0.028543282 0.015921326
-0.16528678 0.284143 0.16048037 0.386558 0.12729302 0.10858863 0.017381899 0.12124248
0.16894592 0.2840256 0.16040601 0.0136865685
00000000: 1a40 44be d5cf 19bd dddb 3abd 555b b6bd
00000010: f272 463e 0558 9e3c 9ad3 e93c 716d 823c
00000020: f040 29be 317b 913e f754 243e eeea c53e
00000030: 1a59 023e b763 de3d 7c64 8e3c fa4d f83d
00000040: 2900 2d3e ce6b 913e 7941 243e a13d 603c

fc4.weight f4 [2, 20]
0.0586814 0.14695537 0.21058092 0.064645246 0.120578885 -0.0029542595 -0.03878133 0.204722
0.012155939 -0.3251878 0.14872316 -0.20433325 -0.36258236 0.24076568 0.22178753 -0.30155793
0.23324339 -0.2996023 -0.54730624 0.12514757 -0.03350122 -0.24298283 0.07002523 -0.03626084
-0.14033338 0.0032423164 -0.021308968 -0.038234416 0.29350948 0.07497285 -0.07076292 0.46968117
0.23032999 -0.22474314 -0.1277795 0.36302465 -0.11899233 0.25743195 0.6511208 0.12366019
00000000: e85b 703d 787b 163e 86a2 573e ba64 843d
00000010: 10f2 f63d 409c 41bb 2cd9 1ebd a5a2 513e
00000020: b429 473c 047f a6be e24a 183e bc3c 51be
00000030: 65a4 b9be 478b 763e 451c 633e cd65 9abe
00000040: 5bd7 6e3e 7965 99be 431c 0cbf af26 003e
00000050: 9338 09bd 7ed0 78be 6369 8f3d 3f86 14bd
00000060: 8eb3 0fbe 0b7d 543b 2590 aebc b19b 1cbd
00000070: e046 963e 5e8b 993d 26ec 90bd 0d7a f03e
00000080: a0db 6b3e 1123 66be a1d8 02be 5ede b93e
00000090: 40b2 f3bd 1fce 833e daaf 263f 8e41 fd3d

fc4.bias f4 [2]
0.1618688 0.08560252
00000000: efc0 253e 6050 af3d
