Sample_Based_Extension/WUSTL/WUSTL_Defense/preprocessor/dnn_pytorch_FeatureSqueezing.pt (torch, 21052 bytes, 8 tensors)

fc1.weight f4 [50, 42]
000000 82 7a fc bd c5 4d ff 3d bb c8 57 be 6b 54 e1 bd
       -0.12328054 0.12466005 -0.21072666 -0.110024296
000010 a9 23 d8 bc 78 d8 18 be 76 33 21 be 60 d9 42 bd
       -0.026384192 -0.14926326 -0.15742287 -0.047570586
000020 17 ce ff 3d a3 20 d2 3d c7 91 f6 bd 72 08 a2 3d
       0.124904804 0.10260131 -0.120395236 0.07911767
000030 45 d2 40 be a8 55 25 3e f0 0a 65 bd e9 b9 21 bf
       -0.18830211 0.16145957 -0.055918634 -0.631743
000040 a7 d0 27 be c6 93 01 be 6d ed 04 be 50 49 0c be
       -0.16388188 -0.12654027 -0.12981196 -0.13699841
000050 fb 35 fd bc 74 2e 29 3e 02 89 74 3c 1c 47 07 bd
       -0.030909529 0.16521627 0.014925243 -0.0330268
000060 38 ba 1c 3e 71 ad 0d 3e 95 f1 23 bd d7 dc 81 3e
       0.15305412 0.13835694 -0.040025312 0.253638
000070 81 86 82 3e e4 cc 47 3e fd a3 38 3c 7d af 6f 3d
       0.25493243 0.19511753 0.011269567 0.058516968
000080 ff c5 a4 3d 5c ef 4f be 2c 26 99 be 2d 62 34 3e
       0.08045577 -0.20306152 -0.29911935 0.17615576
000090 03 7a 91 3d fc 03 18 3d 68 3c 9e 3d 55 5b 80 3e
       0.0710335 0.037113175 0.07726365 0.2506968
0000a0 b2 6c ed 3d b8 5f 91 3c 73 71 d4 3d a3 69 92 bd
       0.115929976 0.017745838 0.10373201 -0.07149055
0000b0 58 22 1f 3f 20 b9 05 39 64 02 ab bd 25 42 b5 3c
       0.6216178 0.00012752833 -0.08350065 0.022126267
0000c0 42 b6 57 be ec 4c 14 be 5b fd 32 3d 62 81 0e 3e
       -0.2106562 -0.14482468 0.04369865 0.13916543
0000d0 93 13 ae 3c 61 52 ee 3d 1f 85 50 3f 64 11 0d 3c
       0.021249568 0.11636806 0.81453127 0.008610103
0000e0 fe 93 17 3e dd 07 65 bf e6 09 8a bd 77 0a 38 3d
       0.14802548 -0.89465123 -0.06740169 0.044931855
0000f0 22 d8 aa 3e 4b 61 32 bd 05 71 4d bd 36 12 4c 3e
       0.3336802 -0.043549817 -0.050156612 0.19928822
000100 53 72 4a bd 87 4c 01 bd d0 1f c6 3d d2 f1 e5 bd
       -0.049425434 -0.031567123 0.096740365 -0.11227764
000110 90 f0 dc bd dd 53 34 3e fc 1e d8 bd da 61 18 3d
       -0.10788071 0.17610116 -0.10552785 0.037202694
000120 09 67 ce be c4 5d 48 bc 20 88 0e bf 36 42 96 be
       -0.40312985 -0.012229387 -0.5567646 -0.2934739
000130 65 06 0f 3d db b6 d9 3b f0 8a c4 bd d9 6a c4 3d
       0.034918208 0.0066441125 -0.09596813 0.09590692
000140 28 dc d6 be d2 93 80 3e 1a aa 3e 3c b9 d0 c4 3e
       -0.4196484 0.25112778 0.011637235 0.38440493
000150 79 8b e5 3c d6 ef a1 3d 17 bf 3c 3f 87 98 f0 bd
       0.028020607 0.07907073 0.7372908 -0.11747842
000160 d6 cc e3 3d 2e 12 c1 3d 01 08 97 bd b1 84 0a be
       0.11123054 0.094272956 -0.073745735 -0.1352718
000170 25 2f 16 be b8 75 31 be 83 dc b0 3b 0a b4 ea 3c
       -0.14666422 -0.17330062 0.005397381 0.028650302
000180 7a 11 5f 3f aa eb 1f bd 2a bd 7c bd 53 85 7e be
       0.8713604 -0.039043106 -0.06170384 -0.24855547
000190 ea 8b 6c bd d5 89 8f 3d 73 05 ef 3e c0 3c 22 bd
       -0.05775062 0.07008711 0.46683845 -0.039608717
0001a0 d9 09 95 bd ae 14 3d 3e d8 71 96 bd ec 98 83 3a
       -0.07277269 0.1846492 -0.07345933 0.0010040081
0001b0 00 46 07 3e e6 25 d9 3d 53 51 97 bd 51 f3 1a bd
       0.13210297 0.10602932 -0.07388558 -0.0378297
0001c0 91 7d 9e bc f2 b2 0f 3d 02 bf dc bd c4 48 e7 bd
       -0.019346984 0.035082765 -0.10778619 -0.11293176
0001d0 18 ed ed be 0b 4f 95 3e aa f3 8f bd 0c d2 d4 bd
       -0.4646995 0.29161867 -0.07028897 -0.10391626
0001e0 c3 d1 9b bd 00 88 56 3d e5 58 40 be 78 41 e8 3d
       -0.07608368 0.052375793 -0.1878391 0.11340612
0001f0 ed fb 0a be d0 3d c5 3e 26 3f 4c 3c 18 1e be bc
       -0.13572665 0.38523722 0.012466228 -0.02320771
000200 b3 f4 b0 be ba 8a 9e bd e7 15 9f 3d ba 6b 7f bd
       -0.3456169 -0.07741304 0.077678494 -0.062358595
000210 06 d0 c6 3e 5d e4 98 bd b4 55 ba bc 3f 5f e1 3d
       0.38830584 -0.07465432 -0.022745945 0.11004495
000220 4f 54 04 3b 6d 33 cb 3d 40 71 13 bd 28 22 8a 3d
       0.0020191853 0.09921918 -0.035996675 0.06744796
000230 12 f8 88 3d db 7b 11 be bd 03 87 3e 46 a7 f8 3d
       0.06687941 -0.14207403 0.2637004 0.1214128
000240 4f 2d 7f be 1b 6d ba bd d1 8b a2 3e ec c4 48 be
       -0.24919628 -0.091028415 0.31747296 -0.1960637
000250 4a 2b 4b 3e 95 ce ea bc 2c bf 16 be b5 04 99 bd
       0.19840732 -0.02866296 -0.14721364 -0.07471601
000260 ad a9 b5 bd 73 e9 29 bd 50 49 e6 bd df d6 e3 3c
       -0.08870254 -0.0414824 -0.11244452 0.02781242
000270 b7 90 cb 3c d4 5b b1 3e bc ba 10 3f 24 b9 eb bd
       0.024849279 0.34640372 0.56534934 -0.11509922
000280 78 d7 5d 3e 46 36 ec 3d 1f e0 07 be bc cb 03 be
       0.21664226 0.11533789 -0.13269089 -0.12870687
000290 57 3e fa bb 16 05 70 bc 2d f0 05 3e 2a 88 57 bd
       -0.007636826 -0.01464965 0.13079901 -0.05262009
0002a0 1f f6 da bd 25 b5 4a 3b 70 30 55 3e ed 5e 04 3e
       -0.10691475 0.0030930724 0.20819259 0.12926836
0002b0 b6 f2 a4 b9 ac 88 99 3d 89 0d d9 3d c9 8c 95 bd
       -0.0003146135 0.07496771 0.10598285 -0.07302243
0002c0 43 2d 26 3e c2 72 6b 3e 4b d1 ec bc f9 f8 00 3e
       0.16228203 0.22992995 -0.028908392 0.12594976
0002d0 56 59 0f 3e 9a 5c ce 3d 2b c6 c1 bb ec a6 48 bc
       0.13998923 0.10076256 -0.005913516 -0.0122468285
0002e0 c2 0b a3 bd 45 40 9c bd 70 34 12 bd 99 45 0e 3e
       -0.07961227 -0.07629446 -0.03569454 0.13893737
0002f0 e5 66 b7 3d 58 8e 95 bc 01 4c 04 3d 78 38 cb 3d
       0.089551724 -0.018256351 0.032299045 0.0992288
000300 bd 30 f2 3d 89 a0 75 bd 19 c0 20 3e 92 fb 55 3e
       0.11825702 -0.05996755 0.1569828 0.20896748
000310 a0 fb ad 3d c7 8a e2 3d 9e e6 97 3d cd b6 82 3e
       0.08495259 0.11061626 0.074170336 0.2553009
000320 fd 75 1a 3f 9a e3 f8 bd 71 b5 7b bd e1 ca d2 3d
       0.60336286 -0.121527866 -0.061452333 0.10292602
000330 5a 55 10 3e 54 b4 93 bd 4c c0 70 3e a6 f2 13 be
       0.14095059 -0.07212129 0.23510855 -0.14448032
000340 ce f4 c4 3d 15 2d 03 bf 51 c3 0b bd 3e 5f 0e bd
       0.09617005 -0.51240665 -0.034121815 -0.0347588
000350 96 35 43 3e d3 88 4d 3d 1c ab a5 3d 7d 21 fd 3d
       0.1906341 0.050179314 0.08089277 0.12359903
000360 48 45 2a be 46 8e 77 bd a3 d8 ae bd 3e 7c f1 bd
       -0.16627991 -0.060438417 -0.08537414 -0.117912754
000370 1e 7a 30 3e 33 70 af bc 26 d7 d9 3d 7d bb 9c 3d
       0.17234084 -0.021415805 0.106367394 0.07652948
000380 04 ff 27 3d 83 05 88 3e dc 86 55 bd 4f 9c f8 bd
       0.041014686 0.26566705 -0.052130565 -0.121391885
000390 0c 9b f4 bc 4e 07 02 3e 32 4b 11 3e ef 46 0c bc
       -0.029859088 0.12698099 0.14188841 -0.008561834
0003a0 5d d2 ae 3d 10 a0 29 3e 93 03 a4 bd aa ba 46 3d
       0.08536217 0.16564965 -0.08008494 0.04851786
0003b0 20 ab 6d 3e 31 5c be 3d 44 8d c0 3b fa 63 30 3e
       0.2320981 0.09294928 0.005876215 0.17225638
0003c0 2b 4d 33 bd 4b 4d 82 3e 44 0c 9a 3e 26 61 2b 3e
       -0.043774765 0.25449595 0.30087483 0.16736278
0003d0 04 26 9f bd b8 a1 63 3e f7 8c 0b 3e 1e 71 e3 bc
       -0.07770923 0.2222966 0.13627993 -0.0277639
0003e0 68 d1 1f 3e 44 19 09 be f8 5d f3 3d 58 b3 1f bf
       0.15607226 -0.13388544 0.118831575 -0.6238303
0003f0 79 93 48 bd 26 14 ee 3d e2 4f 44 be 1a ef a8 3d
       -0.048968766 0.11624937 -0.19171098 0.0824873

fc1.bias f4 [50]
000000 83 a0 b0 3c d5 27 ad bd 95 bb 3a bd 8d 06 5a 3e
       0.021560913 -0.08454863 -0.04558905 0.21291561
000010 52 93 b7 3d 65 7f 29 3e 92 dc ad 3d f7 33 df 3c
       0.08963646 0.16552503 0.08489336 0.027246458
000020 e8 00 22 bd 94 a4 e0 3b d6 32 02 be b1 54 ef 3c
       -0.039551646 0.0068555567 -0.12714705 0.029215189
000030 38 56 06 be fd 36 95 3e 63 3a cc bd c1 84 ef 3d
       -0.13118827 0.29143515 -0.09972074 0.11695243
000040 82 c1 ca bd 4f 4e 58 3e 9e c9 08 bd 23 67 23 bd
       -0.0990019 0.21123622 -0.033395402 -0.03989328
000050 7c d3 02 be d2 ee 41 be 10 fb 61 3e 45 bc a8 3d
       -0.12775987 -0.18938759 0.22068429 0.082390346
000060 12 d4 3c 3e 5b 5e 04 bd b3 42 3a 3e 3b 05 45 3e
       0.18440273 -0.032316547 0.18189506 0.19240277
000070 22 8f 87 bd 9d 5a 8c 3e d9 79 ac bd 99 95 66 3d
       -0.06619097 0.27412882 -0.08421678 0.05629501
000080 43 dd 32 bd d9 6d 30 be c0 c1 89 3d e6 4e 64 3e
       -0.043668043 -0.17229404 0.06726408 0.22295722
000090 b6 99 73 3e 7c 9a 92 3d 12 1e f4 3c 8c 55 35 be
       0.23789105 0.07158372 0.029799495 -0.17708415
0000a0 df dc b7 3d 2b 51 88 3e 96 a7 41 3e c9 f6 08 3e
       0.08977675 0.26624426 0.18911585 0.13375391
0000b0 5a f6 9d 3d 3e 08 09 3e 2d 56 7f bc 6a db 2f be
       0.077130035 0.1338205 -0.015584511 -0.17173544
0000c0 4f 6c 5a bc c1 df 02 3e
       -0.013331487 0.12780668

fc2.weight f4 [30, 50]
000000 b7 a2 75 3e 12 18 ea 3d f6 c7 72 3e e3 7d 70 3e
       0.23987852 0.11430372 0.23709092 0.23485522
000010 d6 89 43 be a5 ce d4 be fc ee 2c 3e f7 78 87 3d
       -0.19095549 -0.41563907 0.1688804 0.06614869
000020 45 47 f6 3d c9 ef 09 3e f5 db e1 bd 09 bb ae bc
       0.12025312 0.13470377 -0.110282816 -0.02132942
000030 ed b6 a7 bc a0 03 ad be dc 20 c4 3e b6 d8 d6 bd
       -0.020472968 -0.33791828 0.3830632 -0.10490553
000040 c2 db 37 3e 8b 51 f0 be a1 df de 3d d4 a8 b7 be
       0.17954925 -0.46937212 0.108824976 -0.35870993
000050 c1 99 0f be 25 58 51 3e b7 09 8e be 9b 71 1e 3e
       -0.14023496 0.2044378 -0.27741787 0.15473025
000060 46 04 fb bd 8c 8e 4e 3e 94 0b 62 be f0 88 f6 be
       -0.122566745 0.20171565 -0.22074729 -0.4815135
000070 64 d9 b9 3c 84 bc 5f bd b2 a2 6b 3d 13 93 96 3e
       0.022686668 -0.054623142 0.057528205 0.29409084
000080 04 52 a8 3e 01 da 0c be e3 8b 65 be 33 cf 83 be
       0.32875073 -0.13755037 -0.22416644 -0.25744018
000090 93 a0 98 bd d5 18 b9 bb 1d 66 b2 3d 67 90 9c 3d
       -0.07452502 -0.005648712 0.08710883 0.0764473
0000a0 a3 e7 42 3e e2 c3 59 be ae 9f c2 be da af af 3b
       0.19033675 -0.2126613 -0.3801245 0.0053615393
0000b0 4f bd cf 3e c7 41 cd be f1 85 d9 3e 0e 31 d9 3d
       0.40574118 -0.40089247 0.42485002 0.106050596
0000c0 df 5b 64 3d 8b 15 45 3e c7 dc 9b 3d 87 c8 16 bd
       0.055751678 0.19246499 0.07610469 -0.03681233
0000d0 0c 5e 5f be 5c 06 8e bd 1e d3 23 3e 9e ee 4f 3e
       -0.2181322 -0.06934807 0.15998504 0.20305869
0000e0 09 54 42 3b dc e7 20 bf 90 c2 61 3e 36 be 50 be
       0.002965214 -0.6285379 0.22046876 -0.2038506
0000f0 3e 76 de 3d 2c 58 1b be 6a 8f 09 be bf 34 84 3e
       0.10862397 -0.15170354 -0.13433614 0.25821492
000100 52 a4 c8 be 16 ac e3 3e 72 0c f5 be 39 8c c1 3e
       -0.39187866 0.4446723 -0.47861058 0.37802294
000110 f4 07 0a bd 9b 84 5c 3c 5c fc f5 bd da a0 8a be
       -0.03369899 0.01345935 -0.12011024 -0.27075845
000120 93 1f 9c bd e0 c4 52 3e 31 25 a9 3e fb e1 36 be
       -0.0762321 0.20582914 0.33036187 -0.17859642
000130 80 00 fb 3d 21 3a c6 3e 7d c6 9c 3e ff cc 8a 3e
       0.12255955 0.38716224 0.30620185 0.27109525
000140 7f 85 9d be 0d d8 50 3f d5 35 a6 be c1 53 c1 bb
       -0.30765912 0.8157967 -0.32462946 -0.005899877
000150 98 ee 21 bb d1 c3 a7 3e 8e 3a d1 3e 44 f4 f5 3d
       -0.0024708863 0.32766584 0.40864986 0.120094806
000160 b1 73 84 3d 61 cc 51 be 05 9d 0c bd 9a b4 9e 3e
       0.06467379 -0.2048812 -0.034329433 0.30997163
000170 4c 5f ce bc 1e 38 8e 3c 61 8c 37 3f af 8f fa 3e
       -0.025191925 0.017360743 0.71698576 0.48937747
000180 b4 71 31 3e 50 fe 61 bd 4a 7c 56 3e 63 5f 8c 3d
       0.1732853 -0.055174172 0.2094585 0.06854131
000190 28 f2 04 be 81 5e b7 bd 73 84 b7 3d 4c b3 0c bd
       -0.12983 -0.08953572 0.089608096 -0.03435068
0001a0 61 cf 89 3d 13 eb 53 bc b6 b6 41 bd b2 75 5c 3d
       0.067290075 -0.012934464 -0.047293387 0.05382318
0001b0 49 a0 09 be 9d 21 ce bc b6 4d 82 3d 1b 74 23 3d
       -0.1344005 -0.025162512 0.063624784 0.03990565
0001c0 21 e8 80 3d bd bf 8e bd 74 37 c4 3b 99 36 ad bc
       0.06294275 -0.06970165 0.005988056 -0.021144198
0001d0 d0 41 07 be 03 78 1a bd 38 c8 b8 bd 29 97 c5 bd
       -0.13208699 -0.03771211 -0.09022564 -0.09647972
0001e0 ac 1d ec 3d 11 e8 9e 3c 21 cd af bd 20 d9 c3 bc
       0.11529097 0.019397767 -0.08584047 -0.023907244
0001f0 ab 53 b7 3d 75 5b 29 bd 62 ef e4 bd 6d aa de ba
       0.08951505 -0.041346986 -0.11178471 -0.0016988047
000200 a7 00 a4 bd 29 71 af b9 bc 35 34 3d 8f b0 92 bd
       -0.08007937 -0.00033462912 0.043996558 -0.07162582
000210 87 06 b3 bd e2 d0 91 3d d8 5f 06 be 0e ab fc bd
       -0.08741479 0.07119919 -0.13122499 -0.123373136
000220 49 80 f9 3c a9 b5 10 3d 83 c3 d3 bc d3 fa d1 bc
       0.030456679 0.035329495 -0.025850063 -0.025632298
000230 98 26 92 bd 5e 27 08 be 2a 7b c7 bd 36 86 08 3e
       -0.071362674 -0.13296267 -0.097402886 0.13332447
000240 f6 7a 3d 3b 2f 41 c5 bc 05 db a9 3d f4 e9 3a bd
       0.0028912402 -0.024078934 0.08293728 -0.04563327
000250 ea 59 3a bd 47 72 ba ba f6 9d 8c ba fd 88 a6 3d
       -0.045495905 -0.0014224731 -0.0010728228 0.08131597
000260 ba 3a ad 3d 08 fc 83 bd 11 ac c4 bd 66 80 af bd
       0.08458467 -0.064445555 -0.096031316 -0.08569412
000270 19 33 cf bd 32 d9 97 3b fa 37 36 bd f6 7c ef bd
       -0.10117168 0.004634046 -0.044486977 -0.11693756
000280 26 4c 08 bd 67 31 62 bc a6 55 70 bc 2e 92 0a be
       -0.033275746 -0.013805724 -0.014668858 -0.13532326
000290 a3 72 06 bc d8 f3 00 be 3d 3b c1 bd c7 7d 58 bd
       -0.008206042 -0.12593019 -0.09435127 -0.052854326
0002a0 53 fb 40 bd 02 d9 25 bd 5f cd 10 3e 88 db 17 3d
       -0.04711468 -0.040490158 0.14140843 0.037074596
0002b0 ec 26 72 bc 99 50 86 bd 25 1f 53 bd 67 35 da bd
       -0.0147797875 -0.065583415 -0.051543374 -0.10654717
0002c0 e7 23 90 3d d4 ac c2 3d ad a3 7b bd f1 74 7e 3d
       0.07038098 0.095056206 -0.06143539 0.062123243
0002d0 89 51 0d be 1c c3 2a 3c ec 39 17 3d 08 a6 81 3d
       -0.13800634 0.010422494 0.036920473 0.06330496
0002e0 73 c2 4a bd 63 bf 71 bd 71 3e 0f 3e 2f ff ef bd
       -0.049501847 -0.05902041 0.13988663 -0.11718594
0002f0 13 b2 99 bd 6d 42 88 38 a8 4f ee bd bc ff c3 3b
       -0.07504668 6.497358e-05 -0.11636287 0.0059814136
000300 b1 8a ab bc 46 03 a9 3d 36 f3 d7 3d 47 66 9d 3d
       -0.020940157 0.082525775 0.10544436 0.076855235
000310 bb f4 f9 bd 97 3b b0 bd 0b 13 87 3d a8 12 fe bb
       -0.12204882 -0.08605116 0.06595429 -0.007753689
000320 6a ca 34 3d 69 c0 3e be 86 7d 2c be 15 ec a1 3c
       0.04413835 -0.18628086 -0.16844758 0.019765893
000330 40 ab 8e 3e cd 46 b8 3e 47 51 b6 3c 66 11 08 bf
       0.27865028 0.35991517 0.022255553 -0.5315155
000340 50 f6 43 be 9c 28 c5 3d 85 d3 af bc bb f5 8a bc
       -0.1913693 0.09626886 -0.021463165 -0.016962877
000350 5a f7 12 bd dc 8f 93 3e b1 38 cb be 41 ee 06 3f
       -0.035880424 0.28820693 -0.3969169 0.52707297
000360 e6 81 69 be 49 21 7a 3e e1 d7 b6 3b fc ed c0 3d
       -0.22803459 0.2442676 0.005579934 0.09420392
000370 48 a7 04 bd b8 28 98 be b3 eb 98 3d 51 35 87 bc
       -0.032386094 -0.29718566 0.07466831 -0.016504915
000380 37 cc bb 3d c5 d7 9e bd 4a 19 20 3e a0 87 0b 3f
       0.0916981 -0.077559985 0.15634647 0.5450382
000390 e7 0d 5a 3e 38 90 bc 3d 59 d6 ba bd c8 de 37 3e
       0.21294366 0.09207195 -0.09122915 0.17956078
0003a0 fb 11 b0 be a4 dd 1f bc 99 e3 ad 3c bc d8 15 be
       -0.34388718 -0.009757433 0.021226691 -0.14633459
0003b0 c1 d7 b0 3e 7a 2f 83 3b 6f 31 10 3c 20 7f 92 bd
       0.34539607 0.0040034624 0.008800848 -0.071531534
0003c0 a0 72 03 3e f2 c8 40 3e cd 77 d6 3d e4 ac 7a 3e
       0.12836695 0.18826655 0.10472069 0.24480015
0003d0 4e 24 ec 3e 8f 5a ce 3e 8d e4 20 3e bd fe e4 bc
       0.46121448 0.40303466 0.15712185 -0.0279535
0003e0 b3 8a b4 3d 99 47 aa 3d b6 3c 1a 3e 3f 8b fc 3e
       0.08815517 0.083144374 0.15062222 0.49324986
0003f0 80 9e 8d 3e 19 c9 38 bd 47 93 bb be a0 2b 03 be
       0.27659988 -0.045113657 -0.366358 -0.1280961

fc2.bias f4 [30]
000000 43 d3 76 3e 14 6f e9 bd 81 68 ca bd 9b 7b 07 be
       0.24104027 -0.113981396 -0.09883214 -0.13230745
000010 b5 d6 9e 3d 24 9b 23 3e 5d f8 46 3d 5d b4 05 3e
       0.07755796 0.1597715 0.0485767 0.13057084
000020 25 5f e7 3b b8 52 8c 3d c5 ee 23 3e 77 5b 14 3e
       0.0070609027 0.06851715 0.16009052 0.14488016
000030 9c 1f 7f bc cc 68 c7 3c f6 5f 0f 3d 69 27 37 3e
       -0.015571501 0.024341963 0.035003625 0.17886128
000040 2d 31 1a be 2a 38 36 3d da 08 a8 3c af 51 04 3d
       -0.15057822 0.044487156 0.020512033 0.032304462
000050 a1 68 f1 3d 94 98 41 3e bb d7 f2 3d a6 cf 26 3e
       0.117875345 0.1890586 0.118575536 0.16290149
000060 56 17 5a 3e a8 fb 04 be 1b 02 18 3e 82 93 7d 3d
       0.21297964 -0.12986624 0.14844553 0.061908253
000070 8d 93 c7 bd 69 34 16 3e
       -0.0974494 0.1466843

fc3.weight f4 [20, 30]
000000 ab c4 86 3d 19 eb a6 bd c4 d7 c8 3c 4f a9 18 3e
       0.0658048 -0.0815031 0.024516948 0.14908336
000010 06 28 03 3d fc 9f 18 be da f7 fd bd 5a f0 41 be
       0.03202059 -0.14904779 -0.124007896 -0.18939343
000020 af e5 63 bd 51 4c 35 bd 91 08 9a bd 7e 03 b5 bd
       -0.055638965 -0.044262234 -0.07521165 -0.08838557
000030 f4 f1 35 3e bb e1 ff 3d 48 f0 cb bd 9c d4 2e 3e
       0.17768079 0.124942265 -0.099579394 0.17073292
000040 e3 96 de bd 7d dc 0e 3d 2e d8 75 3d 96 d4 b9 bd
       -0.10868623 0.034878243 0.06002062 -0.09073751
000050 d6 23 ae 3d f8 42 22 be 35 9b b8 bd f7 5b 35 be
       0.08502929 -0.15845859 -0.090139784 -0.17710863
000060 e6 85 9b bd 12 dc 12 be 66 bd ea bd 9b ef b4 3d
       -0.075938985 -0.14341763 -0.11461906 0.088347636
000070 f3 5b 1f 3e 62 06 20 be 41 cb 8b 3e d2 2c b3 be
       0.1556242 -0.15627435 0.27303508 -0.34995133
000080 dd 05 e4 3d c2 e4 aa bd 40 11 a0 be ce 88 b0 3e
       0.11133931 -0.08344413 -0.3126316 0.34479374
000090 e9 11 01 3e 40 d1 1a 3f b9 d6 4f 3e bb 8d 23 3d
       0.12604488 0.6047554 0.20296754 0.039930087
0000a0 ea ad b9 bd ff c9 9f be ac 15 13 bc cd bc c8 be
       -0.090663746 -0.31208798 -0.008977335 -0.39206544
0000b0 df 88 cb be 07 f2 11 3f c1 c0 2b 3e 61 8c 64 bb
       -0.39752862 0.5700993 0.16772749 -0.0034873711
0000c0 ba 80 24 3c 76 3c ef 3c e0 05 d3 be b3 80 5f 3e
       0.010040456 0.029203635 -0.4121542 0.21826439
0000d0 b4 9a d5 3e 48 da 84 be 9d b1 11 3e 20 c0 44 bd
       0.41719592 -0.25947785 0.1422791 -0.048034787
0000e0 39 7a d0 be 45 17 79 3e ca ce 5a bd b0 32 90 be
       -0.40718248 0.24325283 -0.053419866 -0.28163671
0000f0 cc c7 2f be 53 78 ce 3d 0a ee 1c be a6 81 0b 3e
       -0.1716606 0.10081544 -0.1532518 0.13623676
000100 a6 94 ab bd 53 55 74 be c9 72 a2 be 40 a4 e7 3d
       -0.08377962 -0.23860674 -0.317282 0.11310625
000110 c1 94 bd 3d 89 6c 9a 3d dc 9b c1 3c 52 39 b7 3d
       0.09256888 0.07540233 0.02363389 0.0894648
000120 ca 88 93 bd f0 ac 3e bb ff 3c 10 3d a9 4b 83 bc
       -0.07203825 -0.0029094778 0.03521442 -0.016027289
000130 f9 0f 63 3e 9b 01 3d 3d 89 96 4f 3c 1f b2 fc 3c
       0.22174062 0.04614411 0.012670168 0.030846654
000140 c5 2f 42 3d b0 e3 d8 3d 46 2a 0c bd 09 b1 70 bd
       0.047408838 0.10590303 -0.034220003 -0.058762584
000150 24 6d 09 be 38 40 f3 bb a5 f5 43 be 74 30 67 bd
       -0.1342054 -0.007423427 -0.19136675 -0.056442693
000160 64 00 62 bd 5f 07 82 be c1 74 09 bf 8c 55 3c 3e
       -0.055176154 -0.2539625 -0.5369378 0.18392009
000170 d5 b1 19 3d 75 bc e0 bd c0 a7 00 3e 2f b2 5d be
       0.03752311 -0.10973445 0.12563992 -0.21650003
000180 28 e8 d7 be 81 3c 2f be 46 7d 15 3f 37 8d 04 be
       -0.4216931 -0.17112924 0.5839428 -0.12944494
000190 dd 24 d3 3c 07 c3 f1 bd 8b 4d 17 3e 1d 40 3c 3f
       0.025774414 -0.11804777 0.14775674 0.7353533
0001a0 88 d6 11 3f c8 16 44 3f 97 43 1d be 11 43 05 be
       0.56967974 0.7659726 -0.15357815 -0.13013865
0001b0 e4 c2 24 3d 26 55 65 3e 01 9a 02 bd ac c4 5a 3e
       0.040224925 0.22395763 -0.03188515 0.21364087
0001c0 53 5e 1b 3e b7 1d fa bd 35 29 f1 3d 7f 0b c4 3d
       0.151727 -0.12212699 0.11775438 0.09572505
0001d0 d1 d0 e7 3e e3 4f 25 3e 94 cf 3b 3f c6 cd a5 3e
       0.45276502 0.16143756 0.73363614 0.32383555
0001e0 5c f2 8b 3e 09 cf 09 be 56 7c 03 3d 0d e2 65 bd
       0.27333343 -0.13457884 0.032100998 -0.056123782
0001f0 77 32 a2 be 97 30 8d 3e 2b 09 96 3d 4d cb 8d 3e
       -0.31679127 0.27576134 0.073259674 0.2769417
000200 4c b9 02 3d e4 ba 1a be c1 59 24 3e de 1a 19 3d
       0.031914994 -0.15110356 0.16049863 0.03737914
000210 9a d5 1d bc a0 ea 0f bf 70 ce d5 be 19 7e 07 be
       -0.009633446 -0.56217384 -0.41759062 -0.13231696
000220 9a 61 8a 3e 12 a7 8d bb 2a b6 36 3d aa 11 5f ba
       0.2702759 -0.004322895 0.04460732 -0.0008509407
000230 19 ce a4 3e 2a 75 57 3e 7a 42 3a be 6f 5f 41 3e
       0.3218849 0.21040788 -0.18189421 0.18884061
000240 2e c3 50 3e 0d b1 9a 3d cc 89 4e 3e e3 6c 2c bd
       0.20386955 0.07553301 0.20169753 -0.04209603
000250 a2 a1 ba bd dd 53 91 bd 50 5d 22 bc 95 3a a7 3e
       -0.0911286 -0.07096074 -0.009909943 0.32661882
000260 2e c9 eb bd a4 8e ab bd e8 47 4b 3d 28 02 1a 3f
       -0.11512981 -0.08376816 0.049629122 0.6015954
000270 9a db 0c bd 51 d2 e9 bd c2 f3 cd 3d 65 76 b0 bc
       -0.034389116 -0.11417068 0.10056259 -0.02154083
000280 aa 33 ef bb 2a a9 b5 3d e9 a4 85 3c cc 70 4f 3e
       -0.00729986 0.08870156 0.016313987 0.20257872
000290 e3 6a 0b 3f d0 53 f6 be be ae 93 3e 52 e5 36 3e
       0.5445997 -0.4811082 0.28844255 0.17860916
0002a0 75 4b 04 3f 73 69 bf 3c 9f ba 34 be c0 c3 9d 3e
       0.5167764 0.023365712 -0.17649315 0.30813408
0002b0 43 61 d4 be ba 67 fc bd 55 77 be 3e 94 d3 2f 3d
       -0.41480455 -0.12324472 0.37200418 0.042926386
0002c0 36 5c 2f 3e c5 27 60 bd 58 fe b7 3e be 24 1e 3e
       0.1712502 -0.054725427 0.35936236 0.15443704
0002d0 b7 43 17 3c b3 ec 5f 3e da d1 9d 3d 82 2e 31 be
       0.009232453 0.21867637 0.07706042 -0.17302898
0002e0 11 12 33 3d d9 f8 1b 3d cc e4 43 be 8a 3c 5a be
       0.0437184 0.038079116 -0.19130248 -0.21312156
0002f0 3c 95 3d 3e 73 11 61 3d 62 c2 54 3e 85 2d 85 3d
       0.1851396 0.05494828 0.20777276 0.06502823
000300 07 6e 07 be 1c 82 49 3f 15 5d 07 3e c1 52 40 be
       -0.13225566 0.78714156 0.13219102 -0.18781568
000310 9c 04 90 3e da 6e 83 3b 6d e7 a3 3e ad 77 f2 bd
       0.28128517 0.0040110173 0.320125 -0.118392326
000320 bb a1 cd 3c a6 5a 24 3e eb a7 5f be 4d 35 38 be
       0.025101533 0.16050205 -0.218414 -0.17989083
000330 9b 06 21 3e 68 66 0c 3e 8b 22 ba bd c4 b2 0e 3d
       0.15725176 0.1371094 -0.0908862 0.034838453
000340 25 50 1d be 73 da bc 3c 34 e0 32 3e f7 8b 91 3c
       -0.15362604 0.023053383 0.17468339 0.017766936
000350 7a 70 77 ba d6 73 2e bb aa 53 8f be 3e e5 0f 3e
       -0.00094390626 -0.0026619337 -0.27993518 0.14052293
000360 40 e4 86 3e ec 63 8f 3d ef ad 30 3e 90 3c 04 bd
       0.26346016 0.070014805 0.1725385 -0.03228432
000370 2a 3d fd be 3b 40 00 be be e8 13 bc dd 81 00 bf
       -0.49460727 -0.12524502 -0.009027658 -0.50198156
000380 ea 1a 2b bd 5f 2d 02 bf 3b c4 a6 3e 2d da c5 bd
       -0.041773714 -0.5085048 0.32571587 -0.09660754
000390 76 1d ae 3e 8d f7 1e 3e e8 59 7b be ea 16 6b 3d
       0.34006852 0.1552412 -0.24546015 0.0573949
0003a0 52 cd f7 be 69 03 dc be a3 0d a6 3e 18 03 ea bd
       -0.48398834 -0.42971352 0.3243228 -0.11426371
0003b0 c6 d9 90 bd 4b 05 88 3e 95 77 c2 3e 5d 2a 13 bf
       -0.07072787 0.26566538 0.3798186 -0.57486516
0003c0 b8 9a 1f 3e bf dc c2 be 3b 7e 33 3e a4 5d 1f bd
       0.15586364 -0.3805904 0.17528622 -0.038907662
0003d0 9e 5f 1c bd 49 e0 d0 3c 4d b3 23 3e cb e2 5e 3e
       -0.038177125 0.025497572 0.15986367 0.21766202
0003e0 eb c1 fe 3d 50 25 08 be 03 e6 26 bf 21 6d 7c be
       0.12439331 -0.13295484 -0.6519472 -0.24651004
0003f0 69 38 c3 bd 3e df 7d be fd 26 80 3e d4 32 c9 3e
       -0.09532244 -0.24792191 0.25029746 0.3929659

fc3.bias f4 [20]
000000 9a 26 88 3d c8 cb 4f 3e 69 6c 3e be f9 01 80 3c
       0.06647988 0.2029258 -0.18596043 0.01562594
000010 70 ba d2 3d 7c ea 82 bd c8 2b dc bd 9a a4 9b bd
       0.102894664 -0.063923806 -0.10750538 -0.07599755
000020 88 16 2d 3e cc a6 f1 3d 83 65 a1 3e ff 21 b9 3d
       0.16903126 0.11799392 0.3152276 0.09039687
000030 ea 0b d5 bd 23 76 f4 bd 56 47 3a 3c e4 eb e5 3d
       -0.10402663 -0.11936595 0.011369547 0.11226633
000040 c3 b0 a3 bc 0c 29 2d 3d bf 72 60 3e f6 cb 40 3d
       -0.019981747 0.042275473 0.21918772 0.047069512

fc4.weight f4 [5, 20]
000000 27 5d e0 bd 86 34 c0 be 60 60 f2 bd 1a 20 39 bf
       -0.109552674 -0.37540072 -0.11834788 -0.7231461
000010 1b da aa 3d cb 16 09 bf 64 0e aa 3d e7 fc 9d be
       0.083423816 -0.53550404 0.08303526 -0.30857012
000020 91 22 ef be 07 be 9e 3d 0e 26 bd 3d 13 ac 5a be
       -0.4670606 0.077510886 0.09235774 -0.21354704
000030 a4 2a 0f be 48 fc 74 3d da 28 9d 3e 78 85 88 3d
       -0.1398111 0.059810907 0.3069523 0.06666082
000040 f2 37 41 be 33 a1 5e bd 09 2b 5f be ed 67 8f be
       -0.18868998 -0.05435295 -0.2179376 -0.28008977
000050 62 87 5c bd 87 f6 a1 be 1b 82 a6 3d e5 92 09 3e
       -0.05384005 -0.31633398 0.081302844 0.13434942
000060 5b 54 7e be 92 5a aa bf 78 9c f4 be 52 9c 97 be
       -0.24836867 -1.330889 -0.47775626 -0.2961145
000070 12 6c fa 3d d1 9f f2 3d 89 0a 8a bf 06 0c 9f bf
       0.12227644 0.11846889 -1.0784465 -1.2425544
000080 d8 24 49 3c 8a 7e b6 be a7 57 f3 bc 39 96 2e 3e
       0.012276851 -0.35643417 -0.029704882 0.17049493
000090 09 cf 1f be a2 74 43 3e 18 c9 62 bf 4c ab 2b bc
       -0.15606321 0.1908746 -0.88588095 -0.010477852
0000a0 57 66 93 3a 53 a1 52 3e d2 37 7d bd cb 51 7f bf
       0.001124571 0.20569353 -0.061820813 -0.9973418
0000b0 f5 e6 8b 3e 53 1a 03 3f 41 ee a8 bd ed 01 b0 bb
       0.27324644 0.5121204 -0.08248568 -0.0053713233
0000c0 53 a7 52 be 46 05 83 be 6a fc 82 bf 41 81 86 bd
       -0.20571642 -0.2558996 -1.0233281 -0.06567622
0000d0 1a 73 db 3d dd 5f 6d be 5a ca 27 bf 64 33 65 be
       0.10715313 -0.231811 -0.6554314 -0.22382885
0000e0 73 97 ed 3c 9a 09 fe be 6d 38 18 be 49 d7 46 be
       0.02900288 -0.496167 -0.14865275 -0.19418062
0000f0 8d 85 c7 bd 2c aa fc 3e f6 f8 8e be 35 d9 8b 3e
       -0.0974227 0.4934858 -0.27924317 0.27314153
000100 48 c4 40 3e e0 90 14 c0 8e 9d b8 be 2f f2 1e be
       0.18824875 -2.3213425 -0.36057705 -0.15522073
000110 8d e0 86 3e 1f 88 44 3d 16 17 5a bc 01 69 82 bf
       0.26343194 0.047981378 -0.013311168 -1.0188295
000120 48 ef 26 bd fa 4f cf be 0b c3 1a be c2 6d 0b bf
       -0.04075554 -0.40490705 -0.15113465 -0.5446435
000130 6f 47 cb 3c 7d d7 e9 be 7e 7f 86 bb a2 ee bb bd
       0.024814336 -0.45672217 -0.0041045537 -0.09176375
000140 be 4c dd bd c6 a9 e7 bf 19 b7 4f 3c 9c 8b b6 3d
       -0.10805653 -1.8098686 0.012677931 0.08913347
000150 a6 87 87 bf 49 f5 bc 3e db cb 5a 3e 58 29 57 bf
       -1.0588272 0.36905888 0.21366827 -0.8404746
000160 01 16 0f c0 40 a5 23 bd 9f 8d 68 3e 64 a9 57 3d
       -2.235718 -0.039952517 0.22710274 0.052651778
000170 1f 2f cc bd dd 0d e9 bf 7b cb e5 be f7 ef 89 3d
       -0.09969925 -1.8207356 -0.44881806 0.06735223
000180 21 88 cb bf 16 65 d8 3d b6 92 6a 3e 94 16 23 3f
       -1.5900918 0.105661556 0.22907528 0.63706326

fc4.bias f4 [5]
000000 4d 38 a2 be 76 05 c7 be 42 09 ac bd 1a 5b 68 3e
       -0.3168358 -0.38871354 -0.08400203 0.22691002
000010 69 cc 2d bf
       -0.6789003
