Sample_Based_Extension/WUSTL/WUSTL_Defense/preprocessor/dnn_pytorch_gaussian_augmenter.pt (torch, 21076 bytes, 8 tensors)

fc1.weight f4 [50, 42]
0	0xbf29ea8e	-0.6637353
1	0xbe924942	-0.28571516
2	0x3da0abd1	0.078452714
3	0xbdb420a9	-0.08795292
4	0x3d14d4a4	0.036335602
5	0xbd60dfec	-0.05490105
6	0xbe55a60d	-0.20864125
7	0x3e2747a3	0.16335921
8	0xbde9a102	-0.11407663
9	0xbd442606	-0.047887824
10	0x3c09eef0	0.008418784
11	0xbe8571b5	-0.26063314
12	0xbf1ae6ab	-0.6050822
13	0xbe27c367	-0.16383134
14	0x3d98fdfa	0.07470317
15	0xbe3c7faa	-0.18408075
16	0x3d5eebc6	0.05442407
17	0x3db7375d	0.089461066
18	0xbf15a1c3	-0.58449954
19	0x3e0da485	0.1383229
20	0x3b552cc3	0.00325279
21	0xbe6cd6b5	-0.23128779
22	0x3eee11f5	0.46498075
23	0xbc3fb620	-0.011701137
24	0x3d169009	0.036758456
25	0x3eabf889	0.33588055
26	0x3c0dbaed	0.008650524
27	0xbe671d2f	-0.22569726
28	0x3e6d2f5e	0.231626
29	0xbe764b25	-0.24052103
30	0x3e3f7c41	0.18699743
31	0xbc8bc227	-0.017060352
32	0xbd9ac804	-0.07557681
33	0x3e144b15	0.14481767
34	0x3c55e9e5	0.013056253
35	0x3e4e33ad	0.201369
36	0xbe8af8eb	-0.27143034
37	0xbe605488	-0.21907246
38	0xbe4f633a	-0.20252696
39	0xbd175a11	-0.03695113
40	0xbc56bbf5	-0.013106336
41	0xbf3b8ec5	-0.73264724
42	0xbd3cab8a	-0.04606203
43	0x3e57541e	0.21028182
44	0xbe5ac7f9	-0.21365346
45	0xbd50725b	-0.050890308
46	0x3e434837	0.19070517
47	0xbc59b4c0	-0.013287723
48	0x3e08fbe3	0.13377337
49	0xbe265271	-0.16242386
50	0xbd831817	-0.06401079
51	0xbcaca60b	-0.02107527
52	0xbd9ed40b	-0.07755288
53	0x3dd97c10	0.10619366
54	0x3dd8129f	0.10550427
55	0x3d1ca320	0.038241506
56	0xbb8d12bb	-0.0043052114
57	0x3e16441a	0.14674416
58	0x3da46a8f	0.08028137
59	0xbdb46524	-0.088083535
60	0x3f76b599	0.96370846
61	0x3e342077	0.1759051
62	0x3e1083c5	0.14112766
63	0x3ef9cc4f	0.48788688
64	0x3e039721	0.1285062
65	0xbe401437	-0.18757711
66	0x3d8c1924	0.06840733
67	0x3ddf4945	0.10902647
68	0xbe434a37	-0.1907128
69	0xbe54e1d8	-0.20789278
70	0xbe7c7b6a	-0.24656454
71	0xbe30315a	-0.17206326
72	0xbb95568c	-0.0045574363
73	0x3f0f0268	0.55863047
74	0xbdbe5e80	-0.09295368
75	0xbd5fe097	-0.054657545
76	0xbd74d7ca	-0.059776105
77	0x3d5c8333	0.05383606
78	0xbd17aa02	-0.037027366
79	0xbe469df6	-0.19396195
80	0xbe05ee8c	-0.1307928
81	0x3e154b18	0.14579427
82	0x3a413284	0.0007369893
83	0xbc6c0621	-0.014405758
84	0x3e298325	0.16553934
85	0xbd759f9c	-0.05996667
86	0x3e643507	0.22285853
87	0xbdee6850	-0.1164099
88	0x3d6977d4	0.056999043
89	0x3e8d34d7	0.27579376
90	0x3dd9dd7f	0.1063795
91	0xbed4c74b	-0.41558298
92	0xbd127122	-0.035752423
93	0x3d0102be	0.031496756
94	0xbd005369	-0.031329546
95	0xbe220b6b	-0.15824668
96	0xbe98b4c6	-0.2982542
97	0x3ee81fc0	0.45336723
98	0x3dff33dc	0.12461063
99	0xbe8c5dba	-0.27415258
100	0x3eba68d2	0.36408097
101	0xbe4c97bb	-0.19979756
102	0x3e92521c	0.2857827
103	0xbe0e65a7	-0.13905965
104	0x3e993cac	0.299291
105	0xbe0f470f	-0.1399195
106	0x3cd92547	0.026507033
107	0x3e91207f	0.28345105
108	0xbeec6c6b	-0.46176466
109	0x3e7f8192	0.24951771
110	0xbca54052	-0.020172272
111	0xbe96204a	-0.2932151
112	0xbe039b54	-0.12852222
113	0x3eba0fe7	0.36340258
114	0xbe434f2f	-0.19073175
115	0x3dd6026b	0.1044968
116	0xbdce94c7	-0.10086971
117	0x3e745bb2	0.23863104
118	0x3e01cd2d	0.12675925
119	0xbeb65094	-0.3560835
120	0xbf0ad79b	-0.5423524
121	0xbe6e994d	-0.23300667
122	0xbea284f5	-0.31742063
123	0xbd0fcbdf	-0.035106536
124	0x3d716202	0.05893136
125	0xbf158686	-0.5840839
126	0x3dd6ef9c	0.104949206
127	0xbe63ce54	-0.22246677
128	0xbc5de604	-0.0135436095
129	0xbdf73fd2	-0.1207272
130	0x3e4cad9c	0.19988102
131	0x3d3fbb0c	0.04680924
132	0xbe388be8	-0.1802212
133	0xbd462020	-0.04837048
134	0x3e85a0d2	0.2609926
135	0x3e105a5e	0.14096972
136	0xbe2a7994	-0.16647941
137	0x3e346f1a	0.17620507
138	0x3e194448	0.14967453
139	0x3e734ad6	0.23759016
140	0x3ded7027	0.11593657
141	0x3e39ee3b	0.18157284
142	0xbe087b69	-0.13328327
143	0x3d97c951	0.07411445
144	0x3d8f3acf	0.06993639
145	0x3d312c03	0.043254863
146	0xbbd539a7	-0.006507117
147	0x3ef533c2	0.4789105
148	0xbdfa0951	-0.12208808
149	0xbc8784a6	-0.016542744
150	0x3d81f912	0.063463345
151	0x3df58106	0.119875
152	0xbe8a40ef	-0.27002665
153	0x3d692379	0.056918595
154	0xbdb61416	-0.0889055
155	0x3ce36758	0.02775924
156	0xbd45589b	-0.048180204
157	0x3cc49262	0.023995582
158	0xbdaca789	-0.08430392
159	0x3d1bb361	0.038012866
160	0x3d3fdf34	0.046843722
161	0x3dff71a6	0.124728486
162	0xbe06fdd8	-0.13182771
163	0x3e00dd12	0.12584332
164	0x3e877356	0.26455182
165	0x3f2f1d30	0.6840391
166	0xbc026482	-0.007958533
167	0x3ebc0f22	0.36730295
168	0x3db88070	0.090088725
169	0xbd8f6076	-0.0700082
170	0xbe84fb6d	-0.25973073
171	0x3e4ca6a1	0.19985439
172	0x3e7d8236	0.24756703
173	0xbd872060	-0.06597972
174	0x3d8c3499	0.0684597
175	0x3e12ff44	0.14355189
176	0xbe6586a6	-0.22414646
177	0xbd66840c	-0.056278273
178	0x3d8d791a	0.06907864
179	0xbd817143	-0.06320431
180	0x3d56dff5	0.052459676
181	0xbeacbb62	-0.33736712
182	0x3dad1139	0.084505506
183	0x3f67f347	0.90605587
184	0x3edc7bd7	0.43063232
185	0xbdcdd3cb	-0.10050162
186	0x3e49ba27	0.19699918
187	0xbdb2d0a5	-0.08731202
188	0x3dd9f031	0.10641516
189	0xbecbaba1	-0.3977938
190	0x3ee0adf0	0.43882704
191	0xbe939126	-0.28821677
192	0x3c5bf85d	0.013425914
193	0xbe1b5270	-0.15168166
194	0xbca21926	-0.019787382
195	0xbd119ea8	-0.035551697
196	0xbe359f80	-0.17736626
197	0x3e608d72	0.21928957
198	0xbdaa6436	-0.08319895
199	0xbefd9d19	-0.49533918
200	0x3f1e9fd9	0.6196266
201	0x3ee5af41	0.4486027
202	0xbe1c01ad	-0.15235014
203	0x3e408283	0.18799786
204	0x3d1a4a4d	0.037668515
205	0x3da640a9	0.08117802
206	0xbd3cc553	-0.04608662
207	0xbeb42e6a	-0.3519166
208	0xbe2f0354	-0.17091113
209	0xbe1224bf	-0.1427183
210	0x3e33e233	0.17566757
211	0xbe4274b9	-0.18989839
212	0x3dc614cd	0.09671936
213	0xbe0b9b43	-0.13633446
214	0x3d7cc71b	0.06171332
215	0xbbc22376	-0.0059246374
216	0x3e1162ae	0.141978
217	0xbdee23c6	-0.11627917
218	0xbe15bac4	-0.14622027
219	0xbd929472	-0.0715722
220	0xbda1355f	-0.07871508
221	0x3e1a4658	0.15065897
222	0xbef7242a	-0.48269778
223	0x3e00a0c6	0.1256133
224	0xbc59aa7a	-0.013285274
225	0xbd4b645a	-0.04965625
226	0x3e043136	0.12909397
227	0x3ab7098d	0.0013964638
228	0xbdc626ea	-0.09675391
229	0x3db2324e	0.08701001
230	0x3d032078	0.032013386
231	0xbd91a7f9	-0.07112116
232	0x3d4bf771	0.049796525
233	0x3da5357e	0.080668435
234	0x3e973ae0	0.29537106
235	0xbe0e26a1	-0.13881923
236	0x3df4ad3d	0.11947105
237	0x3cd0e14b	0.025498053
238	0xbee16c2f	-0.4402785
239	0x3d3fe5f5	0.046850163
240	0x3e0d99cc	0.138282
241	0xbe99dcd0	-0.3005128
242	0x3f05f546	0.5232738
243	0x3defeb0f	0.11714756
244	0x3dda2cbb	0.10653063
245	0x3d84c583	0.06482985
246	0x3ddd66bb	0.1081061
247	0xb9e39228	-0.0004340571
248	0x3e1bff81	0.15234186
249	0xbe24cbfa	-0.16093436
250	0xbddf1ac3	-0.10893776
251	0xbf809c86	-1.0047767
252	0xbe81b6ef	-0.2533488
253	0x3dde01aa	0.10840161
254	0xbed4c054	-0.41552985
255	0x3df7ab1a	0.12093182

fc1.bias f4 [50]
0	0xbee61c9f	-0.4494371
1	0xbef9c994	-0.48786604
2	0xbeaaa808	-0.33331323
3	0xbf7ff9aa	-0.9999033
4	0x3cdb9a4c	0.026806973
5	0x3f3016f9	0.68785053
6	0xbdd2d9a9	-0.10295422
7	0x3f3ea206	0.7446598
8	0x3d933557	0.07187908
9	0xbd727dca	-0.059201993
10	0xbf0374b7	-0.5134997
11	0xbe967cfd	-0.29392233
12	0x3e26c2cc	0.16285247
13	0xbd71a830	-0.058998287
14	0xbd0f57dc	-0.0349959
15	0xbe69f3fa	-0.22846976
16	0x3e3d6e8c	0.18499202
17	0x3f076c1d	0.5289934
18	0x3f208077	0.6269602
19	0xbf76d8dd	-0.9642466
20	0xbe779b72	-0.24180391
21	0x3f0761de	0.5288371
22	0xbe0f9232	-0.14020613
23	0x3e8f5215	0.2799231
24	0xbf9025eb	-1.1261572
25	0xbeb5bc64	-0.35495293
26	0x3eab83bf	0.33498952
27	0xbd852722	-0.065016046
28	0x3e95cda6	0.2925846
29	0xbea55c41	-0.32296947
30	0x3e16e803	0.14736943
31	0xbee41a32	-0.44551235
32	0x3f8fb50b	1.1227125
33	0xbc979fe5	-0.01850886
34	0x3eca6955	0.39533487
35	0x3f1f9980	0.623436
36	0x3e7166f2	0.23574427
37	0x3e9620cf	0.29321906
38	0xbe4949f8	-0.19657123
39	0x3ec4f062	0.38464648
40	0xbdb9ae79	-0.09066481
41	0xbef43e34	-0.47703707
42	0xbf12ec42	-0.5739175
43	0xbdd20377	-0.10254567
44	0xbdeeaa2c	-0.116535515
45	0xbddf385d	-0.10899422
46	0xbe1d0ba3	-0.1533647
47	0x3fbf65b1	1.4952909
48	0xbebb79cc	-0.3661636
49	0x3ebdab25	0.37044635

fc2.weight f4 [30, 50]
0	0xbe800f46	-0.25011653
1	0x3e1bb241	0.15204717
2	0xbe39686a	-0.18106237
3	0xbe139d0d	-0.14415379
4	0x3daa573f	0.08317422
5	0xbda23e8c	-0.07922086
6	0x3cda5126	0.026650023
7	0x3c38da1a	0.011282468
8	0xbe074e10	-0.13213372
9	0x3e039cf5	0.12852843
10	0x3e47fb55	0.1952947
11	0xbbda45f2	-0.00666117
12	0x3e488717	0.19582783
13	0xbe8f5a2f	-0.27998492
14	0x3dd92344	0.106024295
15	0xbf2fe4d9	-0.6870857
16	0x3d5bc85b	0.05365787
17	0xbe09c5ce	-0.13454363
18	0x3e9414a9	0.28922012
19	0xbe5d4543	-0.21608452
20	0xbd36a722	-0.044592984
21	0xbc98ab59	-0.018636392
22	0x3d567f64	0.052367583
23	0x3c975aea	0.018475968
24	0xbeb66362	-0.35622698
25	0xbdc7150a	-0.0972081
26	0xbd2a6756	-0.041602455
27	0xbd9da810	-0.07698071
28	0x3e4946ea	0.19655958
29	0xbe72f60a	-0.23726669
30	0xbd565882	-0.0523305
31	0xbdb3b2ad	-0.08774314
32	0xbdd1f390	-0.10251534
33	0x3e7080bf	0.23486613
34	0x3db5362c	0.08848223
35	0x3e0b8750	0.13625836
36	0xbea06ebb	-0.3133448
37	0xbf2cb2ba	-0.67460215
38	0xbcff2fcb	-0.03115072
39	0xbe7a393a	-0.24435893
40	0xbd02baf5	-0.031916577
41	0xbe43f538	-0.19136512
42	0x3dee1844	0.11625722
43	0xbdc7f100	-0.09762764
44	0xbd3ab471	-0.04558224
45	0x3df54c89	0.119774885
46	0x3d4a6d0c	0.0494204
47	0xbf014168	-0.50490427
48	0x3d814d66	0.06313591
49	0xbe29c6ef	-0.16579793
50	0xbe00bc11	-0.12571742
51	0xbe83e1b0	-0.25758123
52	0xbb80216a	-0.0039102333
53	0xbea605b9	-0.3242624
54	0xbde63c40	-0.112419605
55	0xbe0556e2	-0.13021424
56	0x3e86eb6a	0.26351482
57	0x3b006327	0.001959035
58	0xbe643e45	-0.22289379
59	0xbe1bcd9a	-0.1521515
60	0x3d055ac6	0.03255727
61	0xbe68a2dd	-0.22718377
62	0x3dd0eb7d	0.10201166
63	0xbdd8acd0	-0.10579836
64	0xbe45d8da	-0.19321004
65	0xbc971832	-0.018444154
66	0xbe897770	-0.26848936
67	0xbe49128e	-0.19635984
68	0x3d5ae4b9	0.053440783
69	0x3e8c9cf9	0.2746351
70	0x3cc757c0	0.024333835
71	0xba8d69aa	-0.0010788937
72	0x3d638233	0.05554409
73	0xbd91e785	-0.07124237
74	0x3b63ca09	0.0034757874
75	0xbe95a166	-0.292247
76	0x3d9997ac	0.07499632
77	0x3e46d764	0.19418103
78	0x3ee8afd5	0.4544665
79	0xbdd82dfe	-0.10555647
80	0x3dc1f971	0.09471405
81	0xbd3a1938	-0.045434207
82	0xbe8ea7e1	-0.27862456
83	0xbe825add	-0.25459948
84	0x3db17f04	0.086668044
85	0xbe8fbe6a	-0.28074962
86	0x3e4177a5	0.18893297
87	0xbbd9fa6b	-0.0066521666
88	0xbe91ebd4	-0.28500235
89	0xbf17f1b9	-0.59353215
90	0xbe838e06	-0.25694293
91	0xbe8b2f59	-0.2718456
92	0xbe83f8a7	-0.25775644
93	0xbcdf80d4	-0.02728311
94	0x3d932a20	0.07185769
95	0xbe519f81	-0.20471002
96	0xbe1de103	-0.15417866
97	0xbe2cd91b	-0.16879694
98	0xbd0e9977	-0.034814324
99	0xbdb806b9	-0.08985657
100	0x3e8c3ea6	0.27391547
101	0xbed32272	-0.41237217
102	0xbd403e28	-0.046934277
103	0xbe569fe4	-0.20959431
104	0x3d937154	0.0719935
105	0x3e994dd5	0.29942194
106	0xbe831c3c	-0.2560748
107	0x3e5c1ea2	0.2149606
108	0xbe677703	-0.22603993
109	0xbdfde794	-0.12397686
110	0xbe31bd26	-0.1735731
111	0xbeb0eca7	-0.3455555
112	0x3d105a9f	0.035242673
113	0x3c14afba	0.0090751
114	0xbe2d4af7	-0.16923128
115	0xbe617c2f	-0.22020029
116	0x3e05635f	0.13026188
117	0x3e0337cb	0.12814252
118	0x3dfcc29e	0.12341808
119	0xbf0718bb	-0.5277211
120	0xbd2b0849	-0.04175595
121	0x3e18535e	0.14875552
122	0xbea13a20	-0.31489658
123	0x3d03ba54	0.03216012
124	0xbf02014f	-0.50783247
125	0xbdf73a37	-0.120716505
126	0x3e5b82c3	0.214366
127	0x3c9205b6	0.017824989
128	0xbddbe295	-0.107365765
129	0xbca8759b	-0.020563891
130	0x3e221988	0.15830052
131	0xbf7ee318	-0.9956527
132	0x3e2de979	0.16983594
133	0x3e59fe7d	0.21288486
134	0x3e8d08d3	0.27545795
135	0xbc5f9521	-0.013646395
136	0x3e565ee7	0.2093464
137	0xbd13d445	-0.036091108
138	0x3e177519	0.14790763
139	0xbdbfb061	-0.093598135
140	0xbe4078e2	-0.18796113
141	0x3e368c41	0.1782694
142	0xbec4bcf9	-0.38425425
143	0xbd71b684	-0.05901195
144	0xbebea832	-0.37237698
145	0xbe1dc53b	-0.15407269
146	0xbc2981bf	-0.010345875
147	0x3df9c93a	0.12196584
148	0xbe9af85b	-0.30267605
149	0xbcca9ee3	-0.024733966
150	0x3e14f54b	0.14546697
151	0xbd57986c	-0.052635595
152	0x3e342ebd	0.17595954
153	0xbe05281a	-0.13003579
154	0x3cb94a7a	0.022618521
155	0x3eb4d142	0.353159
156	0xbd12ac10	-0.035808623
157	0x3e11b09f	0.14227532
158	0x3d928356	0.071539566
159	0x3ca883af	0.020570604
160	0xbe03c5b0	-0.1286838
161	0x3d564a9f	0.052317258
162	0x3e1975b2	0.14986303
163	0x3da166fb	0.0788097
164	0x3e117c7a	0.1420764
165	0xbe6aff8d	-0.22949047
166	0x3d2178a7	0.039421704
167	0x3dd57886	0.10423379
168	0x3db62a8b	0.08894833
169	0xbec10bde	-0.37704366
170	0x3e1196c3	0.14217667
171	0x3e4501a5	0.19238909
172	0x3d9accb7	0.075585775
173	0x3e4bc69b	0.1989998
174	0xbeff60a0	-0.49878407
175	0x3e1418d1	0.14462592
176	0x3e811baa	0.25216419
177	0x3e9ad41e	0.30239958
178	0x3dc45931	0.095873244
179	0x3e5fc6f7	0.21853243
180	0x3a2227b8	0.0006185728
181	0xbea7dd38	-0.32785964
182	0x3e2c99db	0.16855566
183	0x3e9e626e	0.3093447
184	0x3e85ad69	0.26108864
185	0x3e41282f	0.18862985
186	0x3e3572dc	0.17719597
187	0x3e9b40bc	0.30322826
188	0x3e16bd3d	0.14720626
189	0x3e738aeb	0.23783462
190	0x3d72618b	0.059175055
191	0xbd853a55	-0.065052666
192	0x3dbeaa47	0.093098216
193	0x3d361065	0.04444923
194	0x3e1b5f34	0.15173036
195	0x3e004edb	0.12530081
196	0x3e1afc86	0.15135393
197	0x3eb24b28	0.34822965
198	0x3c2ae02c	0.010429423
199	0x3e3bbde6	0.1833416
200	0x3d44519a	0.047929384
201	0x3d446161	0.04794443
202	0xbd942bbe	-0.07234906
203	0xbd782155	-0.060578663
204	0xbe7f2ed6	-0.2492021
205	0xbec4a62c	-0.3840803
206	0xbe49293e	-0.19644639
207	0xbf028aac	-0.50992846
208	0xbdda67c0	-0.1066432
209	0xbecb0467	-0.39651796
210	0xbe228ddc	-0.15874428
211	0x3d4d0b3f	0.050059553
212	0xbf493b90	-0.7860651
213	0xbd91ad13	-0.071130894
214	0xbf21a223	-0.63138026
215	0x3e9ed743	0.31023607
216	0xbe9f6cd6	-0.31137723
217	0xbd7858b0	-0.060631454
218	0xbeadd5fe	-0.33952326
219	0xbe169a5a	-0.14707318
220	0x3e1bfa37	0.15232168
221	0xbef68016	-0.48144597
222	0xbe8b1567	-0.27164766
223	0xbe806831	-0.25079492
224	0x3ed8b8bb	0.42328438
225	0xbe3d504c	-0.18487662
226	0xbf00b304	-0.50273156
227	0xbe8a13ca	-0.26968223
228	0xbee1a23b	-0.44069085
229	0xbe3f509b	-0.18683092
230	0xbe050908	-0.12991726
231	0x3ed0ad8f	0.40757415
232	0xbf4b86de	-0.79502666
233	0xbe3cc3dd	-0.18434091
234	0xbec921fc	-0.3928374
235	0xbec6354b	-0.38712534
236	0xbec1b2fe	-0.37831873
237	0xbf010f99	-0.50414425
238	0xbd899d2c	-0.06719431
239	0x3de24f70	0.11050308
240	0x3e205a27	0.1565939
241	0xbdfe1826	-0.1240695
242	0xbe103554	-0.14082843
243	0xbdb513e5	-0.08841685
244	0xbe96803d	-0.29394713
245	0xbca6e9fe	-0.020375248
246	0x3e12959b	0.14314882
247	0xbeea9b8c	-0.45821798
248	0xbe3e1ae4	-0.18564945
249	0xbe2b4e4a	-0.16729084
250	0x3e31c37a	0.17359725
251	0xbeb67a26	-0.35640067
252	0xbf242b45	-0.64128524
253	0x3cda0ccb	0.026617428
254	0x3df0966b	0.1174744
255	0xbed38572	-0.41312748

fc2.bias f4 [30]
0	0xbf2da4cc	-0.67829585
1	0xbea862b0	-0.32887793
2	0x3f206345	0.62651473
3	0x3f17a92c	0.5924251
4	0xbf0246aa	-0.50889075
5	0x3db2b5ce	0.08726083
6	0xbe36904b	-0.17828481
7	0xbe9860c3	-0.29761323
8	0x3f096c27	0.5368065
9	0x3f24af51	0.6433001
10	0xbf834244	-1.0254598
11	0x3f22eec9	0.6364561
12	0x3eae9c24	0.341035
13	0xbd915b44	-0.07097486
14	0xbd8697c7	-0.06571918
15	0x3c05f952	0.008177118
16	0x3de3c7cd	0.11122093
17	0xbdea03b3	-0.11426487
18	0x3d5c7374	0.053821042
19	0x3f444931	0.7667418
20	0x3ee29d1b	0.44260487
21	0x3efdb133	0.49549255
22	0x3ea53be9	0.3227227
23	0xbeb3cc57	-0.35116836
24	0x3f34bb42	0.7059823
25	0x3e626867	0.22110139
26	0x3e352acb	0.17692105
27	0xbe8707a0	-0.26373005
28	0x3ea50d9d	0.3223695
29	0x3d1fb05f	0.03898656

fc3.weight f4 [20, 30]
0	0x3e27ab93	0.16374044
1	0x3e16f606	0.14742288
2	0xbbdcf285	-0.006742778
3	0x3dc09dab	0.09405073
4	0xbe813399	-0.25234678
5	0x3e4df893	0.20114355
6	0xbac7bf79	-0.0015239558
7	0x3ce9cb3f	0.028539298
8	0x3de753a6	0.112952515
9	0x3fe257e7	1.7683076
10	0xbd00ade8	-0.03141585
11	0x3dedb18e	0.116061315
12	0xbc7b2d61	-0.015330643
13	0xbd391000	-0.045181274
14	0x3e8fbe5d	0.28074923
15	0x3df786db	0.120862685
16	0x3dfb3463	0.12265851
17	0x3d637870	0.05553478
18	0xbd810021	-0.06298853
19	0xbdf5ff1c	-0.12011549
20	0xbecdb082	-0.40173727
21	0x3f3735ac	0.7156627
22	0x3e3667fe	0.17813107
23	0xbdbef541	-0.09324122
24	0xbfe7f0a8	-1.8120317
25	0x3e2c1001	0.1680298
26	0x3e7af95a	0.24509183
27	0xbd0fafac	-0.035079643
28	0x40885813	4.2607512
29	0xbe696911	-0.22793986
30	0x3ea0c13a	0.3139742
31	0x3e04ec3e	0.12980744
32	0x3dee4175	0.11633579
33	0xbe0ad30b	-0.13557069
34	0xbc7e1321	-0.01550749
35	0xbe74aba8	-0.23893607
36	0x3d4fba9e	0.05071508
37	0x3e148770	0.1450479
38	0x3dea6b94	0.114463
39	0xbe62176b	-0.22079246
40	0xbe4321bf	-0.19055842
41	0x3dcc38f5	0.09971801
42	0x3e3194eb	0.17341964
43	0xb9862dad	-0.00025592503
44	0xbd5e0263	-0.054201495
45	0x3c07a706	0.008279568
46	0x3e897edd	0.26854602
47	0x3e382725	0.17983682
48	0xbd934085	-0.071900405
49	0x3e2e0df7	0.16997515
50	0xbe848070	-0.2587924
51	0x3c4c0c8e	0.012454165
52	0x3d8276a9	0.06370289
53	0x3d8c31e1	0.06845451
54	0xbfd43c93	-1.6580986
55	0x3e68bf7e	0.22729298
56	0xbe257b95	-0.16160424
57	0xbc99b859	-0.018764662
58	0x40a461c8	5.136936
59	0x3e2588ff	0.16165541
60	0x3eefc010	0.4682622
61	0x3f2901bb	0.66018265
62	0xbe5b1d1c	-0.21397823
63	0x3b966e35	0.0045907744
64	0x3df19640	0.11796236
65	0x3ec82e85	0.39097992
66	0x3e05fa67	0.13083802
67	0x3e16a415	0.1471103
68	0xbe73aeb4	-0.23797113
69	0x3f8bca0d	1.0921036
70	0xbc652e56	-0.013988098
71	0x3dea86bf	0.11451482
72	0xbea3b965	-0.31977382
73	0x3ef65ae2	0.48116213
74	0x3cf16805	0.029468546
75	0x3e3253aa	0.17414728
76	0x3e93b5bc	0.2884959
77	0x3dbff38e	0.09372626
78	0xbde27bbd	-0.110587575
79	0xbf5b7aa4	-0.8573401
80	0xbe73bba2	-0.23802045
81	0x3fa5d2e0	1.2954979
82	0xbe5b6d70	-0.21428466
83	0x3d7a2558	0.06107077
84	0x3d6c074a	0.05762414
85	0x3e8061c4	0.2507459
86	0x3fed80e3	1.8554958
87	0x3f031ae7	0.51212925
88	0xbf0afe53	-0.5429432
89	0x3e94990b	0.29023013
90	0x3e672e86	0.22576341
91	0x3e9db22d	0.308
92	0x3e4677e7	0.19381677
93	0xbd85655a	-0.06513472
94	0x3ed7f6d7	0.4218051
95	0x3ebd6934	0.36994326
96	0x3eb1f057	0.34753677
97	0x3e101b74	0.14072973
98	0x3f909033	1.1294006
99	0x40cf5887	6.4795566
100	0xbe30eb8f	-0.17277358
101	0x3e1556bf	0.14583872
102	0x3eaa44c0	0.33255577
103	0x3b0199f8	0.001977561
104	0x3eb0669e	0.3445329
105	0x3eb22698	0.3479507
106	0xbe3360f5	-0.17517455
107	0x3e22cdd4	0.1589883
108	0x3dfba149	0.12286622
109	0x3f8dec16	1.1087673
110	0x3f104d6d	0.5636814
111	0xbf937964	-1.152142
112	0x3ea9fbe3	0.33199987
113	0x3ea4f35c	0.32216918
114	0xbeb0ff97	-0.3457
115	0xbc8d0acc	-0.017217062
116	0xbf07bd7d	-0.5302351
117	0x3a425bdb	0.00074142
118	0x3f4b4d31	0.7941466
119	0xbdbd921b	-0.09256383
120	0xbda83fdc	-0.08215305
121	0x3d878475	0.06617061
122	0xbd079f6f	-0.033111032
123	0x3dbf1550	0.09330237
124	0x3d54b374	0.051928952
125	0xbd63dc20	-0.05562985
126	0xbde4d9ac	-0.1117433
127	0xbe7cf833	-0.24704055
128	0x3e31cd52	0.1736348
129	0x3f61e293	0.8823635
130	0xbdc20e59	-0.09475393
131	0x3da18385	0.078864135
132	0xbea53ba2	-0.3227206
133	0x3dcc40c5	0.09973291
134	0x3cc18d0b	0.023626825
135	0xbdfaa471	-0.12238396
136	0xbd3f719e	-0.046739213
137	0xbd49f50c	-0.04930596
138	0xbd5f5ad8	-0.054529995
139	0xbda36c33	-0.07979622
140	0xbd542494	-0.051792696
141	0x3ea39230	0.3194747
142	0xbdd97f8a	-0.10620029
143	0x3d5731aa	0.052537598
144	0xbf97d42c	-1.1861625
145	0xbdd05d55	-0.10174052
146	0x3dc9fc2b	0.0986255
147	0x3d709f5d	0.05874573
148	0x40a37060	5.1074677
149	0xbdb5a2f7	-0.08868974
150	0xbdb64cfd	-0.08901403
151	0xbe1665f2	-0.14687327
152	0xbdd08a97	-0.10182684
153	0xbc56dd06	-0.0131142195
154	0x3c148d41	0.009066881
155	0xbe8b8a25	-0.27253833
156	0x3d0a484d	0.033760358
157	0x3caace3c	0.020850293
158	0xbe19e591	-0.15028979
159	0xbe234d0b	-0.15947358
160	0xbd317488	-0.043324023
161	0x3cdb159b	0.0267437
162	0xbe6275d6	-0.22115263
163	0xbdaec389	-0.08533389
164	0x3b262e34	0.002535713
165	0xbd8b6422	-0.06806208
166	0xbe2a058d	-0.1660368
167	0x3d03f741	0.03221822
168	0x3e044cf6	0.12919983
169	0xbd7ecd0c	-0.062207267
170	0xbe34533d	-0.17609878
171	0xbd97adc0	-0.07406187
172	0x3c22afc3	0.0099296
173	0x3c237a10	0.009977832
174	0xbd44e7f5	-0.048072774
175	0xbd20d34f	-0.03926402
176	0x3d38543f	0.04500222
177	0x3da30d2c	0.07961497
178	0x3c39b064	0.011333559
179	0x3cb0f6dc	0.021602087
180	0xbca02e53	-0.01955334
181	0xbdeab064	-0.11459425
182	0xbd97f2cc	-0.07419357
183	0xbf2dd674	-0.67905354
184	0x3e37757e	0.17915913
185	0xbe097fe1	-0.13427688
186	0xbcddacf2	-0.027060006
187	0xbcc48d30	-0.023993105
188	0x3e920876	0.2852208
189	0x3fef5a63	1.8699459
190	0xbe7bf9c7	-0.24607001
191	0xbed5706e	-0.4168734
192	0xbe1bc6ec	-0.15212601
193	0x3e771b2d	0.2413146
194	0xbebcbe0c	-0.36863744
195	0xbf27b6f2	-0.6551353
196	0xbf1283c7	-0.57232326
197	0xbc8b5c16	-0.017011683
198	0xb9d92b65	-0.00041421797
199	0x3edda355	0.43288675
200	0x3f6d8ff4	0.9279778
201	0x3fa1c7b2	1.2639067
202	0x3eb09ad8	0.34493136
203	0x3f8257ca	1.0183041
204	0x3f9fb7cb	1.2477964
205	0xbf1ad4ef	-0.6048116
206	0x3f351e27	0.70749134
207	0x3e8c0adc	0.27352035
208	0xbf001a8a	-0.50040495
209	0xbe96cbe6	-0.29452437
210	0x3e02361b	0.12715952
211	0x3e3d7b49	0.18504061
212	0xba4e6b8e	-0.0007874303
213	0x3e86a694	0.26298964
214	0xbd3da494	-0.046299532
215	0x3d36e1ca	0.044648923
216	0x3e09cf11	0.13457896
217	0xbe3eb773	-0.18624668
218	0xbe271127	-0.16315137
219	0xbdaeb3d0	-0.0853039
220	0xbd2e920c	-0.04261975
221	0xbba9bae9	-0.005179752
222	0x3d09f0d0	0.033676922
223	0xbd7b57b6	-0.061362945
224	0xbde8b410	-0.11362469
225	0xbc7092b5	-0.014683415
226	0x3e95b6de	0.2924108
227	0xbd95472b	-0.07288965
228	0x3d9c8692	0.07642855
229	0x3e6cea22	0.2313619
230	0xbe8e7372	-0.27822453
231	0xbea4e4ab	-0.3220571
232	0x3df9e204	0.12201312
233	0x3d096d92	0.03355176
234	0xbfcf10b7	-1.6176976
235	0x3e32093f	0.1738634
236	0x3cadfa13	0.021237409
237	0xbe55f530	-0.20894313
238	0x40a4d192	5.1505823
239	0x3dc806bd	0.0976691
240	0xbe16b646	-0.1471797
241	0x3d5bdd65	0.053677935
242	0xbf088ac5	-0.53336746
243	0xbe925164	-0.2857772
244	0xbe8d53be	-0.27602953
245	0x3e9690cb	0.29407343
246	0x3d879ede	0.066220984
247	0x3dc9de36	0.098568365
248	0xbe0cb379	-0.13740338
249	0x4048497e	3.1294856
250	0x3e755b17	0.2396053
251	0xbe6f1ba9	-0.23350395
252	0x3e6837e3	0.22677569
253	0xbdc0f3b0	-0.0942148
254	0xbc21691f	-0.009851723
255	0xbe826ae9	-0.2547219

fc3.bias f4 [20]
0	0x3f52708a	0.8220297
1	0x3f08c51c	0.53425765
2	0x3f7ae3c5	0.980038
3	0x3f0327f5	0.51232845
4	0x3f5e27aa	0.8677927
5	0xbe659da3	-0.22423415
6	0xbefe15e8	-0.49626088
7	0x3f2e6838	0.68127775
8	0xbe901348	-0.2813971
9	0xbddfff47	-0.10937362
10	0x3f36be26	0.71383893
11	0x3eb84438	0.35989547
12	0xbf779c66	-0.9672302
13	0x3e890491	0.26761296
14	0xbe22f096	-0.15912089
15	0x3f5649fd	0.8370665
16	0x3f374645	0.715916
17	0x3f4a5c1a	0.79046786
18	0xbe450bf8	-0.19242847
19	0xbe825703	-0.2545701

fc4.weight f4 [5, 20]
0	0xbf721aee	-0.9457234
1	0xbf34ee11	-0.7067576
2	0xc0005415	-2.005132
3	0x3f410c15	0.7540906
4	0xbf06880e	-0.5255135
5	0x3c51c0a3	0.012802276
6	0xbf374adb	-0.71598595
7	0xbf5d47c1	-0.8643761
8	0xbf8b03ca	-1.0860531
9	0xbe52fcc5	-0.20604236
10	0xbe66a571	-0.22524048
11	0x3f33050b	0.6992957
12	0xbee60244	-0.44923604
13	0xbbc5c0c6	-0.0060349433
14	0xbeb4906a	-0.3526643
15	0xbf028327	-0.5098137
16	0xbf406388	-0.7515187
17	0xbfa7cb1d	-1.310886
18	0xbd6e4175	-0.058167893
19	0xbeb1b560	-0.3470869
20	0xbf2e55a5	-0.68099433
21	0xbf325da9	-0.69674164
22	0xbff5f5c1	-1.9215623
23	0x3e081760	0.13290167
24	0xbf7ea63d	-0.9947241
25	0x3cc7bb78	0.024381384
26	0xbed65b6d	-0.41866627
27	0xbf9aead7	-1.2102917
28	0x3eefbe5f	0.4682493
29	0x3cde2c8a	0.027120847
30	0x3ec6ec38	0.38852096
31	0x3dbb8d97	0.091578655
32	0xbe2783f3	-0.16358928
33	0x3de65134	0.11245957
34	0xbe25deba	-0.16198245
35	0xbf949cb3	-1.1610321
36	0xbf885591	-1.0651113
37	0xbf879a83	-1.0594028
38	0x3dbc37c7	0.09190326
39	0xbf950e30	-1.1644955
40	0x3e380919	0.1797222
41	0x3d45af3a	0.048262812
42	0xbdee1407	-0.11624914
43	0x3e4b9681	0.19881631
44	0x3df10262	0.117680326
45	0x3dadee41	0.08492709
46	0xbecb8f72	-0.39757878
47	0xbd6dd0e6	-0.05806055
48	0x3da98579	0.08277411
49	0xbe1f8205	-0.15576942
50	0xbdbf4c5e	-0.09340738
51	0xbe4619c3	-0.19345765
52	0x3e855360	0.26040173
53	0xbe8874cb	-0.26651606
54	0xbe4e7e0e	-0.20165274
55	0xbd13cb77	-0.03608271
56	0x3e7e69ba	0.24845019
57	0x3c68fd6d	0.014220578
58	0xbe188767	-0.14895402
59	0x3cd6a64f	0.026202349
60	0xbea6ff73	-0.32616767
61	0x3df794e1	0.12088943
62	0xbe2c7cd3	-0.16844492
63	0xbf1fc972	-0.62416756
64	0xbd9a58e9	-0.075364895
65	0x3d34daa1	0.044153813
66	0x3f3a64e5	0.728102
67	0x3ca9ff57	0.020751638
68	0xbe9e0e29	-0.30870178
69	0xbe071688	-0.13192189
70	0xbeedbf5d	-0.4643506
71	0x3ebea0f3	0.3723217
72	0x3e67ed38	0.22649086
73	0x3dfd0988	0.123553336
74	0x3da94e4e	0.082668886
75	0xbe5ecbb0	-0.21757388
76	0x3d810424	0.06299618
77	0xbe4c40c8	-0.19946587
78	0xbe748379	-0.23878278
79	0x3db8daf9	0.09026141
80	0x3e91f516	0.28507298
81	0x3d7f0edd	0.062270034
82	0xbcb1016a	-0.02160712
83	0x3e4bb3cb	0.19892804
84	0x3ea93246	0.33046168
85	0x3da6b741	0.08140422
86	0xc0a2d16d	-5.0880647
87	0x3e8fef03	0.2811204
88	0xbdd4c0e1	-0.10388351
89	0xbdef8170	-0.1169461
90	0x3eaabc85	0.33346954
91	0x3d6209bd	0.05518507
92	0xbedc343c	-0.43008602
93	0xbdcf7b52	-0.10130943
94	0xbe1070ed	-0.14105578
95	0x3e35d5e3	0.17757373
96	0x3e8aa49d	0.27078715
97	0x3df5ef3b	0.1200852
98	0xbd93ce02	-0.07217027
99	0x3cfd1d99	0.030897902

fc4.bias f4 [5]
0	0xbe31a8ae	-0.17349502
1	0x3d4db191	0.05021817
2	0xbedc3ec6	-0.43016642
3	0xbe7b6f4e	-0.24554178
4	0x3ee76f09	0.452019
