Sample_Based_Extension/WUSTL/WUSTL_Defense/preprocessor/dnn_pytorch_FeatureSqueezing.pt (torch, 21052 bytes, 8 tensors)

fc1.weight f4 [50, 42]
0.08290013 0.10334566 -0.16155803 -0.058887415 0.22383457 0.057387345 -0.09661267 0.08846519
0.042037424 0.2981801 0.076129824 0.42370397 0.07831366 -0.11024603 -0.008468271 -0.77927864
-0.011588136 0.062214125 -0.03790495 0.14205186 -0.1632526 0.45065442 -0.0021073674 0.25143638
-0.123930626 0.079229705 -0.04202626 0.15316363 0.16785438 0.18987563 -0.29462215 0.18788691
-0.51881385 -0.16820921 -0.20934115 0.12484742 0.14553533 -0.05813029 -0.21763907 0.36186072
-0.075498775 -0.0835699 -0.10447973 0.13589643 1.1696793 -0.027582599 0.11854549 -0.05010662
-0.23877701 -0.11846211 0.3437003 0.26132986 -0.14295654 0.3416447 0.65325826 -0.12702104
-0.071957245 -0.10011619 -0.037384488 0.113887236 0.46816462 -0.07783688 -0.12501246 0.86925167
-0.10399711 0.14023736 0.020699799 -0.05910993 -0.17772369 -0.24027364 -0.14852478 -0.108906366
-0.2432038 1.2993537 -0.14342721 0.32153094 -0.077015616 0.38341868 0.14350949 -0.30867642
-0.24325304 2.1054628 0.1452775 -0.24645817 -0.21157199 0.10611783 -0.23600823 0.02238266
0.043525893 0.06619134 0.08316834 0.052666042 -0.044384416 -0.046143286 -0.1058275 0.19973746
-0.05066139 0.062466852 0.11999325 0.049344003 -0.0804892 0.0033297716 -0.48074856 -0.010272653
-0.01919177 -0.13495596 0.09773432 0.20255451 -0.03083671 -0.011560625 0.102952406 0.057076253
0.10222236 0.026258098 0.20215307 0.04268303 0.14433783 -0.27476212 -0.089235455 0.116947316
0.106388174 0.07599866 0.25060463 0.12996675 -0.07992287 -0.36175212 -0.028746247 0.06860097
-0.3495054 0.06086202 0.22458977 -0.014790899 -0.07535178 0.0745074 0.19988644 0.1817589
0.1031264 0.28276032 -0.038084954 0.08116198 -0.04086353 -0.33189404 -0.16547497 -0.09093642
-0.1470746 0.084662214 -0.105627865 0.1395138 -0.042903364 0.0069180625 -0.12418817 -0.029177703
0.09734721 -0.07311423 0.10521369 0.19983411 -0.1568836 0.015141179 -0.2793415 0.044962563
-0.16908778 0.11481744 0.095827095 0.06381727 -0.048355967 0.07218267 0.0063663498 -0.18012632
0.20497875 0.117961556 0.2938011 -0.13002104 -0.058786817 -0.11621504 0.011087591 -0.10583253
-0.15044658 0.2013367 -0.031774018 0.2689381 0.26331413 -0.0740906 0.13035661 -0.38990918
-0.13084453 -0.076958 0.348901 -0.17755105 -0.017958948 0.1417762 0.15405336 0.15711825
0.03594524 -0.11649238 -0.029803567 0.05089902 0.052344836 0.06434875 -0.22695673 0.033946674
-0.58792484 0.16066965 -0.14423548 0.3716585 -0.14384 0.25597134 -0.18071215 0.38186106
-0.087896034 0.039116226 -0.15184827 0.12611355 -0.21995054 -0.1147815 0.19276322 -0.009404394
0.042978052 0.07272746 0.09717803 0.0718905 0.13245277 -0.11566406 -0.08471826 0.015756885
-0.07177539 0.093684465 0.07747081 0.10433372 0.10833034 -0.0030766965 0.0007778069 -0.057883102
0.02975675 -0.027907131 0.04067269 -0.06902304 0.015870959 -0.18708862 -0.11482602 -0.13642696
0.07211963 0.49922994 0.44201484 0.28368074 0.08139602 0.10208547 -0.112444595 0.015032861
0.16457845 -0.23655105 0.09259954 -0.2003559 0.20090768 -0.12715301 0.48574632 -0.13513166
00000000: 8bc7 a93d e4a6 d33d 786f 25be ee33 71bd
00000010: e434 653e fe0e 6b3d dddc c5bd 3d2d b53d
00000020: 6f2f 2c3d 10ab 983e f4e9 9b3d baef d83e
00000030: ea62 a03d acc8 e1bd 81be 0abc ce7e 47bf
00000040: 2adc 3dbc 3dd4 7e3d 3942 1bbd 0b76 113e
00000050: b12b 27be 2dbc e63e c21b 0abb 45bc 803e
00000060: 57cf fdbd 2f43 a23d ba23 2cbd edd6 1c3e
00000070: 05e2 2b3e c26e 423e b7d8 96be 6d65 403e
00000080: fcd0 04bf 093f 2cbe 875d 56be 01b0 ff3d
00000090: 3707 153e 071a 6ebd c7dc 5ebe cf45 b93e
000000a0: 1a9f 9abd b226 abbd 78f9 d5bd 6f28 0b3e
000000b0: 0db8 953f e7f4 e1bc fac7 f23d 993c 4dbd
000000c0: f681 74be 439c f2bd 7cf9 af3e 07cd 853e
000000d0: 3363 12be 0eec ae3e ef3b 273f ce11 02be
000000e0: 525e 93bd b809 cdbd 7a20 19bd b63d e93d
000000f0: 46b3 ef3e f168 9fbd 4403 00be 4787 5e3f
00000100: 70fc d4bd 629a 0f3e a092 a93c 411d 72bd
00000110: 33fd 35be 4b0a 76be e116 18be 4d0a dfbd
00000120: 6b0a 79be 3951 a63f 95de 12be b49f a43e
00000130: 5dba 9dbd 744f c43e 27f4 123e d60a 9ebe
00000140: 5317 79be e7bf 0640 a0c3 143e 885f 7cbe
00000150: 54a6 58be 4e54 d93d 24ac 71be d75b b73c
00000160: 3548 323d 538f 873d 2a54 aa3d 59b8 573d
00000170: 6fcc 35bd be00 3dbd 17bc d8bd fa87 4c3e
00000180: 5182 4fbd 3edd 7f3d 05bf f53d f01c 4a3d
00000190: 86d7 a4bd 4c38 5a3b ad24 f6be a14e 28bc
000001a0: 0f38 9dbc e531 0abe ee28 c83d 736a 4f3e
000001b0: 459d fcbc c768 3dbc b6d8 d23d cac8 693d
000001c0: f559 d13d 391b d73c 3701 4f3e 67d4 2e3d
000001d0: 4ccd 133e 9fad 8cbe 14c1 b6bd 1382 ef3d
000001e0: 0be2 d93d 2fa5 9b3d 404f 803e 0116 053e
000001f0: 9aae a3bd 9337 b9be 407d ebbc aa7e 8c3d
00000200: 5ff2 b2be 744a 793d dcfa 653e 8755 72bc
00000210: 0952 9abd 5697 983d 08af 4c3e 011f 3a3e
00000220: ef33 d33d f6c5 903e f8fe 1bbd 4138 a63d
00000230: 8460 27bd 04ee a9be 4572 29be e03c babd
00000240: b99a 16be 6263 ad3d 6c53 d8bd b5dc 0e3e
00000250: 70bb 2fbd eab0 e23b 5e56 febd 1406 efbc
00000260: f95d c73d eabc 95bd 467a d73d 50a1 4c3e
00000270: 18a6 20be b512 783c d905 8fbe aa2a 383d
00000280: 5925 2dbe 6825 eb3d ff40 c43d a1b2 823d
00000290: e810 46bd 82d4 933d d09c d03b 0973 38be
000002a0: f3e5 513e d495 f13d 196d 963e 3c24 05be
000002b0: 72ca 70bd 2702 eebd baa8 353c babe d8bd
000002c0: ab0e 1abe 352b 4e3e 7925 02bd 41b2 893e
000002d0: 1cd1 863e d0bc 97bd 347c 053e 2da2 c7be
000002e0: 1cfc 05be 289c 9dbd 27a3 b23e f1cf 35be
000002f0: a51e 93bc c82d 113e 2ac0 1d3e 9be3 203e
00000300: 513b 133d 8f93 eebd 9c26 f4bc 7e7b 503d
00000310: 8a67 563d 47c9 833d 5867 68be ab0b 0b3d
00000320: 3e82 16bf 9686 243e 77b2 13be 064a be3e
00000330: cb4a 13be ad0e 833e 9b0c 39be 4b83 c33e
00000340: d602 b4bd 5638 203d 1d7e 1bbe e923 013e
00000350: b73a 61be 9012 ebbd b963 453e e314 1abc
00000360: c109 303d 22f2 943d 4605 c73d 543b 933d
00000370: b3a1 073e 47e1 ecbd c480 adbd 9514 813c
00000380: fafe 92bd a4dd bf3d 04a9 9e3d ebac d53d
00000390: 4cdc dd3d 67a2 49bb bde5 4b3a d516 6dbd
000003a0: 6ec4 f33c 7f9d e4bc 6898 263d f45b 8dbd
000003b0: d003 823c 2994 3fbe e829 ebbd 82b3 0bbe
000003c0: 75b3 933d 119b ff3e c54f e23e 9a3e 913e
000003d0: f5b2 a63d 3012 d13d 5a49 e6bd 644c 763c
000003e0: 4187 283e 703a 72be d4a4 bd3d 192a 4dbe
000003f0: beba 4d3e 6634 02be beb3 f83e f45f 0abe

fc1.bias f4 [50]
0.22613889 -0.019218534 0.16125563 0.08103506 -0.09472932 0.04335332 -0.09947197 0.06567067
0.20729908 0.23393022 0.17221053 0.18738602 0.18098447 -0.02358595 -0.27329063 0.26042777
0.017030362 0.17903493 -0.141329 0.19655035 0.16884756 -0.16784208 -0.15675573 0.14754423
0.21784674 -0.12731478 -0.08551007 0.05980117 -0.18736167 -0.25610325 0.16088119 -0.15446633
0.3215962 0.16439414 0.0009820412 0.13877803 0.1970827 0.07591472 -0.049710803 0.07577032
0.077990696 0.037620243 -0.095642656 -0.03217568 0.29653734 0.2275639 0.28463095 -0.06890571
0.24643633 0.08084675
00000000: f490 673e 3070 9dbc 3220 253e b6f5 a53d
00000010: 7201 c2bd 4093 313d f6b7 cbbd 587e 863d
00000020: 3646 543e 678b 6f3e f557 303e 1fe2 3f3e
00000030: fe53 393e 5237 c1bc c0ec 8bbe ca56 853e
00000040: 4283 8b3c ef54 373e 8db8 10be 7f44 493e
00000050: 60e6 2c3e cbde 2bbe 9384 20be d615 173e
00000060: 3713 5f3e ce5e 02be e71f afbd 12f2 743d
00000070: bddb 3fbe f71f 83be 0abe 243e 6c2c 1ebe
00000080: 42a8 a43e f056 283e d6b7 803a d41b 0e3e
00000090: 0cd0 493e 2d79 9b3d 8e9d 4bbd 782d 9b3d
000000a0: 96b9 9f3d af17 1a3d 4ce0 c3bd a5ca 03bd
000000b0: bed3 973e 8306 693e 26bb 913e 701e 8dbd
000000c0: ce59 7c3e fb92 a53d

fc2.weight f4 [30, 50]
-0.09124047 0.057559915 -0.040189743 0.11887876 0.18798156 0.068992145 -0.08940744 0.098902926
0.8583501 0.4382785 0.46758482 -0.69171774 0.9223708 -0.18927795 0.3198812 0.16326033
0.22421704 0.29394355 -0.04900542 -0.16239381 0.33065104 -0.06924522 0.20584857 -0.093165085
0.055055648 0.06424094 -0.10939591 0.07441632 -0.061982427 -0.07011728 0.50858974 0.2584096
0.1547988 0.13332932 -0.079395585 -0.05355279 0.12532061 -0.07031991 -0.19094962 0.5207209
0.60495836 -0.13311915 0.33930784 0.07749517 0.1856061 0.13066979 0.101392165 0.21222301
0.13489278 -0.03117305 0.40394342 0.3929797 -0.05016271 0.021671735 0.31662333 0.37574202
0.13716207 0.25021628 -0.12410813 0.6849171 0.17227465 -0.21218143 0.39881104 -0.074302435
-0.03993484 0.589798 0.38574564 0.47970566 -0.0030936233 0.37967607 0.3337739 0.11624417
0.06388265 0.60766613 0.6526033 0.0672692 -0.09892477 0.15322927 -0.2667323 -0.19999626
0.19190308 0.19474258 0.3396684 0.29413345 0.13896187 0.09099868 0.4914931 0.07902871
-0.07063454 0.12550743 0.5249216 0.47231385 -0.10498381 0.27276853 0.6554026 0.3109914
0.15056989 -0.044627983 0.496233 0.29215005 0.371317 0.09651708 -0.15549736 0.06348026
0.1890224 -0.1262765 0.39986962 -0.016931757 0.28950447 -0.13494982 0.71896803 -0.29528677
0.5605489 0.20740935 -0.010207904 -0.3628222 0.10408933 0.04777821 0.33970857 -0.35503343
-0.6632882 0.31458092 0.1448856 0.10755864 0.097021595 -0.11842166 0.17748702 0.2311333
0.25014666 0.29628208 -0.09143143 0.44974768 0.10962453 -0.29923615 0.2232129 -0.6184365
-0.6794926 0.22210942 0.1455594 0.4129144 0.024141258 0.2736199 0.2521052 0.12086141
-0.6605465 0.10634567 -0.4581762 -0.100009486 -0.26179427 -0.3404939 -0.14446245 0.24013123
-0.15441652 -0.13850743 -0.049189374 -0.029663812 0.21492326 -0.6956755 0.042680692 -0.9209824
-0.23825893 0.52246135 -1.0815543 0.19528642 -0.03208146 0.1709927 -1.007328 0.09849257
0.15038712 -0.26792675 -0.16111177 0.11048692 -0.016193131 -0.28858045 0.05306318 0.12996581
0.16899711 -0.30339763 -0.0045915553 0.0022685283 -0.06022579 0.44913393 0.17278534 0.05857563
-0.16752939 0.33150622 0.1623492 -0.0415457 0.09082363 -0.5143492 -0.15628448 -0.16906404
-0.016648894 0.47348347 -0.3478932 0.48567736 0.40371948 0.40411943 -0.27795222 0.010216078
0.011019876 0.11693486 0.012407454 0.027973767 0.1396277 0.94612074 -0.27902597 0.31827435
1.2701116 0.39342427 -0.11086718 -0.35327658 0.36334658 -0.0063966666 -0.0060319696 0.31064868
-0.037600026 0.2447957 -0.29142871 -0.0025740722 0.45629436 -0.20169166 -0.04436784 0.06419607
-0.037679106 -0.06269223 -0.3002673 -0.13513811 -0.36177996 -0.40700725 0.16304933 -0.10825225
0.31661958 0.42230284 0.112638414 -0.30662695 0.011519632 0.25890514 -0.370626 0.15295236
0.28285387 0.13597436 -0.2827367 0.18206874 0.3568313 0.21209408 -0.13322392 0.10539468
0.21466018 -0.14511593 0.050786477 0.032540992 -0.017684449 -0.119219914 -0.09361737 0.036207747
00000000: 49dc babd f2c3 6b3d 009e 24bd b576 f33d
00000010: 3d7e 403e c14b 8d3d 3f1b b7bd 9e8d ca3d
00000020: d5bc 5b3f 0a66 e03e 4767 ef3e 6a14 31bf
00000030: 7e20 6c3f 14d2 41be 78c7 a33e b72d 273e
00000040: 2799 653e c57f 963e e8b9 48bd 904a 26be
00000050: 184b a93e 70d0 8dbd f8c9 523e 56cd bebd
00000060: 0882 613d c190 833d f60a e0bd 9567 983d
00000070: 49e1 7dbd a699 8fbd f032 023f 434e 843e
00000080: 9483 1e3e 7b87 083e 279a a2bd 2c5a 5bbd
00000090: 0c54 003e e303 90bd 4c88 43be f74d 053f
000000a0: 8dde 1a3f 6350 08be c2b9 ad3e cab5 9e3d
000000b0: 870f 3e3e 4dce 053e b2a6 cf3d fd50 593e
000000c0: 5521 0a3e a05e ffbc acd1 ce3e a334 c93e
000000d0: 6a77 4dbd ec88 b13c 741c a23e 4261 c03e
000000e0: 3774 0c3e 591c 803e 672c febd ba56 2f3f
000000f0: c468 303e 1746 59be f630 cc3e e02b 98bd
00000100: b792 23bd 00fd 163f 7480 c53e fb9b f53e
00000110: 63be 4abb e764 c23e 6ae4 aa3e 6c11 ee3d
00000120: e8d4 823d 0290 1b3f 0311 273f 6fc4 893d
00000130: 1299 cabd 22e8 1c3e 2391 88be d2cb 4cbe
00000140: 3e82 443e 996a 473e 04e9 ad3e a998 963e
00000150: 054c 0e3e 845d ba3d fca4 fb3e ced9 a13d
00000160: d7a8 90bd 0585 003e 4361 063f 1fd3 f13e
00000170: c001 d7bd 51a8 8b3e 77c8 273f 443a 9f3e
00000180: fe2e 1a3e d5cb 36bd 4012 fe3e b194 953e
00000190: 431d be3e bfaa c53d b33a 1fbe f001 823d
000001a0: 178f 413e a04e 01be b6bb cc3e 78b4 8abc
000001b0: ee39 943e 4930 0abe 4a0e 383f d42f 97be
000001c0: 2280 0f3f 1e63 543e 0d3f 27bc d5c3 b9be
000001d0: c92c d53d 16b3 433d 48ee ad3e f1c6 b5be
000001e0: 41cd 29bf c010 a13e e45c 143e b447 dc3d
000001f0: 42b3 c63d 0e87 f2bd 28bf 353e 35ae 6c3e
00000200: 3913 803e 49b2 973e 6740 bbbd 5445 e63e
00000210: d382 e03d 7b35 99be ec91 643e db51 1ebf
00000220: 3af3 2dbf a770 633e 860d 153e 8469 d33e
00000230: e3c3 c53c e817 8c3e ef13 813e 3086 f73d
00000240: 9319 29bf c2cb d93d 1296 eabe c6d1 ccbd
00000250: e609 86be 3755 aebe f7ed 13be f6e4 753e
00000260: 5d1f 1ebe e4d4 0dbe cc7a 49bd 8601 f3bc
00000270: d814 5c3e ca17 32bf f3d1 2e3d 81c5 6bbf
00000280: 26fa 73be 07c0 053f 5f70 8abf 2af9 473e
00000290: d967 03bd b618 2f3e 20f0 80bf 79b6 c93d
000002a0: 15ff 193e b22d 89be 7cfa 24be f746 e23d
000002b0: 75a7 84bc d1c0 93be c758 593d c215 053e
000002c0: 940d 2d3e ef56 9bbe c274 96bb 97ab 143b
000002d0: 51af 76bd e2f4 e53e a4ee 303e 00ed 6f3d
000002e0: d38c 2bbe 2fbb a93e de3e 263e d32b 2abd
000002f0: bd01 ba3d 64ac 03bf 0a09 20be 201f 2dbe
00000300: 4363 88bc 6d6c f23e 0f1f b2be b4aa f83e
00000310: 52b4 ce3e bee8 ce3e c14f 8ebe 5661 273c
00000320: b68c 343c 8b7b ef3d a248 4b3c 3e29 e53c
00000330: 90fa 0e3e f834 723f 7edc 8ebe dbf4 a23e
00000340: 0493 a23f e86e c93e 550e e3bd abe0 b4be
00000350: 9008 ba3e 219b d1bb d4a7 c5bb 580d 9f3e
00000360: 7c02 1abd b9ab 7a3e 2536 95be c4b1 28bb
00000370: 6a9f e93e 4288 4ebe 0dbb 35bd 3b79 833d
00000380: 6855 1abd c964 80bd a3bc 99be a561 0abe
00000390: 393b b9be 4163 d0be 67f6 263e 5bb3 ddbd
000003a0: f61b a23e 1438 d83e f8ae e63d 35fe 9cbe
000003b0: d7bc 3c3c 378f 843e b1c2 bdbe 8b9f 1c3e
000003c0: 39d2 903e dd3c 0b3e ddc2 90be 3a70 3a3e
000003d0: 98b2 b63e 312f 593e da6b 08be 2ad9 d73d
000003e0: e1cf 5b3e 4599 14be 7b05 503d b449 053d
000003f0: fade 90bc 9229 f4bd 77ba bfbd 934e 143d

fc2.bias f4 [30]
0.08408341 0.14354621 0.05429177 0.11794452 0.038150523 -0.0690904 -0.07181435 0.18424548
-0.066842504 0.047846623 -0.109918095 0.087943055 0.02899658 0.09531377 -0.13756804 -0.08213543
0.04631064 0.107907586 -0.003628376 0.04217304 0.10038002 -0.16566335 0.118435994 0.1423853
-0.0070330184 -0.101844475 0.114542656 0.1551669 -0.18927574 -0.15163593
00000000: ec33 ac3d c7fd 123e 0c61 5e3d e68c f13d
00000010: b943 1c3d 457f 8dbd 6713 93bd d9aa 3c3e
00000020: b9e4 88bd d2fa 433d bd1c e1bd 7d1b b43d
00000030: 3c8a ed3c de33 c33d a3de 0cbe 9f36 a8bd
00000040: 3ab0 3d3d a7fe dc3d 0cca 6dbb a3bd 2c3d
00000050: 0a94 cd3d a7a3 29be 928e f23d 74cd 113e
00000060: 3c75 e6bb d693 d0bd 5795 ea3d 12e4 1e3e
00000070: 80d1 41be 7346 1bbe

fc3.weight f4 [20, 30]
0.25983128 -0.08410097 0.3546837 -0.5514477 -0.059967622 0.07897513 0.19289036 -0.25741157
0.08191109 0.43591863 -0.17412034 0.04286856 0.03596888 -0.051647365 -0.013561636 -0.37392747
0.25563595 0.2410057 0.26221222 -0.007891306 -0.6851476 0.033592764 0.312145 -0.24472035
0.04110529 -0.14715706 0.37474173 0.18620032 -0.23674479 -0.02920734 0.1442963 0.2879799
0.28869978 -0.36999694 0.009520965 0.09978315 0.057205502 -0.012965896 0.059023984 0.7501517
0.055695295 0.18995062 -0.17256235 0.19718072 0.112077296 0.046282798 0.24880141 0.08820866
0.009754827 0.14132485 0.30502737 0.32913446 -0.2970322 -0.116652295 0.4413462 -0.13652396
0.192046 -0.009402222 0.6065382 0.12542087 -0.011789036 -0.1787106 -0.050659403 0.12576656
-0.14904155 -0.12602983 -0.14610414 0.18945795 0.13674255 -0.326618 0.059237365 0.26447088
0.45827502 0.074275106 0.10094676 0.14705113 -0.29707783 -0.273032 -0.09652558 0.36701137
-0.3035791 0.49934915 0.24972169 0.025906064 -0.6969024 0.08167202 -0.12467562 0.0013154482
-0.28800014 -0.07095342 0.08330536 0.16376412 0.35456696 0.0011248771 -0.087846845 -0.0009262061
0.2315941 -0.39681748 0.16405405 -0.06359767 -0.07227372 -0.12735842 -0.15213872 0.32649186
0.1279586 -0.0118394075 0.3793677 -0.13082871 -0.051171366 0.037829876 -0.3376993 0.61877817
0.19173753 -0.5136761 -0.009674227 0.18871516 0.050397437 0.005147205 -0.41348407 0.09140795
0.21651962 0.6239605 -0.020083861 -0.3097301 0.20277713 0.03907978 -0.2570197 0.25997916
-0.099790126 0.48292723 0.17868201 0.2054415 0.09606894 0.21240465 -0.13789457 0.06789074
0.41533798 0.15983546 -0.098609075 0.2601503 0.46379268 -0.1386335 -0.31522784 0.1477651
0.19829212 0.16049607 0.37146714 0.33542755 0.5355836 -0.046362545 0.14417554 -0.17609704
0.073043674 -0.27433804 0.062468924 -0.014369763 -0.13663101 0.45648655 -0.14025132 0.14464432
0.069582 0.20407955 0.58819616 -0.23211506 0.10840656 0.48595303 0.1388166 0.29379612
0.15139095 -0.021993307 0.59957933 -0.4920008 -0.18461373 0.554096 0.15986277 -0.17119908
0.1396133 -0.10064814 0.2891035 -0.03628589 0.05738663 0.05956569 -0.009219603 -0.1491347
0.045354348 0.1210644 -0.15599228 0.03640537 -0.022159455 0.027386788 -0.020482454 0.14578499
-0.1644836 -0.17112222 0.07425567 0.12236167 -0.16027318 -0.033014383 0.05034844 -0.1019736
-0.12050743 0.020813385 0.03459674 -0.155723 0.036555167 -0.1042753 -0.12656358 0.06687051
-0.06497287 0.17017323 -0.028367793 -0.15221095 0.30849 0.2358596 -0.35496065 -0.03862452
0.13763912 -0.49416077 -0.092807576 -0.36995402 0.10992923 -0.284874 -0.106183484 -0.008392661
0.12837783 1.080885 -0.2646134 -0.18243743 0.06718501 0.066515535 -0.2571142 0.40187204
0.283824 -0.024452012 -0.41850457 0.0062902346 -0.12885426 -0.12906244 -0.45657933 0.062133253
0.18577622 -0.25191572 -0.42539233 -0.10915812 0.14110689 0.1030943 -0.40495998 0.4539947
-0.078379825 0.4193414 -0.14426911 0.0034107044 -0.14524238 -0.07939716 -0.020470593 -0.08757743
00000000: 9b08 853e 213d acbd 1a99 b53e ad2b 0dbf
00000010: 9ca0 75bd b7bd a13d 0d85 453e 73cb 83be
00000020: 00c1 a73d ba30 df3e 9a4c 32be f196 2f3d
00000030: 1b54 133d 308c 53bd a031 5ebc 6c73 bfbe
00000040: b7e2 823e 33ca 763e ae40 863e 894a 01bc
00000050: d565 2fbf 9198 093d 78d1 9f3e f997 7abe
00000060: 055e 283d 57b0 16be 26de bf3e 4cab 3e3e
00000070: 3a6d 72be 3b44 efbc 69c2 133e 1a72 933e
00000080: 75d0 933e 3d70 bdbe d2fd 1b3c 1c5b cc3d
00000090: 5150 6a3d e96e 54bc 22c3 713d f109 403f
000000a0: c020 643d 6a82 423e 2fb4 30be bee9 493e
000000b0: c888 e53d 0893 3d3d ccc5 7e3e bea6 b43d
000000c0: b6d2 1f3c 76b7 103e 8c2c 9c3e 5084 a83e
000000d0: 9b14 98be 66e7 eebd 21f8 e13e f0cc 0bbe
000000e0: b5a7 443e c70b 1abc 1646 1b3f 546e 003e
000000f0: cd26 41bc e9ff 36be 3c80 4fbd f3c8 003e
00000100: 599e 18be f70d 01be 539c 15be 4401 423e
00000110: 3d06 0c3e 793a a7be e1a2 723d ba68 873e
00000120: 06a3 ea3e 8c1d 983d 2dbd ce3d 9294 163e
00000130: 961a 98be daca 8bbe 34af c5bd eae8 bb3e
00000140: b86e 9bbe b1aa ff3e 0bb7 7f3e f438 d43c
00000150: 3268 32bf a943 a73d ee55 ffbd 1e6b ac3a
00000160: c174 93be 0750 91bd 009c aa3d c8b1 273e
00000170: cd89 b53e 9d70 933a 0ce9 b3bd a4cc 72ba
00000180: 0127 6d3e a92b cbbe c9fd 273e 7f3f 82bd
00000190: 3e04 94bd 3f6a 02be 41ca 1bbe f129 a73e
000001a0: 9407 033e 13fa 41bc 7c3c c23e f6f7 05be
000001b0: 1199 51bd 80f3 1a3d ece6 acbe 3f68 1e3f
000001c0: d856 443e 4780 03bf a680 1ebc 8c3e 413e
000001d0: 8b6d 4e3d e3a9 a83b 2fb4 d3be 1734 bb3d
000001e0: 52b7 5d3e e0bb 1f3f e986 a4bc f294 9ebe
000001f0: cfa4 4f3e 1f12 203d 1698 83be fd1b 853e
00000200: c45e ccbd 3d42 f73e 6bf8 363e 425f 523e
00000210: cbbf c43d 9b80 593e 3c34 0dbe 4d0a 8b3d
00000220: 2ea7 d43e e8ab 233e 8ef3 c9bd 6c32 853e
00000230: 3c76 ed3e f1f5 0dbe 8b65 a1be bc4f 173e
00000240: 170d 4b3e 1559 243e f130 be3e 29bd ab3e
00000250: 021c 093f a7e6 3dbd c1a2 133e c852 34be
00000260: ec97 953d 0976 8cbe 6adf 7f3d 286f 6bbc
00000270: 00e9 0bbe 9bb8 e93e 0b9e 0fbe a41d 143e
00000280: 0281 8e3d 3bfa 503e 0694 163f 92af 6dbe
00000290: 4204 de3d d6ce f83e f025 0e3e 726c 963e
000002a0: 3b06 1b3e 4f2b b4bc 087e 193f 87e7 fbbe
000002b0: 620b 3dbe 3cd9 0d3f 11b3 233e d04e 2fbe
000002c0: caf6 0e3e 9d20 cebd 6005 943e 83a0 14bd
000002d0: 3e0e 6b3d 27fb 733d d10d 17bc c4b6 18be
000002e0: 7bc5 393d 9df0 f73d 71bc 1fbe cc1d 153d
000002f0: bf87 b5bc 425a e03c d2ca a7bc a948 153e
00000300: 646e 28be aa3a 2fbe 5b13 983d c198 fa3d
00000310: a71e 24be 173a 07bd 2a3a 4e3d 89d7 d0bd
00000320: 99cc f6bd d580 aa3c 50b5 0d3d da75 1fbe
00000330: dfba 153d 4a8e d5bd e299 01be 68f3 883d
00000340: 7f10 85bd e441 2e3e 9363 e8bc 30dd 1bbe
00000350: 67f2 9d3e 2e85 713e 67bd b5be bf34 1ebd
00000360: 45f1 0c3e a402 fdbe e611 bebd 9d6a bdbe
00000370: 9322 e13d 01db 91be ba76 d9bd 5f81 09bc
00000380: 7a75 033e 715a 8a3f 687b 87be e1d0 3abe
00000390: 4b98 893d 4c39 883d 79a4 83be 2cc2 cd3e
000003a0: 6151 913e 964f c8bc 3b46 d6be 501e ce3b
000003b0: 5ff2 03be f228 04be c4c4 e9be 707f 7e3d
000003c0: 1f3c 3e3e 19fb 80be 06cd d9be 4b8e dfbd
000003d0: 537e 103e 1b23 d33d ea56 cfbe fe71 e83e
000003e0: 9a85 a0bd eab3 d63e 48bb 13be 2086 5f3b
000003f0: 6bba 14be fa9a a2bd f2b1 a7bc cc5b b3bd

fc3.bias f4 [20]
0.073970124 -0.08018104 0.054910816 -0.16492791 0.2570302 0.35716593 0.009631453 0.10735037
0.17628437 0.036158144 -0.2962309 -0.1044904 0.16981986 0.2659479 0.07359177 0.2371304
0.16126321 0.04775657 0.2930995 0.028663037
00000000: a67d 973d f535 a4bd 2aea 603d dde2 28be
00000010: 7699 833e 74de b63e 3ecd 1d3c 83da db3d
00000020: e483 343e 901a 143d 94ab 97be 10ff d5bd
00000030: 42e5 2d3e 532a 883e 48b7 963d 50d2 723e
00000040: 2f22 253e 659c 433d 2311 963e bfce ea3c

fc4.weight f4 [5, 20]
-0.02227301 -0.09766861 0.16514254 -0.12741451 -0.07406395 0.021347007 0.0021838301 -0.49164405
-0.03820335 0.035987195 0.12293962 -0.055621438 0.22814398 -0.48520982 -0.30856502 -0.59041846
0.63275236 -0.00835214 -0.29130957 -0.24910393 -0.53955746 -0.102875985 -0.17425595 0.19094518
-0.8811539 -0.43063572 0.13348806 0.2615713 -0.8146945 0.3733152 0.48419008 -0.17160833
-0.6821891 -0.46922243 -0.49533996 -0.2867494 -1.1618565 0.03786931 -0.4452616 -1.1103984
0.3711909 -0.065573506 -0.5496217 0.15686539 -0.00819891 -0.10973293 -0.21221681 -0.5825821
-0.19081607 -0.18442903 -0.42318052 -0.05450719 -0.69590545 -0.20586248 0.14435841 0.09059697
-1.4219425 -0.03653667 0.034077197 -0.586757 0.00065472105 -0.61338836 -0.21035199 0.047646426
-1.352515 -0.022892153 0.10648545 0.2918827 -0.7540867 0.18151858 -0.71104896 -0.17069395
-0.17718378 -0.4735728 0.12316337 0.29036546 -0.24826805 0.33711466 0.4684338 -0.76526636
-1.2188325 -0.05723068 -0.6548349 -1.1317841 0.12836763 0.06702976 -0.14803566 -2.6893826
0.2770816 -0.5709536 -0.4435031 0.04086387 -0.19063906 0.29409337 -1.2157413 0.09262558
-0.5724866 -1.9483714 -3.550188 -0.05177213
00000000: e375 b6bc 7b06 c8bd 201b 293e f378 02be
00000010: d7ae 97bd ebdf ae3c 971e 0f3b c5b8 fbbe
00000020: 1e7b 1cbd 4f67 133d c4c7 fb3d 4ed3 63bd
00000030: 939e 693e 6c6d f8be 3cfc 9dbe aa25 17bf
00000040: 0ffc 213f 6ad7 08bc 8726 95be 1a15 7fbe
00000050: 7020 0abf a5b0 d2bd 2770 32be 2287 433e
00000060: 4d93 61bf 497c dcbe 18b1 083e acec 853e
00000070: d28f 50bf 2b23 bf3e c3e7 f73e 18ba 2fbe
00000080: f2a3 2ebf ec3d f0be 339d fdbe d1d0 92be
00000090: b7b7 94bf d91c 1b3d 54f9 e3be 8921 8ebf
000000a0: bc0c be3e 674b 86bd 02b4 0cbf 52a1 203e
000000b0: b954 06bc a9bb e0bd 5d4f 59be 1a24 15bf
000000c0: 4a65 43be f7da 3cbe 1eab d8be ee42 5fbd
000000d0: dc26 32bf 9dcd 52be b1d2 133e e78a b93d
000000e0: 3602 b6bf 7aa7 15bd 8894 0b3d b535 16bf
000000f0: 96a1 2b3a 0507 1dbf 8366 57be e628 433d
00000100: 361f adbf 5388 bbbc 0b15 da3d a671 953e
00000110: d30b 41bf 02e0 393e 4e07 36bf 65ca 2ebe
00000120: aa6f 35be 2278 f2be 143d fc3d c8aa 943e
00000130: fb39 7ebe 4b9a ac3e 8ed6 ef3e 7fe8 43bf
00000140: b402 9cbf b86a 6abd 43a3 27bf 4dde 90bf
00000150: ce72 033e e646 893d a996 17be d81e 2cc0
00000160: a4dd 8d3e 042a 12bf d712 e3be e060 273d
00000170: e336 43be 6893 963e 699d 9bbf 7bb2 bd3d
00000180: 7b8e 12bf 3c64 f9bf 4836 63c0 030f 54bd

fc4.bias f4 [5]
-0.20340182 -0.25906748 0.08595249 0.1597521 -0.23819473
00000000: 9148 50be 7ea4 84be dc07 b03d 0e96 233e
00000010: 52e9 73be
