SAGE/UNSW/UNSW_Dynamite_Selection_Defense/RGAN/RGAN.pt (torch, 23068 bytes, 8 tensors)

fc1.weight f4 [50, 56]
0.17495264 -0.0060235565 -0.035177857 0.16356352 -0.07552578 0.43970415 -0.12280839 0.23283993
0.05531567 0.08791746 0.025642127 0.074169576 0.08807324 0.08203965 0.015547027 -0.09028777
-0.09080206 -0.023143202 -0.039692655 0.066063024 -0.08085721 0.025524018 0.07645012 0.0034140626
0.07637502 -0.083517335 0.15587662 -0.14484522 -0.042802114 -0.15658516 -0.10623803 -0.01480098
-0.1273254 -0.06722025 0.0761889 0.11330827 -0.0887559 -0.050685246 -0.048021547 -0.14093374
0.08141712 -0.10146637 -0.14848636 -0.08793628 0.26596674 0.09640314 0.19157507 0.11249804
0.014989001 0.01571454 0.025835857 -0.047230214 0.053706966 0.14798304 0.20053889 -0.10068856
-0.14568701 0.07965426 -0.18630797 0.047909733 0.07917741 -0.22726566 0.12990923 -0.10448154
0.17174932 0.09903717 0.0073866397 -0.078346 -0.16982196 0.13397102 -0.17710033 -0.016681265
0.16153601 -0.03344063 -0.020713236 -0.007490266 0.006182508 -0.12062807 0.14357369 -0.20652646
-0.23334752 -0.022766734 0.01943011 0.047680203 -0.027054798 0.056159418 -0.12679602 0.04255489
-0.049400136 0.1338591 0.122704044 0.124605805 -0.12275461 -0.17947486 0.043563955 0.037865292
-0.056122523 -0.0039043876 -0.09989983 -0.08866241 -0.09941981 -0.23376948 0.043205794 -0.0072273803
-0.08484775 0.008271964 -0.068267375 -0.057672914 0.08811368 -0.00689798 0.089466386 0.21036275
-0.07540182 0.056320395 -0.0076046335 -0.022837082 0.027857376 0.20945287 0.058213755 0.22717151
0.06816765 -0.10621541 0.08375837 0.014756969 0.03669205 0.09588484 -0.0449877 -0.09018267
0.1005142 -0.007718262 0.14445114 0.116534546 0.018269645 -0.00075792626 0.025808742 -0.017845472
0.045353383 0.10409549 -0.17789555 0.014136289 -0.1939963 0.1640563 0.054038372 0.11272477
0.13225138 0.031226719 -0.10103724 -0.11235674 -0.0629586 -0.12677592 0.12725735 -0.033817776
-0.22695868 -0.12411723 -0.06594099 -0.006279403 0.14020233 0.0633273 -0.0033608563 0.21173796
0.11920382 -0.3342775 0.020179164 -0.017506681 -0.031433534 -0.0013151502 0.34362847 0.1744039
0.11621023 -0.1879661 0.025726479 0.0030291227 0.09527952 0.27446997 0.04229941 0.014996542
0.07265308 0.015350964 -0.046057742 -0.109575726 0.06836869 0.05320625 0.09244385 0.05899533
-0.10372052 0.20752735 -0.12565002 0.10552819 -0.029858096 -0.098468974 0.017172156 0.2312934
0.027955996 -0.048900995 -0.046103075 0.07614056 0.025477478 0.06848126 -0.1298059 0.033746578
-0.08513449 -0.19439776 0.06854172 0.026567593 -0.023793994 0.053071834 -0.08739794 -0.07094016
-0.043021634 0.0369811 0.019839862 -0.07579223 0.044652324 0.11556961 0.035513453 0.06013219
0.1570922 -0.20256747 0.0496283 -0.13956694 -0.07437372 0.06907767 0.3200735 -0.09918877
-0.036711566 0.2423495 -0.026598994 -0.095246606 0.08409538 -0.12669486 -0.019993218 0.12007596
0.091418065 -0.04426088 0.0007899058 0.088693224 0.081781015 -0.028993536 -0.14243418 -0.0671631
-0.043766882 0.068261206 -0.03028995 -0.055571616 -0.18683508 0.044036657 -0.005576316 -0.26851845
0.004999349 -0.072491504 -0.076994605 -0.07280803 -0.13645226 -0.026748179 0.054535568 0.0032853752
00000000: c926 333e 4161 c5bb a816 10bd 327d 273e
00000010: 43ad 9abd e720 e13e f782 fbbd 976d 6e3e
00000020: af92 623d 120e b43d 700f d23c 38e6 973d
00000030: be5f b43d 6704 a83d f5b8 7e3c cbe8 b8bd
00000040: 6ef6 b9bd d096 bdbc c494 22bd 0d4c 873d
00000050: 7798 a5bd bf17 d13c e191 9c3d 77be 5f3b
00000060: 826a 9c3d 230b abbd 1f9e 1f3e 4e52 14be
00000070: 4551 2fbd dc57 20be 5393 d9bd cf7f 72bc
00000080: 9761 02be c5aa 89bd ed08 9c3d 2b0e e83d
00000090: a7c5 b5bd 559b 4fbd 3eb2 44bd ef50 10be
000000a0: 05be a63d 9acd cfbd cf0c 18be f017 b4bd
000000b0: cb2c 883e 026f c53d 412c 443e 5f65 e63d
000000c0: 6d94 753c c7bb 803c b8a5 d33c 7874 41bd
000000d0: d6fb 5b3d de88 173e 115a 4d3e ce35 cebd
000000e0: fa2e 15be c621 a33d 84c7 3ebe ff3c 443d
000000f0: c427 a23d 54b8 68be ed06 053e 6bfa d5bd
00000100: 0edf 2f3e 00d4 ca3d a00b f23b de73 a0bd
00000110: cfe5 2dbe b32f 093e ca59 35be 26a7 88bc
00000120: b269 253e 0bf9 08bd ceae a9bc e870 f5bb
00000130: a396 ca3b d90b f7bd fb04 133e ac7b 53be
00000140: a7f2 6ebe 4d81 babc e52b 9f3c 514c 433d
00000150: 06a2 ddbc 6b07 663d d1d6 01be 094e 2e3d
00000160: cc57 4abd 5c12 093e 424c fb3d 5431 ff3d
00000170: c566 fbbd 42c8 37be 1e70 323d a318 1b3d
00000180: bbe0 65bd c1e0 7fbb 4898 ccbd a394 b5bd
00000190: 9d9c cbbd 4461 6fbe 8ff8 303d a9d3 ecbb
000001a0: a8c4 adbd 2287 073c c4cf 8bbd 6f3a 6cbd
000001b0: f274 b43d 7308 e2bb 273a b73d 5569 573e
000001c0: 456c 9abd 37b0 663d 4a30 f9bb d514 bbbc
000001d0: 2735 e43c d07a 563e 8c71 6e3d a69f 683e
000001e0: 7b9b 8b3d 7787 d9bd 8289 ab3d 37c7 713c
000001f0: 674a 163d 455f c43d 0645 38bd b1b1 b8bd
00000200: 64da cd3d 79e9 fcbb 00eb 133e aaa9 ee3d
00000210: 39aa 953c 92af 46ba db6c d33c ab30 92bc
00000220: 78c4 393d 0430 d53d 402a 36be e59b 673c
00000230: f7a6 46be 60fe 273e 5757 5d3d 3fdc e63d
00000240: e86c 073e 2dcf ff3c 9dec cebd 4a1b e6bd
00000250: 70f0 80bd 8cd1 01be c04f 023e 8284 0abd
00000260: db67 68be 2d31 febd 120c 87bd 73c3 cdbb
00000270: 3391 0f3e beb1 813d d041 5cbb d6d1 583e
00000280: 2221 f43d 6c26 abbe c64e a53c 2c6a 8fbc
00000290: 73c0 00bd 1e61 acba 12f0 af3e f096 323e
000002a0: a1ff ed3d 2f7a 40be 56c0 d23c 3f84 463b
000002b0: e921 c33d 5487 8c3e 2542 2d3d 0eb4 753c
000002c0: 23cb 943d 9c82 7b3c 0ba7 3cbd 3d69 e0bd
000002d0: e204 8c3d ccee 593d 3453 bd3d 16a5 713d
000002e0: 6d6b d4bd 0d82 543e 66aa 00be 2a1f d83d
000002f0: f798 f4bc 1aaa c9bd 9fac 8c3c 2dd8 6c3e
00000300: f903 e53c 694c 48bd 94d6 3cbd 95ef 9b3d
00000310: 25b6 d03c e73f 8c3d d6eb 04be da39 0a3d
00000320: fe5a aebd 3510 47be 9a5f 8c3d 48a4 d93c
00000330: 9feb c2bc da61 593d b1fd b2bd 1349 91bd
00000340: 7437 30bd 7e79 173d 3587 a23c f538 9bbd
00000350: 5be5 363d c2af ec3d 8e76 113d 2c4d 763d
00000360: c7dc 203e d96d 4fbe 0b47 4b3d a3ea 0ebe
00000370: 4051 98bd 9878 8d3d ace0 a33e 7b23 cbbd
00000380: de5e 16bd 782a 783e 22e6 d9bc a710 c3bd
00000390: 333a ac3d 4cbc 01be d1c8 a3bc 63ea f53d
000003a0: 6539 bb3d e64a 35bd ae11 4f3a cba4 b53d
000003b0: ce7c a73d da83 edbc 44da 11be cf8c 89bd
000003c0: e744 33bd 88cc 8b3d a122 f8bc 109f 63bd
000003d0: b251 3fbe c85f 343d 87b9 b6bb 407b 89be
000003e0: 94d1 a33b 6d76 94bd 59af 9dbd 601c 95bd
000003f0: 24ba 0bbe ff1e dbbc b060 5f3d 734f 573b

fc1.bias f4 [50]
-0.047059137 -0.0334514 0.039928596 0.04591307 -0.0665401 -0.10963984 -0.09976697 0.04758804
-0.08832054 0.06793732 -0.057991005 0.15059951 -0.11579589 0.004215171 0.1350345 0.09320554
-0.00044955438 0.07002052 -0.034530982 -0.11046272 0.12327194 -0.06670822 0.0014155611 -0.044307556
-0.034186367 0.10152884 -0.018997053 0.11800432 0.032761693 -0.026494246 -0.10363223 0.077815816
-0.104100324 -0.08430785 0.1051089 0.060762994 -0.16173628 -0.08008112 0.065112434 -0.0042232326
-0.02721995 -0.038743507 0.031489626 0.06304755 -0.0071723475 0.012939551 0.10908066 0.022080345
0.11744607 0.04329834
00000000: 15c1 40bd 5604 09bd 2b8c 233d 580f 3c3d
00000010: 2d46 88bd da8a e0bd a052 ccbd adeb 423d
00000020: 66e1 b4bd b922 8b3d fa87 6dbd c236 1a3e
00000030: 6526 edbd 6b1f 8a3b 7c46 0a3e 8ce2 be3d
00000040: 2bb2 ebb9 eb66 8f3d 5c70 0dbd 473a e2bd
00000050: 0076 fc3d 529e 88bd 598a b93a d77b 35bd
00000060: 0107 0cbd 5aee cf3d b59f 9bbc 40ac f13d
00000070: 2031 063d 760a d9bc 223d d4bd e65d 9f3d
00000080: 8d32 d5bd 98a9 acbd 5643 d73d 9ee2 783d
00000090: 329e 25be 9201 a4bd ab59 853d 0b63 8abb
000000a0: 5ffc debc 83b1 1ebd 44fb 003d 131f 813d
000000b0: 0306 ebbb 6900 543c ae65 df3d d7e1 b43c
000000c0: 9187 f03d 9a59 313d

fc2.weight f4 [30, 50]
0.06705344 -0.047293987 0.24311914 0.10237179 0.2962446 0.008185479 -0.083621405 -0.10849582
0.18055509 0.12455731 0.17955028 -0.058586232 0.102590315 -0.08257566 0.30194578 0.05558146
-0.04555791 0.2968385 -0.33753684 0.12795438 0.21480685 0.083075754 0.08623998 -0.14166406
0.20572689 0.046013024 0.15361254 -0.00061840314 0.09259973 0.1311034 0.12795387 0.22135818
0.1878499 0.21466102 0.20649374 0.047245897 -0.17802277 -0.07430349 -0.26923323 0.004048665
0.45417538 -0.037791967 -0.03292242 0.025597874 0.0045466195 0.15740494 0.06951613 0.30291912
0.1588928 -0.119706996 0.23010364 -0.10643555 0.058591597 0.15850902 0.035301488 0.15510033
0.01999035 -0.0932679 0.09297344 0.09188897 -0.3789533 0.052815493 -0.33086357 0.06547578
0.067809545 0.11126336 -0.004390842 -0.09813965 0.30419558 0.1070528 -0.13427596 -0.08772712
0.023672307 -0.2761508 -0.21590762 0.1553564 -0.12689245 -0.08685217 0.20567982 0.27119732
-0.3323557 0.15724292 0.031801656 0.13231272 0.17966634 0.03220196 0.23518047 0.097724706
0.049051795 0.11669741 0.14115766 0.13823059 0.056339066 -0.16524988 0.046280723 0.0102900695
0.01910346 0.25071704 -0.08318788 0.026212772 0.02044653 0.0054749222 0.27492455 0.11264173
0.034111056 0.039649203 0.05872017 -0.08743779 0.08103503 0.08787826 -0.06409257 -0.061817538
-0.07578821 0.12598206 0.18902835 0.07713269 -0.05512105 0.014699627 0.11128987 0.13432518
0.010255891 0.20976259 0.24062325 -0.17600584 0.09230963 0.07378263 0.032444585 0.10594833
0.024580512 0.27426273 -0.06196398 0.21992704 0.12042063 0.20950131 0.07985257 -0.06317827
0.13939507 0.042369608 -0.0501174 0.02240311 0.3035667 -0.027850019 0.028948646 0.095539175
0.0034151059 0.070168085 0.06687139 0.44614592 0.045599163 0.023728516 -0.080056734 0.22476289
0.05010319 0.08159559 -0.013329009 -0.064727366 -0.02987166 0.1608073 0.10373114 0.013530064
0.25003353 0.11302908 0.19446349 0.058475822 0.11702062 -0.033945486 0.046227995 -0.10225008
-0.4344154 -0.0037879497 0.21211612 0.0018815779 0.023813484 0.2775168 0.025919452 0.09842635
-0.012336026 -0.09059619 -0.09065568 -0.12700386 0.27013507 -0.037156686 -0.061248876 -0.21003677
-0.13281132 0.05264919 -0.27417928 -0.050845765 0.0622402 -0.084562026 -0.2121984 0.10270563
0.1529446 0.06017315 -0.08474807 0.09114812 0.07121548 -0.13515015 -0.025376644 0.10291464
0.15154053 -0.06301624 0.09127676 0.08987993 -0.007660173 -0.03574853 0.0049755373 -0.0406372
0.14132859 -0.0038250682 -0.32418308 -0.26824185 -0.2431308 0.0072049503 0.044276185 -0.07411865
-0.053124115 0.1572981 0.00060261233 -0.07466384 -0.018594895 0.10278667 -0.03286849 -0.2028526
0.009772236 0.05286136 -0.19545968 0.055242263 0.21272114 0.23461102 -0.34559032 0.14884424
0.12793905 0.2406986 -0.007858884 0.21253861 0.19829303 0.21652757 -0.21120773 0.032529052
0.1474571 0.07286597 -0.031188793 0.030185482 -0.104816884 -0.046126086 0.013806804 0.3665236
0.06475996 0.027530443 0.10824842 -0.1934192 0.20033404 0.08559444 -0.13051935 0.090310656
00000000: 5053 893d 57b7 41bd 39f4 783e 4da8 d13d
00000010: 5fad 973e 631c 063c b341 abbd 0e33 debd
00000020: 6fe3 383e e717 ff3d 07dc 373e 1ef8 6fbd
00000030: df1a d23d 6d1d a9bd a398 9a3e 63a9 633d
00000040: ee9a 3abd 37fb 973e a1d1 acbe 7906 033e
00000050: 54f6 5b3e 9f23 aa3d 969e b03d 6210 11be
00000060: 12aa 523e 2778 3c3d 9b4c 1d3e 551c 22ba
00000070: eda4 bd3d f83f 063e 5706 033e b8ab 623e
00000080: b95b 403e 19d0 5b3e 1873 533e ea84 413d
00000090: 9a4b 36be 6e2c 98bd f0d8 89be aaaa 843b
000000a0: ad89 e83e c0cb 1abd a9d9 06bd a2b2 d13c
000000b0: cffb 943b c32e 213e 795e 8e3d 3718 9b3e
000000c0: cbb4 223e f128 f5bd 4aa0 6b3e e2fa d9bd
000000d0: befd 6f3d 3050 223e 4b98 103d 9fd2 1e3e
000000e0: cdc2 a33c 3e03 bfbd dc68 be3d 4930 bc3d
000000f0: 2b06 c2be 0f55 583d f366 a9be 2a18 863d
00000100: bbdf 8a3d 0bde e33d 0de1 8fbb 71fd c8bd
00000110: 86bf 9b3e 803e db3d a37f 09be 47aa b3bd
00000120: 6dec c13c a363 8dbe e316 5dbe c015 1f3e
00000130: 18f0 01be 8ddf b1bd bb9d 523e 60da 8a3e
00000140: 872a aabe 4a04 213e 7442 023d fc7c 073e
00000150: 74fa 373e 34e6 033d 26d3 703e e423 c83d
00000160: 89ea 483d 0dff ee3d a28b 103e 528c 0d3e
00000170: cbc3 663d 4437 29be db90 3d3d ae97 283c
00000180: dc7e 9c3c fc5d 803e 685e aabd 2bbc d63c
00000190: 7b7f a73c fa66 b33b e9c2 8c3e b5b0 e63d
000001a0: 09b8 0b3d 3467 223d 9084 703d 9612 b3bd
000001b0: b2f5 a53d 84f9 b33d f742 83bd 6334 7dbd
000001c0: d936 9bbd 7101 013e a690 413e bef7 9d3d
000001d0: 9cc6 61bd b4d6 703c f2eb e33d 8a8c 093e
000001e0: 5308 283c 01cc 563e f165 763e e03a 34be
000001f0: d50c bd3d 591b 973d 9de4 043d 70fb d83d
00000200: 125d c93c 2a6c 8c3e f1cd 7dbd 8e34 613e
00000210: 179f f63d 8387 563e bf89 a33d 9c63 81bd
00000220: 95bd 0e3e c18b 2d3d e747 4dbd ba86 b73c
00000230: 186d 9b3e b925 e4bc b625 ed3c 0baa c33d
00000240: f8cf 5f3b 49b4 8f3d def3 883d 3d6d e43e
00000250: 30c6 3a3d 4e62 c23c c9f4 a3bd 3e28 663e
00000260: 0139 4d3d 971b a73d ea61 5abc c88f 84bd
00000270: 69b5 f4bc abaa 243e fe70 d43d 34ad 5d3c
00000280: 6504 803e ca7b e73d 7021 473e 5884 6f3d
00000290: 82a8 ef3d 6c0a 0bbd 9159 3d3d 7d68 d1bd
000002a0: b26b debe 403f 78bb f834 593e 479f f63a
000002b0: 7f14 c33c af16 8e3e 0855 d43c c193 c93d
000002c0: 0b1d 4abc 7f8a b9bd afa9 b9bd 4d0d 02be
000002d0: 254f 8a3e 9c31 18bd 1ae0 7abd e113 57be
000002e0: b1ff 07be ada6 573d 3a61 8cbe a643 50bd
000002f0: 94ef 7e3d db2e adbd 8a4a 59be 5457 d23d
00000300: 829d 1c3e 1f78 763d 6590 adbd deab ba3d
00000310: 6cd9 913d cd64 0abe aee2 cfbc e9c4 d23d
00000320: 712d 1b3e a90e 81bd 4fef ba3d f812 b83d
00000330: 3002 fbbb 0d6d 12bd d509 a33b 3173 26bd
00000340: 71b8 103e ffad 7abb 53fb a5be ff56 89be
00000350: 48f7 78be 8117 ec3b f25a 353d 85cb 97bd
00000360: ac98 59bd c112 213e a1f8 1d3a 5be9 98bd
00000370: 5254 98bc d181 d23d 1ca1 06bd 98b8 4fbe
00000380: bb1b 203c 2785 583d 9526 48be b645 623d
00000390: 92d3 593e df3d 703e 37f1 b0be a06a 183e
000003a0: 7402 033e b279 763e 8cc2 00bc b9a3 593e
000003b0: 540d 4b3e 67b9 5d3e d746 58be 2f3d 053d
000003c0: fefe 163e c13a 953d a47f ffbc 8b47 f73c
000003d0: 3caa d6bd b5ee 3cbd ef35 623c fba8 bb3e
000003e0: dfa0 843d 8687 e13c 59b1 dd3d af0f 46be
000003f0: 5e24 4d3e 234c af3d dda6 05be cbf4 b83d

fc2.bias f4 [30]
0.08660397 0.06946007 0.004369769 0.04377739 0.03067059 0.047136642 0.060050745 -0.091634504
-0.05122294 0.11442161 -0.14399391 0.050912257 -0.11823178 -0.09581514 -0.083242 -0.10211227
0.0752653 -0.030951792 -0.001463947 0.05216337 0.14232393 -0.08890419 0.10417284 0.19735909
0.056605075 0.09410143 0.1320055 -0.071484186 0.061199132 0.1430854
00000000: 6c5d b13d 1541 8e3d 4730 8f3b ec4f 333d
00000010: e440 fb3c 5a12 413d c5f7 753d dfaa bbbd
00000020: 25cf 51bd e155 ea3d 2473 13be 5f89 503d
00000030: 8123 f2bd ba3a c4bd c87a aabd 3d20 d1bd
00000040: b224 9a3d 9d8e fdbc e9e1 bfba 42a9 553d
00000050: 5dbd 113e 6613 b6bd 9258 d53d 8018 4a3e
00000060: b9da 673d 40b8 c03d 732c 073e 4d66 92bd
00000070: f1ab 7a3d fb84 123e

fc3.weight f4 [20, 30]
-0.22993828 0.13113962 -0.32005662 0.1444666 0.05565541 -0.22518525 -0.0590584 -0.10618256
-0.1900215 -0.098666586 -0.4401276 0.23745194 0.0040510218 -0.28167918 0.13949056 0.013824813
0.3156131 -0.18230139 -0.14647849 0.15461113 0.09254013 0.16380808 0.06272321 0.27050337
0.37405464 -0.32989672 -0.19422089 0.073998906 0.003543437 0.11044406 0.21817864 0.003669378
0.19575262 -0.1896777 -0.25342628 0.004969263 -0.3663879 0.3349459 -0.20517875 -0.07867895
0.73015684 0.030757865 -0.15264119 0.09398563 -0.32903993 0.10690761 0.09079791 -0.04832473
-0.2507639 0.19854172 -0.16071528 0.12892275 -0.010306498 -0.062476493 0.09927808 0.019310467
0.0055598095 -0.059756305 -0.021282196 -0.020458054 -0.069400616 0.30338824 0.020853974 -0.25079244
0.36622468 0.13646688 0.34499615 -0.13728602 0.1487091 0.18422465 0.005338212 -0.043336943
0.07287311 0.28112087 0.17259474 0.0276263 -0.017042562 0.07753375 0.25381103 0.041491564
0.20645553 0.027907304 -0.24660069 0.021095356 0.021617735 0.10804285 0.066943966 -0.03304443
0.33310276 -0.03281531 0.08302077 0.20029496 0.20142426 -0.045277383 0.2983816 0.00064143614
0.23413953 -0.19211613 0.46276906 0.064195745 0.16103461 -0.30365306 0.19717218 0.06054869
0.35444087 -0.15700486 -0.11242909 0.40176117 -0.023264682 0.063096985 0.052739654 0.09180193
-0.195298 -0.08183928 -0.13691749 0.13450308 -0.011648775 -0.0069823414 0.16005544 -0.04835409
0.10288977 -0.06549822 -0.0046844464 -0.031369362 0.027073963 -0.23025519 -0.28084618 0.31828523
-0.41219875 -0.210017 0.43991786 0.24810882 -0.22784886 -0.06397352 -0.49300295 0.11444976
-0.06410441 -0.35295877 -0.22736262 0.17433771 0.04325049 -0.1233134 0.20436399 0.079075254
-0.14220563 0.0781235 0.1815607 -0.1051184 -0.031211259 0.18218565 0.044952944 -0.2509345
-0.1225338 0.052188117 0.12027935 -0.17965564 -0.21902378 0.09184645 -0.15593335 -0.0032097509
0.7183512 0.018794347 -0.13085945 0.061603032 -0.13564241 -0.06574884 -0.03120312 -0.17435117
-0.055537906 0.29651642 -0.21576548 0.012065014 0.13949655 0.09481582 0.1883177 0.024352679
0.113307334 -0.19208366 -0.31902257 0.2696292 0.15795459 0.27158797 -0.03306017 -0.01811673
0.04579783 -0.057293154 0.35583854 -0.11399469 0.27611881 0.19437355 0.0076773325 -0.1486566
0.17668505 0.24179196 0.31130344 0.102282174 -0.18387178 0.103973545 0.1988599 -0.10248415
0.23720317 -0.1519976 -0.08376478 0.012050377 -0.13315052 0.10206929 0.03769843 0.0061129127
0.25555348 -0.15305611 -0.051459692 0.1461869 -0.04902476 -0.35795474 0.12885304 0.06554444
0.18544723 -0.104877345 0.39952928 0.27029073 0.0041057374 -0.084778145 0.3294898 0.21123555
0.31557828 -0.12554713 -0.123832926 0.2848355 0.22943972 -0.19685042 0.13151379 0.17076726
-0.10365674 -0.004182691 -0.13909684 0.17094801 0.026557691 0.08688579 0.24231572 0.025234105
0.041617334 0.17989126 0.10616778 -0.053639263 0.3451718 -0.12434891 0.28970888 -0.092890814
0.15489222 0.30964 -0.0532835 -0.09532861 0.07692927 0.11721395 0.41223225 -0.19937786
00000000: f174 6bbe 7749 063e 76de a3be 0def 133e
00000010: edf6 633d f696 66be 39e7 71bd 3e76 d9bd
00000020: ff94 42be b511 cabd 6858 e1be 9a26 733e
00000030: 6fbe 843b 4138 90be 9dd6 0e3e 7881 623c
00000040: 0a98 a13e 37ad 3abe 75fe 15be 6152 1e3e
00000050: ae85 bd3d 4ebd 273e 0775 803d 6b7f 8a3e
00000060: 1784 bf3e 39e8 a8be d7e1 46be bd8c 973d
00000070: 0239 683b 7f30 e23d 396a 5f3e f379 703b
00000080: 6073 483e df3a 42be 17c1 81be 33d5 a23b
00000090: 3297 bbbe 077e ab3e 611a 52be 6e22 a1bd
000000a0: 8feb 3a3f ebf7 fb3c f94d 1cbe 8a7b c03d
000000b0: ec77 a8be 61f2 da3d 41f4 b93d 27f0 45bd
000000c0: 2064 80be 854e 4b3e 8c92 24be 5304 043e
000000d0: 96dc 28bc 5ae7 7fbd 4e52 cb3d fc30 9e3c
000000e0: 102f b63b 07c3 74bd 0058 aebc a697 a7bc
000000f0: e921 8ebd b455 9b3e f4d5 aa3c de67 80be
00000100: cd81 bb3e f9bd 0b3e 56a3 b03e b594 0cbe
00000110: 3347 183e 63a5 3c3e 2bec ae3b 1482 31bd
00000120: 7f3e 953d 13ef 8f3e adbc 303e 8d50 e23c
00000130: d89c 8bbc 04ca 9e3d 85f3 813e 0ff3 293d
00000140: 1469 533e dc9d e43c e484 7cbe 2bd0 ac3c
00000150: ad17 b13c 9245 dd3d eb19 893d 9959 07bd
00000160: 728c aa3e 5969 06bd cb06 aa3d 1f1a 4d3e
00000170: 2942 4e3e c774 39bd 79c5 983e 0d26 283a
00000180: 46c2 6f3e 17ba 44be 11f0 ec3e 0f79 833d
00000190: 42e6 243e 6a78 9bbe 81e7 493e e701 783d
000001a0: 4679 b53e e2c5 20be 3941 e6bd a4b3 cd3e
000001b0: 9395 bebc fe38 813d 8905 583d a602 bc3d
000001c0: 33fc 47be 5a9b a7bd 1934 0cbe 2dbb 093e
000001d0: 81da 3ebc 20cc e4bb 93e5 233e f00e 46bd
000001e0: dfb7 d23d ee23 86bd fc7f 99bb 297d 00bd
000001f0: 37ca dd3c 04c8 6bbe 12cb 8fbe 48f6 a23e
00000200: b70b d3be b20e 57be ea3c e13e 3d10 7e3e
00000210: 3651 69be 8d04 83bd e26a fcbe a364 ea3d
00000220: 2c49 83bd 03b7 b4be bfd1 68be 9685 323e
00000230: 6d27 313d bc8b fcbd cb44 513e 35f2 a13d
00000240: 5a9e 11be 37ff 9f3d 0ceb 393e 5148 d7bd
00000250: c1ae ffbc e08e 3a3e 9420 383d 7d7a 80be
00000260: 00f3 fabd 35c3 553d 0555 f63d a6f7 37be
00000270: c547 60be fe19 bc3d feac 1fbe af5a 52bb
00000280: dde5 373f 9af6 993c 0500 06be 7653 7c3d
00000290: d8e5 0abe 54a7 86bd af9d ffbc 1d89 32be
000002a0: b77b 63bd 00d1 973e a0f1 5cbe 56ac 453c
000002b0: 2fd8 0e3e cc2e c23d 5bd6 403e 457f c73c
000002c0: ad0d e83d 94b1 44be ed56 a3be d70c 8a3e
000002d0: d9be 213e 940d 8b3e 1a6a 07bd 8969 94bc
000002e0: 8196 3b3d 3aac 6abd 7830 b63e 0c76 e9bd
000002f0: 725f 8d3e dc09 473e 2292 fb3b 7039 18be
00000300: edec 343e 5098 773e 2a63 9f3e 5179 d13d
00000310: e248 3cbe 15f0 d43d eea1 4b3e 36e3 d1bd
00000320: 63e5 723e 42a5 1bbe de8c abbd f26e 453c
00000330: 9c58 08be b409 d13d ab69 1a3d d44e c83b
00000340: e8d7 823e beba 1cbe 66c7 52bd 05b2 153e
00000350: 30ce 48bd d845 b7be 0df2 033e 2a3c 863d
00000360: e1e5 3d3e efc9 d6bd 1a8f cc3e 8c63 8a3e
00000370: 6c89 863b 2aa0 adbd e3b2 a83e 224e 583e
00000380: 7a93 a13e 6d8f 00be 1e9c fdbd f5d5 913e
00000390: 3ff2 6a3e 2893 49be 8dab 063e 9ddd 2e3e
000003a0: fc49 d4bd f50e 89bb 676f 0ebe ff0c 2f3e
000003b0: 848f d93c 2df1 b13d 9d21 783e c1b7 ce3c
000003c0: f076 2a3d 6a35 383e 7e6e d93d d8b4 5bbd
000003d0: 5cba b03e a4aa febd b954 943e 8a3d bebd
000003e0: 119c 1e3e 2289 9e3e cd3f 5abd a53b c3bd
000003f0: 188d 9d3d de0d f03d 1b10 d33e b629 4cbe

fc3.bias f4 [20]
0.065960534 -0.046699252 -0.033980686 0.023470512 0.09413046 0.11178234 0.004422461 0.095709406
-0.032100704 0.11192897 0.0839171 -0.054571312 -0.13248979 0.01775518 0.17826247 -0.07361234
-0.056656566 0.1601612 -0.10649141 0.070719905
00000000: 5116 873d b747 3fbd 552f 0bbd 3b45 c03c
00000010: 78c7 c03d 24ee e43d 4bea 903b 4b03 c43d
00000020: 077c 03bd 043b e53d bbdc ab3d 2b86 5fbd
00000030: 67ab 07be 5073 913c 708a 363e 11c2 96bd
00000040: b710 68bd 4c01 243e 2b18 dabd 99d5 903d

fc4.weight f4 [2, 20]
-0.4509374 0.60768884 -0.21283086 -0.35785228 0.23406444 -0.06911317 -0.40424818 -0.24497497
-0.3239623 -0.41469353 0.24281457 -0.2510328 -0.19657347 -0.3142942 0.24581218 -0.46099705
0.354949 0.113923825 0.38039523 -0.28010306 0.5634648 -0.36371246 0.09056568 0.046229627
-0.2556896 -0.37209547 0.33285898 0.32964006 0.19153103 0.33553034 -0.080500945 0.34667766
-0.16700026 0.06727627 -0.14283504 0.16973129 -0.3145235 -0.39714456 -0.35504955 0.25001353
00000000: 44e1 e6be 7f91 1b3f 55f0 59be 6a38 b7be
00000010: 97ae 6f3e 358b 8dbd 9ef9 cebe b8da 7abe
00000020: 63de a5be b652 d4be 62a4 783e 5f87 80be
00000030: 8e4a 49be 2beb a0be 30b6 7b3e ce07 ecbe
00000040: e0bb b53e e550 e93d 2ac3 c23e ab69 8fbe
00000050: 3b3f 103f 8538 babe 807a b93d 475b 3d3d
00000060: bfe9 82be 4c83 bebe 7e6c aa3e 95c6 a83e
00000070: b620 443e a2ca ab3e aedd a4bd bc7f b13e
00000080: 1e02 2bbe 24c8 893d 5943 12be 0ace 2d3e
00000090: 3909 a1be 8856 cbbe 0ec9 b5be c601 803e

fc4.bias f4 [2]
0.14931053 -0.074179545
00000000: dce4 183e 72eb 97bd
