Sample_Based_Extension/WUSTL/WUSTL_Defense/Adversarial_Training/Adversarial_Training_interpolated.pt (torch, 21112 bytes, 8 tensors)

fc1.weight f4 [50, 42]
000000 f6 84 0d be 23 22 a4 bd c0 32 2e 3c f5 69 2a bd
       -0.13820252 -0.080143236 0.010632217 -0.041604955
000010 f4 e5 0f 3e c1 a0 99 bd 3f e7 9c bc 22 4c ad bd
       0.14052564 -0.075013645 -0.019153235 -0.08461787
000020 8a 05 27 3c f1 5d 1f 3d ff 12 09 3e ee d9 1b bd
       0.010194192 0.03890795 0.13386153 -0.03804963
000030 1a 9b 8f 3d 9a b1 29 bd 28 3e ca bd 0f 3c ea bd
       0.07012005 -0.04142914 -0.098751366 -0.114372365
000040 e0 f4 05 be 0a 12 ac bd c9 94 86 3d 75 4b 5d bd
       -0.13081694 -0.08401878 0.06571347 -0.05402704
000050 0a 5e 15 be 6a 1b 01 bd 3e 3f d9 bd f5 4b ba 3d
       -0.14586654 -0.031520285 -0.106077656 0.09096519
000060 26 00 41 bd 23 fc 15 be 8b 27 96 bd a7 d6 aa 3d
       -0.047119282 -0.14646964 -0.07331761 0.08341723
000070 f3 17 a6 bc eb be d9 3d a1 eb a0 3d 6a c8 02 bd
       -0.020275092 0.10632118 0.07857443 -0.03192941
000080 dc b8 50 3d c9 e5 85 3d 66 15 69 bd d0 37 d1 bd
       0.050957546 0.06537969 -0.056905173 -0.102157235
000090 cf 1a 90 bc 98 f6 00 3d de b2 1a be 8f fa 8e bd
       -0.017590908 0.03148517 -0.15107295 -0.06981384
0000a0 5a 07 ee bd 9a bb cf bd dd 30 8c 3a 82 82 0f 3d
       -0.11622496 -0.10143204 0.0010695715 0.03503657
0000b0 0e 5f b1 be 13 8e 4c 3d 5d 70 0b bd 8a d6 ae bc
       -0.34642833 0.04994018 -0.034042705 -0.021342535
0000c0 d1 24 24 be a4 f5 f1 bc 89 34 98 be 0d 5e 21 be
       -0.1602967 -0.029536076 -0.2972758 -0.15758534
0000d0 07 03 0b 3d c9 56 be bd 8d f7 08 3e 56 ff d0 bc
       0.033938434 -0.09293897 0.13375683 -0.025512379
0000e0 69 41 c9 3d fc e0 18 3f 53 ad 39 3e 63 0d 92 bd
       0.09826929 0.597183 0.18132524 -0.071314596
0000f0 6f d1 e0 3e d3 3a a6 be 2e 53 26 be b2 41 e4 be
       0.43909785 -0.32466754 -0.16242668 -0.44581372
000100 42 05 e3 be e4 b4 ed be 97 69 10 bd cf a0 c7 3a
       -0.4433995 -0.4642707 -0.03525695 0.001523042
000110 bb f4 57 3c be 71 1a 3e 38 71 18 3d 86 6a 48 3e
       0.013180907 0.15082452 0.03721735 0.19571885
000120 05 c5 f9 3d f9 f6 1c 3f 1e 07 6d be b6 6a 4e 3f
       0.121957816 0.6131435 -0.23147246 0.8063158
000130 b6 d2 73 be 1d 27 22 be 26 20 6b bc 8e ec 66 3e
       -0.23810849 -0.15835233 -0.0143509265 0.22551176
000140 c8 97 c6 3d b3 dd 75 bd d8 0b 4f bd 02 b1 b5 be
       0.09696919 -0.060025882 -0.050548404 -0.3548661
000150 0d e3 1d 3e 06 4c 59 3d d0 68 d6 be 1e 3d 35 3d
       0.15418644 0.053051017 -0.4187684 0.04424774
000160 dc 8b 21 ba 73 b7 69 bd e0 ae 73 3e 20 09 3c bd
       -0.0006162503 -0.057059716 0.23797178 -0.04590714
000170 38 41 9c bd e1 40 9b 3d 70 12 b5 3e 5b 02 19 3e
       -0.07629627 0.07580734 0.3536563 0.14942305
000180 9e 88 a9 bd 57 41 00 3d 77 6b 45 bc 8f 92 43 be
       -0.08278011 0.031312313 -0.012049547 -0.19098876
000190 cd 7c 07 be 9f 25 db bd 72 58 54 be ae 3d 46 3e
       -0.13231201 -0.10700535 -0.20736864 0.19359466
0001a0 1c ec c1 3e 10 18 16 3f 18 f2 0a 3f ae 1c 97 bf
       0.3787545 0.58630466 0.54275656 -1.1805627
0001b0 50 df 81 3d d1 7d a3 bd 9b 60 a0 3b 8b 1a c9 3d
       0.063414216 -0.07982982 0.004894329 0.09819516
0001c0 7e f8 11 3e bd b7 62 3e 0c b7 e6 3e 25 ad eb 3e
       0.14254948 0.22140403 0.4506153 0.46030536
0001d0 e6 21 00 3f fb 7a 1f bf 99 2e c0 3e 3f 64 58 bd
       0.50051725 -0.6229703 0.3753555 -0.052829977
0001e0 9c 5a 98 bd 4b 6d 8b 3c 14 e3 14 3f c1 43 a9 3e
       -0.07439157 0.017019888 0.58158994 0.33059505
0001f0 08 f9 75 bd 02 79 52 be 5d c5 4c bd 2b 89 61 3c
       -0.060051948 -0.20553973 -0.049992908 0.013765614
000200 e5 d0 00 bf eb cb 4c be 9e 89 d8 bd 76 2f 1b bc
       -0.5031875 -0.19999664 -0.105731234 -0.009471765
000210 8f 7c 36 be bd c9 85 bd f6 1a 48 3e 03 7a a5 3d
       -0.17820953 -0.06532619 0.19541535 0.080799125
000220 0f 1b 30 bd ac 02 15 bd 0d 73 4f be 0c af 9a 3d
       -0.042994555 -0.0363795 -0.20258732 0.07552919
000230 42 97 bf 3c 19 bd 15 bf 52 49 06 bf 0c e1 3c be
       0.023387555 -0.58491665 -0.5245563 -0.18445224
000240 de 9c db be 66 9f 5a bd 65 1c 82 3d df 4f 6a 3e
       -0.42893118 -0.05337467 0.06353072 0.22882031
000250 e2 25 04 be 0f a9 48 3f 84 1e 1c bd 9a 09 18 be
       -0.12905076 0.7838296 -0.03811504 -0.14847413
000260 5a 31 1c 3e 3d 12 75 bd 10 84 2b 3e fd 75 1b 3e
       0.15253201 -0.059831847 0.16749597 0.15181728
000270 37 ca 83 3e c5 8b f0 bc 94 f3 62 3e 5e 74 97 be
       0.25740215 -0.029363522 0.2216323 -0.2958097
000280 5e a6 a2 be 24 bb 40 3e c9 40 e6 bd e0 77 bd 3d
       -0.31767553 0.18821388 -0.112428255 0.0925138
000290 ce 9a a1 3e c9 70 31 bc 5d af f6 bb b3 c0 c1 be
       0.3156342 -0.010830113 -0.007528229 -0.3784233
0002a0 c7 c7 66 3d b2 e2 fa 3d f0 70 1d 3e d7 e6 57 3c
       0.056342866 0.1225027 0.15375113 0.013177595
0002b0 34 c1 ab bc b4 a8 36 3d 2d 2d af 3d ac f5 5f 3c
       -0.02096615 0.04459448 0.085535385 0.013669413
0002c0 b9 48 ad 3d 88 4d 59 3e 14 75 76 3e 2c 89 81 3e
       0.08461136 0.21220982 0.240681 0.25299966
0002d0 db 32 4d 3e 71 3b 77 3e de e6 c8 3d 49 97 d2 bd
       0.20038931 0.24143769 0.098096594 -0.102827616
0002e0 ce 56 d3 3d f9 46 f3 3b 02 a7 84 3e 8c ef 67 3e
       0.10319291 0.007424232 0.25908667 0.22649974
0002f0 5a 3e 34 3e 6b 30 d0 3e 96 c4 57 3e 21 08 f2 3e
       0.1760191 0.4066194 0.21071085 0.47271827
000300 f5 6b b8 bb e9 4b e1 3c 00 b1 91 3d 7b a6 3b bd
       -0.005628104 0.027502017 0.07113838 -0.045813065
000310 8b e9 52 bd 85 39 ee 3d 07 87 10 3e 46 b3 9f 3f
       -0.051492255 0.11632065 0.14114009 1.2476585
000320 a1 be 14 3e 6a a0 35 be b5 5d 74 3d 50 0a 46 3d
       0.14525844 -0.17736974 0.05965968 0.04834968
000330 61 34 ad 3c a9 6b ff bd d3 ea 1c 3e fe 05 21 3f
       0.02114314 -0.124717064 0.15323953 0.6289977
000340 9b 15 40 3c 34 a4 3c bf bb 55 d2 3d b6 f6 74 bd
       0.011723901 -0.73688054 0.10270258 -0.059805594
000350 58 53 f5 be 87 0f bb bc 6a 7c 28 3d 96 4a 25 3d
       -0.4791515 -0.022834552 0.041134275 0.040354334
000360 30 04 a3 3e ad eb 1e 3d bc 57 a8 bc 67 15 13 3e
       0.31839132 0.038798977 -0.020549648 0.14363633
000370 5d 60 ed 3e 22 10 7f 3c 35 81 5e 3d 60 90 3a 3f
       0.46362582 0.015567811 0.05432244 0.7287655
000380 6f 08 99 3d 04 7f e9 3e 89 95 fe 3e c9 75 d1 bc
       0.07472312 0.45604718 0.4972346 -0.02556886
000390 98 81 cb bd 7c 11 4e bd e3 8a e7 3d b2 62 c3 be
       -0.099368274 -0.050309643 0.113057874 -0.38161236
0003a0 46 31 87 bd e9 ac 68 3f 94 31 92 3d 2f 3b a3 bd
       -0.06601195 0.9088884 0.071383625 -0.07970273
0003b0 13 ed 44 3e 62 40 1a be 87 b1 8d bd b4 d4 89 bc
       0.19231062 -0.15063623 -0.06918626 -0.016825058
0003c0 23 b3 17 bf 2f 08 f5 be 6d 74 18 3e 1c f3 84 3e
       -0.59257716 -0.47857806 0.14888163 0.25966728
0003d0 e9 eb c8 3e f7 8a 8d bd 8b ea 36 3c 2e 66 45 be
       0.39242485 -0.06911271 0.011164318 -0.1927726
0003e0 ca c4 1f bf db 3d e4 be 3a 22 0b be 41 1b b9 be
       -0.6240965 -0.44578442 -0.13587275 -0.36153606
0003f0 5d 67 3f 3e fc bc 19 3e 99 76 22 bf 23 a4 d7 bd
       0.18691774 0.15013498 -0.63462216 -0.105293535

fc1.bias f4 [50]
000000 de 8c bb bd e4 1c 68 be 44 78 8d 3d 3c cf 07 3e
       -0.09157728 -0.22667271 0.069077045 0.13262647
000010 27 1c 1b 3e ac e1 63 3e 67 c0 29 3d f5 ed 03 be
       0.15147458 0.22254056 0.041443255 -0.12883742
000020 7e 23 04 bd 86 a8 09 be 57 3f 12 3e 1f d0 93 bc
       -0.03226041 -0.13443193 0.14281975 -0.018043576
000030 d2 cb c5 3d 54 41 c0 3d 0b bb 44 3e 9e e0 b1 3d
       0.09658016 0.0938746 0.19211976 0.086854205
000040 a5 1a 29 be b4 91 27 3e 89 c3 96 3e 90 72 7e 3e
       -0.1651407 0.16364175 0.29446056 0.2484839
000050 2c 41 9d bd 23 1b da bc d5 8a a9 3d a6 80 34 3d
       -0.07678446 -0.026624268 0.08278433 0.044068
000060 d0 23 08 be 5a 00 17 3e fa e0 1c 3e 42 69 32 3c
       -0.13294911 0.14746228 0.15320197 0.010889353
000070 0a 81 17 3c 5d b5 da bd 04 bb f3 bc de 8c 63 3e
       0.009247074 -0.106791236 -0.029752262 0.22221705
000080 f2 0c a9 bc 09 23 d7 3d 24 59 95 bb 23 76 db 3d
       -0.020636056 0.10504729 -0.0045577455 0.10715892
000090 f2 e0 cf 3d 1a 28 c9 3b 46 17 c7 3a 95 6a 78 bd
       0.10150327 0.0061388137 0.0015189431 -0.06064852
0000a0 76 bb 90 3e d0 d9 35 3e 33 55 22 3e f5 0f 09 be
       0.2826802 0.1775887 0.15852813 -0.13384993
0000b0 59 7c 5c 3d 14 68 4a 3e 58 01 cb bd 44 3e d3 bc
       0.053829525 0.19766265 -0.09912366 -0.025786527
0000c0 ef 97 aa 3d 09 1c 49 3e
       0.0832976 0.19639601

fc2.weight f4 [30, 50]
000000 58 48 b2 bd e9 8e 6c be 95 87 06 3f ff 3b 0f 3f
       -0.08705205 -0.23101391 0.5255063 0.5595092
000010 4c 49 18 3f 27 9a 9a 3e 5a 31 08 3d 80 7c 8c be
       0.5948684 0.30195734 0.03325019 -0.27438736
000020 8e da 84 be 27 65 d2 3e 2b cd bd 3d f2 d5 04 be
       -0.25947994 0.41092798 0.09267648 -0.12972239
000030 e8 0b 24 3b ff 92 5c 3e 8e c2 80 3f 93 0f b7 3d
       0.002503151 0.2154045 1.0059373 0.089385174
000040 6b 62 9b bd 92 01 d2 3e 52 d5 fe be a7 56 bb 3e
       -0.07587131 0.41016823 -0.49772125 0.36589548
000050 57 c0 42 3d 0c b2 04 bf 98 24 f0 be c7 5d 01 3f
       0.04754671 -0.5183418 -0.4690292 0.5053372
000060 ff 43 c5 be a8 e1 07 3f 58 f1 9c 3d 60 34 98 3e
       -0.3852844 0.530787 0.0766322 0.2972746
000070 2a 24 59 3f 6f c5 c3 3e f3 f4 b4 bb 3d b1 bb 3e
       0.84820807 0.38236567 -0.0055223643 0.3665866
000080 7d 51 05 be 13 99 9b bd a2 26 80 be 86 e2 99 3e
       -0.13019367 -0.07597556 -0.25029474 0.30055636
000090 2c 46 61 3e 35 af 0d bf 47 11 02 3e cd 36 4c 3f
       0.21999425 -0.5534547 0.12701903 0.7977112
0000a0 81 6b 82 3f 38 55 a0 3e 96 f3 df 3e 82 89 05 bf
       1.0189058 0.31315017 0.4374053 -0.52162945
0000b0 1e 97 b4 be e7 6a a8 3e 03 cb 85 3d 27 c1 64 be
       -0.35271543 0.3289406 0.06532862 -0.22339307
0000c0 76 45 da 3d cd ea 8b 3e 3a d4 90 bc 68 25 53 bc
       0.1065778 0.27327576 -0.017679323 -0.012887336
0000d0 18 fe ac 3c 42 64 9e 3e 83 30 f2 be 0f 94 f4 3d
       0.021117255 0.30935866 -0.47302637 0.119423024
0000e0 59 b0 f9 3c f6 5f 5f 3e c2 63 58 be e0 90 09 be
       0.030479597 0.2181395 -0.21131805 -0.13434172
0000f0 b0 e7 62 be db 85 42 3e 07 47 80 be 87 85 d4 be
       -0.22158694 0.18996374 -0.2505419 -0.41508123
000100 d7 9a 9a 3e 27 2a 43 bd 7b a4 b1 3c 39 82 02 bf
       0.30196258 -0.04764762 0.021684876 -0.50979954
000110 69 be 60 3f d4 86 37 be 75 cc f6 be 50 b5 9c 3e
       0.8779054 -0.17922527 -0.48202863 0.3060708
000120 e5 6f 16 3e 2a ec 18 be a6 20 fe bd d5 10 41 3e
       0.14691122 -0.1493384 -0.12408571 0.18854077
000130 d9 5b 08 be ff ff a4 3e 29 74 4f 3e 77 12 24 be
       -0.13316287 0.3222656 0.20259155 -0.16022669
000140 e3 4f bf 3d c5 2f dc bd e6 b5 7f bd b5 04 25 be
       0.09341409 -0.10751299 -0.06242933 -0.16115077
000150 ad 1d ff 3d cb 83 e5 be 7f d8 0a be 0b 37 c2 3e
       0.12456832 -0.44827113 -0.13559149 0.3793262
000160 08 e8 7c be 6e e3 d7 3e 4d 8f 06 bd 29 55 a3 bd
       -0.24697888 0.42165703 -0.032851506 -0.079752274
000170 9f 46 82 bd 8d 1e ee bd 43 83 7d 3e 80 e3 bc be
       -0.06361126 -0.11626921 0.24757104 -0.3689232
000180 3a 19 05 3e 20 f2 60 3e 56 35 24 bd 3b f8 f8 3c
       0.12997904 0.21967363 -0.040089928 0.030391803
000190 b4 68 fd bc e0 d1 03 3d de 0a 93 bd 4e 79 ab 3c
       -0.030933715 0.032182574 -0.07179807 0.020931866
0001a0 76 a8 88 bd 8a 90 c4 3d ff 9c b9 bd 65 c4 c6 3b
       -0.066727564 0.09597881 -0.09063148 0.0060658925
0001b0 8e 72 aa bd 85 d2 e5 3c 01 c1 32 3d 29 9e b9 bb
       -0.08322631 0.028054485 0.043641094 -0.005664606
0001c0 34 7d 52 bd 52 de c6 3d ed 13 d9 3d 04 11 13 be
       -0.051388934 0.09710373 0.10599504 -0.1436196
0001d0 e5 4e 04 bd 3c cb 0f bd ca d3 a9 bd df 67 68 3d
       -0.032301802 -0.03510593 -0.08292349 0.056739684
0001e0 c3 56 ee bd 6f 92 a5 bd 35 80 48 bd c3 77 c4 3d
       -0.11637642 -0.080845706 -0.048950393 0.09593155
0001f0 77 36 9d bd 27 d2 90 bd 44 f1 93 bd a7 3d a9 bd
       -0.07676404 -0.070713334 -0.07223752 -0.082637124
000200 19 bb f0 bd 70 fe f3 3d be 78 b5 bc 69 61 7e bd
       -0.11754436 0.119137645 -0.0221523 -0.062104616
000210 f5 f4 06 3e 4d 1d 46 bd c2 c5 15 be 69 ab ed ba
       0.13179381 -0.048367787 -0.1462622 -0.0018132749
000220 36 c9 a8 bd ba b6 00 be d5 28 9a 3d b6 69 d8 bd
       -0.08241503 -0.12569705 0.07527319 -0.10567038
000230 67 a9 a7 3c 05 a8 5c 3d 07 a6 12 be 00 24 24 bd
       0.02046652 0.053871173 -0.14321147 -0.040073395
000240 63 b0 94 bd 64 7d 02 3d 09 e1 02 bd 4b 9f 8a 3d
       -0.072602056 0.031857863 -0.03195289 0.06768664
000250 10 15 03 be 97 9f 85 3d e6 41 34 bd 07 b9 9d 3e
       -0.12801003 0.0652458 -0.04400816 0.30805227
000260 f1 18 10 bf 94 bf 1e 3e a9 b3 04 3f ef 84 28 3e
       -0.5628806 0.15502769 0.5183664 0.1645696
000270 ba 4b 89 be 6f 21 bf 3d d4 66 ac be 9b a3 23 3e
       -0.26815587 0.09332549 -0.33672202 0.1598038
000280 99 68 27 3d 02 0c 0d 3e 66 1f 8f bc 86 56 9e 3c
       0.040871236 0.13774112 -0.017471027 0.019328367
000290 00 05 1c 3d 5b b1 b8 bd 1d d4 b4 bd 10 84 3e 3e
       0.038090706 -0.09018203 -0.0882952 0.18605065
0002a0 ee 98 66 be 97 bc cf 3d 88 2b 8c 3f 22 aa 27 3e
       -0.22519276 0.101433925 1.0950785 0.16373494
0002b0 d4 fb de 3d 6c 3c 8a 3e a3 40 3a 3e 9e 85 7b 3e
       0.10887876 0.26999223 0.1818872 0.2456269
0002c0 f7 c0 0b 3e 31 e4 cb bb 54 97 50 be 4d 1d f7 bd
       0.13647829 -0.006222271 -0.20370227 -0.120661356
0002d0 37 c4 72 bd 55 c0 3a be 79 f1 af be 1e 52 82 3e
       -0.059269156 -0.18237431 -0.34363917 0.25453275
0002e0 a5 bc a3 bc fb b2 1d 3e 37 85 b0 be 2b cf 17 3e
       -0.019987414 0.15400307 -0.34476635 0.14825122
0002f0 75 ef 42 3e 9a bc db 3d b7 10 fa 3e 4c 7e 93 be
       0.19036658 0.10729332 0.48840877 -0.28807294
000300 f5 19 8b bd 46 59 94 3e 18 cb 47 3e cb a7 50 be
       -0.0679206 0.2897436 0.19511068 -0.20376508
000310 00 96 4a bd 83 de 0b 3e de 86 56 3e 7c 38 92 bc
       -0.049459457 0.136591 0.20949885 -0.0178492
000320 ea c2 e3 bd b0 5e 2e 3f eb ab 12 3f e5 1e 65 3e
       -0.11121161 0.6811323 0.57293576 0.22375067
000330 93 af 33 3f fc 99 07 3d e2 5e b1 3e b9 3f 8c 3e
       0.7018978 0.033105835 0.34642702 0.27392367
000340 6a 53 c2 be 32 76 36 3e 40 64 09 3e a2 61 f2 3d
       -0.37954265 0.17818525 0.13417149 0.11835028
000350 56 86 60 3b 7d 61 05 3e 70 00 b9 3d a4 aa 68 3e
       0.0034259758 0.1302547 0.090332866 0.22721344
000360 bc cc df bc e2 97 85 3e fb 69 66 3f 01 59 45 3d
       -0.027319305 0.2609244 0.90005463 0.048180584
000370 d5 25 00 3f 73 c6 23 3e aa e7 49 bd 18 46 47 3f
       0.5005773 0.15993671 -0.049293198 0.7784133
000380 10 0f 13 3e 06 df 3c 3e 14 b8 f6 bd 2e e8 c4 3e
       0.14361215 0.18444452 -0.12046829 0.3845839
000390 54 be a8 3e 48 6d bf 3e 40 7a ad bd 8d 83 eb 3e
       0.3295771 0.37388062 -0.08470583 0.45998803
0003a0 6b 05 d7 bd b7 54 e0 3d 4d 70 64 3e a3 19 e1 3e
       -0.1049908 0.10953658 0.22308464 0.43964872
0003b0 86 d6 b4 be a3 26 64 3c 86 44 9d 3e ee eb 29 3f
       -0.35319918 0.013925227 0.30716342 0.66375625
0003c0 c5 30 42 be f8 0b 9b be 10 cf c4 3e 5c 4c 2a be
       -0.18963917 -0.3028257 0.38439226 -0.16630691
0003d0 c0 40 2f 3e 9a 15 9f 3e 9b 26 25 3d a5 50 19 3e
       0.17114544 0.31071168 0.04032002 0.1497217
0003e0 6c a2 0b bb ab 01 4d 3e 3f 81 0e 3e 7f 5a 19 3f
       -0.0021306528 0.20020168 0.13916491 0.5990371
0003f0 ca 31 e0 be aa 50 b2 3d 3f 52 88 3f 93 3d a5 3e
       -0.43787986 0.08706792 1.06501 0.3227354

fc2.bias f4 [30]
000000 ed dc bf bd 54 4a 12 3e 47 6c 58 bd f8 14 39 3d
       -0.0936831 0.14286166 -0.052837636 0.045186013
000010 35 1f 20 3e 54 6b d8 3d 2f 7a c6 3d 3b 35 38 be
       0.15636905 0.10567346 0.096912734 -0.17989056
000020 34 c1 2f be 0b c9 57 3d a5 ac 62 bd b6 a4 51 3e
       -0.17163545 0.052681964 -0.055340428 0.20472988
000030 61 03 3d bc 68 10 fe 3c 13 d7 1f 3d 22 9e e2 bc
       -0.01153645 0.031013682 0.03902347 -0.027663294
000040 fc 19 1e be 71 99 df 3d ef 1c 5d 3d 18 ab ef 3d
       -0.154396 0.109179385 0.05398267 0.117025554
000050 14 02 ec bb f3 6d 5a 3e 3c a0 fd 3d 9e 69 77 3d
       -0.007202396 0.21331005 0.12384078 0.06040346
000060 e8 83 6d 3e 2f 23 8d 3e d1 b9 38 3e 2a 8b 3d be
       0.2319485 0.27565905 0.18039633 -0.18510118
000070 89 75 2f bd df 94 d6 bd
       -0.0428367 -0.10477614

fc3.weight f4 [20, 30]
000000 4f 32 98 3d 10 bd 12 3e 4f ba 25 3e b2 01 22 3e
       0.074314706 0.14329934 0.16184352 0.15820959
000010 76 94 2b bf 1e 05 8f be 0b fc 46 3d 7d 9c 60 3d
       -0.6702341 -0.27933592 0.04858021 0.05483674
000020 34 65 2b be 4d bc e3 be 2a 8e 5b 3e 7c 8f 5e 3e
       -0.16737825 -0.444796 0.2144095 0.21734422
000030 76 bc 49 bc 5d 40 58 3e 26 ba 24 bf 6f af 29 bf
       -0.012312999 0.21118303 -0.6434654 -0.66283315
000040 30 2c ab 3c 8b f0 49 3e 61 11 8c 3e 57 3a 14 be
       0.020895094 0.19720666 0.2735701 -0.1447538
000050 da 18 ef be 4b 96 9f 3d 6e d1 ca be 53 73 10 bf
       -0.46698648 0.07792338 -0.39612907 -0.5642597
000060 7e 08 bf 3e 45 31 1b be 8e da 00 3f 62 05 47 be
       0.37311167 -0.15155514 0.5033349 -0.19435647
000070 08 c3 d6 bd 59 b6 40 3e 35 f6 0e be 1c c5 69 3e
       -0.10486418 0.1881956 -0.13961108 0.22829098
000080 fc 97 35 bd fe 83 6b 3c 04 2e d7 3d f2 84 15 3e
       -0.044334397 0.014374731 0.10506824 0.14601496
000090 46 b2 60 bd 01 84 e8 3e ad 3b 14 bd 36 89 85 3d
       -0.054857515 0.4541321 -0.036189724 0.065203115
0000a0 18 cf 22 3f 62 e1 2c bf d5 da 07 bf 82 ec ea be
       0.6359725 -0.67531407 -0.53068286 -0.45883566
0000b0 c3 76 73 bf dd 36 c7 3e a0 2e ef 3e ad 3e ef 3d
       -0.9510309 0.38909045 0.4671526 0.11681876
0000c0 00 70 37 bf d3 2f b6 3e 53 7d 02 bd 2a 59 32 bf
       -0.71655273 0.35583362 -0.0318578 -0.69667304
0000d0 70 b5 36 be 2e 2c 11 3e d2 82 23 be 4a 34 40 3e
       -0.1784265 0.1417701 -0.15967873 0.18769947
0000e0 12 11 9c be c9 96 02 3f 74 6b 47 bd d5 68 a1 3e
       -0.30481774 0.5101133 -0.04868646 0.31525293
0000f0 0b 74 70 bf 1f e5 9c bc 0a ea 21 3e f4 63 e0 3d
       -0.9392707 -0.019152222 0.15811935 0.109565645
000100 8d c9 52 3b 7b a0 95 3e 66 09 50 be eb 71 cc bd
       0.003216359 0.29224 -0.20316085 -0.09982666
000110 14 5b 15 3b 27 5c d6 3e f4 73 a9 3a 17 7e 36 bf
       0.0022789882 0.41867182 0.0012928233 -0.7128615
000120 f8 cf c3 be d3 a6 83 3d 69 9c eb be be 29 00 3e
       -0.38244605 0.064283036 -0.4601777 0.12515923
000130 57 72 90 3e 48 a7 29 3e 86 0c 46 bd 8f 99 c6 3e
       0.28212234 0.16567719 -0.048351787 0.3878903
000140 5b 27 61 bc e5 bb 0e 3f 74 06 0b 3e 76 fb b0 bd
       -0.013742293 0.55755454 0.1357668 -0.08641712
000150 5b 59 1b bd b1 a0 83 be 3b 68 a9 be 68 01 23 3f
       -0.037927013 -0.25708535 -0.33087334 0.6367402
000160 92 a1 0b be b1 67 29 3d db 85 d7 3f 96 40 78 be
       -0.13635853 0.041358653 1.6837724 -0.24243388
000170 a9 e8 03 ba cc e4 84 be 54 14 65 3d 5d b5 9f 3d
       -0.00050319225 -0.25955808 0.05592759 0.07798264
000180 c1 7f c0 be 8e 68 b7 3e f0 a2 a0 bd b7 29 20 3d
       -0.37597468 0.35821956 -0.07843578 0.039102282
000190 fa 54 91 be 35 20 b7 3e a2 74 ba 3e 3c 49 bf 3e
       -0.28385144 0.3576676 0.3641711 0.3736056
0001a0 7a 74 61 3e 72 03 36 3e 7d f8 c8 bd 70 aa d1 bd
       0.22017089 0.17774752 -0.098130204 -0.102375865
0001b0 50 e6 ea 3d 87 b3 0c 3e 87 22 63 3e 99 64 c1 be
       0.1146971 0.13740359 0.2218114 -0.37772062
0001c0 e3 63 f1 be a2 a6 da 3d 80 c8 18 3c c8 cb c5 3e
       -0.4714652 0.10676314 0.009325147 0.38632035
0001d0 7b 90 a8 3e 79 e3 05 bf 0c 21 cc bd ad f4 e3 be
       0.3292273 -0.5230022 -0.09967241 -0.4452261
0001e0 ca ef 0e 3f 1e 77 b8 bd 33 6b e0 bc 78 f9 bf 3e
       0.5583464 -0.09007095 -0.027394867 0.37495017
0001f0 6d 41 3c bc aa b7 ca 3e 35 f6 0e bf 86 38 31 be
       -0.011490208 0.3959325 -0.5584443 -0.17306718
000200 1c 19 44 3e ca be 8a 3c 5a 00 06 be 89 d9 06 3f
       0.19150203 0.016936678 -0.13086072 0.5267568
000210 3b 79 d2 3e 6d 93 38 3e 32 68 de 3e 01 0f 9a 3e
       0.41108117 0.18024988 0.4343887 0.30089572
000220 fc 73 b5 3d be e7 ce 3e df 82 e1 be de dd 2b 3e
       0.08860013 0.4041118 -0.4404516 0.16783854
000230 30 e4 20 3f db 07 c1 be e2 b8 2e be 07 f3 c2 bc
       0.62848186 -0.37701306 -0.17062715 -0.023797525
000240 25 6d 24 bf 3a b1 1b be e4 3a d1 3f 72 27 a0 3d
       -0.6422904 -0.15204325 1.6346097 0.078200236
000250 f6 44 9c 3c fd 68 0a bf c0 6a 28 3d 14 c2 12 3f
       0.019075852 -0.5406645 0.04111743 0.5732739
000260 24 ab 05 3e c7 36 9a 3d aa 25 b0 3e 22 dd 86 be
       0.13053566 0.07529979 0.34403735 -0.26340586
000270 c8 9d df 3e e9 2d bf 3e 24 13 5d bc 55 e9 1c 3e
       0.43675065 0.37339714 -0.013493333 0.15323384
000280 f5 b3 3b 3f 0e b6 17 bf a4 2b f8 be 3b 5e c5 be
       0.7332147 -0.5926217 -0.48470795 -0.38548455
000290 4b 5e 17 bf 19 c2 84 bd 19 7a 0d 3f cd ee dc 3d
       -0.59128255 -0.06482334 0.5526443 0.10787735
0002a0 99 af 86 bf e5 a7 0f 3e 69 3c f0 3d bf 41 17 bf
       -1.0522338 0.1402889 0.11730272 -0.59084696
0002b0 59 57 cf bc 52 bd 18 3e ae f7 eb bd 3b 3b 08 3e
       -0.025310205 0.1491597 -0.115218505 0.13303845
0002c0 4a 40 05 bf 4b 4f 0a 3f 97 af cb bd c0 c1 b8 3e
       -0.5205122 0.5402724 -0.099456005 0.3608532
0002d0 6c 5d 0f 3f e5 29 a5 be 6a 2e 02 be f0 bd 4a be
       0.56001925 -0.32258525 -0.12713018 -0.19799018
0002e0 52 4a f4 3c 7f 76 4a 3d cf d0 c1 be 25 20 0d bd
       0.029820595 0.049429413 -0.3785462 -0.034454484
0002f0 fd 17 a8 3b c6 08 22 3e 77 00 35 bf 9c 63 cb 3d
       0.0051298128 0.1582366 -0.70703834 0.09931108
000300 3b 29 b2 3e ea bb d0 3e 72 64 2d 3f 07 40 97 3d
       0.3479708 0.40768367 0.6773139 0.07385259
000310 37 7f b8 be 0f 40 84 be 32 f7 9c 3e f1 f7 aa bd
       -0.36034557 -0.25830123 0.30657345 -0.08348072
000320 78 c6 49 be 93 5d 49 bd 0c 15 6c be 42 15 46 3e
       -0.19704616 -0.049161505 -0.23054904 0.19344047
000330 df 77 1c 3e 25 91 06 be e1 82 35 3d b1 cc 2b bf
       0.15280102 -0.13141306 0.04431427 -0.6710921
000340 2d 60 4b be eb c3 ea be 20 80 4b bd d4 bf 4b be
       -0.19860907 -0.458526 -0.049682736 -0.19897395
000350 41 1e 17 3e 33 4a 01 3e 16 e1 55 3e 7d fb 0f 3f
       0.14757635 0.12625961 0.20886645 0.56243116
000360 a7 3a 85 3d 62 38 a7 3e 5e 5d fe bc 00 07 c5 bc
       0.06505328 0.32660204 -0.03105038 -0.02405119
000370 7e 4e 47 3e ca cf c9 3e 95 1b ba 3d e4 84 24 bc
       0.19463536 0.39416343 0.09087292 -0.010041449
000380 36 bc 82 3e 24 3a 02 3f d3 92 09 3e 43 06 ad 3e
       0.2553422 0.50869966 0.13434915 0.3379384
000390 24 3a 69 bf c1 3e b9 3e 4a e4 0a 3f 95 3f 66 be
       -0.9110434 0.3618069 0.5425459 -0.22485192
0003a0 09 8b 38 3d ae 41 f0 3d c1 df 53 bf 47 26 b2 bd
       0.04505447 0.117312774 -0.82763296 -0.08698707
0003b0 04 bc c8 3e 10 b6 85 3e aa 62 c0 bd 83 e5 29 be
       0.39205945 0.26115465 -0.09393819 -0.16591458
0003c0 97 21 4d 3e a9 b0 db 3e 7d 25 3e 3d ca 41 82 bc
       0.20032345 0.42908219 0.04642247 -0.015900511
0003d0 65 dc b4 3e 0b e2 1b be 86 a9 bb bd 7c 0b eb bd
       0.35324398 -0.15222947 -0.091631934 -0.114768
0003e0 5f b3 f4 3d fa 54 06 3f 10 34 b6 be e6 a9 22 be
       0.11948275 0.52473414 -0.35586596 -0.15885124
0003f0 17 b0 89 bd 4c ed b5 3e 92 61 92 bc 99 ad 67 be
       -0.067230396 0.35532606 -0.01786879 -0.22624816

fc3.bias f4 [20]
000000 51 10 59 bd 8f d5 e3 3c 70 b2 c4 bd b5 45 84 3e
       -0.052994076 0.027811794 -0.09604347 0.25834432
000010 af dc 66 be c3 7e 17 be d8 32 80 3e 8a 9e 84 be
       -0.22545122 -0.1479445 0.2503879 -0.25902206
000020 c9 88 60 3e 52 b2 aa 3e 3b e6 76 be ba d7 53 3e
       0.2192718 0.33339173 -0.24111263 0.20687762
000030 ce 5a e9 bd bd db db 3c d0 4c 3a bd a7 82 81 3e
       -0.11394273 0.026838178 -0.04548341 0.25294992
000040 af 0e 02 be 6b a1 a4 3e 0b e5 d5 bd 34 38 9e bb
       -0.12700914 0.32154402 -0.10444077 -0.0048284773

fc4.weight f4 [5, 20]
000000 8a 41 3f c0 ad 90 99 3d 3a 43 1b be d4 f2 8e 3e
       -2.9883752 0.07498298 -0.15162364 0.27919638
000010 d8 9c 92 be 56 c6 a4 bd 6a 41 91 3e 87 b2 98 be
       -0.28635287 -0.08045642 0.2837022 -0.29823706
000020 61 e7 82 3e 5e 19 64 be fc e9 bc be f5 4f 22 3d
       0.25567153 -0.22275302 -0.36897266 0.039627034
000030 53 5b 3b be 99 c3 77 bf a6 8c 71 bd ce 0f b9 bf
       -0.18296556 -0.96782833 -0.058972023 -1.4457948
000040 99 18 48 bd 3c 9f 7f be fc c9 2f 3e f6 7e 1a 3e
       -0.048851583 -0.24963087 0.17166895 0.15087494
000050 33 ce 03 c0 68 9c e8 be 47 8c 37 3e 92 57 81 bf
       -2.0594604 -0.45431828 0.17924605 -1.0104849
000060 f2 56 6a 3e 0f 35 6e bf 72 a2 4d bf 7c be 0e 3e
       0.2288473 -0.9304971 -0.80325997 0.13939852
000070 41 7b 8a 3c b2 81 40 3e c8 01 77 bf 79 41 19 3d
       0.016904475 0.18799475 -0.9648709 0.037415955
000080 ac 60 79 bf 31 c5 a5 bf 00 6f 94 3d ac dc 2c bf
       -0.97413135 -1.2950803 0.07247734 -0.6752422
000090 59 d1 5e 3e df 27 0d be 0b 62 49 be 78 c8 00 be
       0.21759547 -0.13784741 -0.19666307 -0.12576473
0000a0 89 32 4b bc d8 26 13 3f 82 5f 95 3d 82 1a 04 bf
       -0.012402185 0.57481146 0.07293607 -0.5160295
0000b0 23 4a 87 be e6 79 0f 3f a5 b1 9b be 0b 6b f4 3c
       -0.2642375 0.5604538 -0.3040897 0.029836198
0000c0 2f af 2e bf ca ff 3c 3d 58 61 f6 3d fa a7 55 be
       -0.6823606 0.046142377 0.120302856 -0.20864859
0000d0 90 90 38 3e fc 1a 2a 3c cd cd d2 3c f7 c6 1e be
       0.18023896 0.01038241 0.0257329 -0.15505587
0000e0 db 7d 05 bd d4 e1 63 be a9 42 f0 bc 88 94 e3 bd
       -0.03259073 -0.22254115 -0.029328661 -0.111123145
0000f0 a1 16 a2 bd 41 f5 42 bf b2 fc f6 3d a7 a4 c9 be
       -0.07914472 -0.7615548 0.120599166 -0.39383432
000100 bc e7 2d bf 27 e4 81 bf e7 c3 d9 bd 8c 96 8e bf
       -0.67931724 -1.0147752 -0.106330685 -1.1139693
000110 7e b1 fe be 8c 30 b9 bf 50 2e c6 3d ec 91 dc 3d
       -0.4974479 -1.446794 0.09676802 0.1077002
000120 8f d4 41 3e 56 40 0f 3e 2a 84 e0 3d f5 76 bf 3e
       0.18928741 0.13989386 0.10962708 0.37395445
000130 4b 55 b7 bd fd fc 18 3d 39 a7 33 3e 5a db 60 be
       -0.08951815 0.037350643 0.17544259 -0.21958676
000140 a7 a3 3f c0 05 78 b3 be 56 a7 d0 bf 30 5e bd 3e
       -2.9943635 -0.35052505 -1.6301067 0.36985922
000150 8c d2 f5 3e 68 98 41 bf 76 c9 76 3d 27 53 ab 3e
       0.48012197 -0.7562318 0.060250722 0.33461878
000160 cc e9 9c bf 49 3f 88 3e e8 a4 b9 3e 94 84 62 bf
       -1.2258849 0.26610783 0.36258626 -0.8848355
000170 31 6c a4 bf 73 3d 21 bf 04 e5 59 bc 55 47 36 c0
       -1.2845517 -0.6298439 -0.0132992305 -2.8481038
000180 40 93 9c bd 2f a4 cb bf 4c 37 1e be 87 0d 14 be
       -0.07645273 -1.590948 -0.15450782 -0.14458285

fc4.bias f4 [5]
000000 ce a8 11 be 83 73 51 be c6 e0 cb be 31 b6 84 3e
       -0.1422455 -0.2045422 -0.39819926 0.2592025
000010 ed 2e 63 be
       -0.2218587
