Sample_Based_Extension/WUSTL/WUSTL_Defense/Adversarial_Training/Adversarial_Training_pgd.pt (torch, 21004 bytes, 8 tensors)

fc1.weight f4 [50, 42]
-0.2994189 -0.023257967 -0.2632203 -0.1343189 -0.053642496 -0.016523236 -0.04772611 -0.023974484
-0.018092802 -0.14650896 0.021481074 -0.09969863 -0.08865825 -0.05034593 -0.020626526 0.07299536
-0.17387445 -0.033393744 -0.17337516 -0.07283625 -0.09038259 -0.06536253 0.02237972 -0.04291771
-0.03649151 -0.027438547 0.055394292 0.1638895 0.12951016 0.10041998 -0.18697543 0.36645284
0.060727112 -0.080917135 -0.15320574 -0.19858523 0.01775006 0.15086657 -0.11942553 -0.21951304
-0.049758654 -0.16147248 0.121081136 0.008013289 0.023212917 0.002978072 -0.015000957 -0.021400461
0.13892666 -0.05620324 0.037055984 -0.032438215 0.076490305 -0.045583002 0.17004745 -0.00055849785
0.01323618 -0.28946033 0.1375649 0.026575668 -0.031119986 0.019791251 0.033835884 0.044347793
-0.000727637 0.00026618823 -0.010662473 0.013890377 -0.1763696 0.0396743 0.050246734 0.032820743
-0.42097762 -0.27317864 0.44699866 0.018965665 0.16918255 0.053095255 -0.013324253 0.013035543
-0.3852088 -0.028547175 0.043935146 -0.2948381 0.123253904 -0.097497664 0.10321048 -0.16689464
-0.087084986 0.105218664 0.027879512 -0.057726882 0.018025573 -0.06588568 -0.018540174 -0.15969467
-0.14867067 0.10539264 -0.06476305 0.08524004 -0.08142743 -0.010865478 -0.009490936 -0.073397286
0.07225706 0.008083613 -0.053084932 -0.023166105 0.10384963 -0.065185845 -0.02907676 -0.023784628
-0.1446536 0.07019541 -0.15014826 0.093195975 -0.12205198 -0.15436077 -0.11082282 -0.16218409
-0.11970236 0.086385585 0.0472215 -0.15459102 0.045719586 -0.09953823 -0.10308524 -0.09087487
0.49622008 -0.013959482 -0.041092776 0.0036141563 0.13404667 -0.029303659 0.023650529 -0.062077083
-0.013826121 -0.041493744 0.23956548 0.016428491 -0.004903866 0.0148943765 0.088925704 0.02583527
0.18744253 -0.03849903 -0.014128849 0.026666481 -0.0048748413 0.05177885 -0.02550405 -0.009186207
0.18009661 0.032748405 0.0045426176 0.028166167 0.19375652 -0.80244094 0.18928325 0.014776381
0.18342797 0.0257945 0.047703035 -0.13084556 0.22441357 -0.038906895 -0.039227087 -0.14244562
0.031806305 0.0002713091 0.91411966 0.001445898 0.029215196 0.013738583 -0.036878422 0.00962975
0.007174671 0.019733896 -0.0037862426 0.033331737 -0.10258316 0.027111357 0.039483152 -0.0040792553
-0.019803517 0.02685481 0.051868137 0.009578518 -0.00072632055 -0.0015210786 -0.0149031505 0.017913518
0.018297473 0.020071186 0.12875396 0.09464629 -0.0549429 -0.025285909 -0.037534475 0.3554582
-0.1995093 0.06455906 -0.03593352 -0.009770271 -0.004807711 0.051506326 -0.024716668 -0.19304022
0.033005107 -0.3382805 0.0011495497 -0.05137979 -0.145203 -0.09376997 -0.15437627 -0.08468398
-0.39712632 -0.06662976 -0.026984334 -0.07324256 -0.07717602 -0.10977907 -0.07938417 -0.17131937
-0.092109755 -0.049326006 -0.32132438 -0.083299264 -0.01175475 -0.0058475877 -0.16483904 -0.087117545
-0.061600693 -0.11503263 -0.047091093 -0.064689554 -0.021490416 -0.11386863 -0.03387996 -0.036719877
0.19888388 0.21944094 0.45200357 0.06219933 -0.1568745 -0.06074903 -0.10878683 0.14512469
0.043146364 -0.08018941 0.03816384 -0.4891794 0.063684024 -0.12638707 0.11215918 0.0009659025
00000000: 6f4d 99be 7e87 bebc d0c4 86be e58a 09be
00000010: 3cb8 5bbd bd5b 87bc 747c 43bd 2366 c4bc
00000020: 5b37 94bc 7206 16be 14f9 af3c cc2e ccbd
00000030: 7592 b5bd 8937 4ebd f6f8 a8bc 977e 953d
00000040: 250c 32be e1c7 08bd 4289 31be 2c2b 95bd
00000050: 821a b9bd cadc 85bd ad55 b73c 7bca 2fbd
00000060: 1f78 15bd cec6 e0bc 20e5 623d a6d2 273e
00000070: 509e 043e fea8 cd3d 7d76 3fbe b59f bb3e
00000080: febc 783d e2b7 a5bd f7e1 1cbe ed59 4bbe
00000090: 9368 913c c47c 1a3e 5f95 f4bd 07c8 60be
000000a0: bbcf 4bbd 0b59 25be 63f9 f73d 2c4a 033c
000000b0: 0429 be3c c22b 433b 93c6 75bc 0550 afbc
000000c0: ca42 0e3e 5e35 66bd 04c8 173d efdd 04bd
000000d0: f3a6 9c3d 3eb5 3abd eb20 2e3e 2868 12ba
000000e0: 90dc 583c 2534 94be d0dd 0c3e 37b5 d93c
000000f0: 57ef febc 4321 a23c 7f97 0a3d 08a6 353d
00000100: e4be 3eba 2e8f 8b39 a7b1 2ebc 7794 633c
00000110: 3c9a 34be 8581 223d 85cf 4d3d 0b6f 063d
00000120: 618a d7be 12de 8bbe 02dd e43e e25d 9b3c
00000130: 313e 2d3e 697a 593d f84d 5abc 0893 553c
00000140: 163a c5be c4db e9bc 57f5 333d 05f5 96be
00000150: 8b6c fc3d dbac c7bd 0460 d33d 6ee6 2abe
00000160: 9d59 b2bd e27c d73d 9363 e43c 0673 6cbd
00000170: 5eaa 933c 12ef 86bd 90e1 97bc 0087 23be
00000180: 203d 18be 19d8 d73d 7da2 84bd 5592 ae3d
00000190: 6dc3 a6bd 1e05 32bc df7f 1bbc 5151 96bd
000001a0: 82fb 933d 2171 043c 966f 59bd d8c6 bdbc
000001b0: 1daf d43d 2880 85bd 6332 eebc fbd7 c2bc
000001c0: 1320 14be 9cc2 8f3d 77c0 19be 88dd be3d
000001d0: 63f6 f9bd c010 1ebe 13f7 e2bd 9613 26be
000001e0: 8326 f5bd edea b03d 556b 413d 1c4d 1ebe
000001f0: 7644 3b3d b3da cbbd 5b1e d3bd 9b1c babd
00000200: 8f10 fe3e 50b6 64bc e650 28bd 7bdb 6c3b
00000210: 8843 093e 3a0e f0bc c1be c13c 8a44 7ebd
00000220: f486 62bc 58f5 29bd a750 753e 0b95 863c
00000230: 9cb0 a0bb 8b07 743c ae1e b63d 7da4 d33c
00000240: eff0 3f3e 29b1 1dbd b07c 67bc aa73 da3c
00000250: 22bd 9fbb 0f16 543d dfed d0bc bf81 16bc
00000260: 3f6b 383e 3123 063d 3dda 943b bcbc e63c
00000270: 1c68 463e c56c 4dbf 78d3 413e a218 723c
00000280: 8bd4 3b3e fd4e d33c 4264 433d 61fc 05be
00000290: accc 653e d65c 1fbd 95ac 20bd 44dd 11be
000002a0: 5447 023d 7e3e 8e39 bf03 6a3f 4984 bd3a
000002b0: b554 ef3c cb17 613c d40d 17bd 19c6 1d3c
000002c0: 8119 eb3b fba8 a13c 9c22 78bb dc86 083d
000002d0: 1f17 d2bd a318 de3c 16b9 213d 46ab 85bb
000002e0: fc3a a2bc 9efe db3c af73 543d 37ef 1c3c
000002f0: 8c66 3eba ee5e c7ba 582c 74bc 5fbf 923c
00000300: 95e4 953c 546c a43c 14d8 033e ead5 c13d
00000310: ce0b 61bd 6524 cfbc c0bd 19bd 9efe b53e
00000320: 2a4c 4cbe 8a37 843d 072f 13bd 7d13 20bc
00000330: 018a 9dbb 4cf8 523d 9c7a cabc 56ac 45be
00000340: 5d30 073d 1a33 adbe 7dac 963a 9d73 52bd
00000350: 18b0 14be 780a c0bd d014 1ebe cb6e adbd
00000360: 2454 cbbe 2f75 88bd 400e ddbc 3200 96bd
00000370: 760e 9ebd d9d3 e0bd 2b94 a2bd 586e 2fbe
00000380: 0aa4 bcbd 110a 4abd a184 a4be ce98 aabd
00000390: ff96 40bc 1f9d bfbb 91cb 28be af6a b2bd
000003a0: 0251 7cbd 3a96 ebbd 97e2 40bd f57b 84bd
000003b0: ab0c b0bc f533 e9bd b7c5 0abd 9567 16bd
000003c0: 37a8 4b3e 20b5 603e 036d e73e bac4 7e3d
000003d0: b5a3 20be fad3 78bd a1cb debd 919b 143e
000003e0: 3eba 303d 583a a4bd b051 1c3d b975 fabe
000003f0: c56c 823d 9d6b 01be b6b3 e53d 9f34 7d3a

fc1.bias f4 [50]
-0.14736792 0.30649167 -0.1633626 0.1937854 0.17670257 -0.03498926 -0.13673566 -0.13039234
0.30971244 0.18341114 0.203409 -0.1179963 0.29150355 0.12150962 -0.071174674 0.19716212
0.28789645 0.19486812 0.44043678 0.09933125 0.18593243 -0.22413915 0.22185679 0.025592115
0.0053151967 -0.19912961 0.043061804 -0.003160992 0.11482434 -0.099372484 0.3422505 0.06216872
0.012208006 -0.15282944 0.15597555 0.32175282 -0.08781809 0.122195356 -0.035394423 -0.02334497
-0.014528132 -0.3217418 0.18743455 0.06486914 0.34496927 0.2165723 -0.025854154 -0.17021202
0.17010051 0.21430734
00000000: 9ee7 16be 7aec 9c3e 8748 27be ae6f 463e
00000010: 85f1 343e e650 0fbd 6f04 0cbe 9285 05be
00000020: a192 9e3e 21d0 3b3e 734a 503e 0ba8 f1bd
00000030: f43f 953e 09da f83d 07c4 91bd dee4 493e
00000040: 2a67 933e 828b 473e ee80 e13e 2f6e cb3d
00000050: 1265 3e3e bc84 65be 6d2e 633e 8ea6 d13c
00000060: 1a2b ae3b a2e8 4bbe 9361 303d a528 4fbb
00000070: 0629 eb3d cd83 cbbd 753b af3e a1a4 7e3d
00000080: 1704 483c 527f 1cbe 0eb8 1f3e c9bc a43e
00000090: f9d9 b3bd 8f41 fa3d bef9 10bd f33d bfbc
000000a0: 6707 6ebc 57bb a4be d8ee 3f3e 1dda 843d
000000b0: d09f b03e 21c5 5d3e 17cc d3bc 0f4c 2ebe
000000c0: d42e 2e3e 6273 5b3e

fc2.weight f4 [30, 50]
0.07401111 0.16792546 0.017021006 0.12068891 0.58535445 -0.015014269 0.18639366 0.06994819
0.12294592 0.4096203 0.22975348 0.03279948 0.49257708 0.22743191 0.4013755 0.2275469
0.25638276 0.11535345 0.3490465 0.49167487 0.5599732 0.39463976 0.3945344 -0.03866493
0.7033383 -0.071035564 0.2655287 0.33716625 -0.13579947 0.047832105 0.0019731899 -0.0015600289
0.14326295 0.29727766 0.09475684 0.048106704 0.03802031 0.42025122 0.12868404 -0.11060321
1.0288157 0.58473873 -0.042902317 1.3536681 0.34875062 0.16810666 0.15913767 0.45923895
0.42560804 -0.22518659 -0.15821755 0.2318836 0.011535771 0.38225663 -0.028664334 -0.010410089
-0.06392202 -0.006134973 -0.5840386 -0.51936895 -0.0738045 0.68957317 -0.005593088 -0.20830666
-0.48428798 -0.25442854 -0.1531994 0.1799419 -0.26031172 0.0430542 0.12573071 -0.99822855
0.047588795 0.123026915 -0.8522036 0.13151439 -0.026296005 -0.25999716 0.295928 0.108753085
0.45359126 0.23171264 0.09818487 -0.33845642 0.069310315 -0.18761009 0.06964511 -0.110567145
-0.32876924 0.007011095 0.08614251 -1.1324517 0.013220584 -0.27081543 0.17131804 0.5072542
0.2844303 -1.0230458 -0.521113 0.073090926 0.0401184 0.010670023 -0.037681054 -0.033420008
-0.14235649 -0.11467063 0.011112377 0.032506425 -0.06175304 0.032617368 0.006610587 -0.029779274
0.052299313 0.0829137 -0.102588914 -0.07520746 0.0033959995 0.09381798 0.043396182 0.12091616
-0.14660276 0.09957546 -0.058348935 0.059051868 -0.13195859 0.004194977 -0.031951394 -0.062440656
-0.07796332 0.076293215 -0.09343163 -0.006434296 -0.18155545 -0.042895656 0.07272238 0.08045538
-0.16117013 -0.010043012 0.06306803 -0.0008407959 0.1266185 0.08121012 0.038792964 0.05315784
-0.114840195 -0.12874284 0.032364484 0.11589861 -0.16709685 0.05879807 0.027540777 0.3096598
0.109256335 0.27812496 0.20377634 -0.30705816 0.027702736 -0.5224495 0.8523668 0.6619362
0.35398072 -0.14092565 -0.56468165 -1.1068765 -0.12959988 -0.1905957 0.15314007 -0.30775797
-0.4136166 -0.74364454 -0.42475337 -0.6141521 0.11822061 0.27542567 -0.82157284 -0.14203362
-0.8773342 -1.3267683 -0.43315673 0.027817966 0.4225677 -0.46133915 0.12817383 0.13507794
0.23259306 0.42445806 0.22160709 -1.1126429 0.23414418 -0.082329206 -0.27718365 -0.63233244
-0.0197435 0.42142 -0.46692255 -0.24815115 -0.70834744 0.65445364 0.25358018 0.24466194
0.22187792 -0.16231194 0.12366345 -0.041914176 0.44166952 0.0880136 0.4425387 0.13090542
-0.4347595 -0.17845884 0.010489594 0.1545807 -0.6460876 0.4464479 0.29310906 -0.086882345
-0.42858052 -0.058139294 -0.79745305 0.054675482 0.17122778 0.52155495 0.034351483 -0.17647251
0.05817 -0.034592688 0.24171469 0.31100965 -0.0804974 -0.08113982 0.28429973 -0.48373336
0.3228274 0.087383695 0.41160786 -0.33235875 0.45552853 0.2210539 0.05003199 -0.12522979
0.43839538 1.3101537 -0.34487805 0.23894499 -0.1907265 -0.41753376 -0.034519274 0.46004492
-0.2421254 -0.4056845 0.22993402 0.11396057 -0.0008122785 0.18959688 -0.20596844 0.08050644
00000000: 2393 973d a7f4 2b3e a36f 8b3c bf2b f73d
00000010: cad9 153f 69fe 75bc fbdd 3e3e ff40 8f3d
00000020: 12cb fb3d c1b9 d13e 7f44 6b3e bf58 063d
00000030: 1033 fc3e e9e3 683e 1781 cd3e 0e02 693e
00000040: 9a44 833e 6e3e ec3d 39b6 b23e cfbc fb3e
00000050: 675a 0f3f 390e ca3e 6a00 ca3e 1e5f 1ebd
00000060: fb0d 343f 187b 91bd 61f3 873e 0ea1 ac3e
00000070: 040f 0bbe 99eb 433d a250 013b e279 ccba
00000080: 86b3 123e c734 983e e00f c23d 890b 453d
00000090: 2fbb 1b3d 2b2b d73e c0c5 033e f083 e2bd
000000a0: 3cb0 833f 70b1 153f 57ba 2fbd ff44 ad3f
000000b0: 718f b23e 2724 2c3e fcf4 223e 5e21 eb3e
000000c0: 4ce9 d93e 5097 66be c803 22be e572 6d3e
000000d0: 8800 3d3c 24b7 c33e 77d1 eabc 148f 2abc
000000e0: 8ce9 82bd e207 c9bb 8e83 15bf 5df5 04bf
000000f0: d026 97bd de87 303f 3946 b7bb 574e 55be
00000100: 98f4 f7be 7544 82be 4ee0 1cbe b042 383e
00000110: 9447 85be 9a59 303d 8dbf 003e e88b 7fbf
00000120: 78ec 423d 89f5 fb3d 042a 5abf b5ab 063e
00000130: b86a d7bc 591e 85be e083 973e f0b9 de3d
00000140: 1d3d e83e 1446 6d3e 2615 c93d 294a adbe
00000150: 91f2 8d3d dc1c 40be 18a2 8e3d 0771 e2bd
00000160: 7154 a8be 54bd e53b 7c6b b03d 2df4 90bf
00000170: 269b 583c 52a8 8abe ff6d 2f3e 69db 013f
00000180: d9a0 913e 2af3 82bf a967 05bf b2b0 953d
00000190: 3153 243d 52d1 2e3c 7357 1abd 6be3 08bd
000001a0: e6c5 11be 6fd8 eabd b010 363c 7525 053d
000001b0: c1f0 7cbd ca99 053d 9f9d d83b aaf3 f3bc
000001c0: ce37 563d a8ce a93d 231a d2bd 5e06 9abd
000001d0: 6b8f 5e3b a423 c03d 32c0 313d e4a2 f73d
000001e0: 091f 16be 38ee cb3d 4bff 6ebd 5fe0 713d
000001f0: 2720 07be 0576 893b 77df 02bd c6c1 7fbd
00000200: 3cab 9fbd 9e3f 9c3d 1559 bfbd c9d6 d2bb
00000210: ace9 39be 5bb3 2fbd 79ef 943d cac5 a43d
00000220: c809 25be 728b 24bc d029 813d dc68 5cba
00000230: 48a8 013e 7e51 a63d 5fe5 1e3d 09bc 593d
00000240: 5631 ebbd 2ad5 03be 9f90 043d 405c ed3d
00000250: 701b 2bbe 3fd6 703d 329d e13c bb8b 9e3e
00000260: c9c1 df3d 6566 8e3e bfaa 503e ba36 9dbe
00000270: d9f0 e23c 40bf 05bf b634 5a3f a774 293f
00000280: f63c b53e d04e 10be fa8e 10bf 21ae 8dbf
00000290: d5b5 04be 852b 43be c0d0 1c3e 7492 9dbe
000002a0: 8ec5 d3be 7d5f 3ebf 4679 d9be 1239 1dbf
000002b0: a61d f23d 9804 8d3e 9952 52bf 4371 11be
000002c0: f998 60bf 8bd3 a9bf b8c6 ddbe 81e2 e33c
000002d0: cb5a d83e a534 ecbe 0040 033e df51 0a3e
000002e0: e02c 6e3e 9152 d93e f8ec 623e 156b 8ebf
000002f0: 7ec3 6f3e 379c a8bd 04eb 8dbe 8ae0 21bf
00000300: 1fbd a1bc 5dc4 d73e 7910 efbe 561b 7ebe
00000310: 4256 35bf 468a 273f 43d5 813e a988 7a3e
00000320: f733 633e 1a35 26be 4343 fd3d 33ae 2bbd
00000330: 8222 e23e 7940 b43d 6f94 e23e 120c 063e
00000340: cc98 debe eabd 36be 8cdc 2b3c 674a 1e3e
00000350: ff65 25bf d294 e43e 6412 963e 5fef b1bd
00000360: e86e dbbe 7823 6ebd e225 4cbf 66f3 5f3d
00000370: 5656 2f3e a084 053f 24b4 0c3d 36b5 34be
00000380: aa43 6e3d 10b1 0dbd 0e84 773e a83c 9f3e
00000390: d2db a4bd a22c a6bd bc8f 913e e6ab f7be
000003a0: a249 a53e 39f6 b23d 44be d23e ed2a aabe
000003b0: 093b e93e f45b 623e 58ee 4c3d 3d3c 00be
000003c0: 5c75 e03e 1eb3 a73f db93 b0be ffad 743e
000003d0: cf4d 43be fcc6 d5be 1564 0dbd 028b eb3e
000003e0: b9ef 77be e1b5 cfbe d373 6b3e 2964 e93d
000003f0: 16ef 54ba af25 423e 64e9 52be 8fe0 a43d

fc2.bias f4 [30]
0.11964053 0.1296558 -0.10586218 0.27734575 0.31870028 0.10728105 -0.01770184 -0.0685304
0.10943696 0.07780829 -0.00076134 0.18937044 0.30327314 0.09557951 -0.051714946 -0.12232671
-0.056657065 -0.1577491 -0.153465 0.22699648 0.11722829 -0.02788242 0.17761095 -0.048766814
0.06428269 -0.14964655 -0.026133524 0.32422575 0.1236056 -0.05149214
00000000: 1806 f53d 7dc4 043e 45ce d8bd 4300 8e3e
00000010: af2c a33e 2bb6 db3d 7303 91bc ab59 8cbd
00000020: 7c20 e03d f459 9f3d aa94 47ba 53ea 413e
00000030: 9e46 9b3e 31bf c33d 0dd3 53bd 6d86 fabd
00000040: 3d11 68bd fb88 21be ee25 1dbe c471 683e
00000050: 6315 f03d ac69 e4bc a5df 353e b6bf 47bd
00000060: a5a6 833d f23c 19be f915 d6bc eb00 a63e
00000070: ef24 fd3d 6ce9 52bd

fc3.weight f4 [20, 30]
0.11458246 -0.034665834 0.008318525 -0.6934047 0.63833755 -0.19248483 -0.17095006 0.044363804
0.19200645 0.41873264 -0.96975684 0.2971473 0.21681124 -0.46018237 -0.6425151 -0.08463026
-0.47574648 0.3668512 0.15392481 -0.5846733 -0.5832023 0.046016145 -0.5170086 -0.69948196
0.013036621 0.3691175 0.14750053 0.8085951 -0.28648746 0.14723301 0.08729332 -0.16608794
-0.031268504 2.5856272e-05 -0.14082722 0.093870685 -0.11035134 0.10506087 0.05074363 0.09685385
0.002193504 -0.10546016 -0.07189094 0.0019146851 -0.098463446 0.15906823 0.13671122 -0.013581334
-0.16097109 0.035945226 0.119682536 -0.113288626 -0.19914153 0.106604084 -0.02264479 -0.19959666
-0.11995432 -0.11154742 0.01794368 0.016548885 -0.06301402 0.14741556 -0.10761814 0.07428916
-0.2010642 0.072707534 0.027129116 -0.115581214 -0.0796555 0.13626604 -0.030833496 -0.04401922
-0.15871805 0.026264995 0.046439778 -0.14944825 -0.12271844 -0.13029963 -0.14925602 -0.19550136
-0.12340056 -0.08496619 -0.07229598 -0.033384386 -0.08124609 -0.096995324 -0.095238246 0.06750492
-0.14681041 -0.06102389 0.024990426 -0.1475238 0.17735502 -0.21618937 0.057363573 -0.05174076
0.010327986 0.042951424 -0.19344673 0.0557447 0.11999624 -0.026209194 0.021390485 -0.09777647
-0.07981761 -0.11265593 -0.008884239 0.11385149 -0.07936066 0.06608909 -0.025659742 0.024237135
-0.1472882 -0.13874483 -0.16188607 -0.114593215 -0.11579305 -0.20610599 -0.17680702 0.02611006
0.30136672 0.20213164 -0.0984488 -1.7893713 0.35383174 -0.31885687 -0.2904169 -0.14064005
0.07105104 0.3166974 -0.29593527 0.45763397 -0.0075172083 0.2674968 -0.40115142 0.061921153
-0.32470492 -0.14552985 -0.17578867 0.33813423 -0.47887194 -0.4373116 0.1395714 -0.35882095
-0.13613026 -0.22834234 0.09377722 0.49222818 0.03487476 0.0917923 -0.21416597 -0.13394842
0.07789911 -0.47471565 -0.61691636 0.19184849 0.022707878 0.0066539003 -0.2515068 -0.73244184
0.35469306 1.1849527 0.082429096 0.70113236 0.46006015 0.04125649 0.4407007 -0.3544476
0.3158854 0.3553185 0.2991888 0.045778442 0.16849199 -0.03390937 0.43900797 0.19689946
-0.05561971 -0.5774349 0.6338594 1.2200593 0.071760684 -0.21411964 -0.17809501 -0.053610608
-0.18593845 -0.20957561 -0.18286826 0.07172117 0.06617118 0.064849995 -0.17633626 -0.046621658
-0.009040255 -0.01304088 0.06208297 0.16776298 -0.19698845 0.09859409 0.060022213 -0.16759753
0.002511078 -0.1942114 -0.13560435 0.06165155 0.048040047 -0.18499832 -0.19200057 0.018332284
-0.08969206 -0.06348146 -0.062204592 -0.1094159 -0.10072287 0.77550894 -0.05798707 0.26523158
0.335145 0.05150703 -0.14527091 0.14236651 0.8135488 -0.20038882 0.17562063 0.8524648
0.30513144 -0.029665677 0.21919084 -0.38279396 0.01802762 0.5416319 0.60105515 0.31709987
0.67598414 0.92861944 0.06595987 0.22133443 0.026347332 -0.15872483 0.4090545 -0.120362766
0.07014075 -0.16166903 0.01676233 -0.080587626 -0.021548644 -0.021738784 -0.13866997 0.05763916
-0.112550505 -0.09907474 0.09386403 0.16483565 -0.08635009 -0.09661787 -0.059815392 -0.09775171
00000000: 35aa ea3d c3fd 0dbd 6c4a 083c f882 31bf
00000010: 176a 233f be1a 45be 880d 2fbe d2b6 353d
00000020: 579d 443e 2064 d63e fc41 78bf b123 983e
00000030: c403 5e3e 069d ebbe df7b 24bf a152 adbd
00000040: 0b95 f3be ecd3 bb3e 779e 1d3e 26ad 15bf
00000050: bf4c 15bf 6d7b 3c3d ad5a 04bf 4011 33bf
00000060: 8d97 553c f8fc bc3e 610a 173e 1700 4f3f
00000070: 7cae 92be 40c4 163e d7c6 b23d f512 2abe
00000080: 6713 00bd ece5 d837 0335 10be 463f c03d
00000090: e2ff e1bd 272a d73d 8dd8 4f3d 505b c63d
000000a0: e4c0 0f3b 7ffb d7bd 8f3b 93bd 2cf6 fa3a
000000b0: 34a7 c9bd c8e2 223e 07fe 0b3e 3e84 5ebc
000000c0: 9bd5 24be 4d3b 133d 1e1c f53d de03 e8bd
000000d0: c2eb 4bbe 3e53 da3d 9181 b9bc 1163 4cbe
000000e0: 9caa f5bd f972 e4bd a0fe 923c 8791 873c
000000f0: 7f0d 81bd 1bf4 163e e666 dcbd ea24 983d
00000100: c6e3 4dbe b0e7 943d e13d de3c d8b5 ecbd
00000110: 6c22 a3bd 5389 0b3e 8796 fcbc 7f4d 34bd
00000120: fc86 22be b029 d73c a337 3e3d f608 19be
00000130: ce53 fbbd 446d 05be 92d6 18be 8231 48be
00000140: 6fb9 fcbd c102 aebd ea0f 94bd 11be 08bd
00000150: 5a64 a6bd 7ca5 c6bd 450c c3bd 0540 8a3d
00000160: 7855 16be 30f4 79bd b9b8 cc3c 7b10 17be
00000170: 8e9c 353e bf60 5dbe 11f6 6a3d 1fee 53bd
00000180: b736 293c d5ed 2f3d e616 46be 8e54 643d
00000190: 97c0 f53d aab4 d6bc 193b af3c 083f c8bd
000001a0: 6a77 a3bd 27b8 e6bd 338f 11bc f82a e93d
000001b0: d787 a2bd b859 873d 6134 d2bc f58c c63c
000001c0: b8d2 16be 2013 0ebe 76c5 25be d9af eabd
000001d0: e824 edbd 730d 53be e60c 35be c4e4 d53c
000001e0: bd4c 9a3e 99fb 4e3e 869f c9bd 1e0a e5bf
000001f0: 6f29 b53e 3541 a3be 86b1 94be f203 10be
00000200: 3583 913d 2926 a23e d484 97be 004f ea3e
00000210: ea52 f6bb 57f5 883e b863 cdbe 09a1 7d3d
00000220: b93f a6be c705 15be f201 34be ee1f ad3e
00000230: b42e f5be 4ee7 dfbe ceeb 0e3e 61b7 b7be
00000240: bb65 0bbe 93d2 69be 450e c03d 5505 fc3e
00000250: d6d8 0e3d 9afd bb3d 534e 5bbe c629 09be
00000260: 9289 9f3d ee0d f3be 3bee 1dbf ee73 443e
00000270: df05 ba3c f608 da3b 80c5 80be 4f81 3bbf
00000280: 549a b53e 88ac 973f 96d0 a83d 697d 333f
00000290: 018d eb3e 91fc 283d 86a3 e13e 287a b5be
000002a0: bbbb a13e 4eec b53e 462f 993e 2d82 3b3d
000002b0: 2a89 2c3e 8de4 0abd a7c5 e03e 03a0 493e
000002c0: 7ed1 63bd c6d2 13bf 9c44 223f e72a 9c3f
000002d0: 44f7 923d 2e42 5bbe 8a5e 36be cc96 5bbd
000002e0: a666 3ebe fd9a 56be d141 3bbe 8ce2 923d
000002f0: c184 873d 13d0 843d 7e91 34be 5af6 3ebd
00000300: 941d 14bc 6aa9 55bc b64a 7e3d 0fca 2b3e
00000310: 57b7 49be b3eb c93d dad9 753d b09e 2bbe
00000320: e690 243b 5adf 46be dedb 0abe 5686 7c3d
00000330: a4c5 443d 3370 3dbe cc9b 44be 962d 963c
00000340: 79b0 b7bd 9102 82bd 3eca 7ebd 7215 e0bd
00000350: cb47 cebd c187 463f da83 6dbd 6fcc 873e
00000360: 2098 ab3e 09f9 523d e6c1 14be 87c8 113e
00000370: bc44 503f ba32 4dbe e5d5 333e 223b 5a3f
00000380: 303a 9c3e 6f05 f3bc 9073 603e 92fd c3be
00000390: a9ae 933c 63a8 0a3f c0de 193f ea5a a23e
000003a0: 4c0d 2d3f 01ba 6d3f f815 873d 7ea5 623e
000003b0: 5cd6 d73c c388 22be 976f d13e c180 f6bd
000003c0: f4a5 8f3d 918c 25be 2751 893c 200b a5bd
000003d0: c886 b0bc 8915 b2bc 80ff 0dbe 0a17 6c3d
000003e0: e180 e6bd b3e7 cabd c93b c03d adca 283e
000003f0: 51d8 b0bd 97df c5bd fc00 75bd 0c32 c8bd

fc3.bias f4 [20]
0.05864921 -0.18461023 -0.17690912 -0.0276065 0.21762244 0.111293696 0.10165175 0.1501875
-0.2135094 -0.11971008 0.41741705 0.009754252 -0.078208484 0.044662654 0.040680777 -0.048991036
0.020297142 -0.1011238 -0.3178922 0.1318474
00000000: 273a 703d 770a 3dbe aa27 35be 0727 e2bc
00000010: 6bd8 5e3e f3ed e33d cb2e d03d c1ca 193e
00000020: 35a2 5abe 8f2a f5bd b0b7 d53e 4cd0 1f3c
00000030: c52b a0bd 30f0 363d e3a0 263d d3aa 48bd
00000040: 3146 a63c ff19 cfbd c4c2 a2be 0103 073e

fc4.weight f4 [5, 20]
-0.09650508 -0.21782668 -0.1228601 -0.06629984 -0.42046624 -0.39772785 0.04565139 0.37385172
-0.10887459 -0.08462307 -0.28487918 0.2647022 0.106832296 -0.4984226 -0.30468598 0.24997339
-0.39182928 -0.4813885 -0.55392474 -0.22431277 0.44756883 -0.1332558 -0.0022755854 0.04522486
-0.051112022 -0.6558276 -0.17261156 -0.47655642 -0.19323763 0.05933744 -0.55789787 0.4000668
0.18856037 -0.7726413 -0.42596132 -0.09893069 0.31190598 -1.4080198 -0.60075957 -0.4544278
0.09011691 -0.09941329 -0.21414886 -0.08386309 -0.63573974 -0.16035953 -0.07941021 -0.31024584
-0.17791933 0.09924757 -0.5147678 0.0431638 0.13742995 0.6363562 -0.3148135 -0.47289035
0.13680287 1.0067679 -0.31176922 -0.46389088 0.3831247 -0.0947389 -0.11909558 -0.09232791
0.39060536 -0.13558042 -0.23172198 -0.34331232 0.1365444 -0.4337457 0.75422424 -1.5012394
0.14916459 -0.1653292 -0.24509828 -0.45850325 -0.23518497 -0.8535315 -0.2801582 -0.44965515
-1.8767529 0.10757141 0.05954277 -0.07333477 -0.39823824 0.5194684 -0.119230404 0.21296191
0.009122418 -0.8348548 -1.53251 -0.6364388 0.10983672 -0.71172094 0.5869939 -0.16380571
-0.8689651 -0.22990307 0.61217576 0.28443602
00000000: 75a4 c5bd f50d 5fbe 139e fbbd 36c8 87bd
00000010: 5a47 d7be fca2 cbbe f4fc 3a3d 7e69 bf3e
00000020: a4f9 debd dc4e adbd afdb 91be 0c87 873e
00000030: e4ca da3d 3f31 ffbe cdff 9bbe 06f9 7f3e
00000040: d99d c8be 8e78 f6be 03ce 0dbf 3fb2 65be
00000050: be27 e53e 3574 08be fd21 15bb b43d 393d
00000060: d75a 51bd 51e4 27bf 16c1 30be 34ff f3be
00000070: 16e0 45be d10b 733d 65d2 0ebf 8ed5 cc3e
00000080: f815 413e d2cb 45bf 9a17 dabe 2c9c cabd
00000090: 24b2 9f3e fe39 b4bf 61cb 19bf c3aa e8be
000000a0: 378f b83d 3299 cbbd d749 5bbe 69c0 abbd
000000b0: d7bf 22bf 4a35 24be d2a1 a2bd 8bd8 9ebe
000000c0: 7c30 36be 4f42 cb3d d3c7 03bf 86cc 303d
000000d0: 70ba 0c3e 3de8 223f 3c2f a1be af1e f2be
000000e0: 0d16 0c3e c5dd 803f 37a0 9fbe 1b83 edbe
000000f0: ec28 c43e 7806 c2bd 62e8 f3bd 6a16 bdbd
00000100: 6dfd c73e 98d5 0abe 8748 6dbe a2c6 afbe
00000110: 4cd2 0b3e eb13 debe d714 413f 9d28 c0bf
00000120: 9abe 183e 0f4c 29be 0bfb 7abe f0c0 eabe
00000130: 54d4 70be 0a81 5abf e570 8fbe 3339 e6be
00000140: 7039 f0bf 664e dc3d 1fe3 733d 8a30 96bd
00000150: e2e5 cbbe e2fb 043f 122f f4bd b012 5a3e
00000160: 3276 153c 0bb9 55bf 4a29 c4bf a7ed 22bf
00000170: 13f2 e03d 5833 36bf 3b45 163f afbc 27be
00000180: 7f74 5ebf b66b 6bbe 8db7 1c3f 99a1 913e

fc4.bias f4 [5]
-0.1954621 -0.21416861 0.035773247 -0.06261911 -0.3044346
00000000: 3727 48be 044f 5bbe f886 123d 733e 80bd
00000010: dade 9bbe
