SAGE/UNSW/UNSW_Dynamite_Selection_Defense/Adversarial_Training/Adversarial_Training_pgd.pt (torch, 23564 bytes, 8 tensors)

fc1.weight f4 [50, 56]
000000 bc 24 bc ba ab 39 46 bc 60 99 31 3c 02 ee 4e bc
       -0.0014354209 -0.01209871 0.01083979 -0.012629988
000010 41 90 8e 3a 08 1e 2e 39 f5 d3 76 be 0f 7b 60 bd
       0.0010876731 0.0001660512 -0.24104293 -0.054804858
000020 6e 75 e2 bd ba 23 36 3e ee 45 a5 3c a6 5d c1 3b
       -0.11057554 0.17787066 0.020174947 0.0059010563
000030 b4 89 91 3b ab d8 93 bb d9 1d 49 bd e9 17 8f 3d
       0.0044414643 -0.004511913 -0.04910073 0.069869824
000040 8e 4f 4e 3a fa c3 bf 3c 92 0c 1c 3e 08 63 57 bd
       0.0007870131 0.023408879 0.1523917 -0.052584678
000050 bd 4e 93 3d e5 2b 97 3d 74 3c 54 3e ee 29 79 be
       0.071927525 0.07381419 0.20726186 -0.24332401
000060 f1 df 8e 3d aa 21 15 3e 09 6d 6e be ff ea 6b 3d
       0.06976307 0.14563623 -0.23283781 0.057597157
000070 d1 6b 97 bc 02 49 83 bc 62 31 a6 3c fa 32 7f 3d
       -0.018484028 -0.016026024 0.02028722 0.062304474
000080 1a 33 4a bd 75 09 ad bc c8 3f 1d be 93 f4 54 3c
       -0.04936514 -0.021122674 -0.15356362 0.012997764
000090 14 ee 2e be b1 99 dc bc e4 fb 71 3c 74 e1 97 3c
       -0.17083007 -0.026928755 0.014769528 0.018540122
0000a0 70 a1 4f bd 98 b2 a1 3d 0e 0d 8e 3e 0c 08 02 3f
       -0.05069107 0.07895392 0.27744335 0.5079353
0000b0 e3 a1 fc 3c 36 7e 11 3c a8 b4 a5 3e f1 da 8d 3d
       0.030838912 0.008880189 0.32364392 0.069265254
0000c0 1c 5c 7d 3d 17 7c c3 be cc 63 a9 ba 35 47 36 bb
       0.06185542 -0.3818061 -0.0012923419 -0.0027813439
0000d0 fa 8a 7d 3e c5 28 f5 be b7 b6 3f 3d d7 64 da 3b
       0.24760047 -0.47882667 0.04680511 0.006664853
0000e0 c9 b6 5e be da 26 70 bc 09 52 74 3d b6 52 6e bc
       -0.21749415 -0.0146577 0.059648547 -0.014546087
0000f0 44 0c 6c 3d 8e 3d 99 be 32 be 31 3e 4f f8 d4 be
       0.057628885 -0.29929775 0.1735771 -0.41595694
000100 d1 91 dc bb 3f f9 82 3d 34 c7 e6 3b 9f db 43 3a
       -0.00673125 0.06395196 0.00704279 0.0007471386
000110 a8 c4 87 3a 20 67 b1 bd f2 c3 35 bd 84 c4 d6 3c
       0.0010358291 -0.08662248 -0.04437632 0.026216753
000120 28 84 0c 3d 7f 77 4d bd a3 cd b5 bd 14 1f b1 bd
       0.03430572 -0.05016279 -0.08877113 -0.08648506
000130 59 35 86 bd ed 63 2d be c7 51 a6 bc 35 09 17 be
       -0.06553144 -0.1693265 -0.020302666 -0.14749606
000140 4a 7c 4c 3d ed a7 2d 3d d0 5b 1f be 06 6d 17 bd
       0.04992322 0.042396475 -0.15562367 -0.036969207
000150 ba 83 e4 bd 1f 78 6e be 01 99 55 3d 02 6d 0f be
       -0.11157937 -0.2328801 0.05214787 -0.14006427
000160 2e da fe bd d2 f0 6b be fe da f5 bd 04 bb be 3d
       -0.12443958 -0.23041084 -0.1200466 0.09313014
000170 26 e4 27 bd c6 a3 8f bd d1 7b d5 bc c6 34 cc bd
       -0.040989064 -0.07013659 -0.026060017 -0.09971003
000180 87 48 20 be b6 bc db bd 2d 10 ad 3d 6d 0b 7e bc
       -0.15652667 -0.10729353 0.08450351 -0.015505654
000190 97 1b 8a be bf f7 29 bd 87 8e c9 3d 4e 0a 33 be
       -0.26974174 -0.041496035 0.09841638 -0.174844
0001a0 83 13 04 bf 18 e3 3e 3d b5 00 4c 3b ae 14 2f bb
       -0.5159227 0.046603292 0.003112835 -0.0026715207
0001b0 ec b4 b6 bc 83 bb 54 bd eb 31 8a be 60 ae d1 bc
       -0.022303067 -0.051936638 -0.2699121 -0.025595844
0001c0 80 30 83 be 14 33 9f 3c 50 37 3b be 6c e9 9c 3d
       -0.2562294 0.019433536 -0.18282819 0.07661709
0001d0 62 fa 71 3e 63 e4 ba be e7 f0 d6 bc 37 53 cf 3c
       0.2363067 -0.3650237 -0.026237918 0.025308235
0001e0 b4 e8 70 bd 5d 54 c3 3d 54 66 d0 bc 2b 50 3f 3c
       -0.058815673 0.095375754 -0.025439419 0.011676828
0001f0 6b a2 68 3c 58 39 6e bd 46 3a 84 3d 97 21 30 bd
       0.01419888 -0.058160156 0.06456427 -0.043000784
000200 e2 7b 46 bd b3 07 0e bd f1 07 0b be 11 07 4b 3d
       -0.048457988 -0.03467531 -0.13577248 0.049567286
000210 c7 19 22 bc 45 5f c5 bc 15 85 8c 3d 20 f0 52 be
       -0.009893841 -0.02409328 0.06861321 -0.20599413
000220 ad af 7d 3e 4c 01 3a 3d d4 3c 86 3d e8 3b 13 3d
       0.24774046 0.045411393 0.06554571 0.035945803
000230 4d 19 0c bd 2b e7 1d 3d f9 f6 f8 3d 55 21 c6 bb
       -0.034203816 0.038550537 0.12156481 -0.006046454
000240 89 8e c4 3b ff 6f 51 3d 14 d1 ff 3d 38 62 62 bd
       0.005998437 0.0511322 0.1249105 -0.05526945
000250 e3 c3 be 3d 76 5d 60 3d 8f d1 99 3d 26 ae c7 bd
       0.09314706 0.05477663 0.07510673 -0.09750013
000260 49 10 8d 3b b2 c2 28 3e 89 da 38 3c e5 15 92 be
       0.00430492 0.1648052 0.011282572 -0.2853233
000270 af c1 e4 3d df 6c d6 3d 79 ea 90 bd 3d 22 df 3d
       0.11169755 0.10469984 -0.07075972 0.10895202
000280 55 05 db bd 66 cf b1 be e0 ae 87 3c aa be a9 3b
       -0.106943764 -0.34728545 0.01656288 0.0051801996
000290 c4 1f 6a 3c c2 be 5f bd 34 5c 0a 3e 66 7d 80 3b
       0.0142898 -0.05462528 0.13511735 0.0039211987
0002a0 58 47 8e 3d ce 44 54 3e 2c ae ec 3c cd 86 1c be
       0.069472015 0.20729372 0.028891645 -0.15285797
0002b0 16 7e c0 bb b9 dc 74 3d 33 6a 43 bd 6a 0a c0 3d
       -0.0058744056 0.05978081 -0.0477087 0.09376986
0002c0 93 6d b3 bc 79 52 a3 3d 58 dd 1e 3a 44 43 84 3b
       -0.021902835 0.07974715 0.00060602045 0.004036339
0002d0 9f 8c 64 3b ae b5 a5 bc b2 aa 89 3d fd 22 6f 3d
       0.0034873856 -0.020228233 0.06722011 0.058382977
0002e0 4a 63 40 be 31 b4 81 bc cf 08 4e bb d0 eb 4c 3e
       -0.18787876 -0.015832992 -0.0031438356 0.2001183
0002f0 cc 66 58 3d db 7c 02 3e ad d9 8b bd 74 bd 5b bc
       0.05283241 0.12742941 -0.06828628 -0.013411868
000300 9c de 0f bf 43 fe 1f 3d 44 26 6b 3d bb 7d c6 3c
       -0.5619905 0.039060842 0.05740954 0.024229875
000310 ee 5f 09 3e 76 60 05 bd ab 62 71 3d 4e b2 e4 bd
       0.134155 -0.032562695 0.058931988 -0.111668214
000320 2a c7 2f bd 6c b1 82 3d 98 e3 17 3d 43 9b 94 3c
       -0.042914547 0.06381497 0.037082285 0.01814044
000330 00 51 fc bc 11 53 a9 be f7 18 84 be 2f 6e 91 be
       -0.030800343 -0.33071187 -0.25800297 -0.28404376
000340 aa dc ef 3d 13 64 a1 3d 70 2a 30 bd 2b 76 69 3c
       0.1171201 0.07880416 -0.04300922 0.014249365
000350 34 02 94 bd 3a f2 2a be 5f 35 06 3d f6 9e e9 3d
       -0.07226983 -0.16693965 0.032765742 0.114072725
000360 63 7d 78 be d8 04 3d 3d 1a 13 6c bb 84 d2 19 bb
       -0.24266581 0.046147197 -0.0036022128 -0.0023471424
000370 ee 22 84 3d 0d e5 ea 3d 7f 76 11 3d 24 e3 8f 3d
       0.06451975 0.11469469 0.035513397 0.070257455
000380 4e ca 62 be f1 06 15 be 2f bb ea 3c a0 ae 30 3e
       -0.22147486 -0.14553429 0.02865371 0.17254114
000390 a7 a8 25 3e f5 72 82 3e a5 0f e7 bd 79 a4 88 3e
       0.16177617 0.2547833 -0.11282281 0.26687983
0003a0 d4 90 94 bc 46 c1 a4 bd 5c 61 90 3c ce d9 01 bd
       -0.018135466 -0.080446765 0.01762455 -0.031701855
0003b0 20 ab 29 bc 72 a8 db bd 96 e3 15 3e 29 6d 7c 3d
       -0.010355741 -0.10725488 0.14637598 0.06162754
0003c0 1d 0d 73 3e a3 59 a0 bc 95 77 b3 3d dc 3c 11 3e
       0.23735471 -0.019573992 0.08763043 0.14183372
0003d0 3d 51 80 bc a5 c2 1a bc 8f 2c 89 3d 56 63 08 bd
       -0.015663737 -0.009445821 0.06697952 -0.03329786
0003e0 ff 32 07 bf b9 45 24 3e 2a 51 ff bc 48 4e fd 3c
       -0.5281219 0.16042222 -0.031166632 0.030921116
0003f0 38 b7 b4 ba 67 5b 7b bd dc dc 10 be 07 99 27 bd
       -0.0013787514 -0.061366465 -0.14146751 -0.040917423

fc1.bias f4 [50]
000000 77 c9 8a 3d 3a 34 eb 3b 8f 57 4a bd c0 0a b9 3d
       0.067767076 0.0071778568 -0.04939991 0.090352535
000010 84 f8 15 3e 17 cd fd 3d ca a3 55 3c c4 de 72 bd
       0.14645582 0.123926334 0.013039539 -0.059294477
000020 9d fa 4e 3d cf 21 8d bd 9e e3 9f bd 9a 4d 23 3e
       0.050531972 -0.06891214 -0.078070864 0.15947571
000030 12 52 37 bd 11 f2 1f bb 8e 77 8b 3e 90 94 97 3d
       -0.044756003 -0.0024405757 0.2723965 0.07401383
000040 87 9c 4f 3e 79 fb e7 3d 9f 4c dd 3d a3 ef 19 be
       0.20274554 0.113272615 0.1080563 -0.1503282
000050 da 99 c6 3d 7a 77 7e 3d fe a4 b9 bb 2e c5 c6 3c
       0.096973136 0.06212566 -0.0056654206 0.024263944
000060 2d e7 c7 3d b0 98 0e 3c 73 d7 1a 3e 34 47 87 bd
       0.0976089 0.008703396 0.1512125 -0.06605378
000070 ad 45 f2 3d 18 ee 11 3e 9a f3 46 bc fa 7f cf 3b
       0.11829696 0.14250982 -0.01214304 0.0063323947
000080 28 07 2e bd f9 99 8d 3e 46 96 18 bc fa c2 04 3e
       -0.042487293 0.27656534 -0.009313172 0.12965003
000090 92 26 3c 3e 04 46 15 3c 06 8c 8b bc 8e 74 ec bc
       0.18374088 0.009110931 -0.017034542 -0.028864171
0000a0 14 cd 99 3d 3b 02 c1 3c 2e a7 c8 3d bc 6c 0b 3e
       0.07509819 0.023560634 0.09797512 0.13615698
0000b0 56 e7 78 3d 75 dd 40 3e 55 74 c4 3d 7d 9a ec 3d
       0.060767494 0.18834479 0.09592501 0.11552904
0000c0 c2 02 41 3e 6b 1b e7 3d
       0.18848708 0.112845264

fc2.weight f4 [30, 50]
000000 13 97 2b bd 5f 33 1f be c8 31 35 3d 0d 50 da bd
       -0.041892122 -0.1554694 0.04423693 -0.106598
000010 d2 3c bc bc a1 85 a8 be c3 b3 7f bd 21 a9 00 be
       -0.02297822 -0.3291445 -0.062427294 -0.12564518
000020 cf d6 6c bc d2 0f 08 be 07 de 7e bd 0e 0c 8f 3c
       -0.014455511 -0.13287285 -0.06222346 0.017461803
000030 0e a3 aa bd e5 25 b9 bd ef 93 98 be 5f 1c 15 3d
       -0.083318815 -0.09040431 -0.29800364 0.03640401
000040 aa 9a 79 3e 27 15 ec 3d ab 23 77 bb 26 a9 ac 3d
       0.24375406 0.11527472 -0.0037710469 0.084307
000050 18 45 64 be b5 dd 3d be be f8 24 be c7 88 48 bd
       -0.22291982 -0.18541606 -0.16110513 -0.048958566
000060 ad 99 d2 3d d2 a8 75 3c 8b 91 95 3e f6 bf 24 3e
       0.102832176 0.014993863 0.29212603 0.16088852
000070 45 6d 04 3e dd d9 98 be 28 b1 94 bd d5 da 05 3d
       0.12932308 -0.29853716 -0.072603524 0.032679398
000080 67 75 12 3f e6 99 e8 3c 3c 54 1c be c5 86 e3 3d
       0.5721039 0.028393697 -0.15266508 0.111096896
000090 97 0c c3 bd d0 f7 8c 3d 87 37 1a be 32 89 05 be
       -0.09523886 0.06883204 -0.15060245 -0.13040617
0000a0 9d 83 e8 be 8b 3d 22 3f 70 8b 10 be cd bd 6b 3c
       -0.45412913 0.6337516 -0.14115691 0.014388514
0000b0 90 7a 97 3d d1 7f cc 3d 7a 53 12 be 26 ce 4e 3e
       0.07396424 0.099853165 -0.14289656 0.20195827
0000c0 68 cb 26 be 97 13 01 3e bb 85 be be 59 60 eb be
       -0.16288531 0.12605129 -0.37211403 -0.45971945
0000d0 2b 99 b8 bc 87 11 ee 3e 68 bc 10 be b8 5c 71 be
       -0.022533974 0.46497747 -0.14134371 -0.23570526
0000e0 ee 9e 9c bd 76 35 64 bd 8e 6f cb 3d 6f ad a7 3d
       -0.07647501 -0.055715047 0.09933387 0.08187377
0000f0 ab 65 f5 3d a8 8d 25 3e 44 ca b7 3a 3c da 90 bd
       0.11982282 0.16167319 0.0014022072 -0.07072875
000100 12 2a 52 be 4c 71 2c 3e 68 d1 55 3e 52 ab 7a 3b
       -0.20523861 0.16840094 0.20880663 0.0038249088
000110 43 a2 10 3e 0a fd 81 3e 75 0b 9c 3d d4 d4 e6 bc
       0.14124398 0.25388366 0.07619373 -0.028177656
000120 5f ea 92 3d e2 dd 48 be 70 34 c1 bc 32 97 d0 bb
       0.07173609 -0.19615892 -0.023584574 -0.00636568
000130 64 2f 2e 3e 69 27 fa 3d a2 fe 6d 3e 1f 83 c5 3e
       0.17010266 0.12214548 0.23241666 0.385766
000140 cf 41 9b 3c ab 62 a8 3c e4 6f ef 3e 7d 2a 45 be
       0.018952278 0.020554861 0.46765053 -0.19254489
000150 3c 20 cf 3c fb 02 87 3d 8b 9c 04 bd ed d9 a4 bd
       0.025283925 0.06592365 -0.032375854 -0.080493785
000160 e5 62 90 be bf 32 32 3e 6a 2b 87 be fb db 99 3e
       -0.2820045 0.1740217 -0.2640031 0.30050644
000170 31 9b 3b 3e 84 1a af 3d 8e 5f 03 3e 9b ef 2d be
       0.1832092 0.08549979 0.1282942 -0.16985933
000180 9b 73 b7 3d bf e3 c6 3e be a2 b0 3d 12 67 f0 bc
       0.08957597 0.3884563 0.086247906 -0.029346023
000190 cb 40 c2 bd ed 79 30 3d 03 c1 2c 3d 17 a9 a2 3e
       -0.094850145 0.043085027 0.042176258 0.3176963
0001a0 1f 49 3f be 87 a9 94 3d 54 81 8f be f3 6a 97 3d
       -0.18680237 0.07258897 -0.28028357 0.07393446
0001b0 f5 dd 1a 3c a4 1f ba 3d ed e0 a4 be 3b e9 b9 3c
       0.009452333 0.09088066 -0.32202855 0.02269422
0001c0 ac c5 65 3e 23 55 8c 3c 35 82 47 3b 11 6e e9 3c
       0.22438687 0.01713044 0.00304426 0.028494867
0001d0 8c 45 27 be 1b 98 50 bd d8 aa 56 3d ad 8f 0d be
       -0.16335124 -0.05092631 0.052409023 -0.13824339
0001e0 b8 b4 4f 3d ff aa 1d bd ba 7d 93 be a0 5a 2c bd
       0.050709456 -0.038493153 -0.2880686 -0.042078614
0001f0 0c 00 8a bd af d8 0b be d1 8c a7 3e 10 3a 49 be
       -0.0673829 -0.13656877 0.32724622 -0.19651055
000200 4c ca 17 3d f5 9b 69 bc 27 46 93 be bc cd b8 be
       0.03705816 -0.014258374 -0.2876446 -0.36094463
000210 b3 50 14 be e8 6d 60 3d f2 e0 84 be a7 0e 65 3e
       -0.1448391 0.054792315 -0.2595287 0.2236887
000220 b2 bb ef bd 2f e3 1c be 5a 9b c9 3e ed fb 0d be
       -0.11705722 -0.15321039 0.39376336 -0.13865633
000230 5e 7a 12 be c0 e8 75 be c7 9a 9d 3e 11 f2 23 3d
       -0.14304492 -0.24014568 0.30782148 0.040025774
000240 8b d3 2f 3f 51 ee c6 bc a5 4a 06 3e bf ca 02 3f
       0.68682164 -0.02428356 0.13114412 0.51090616
000250 a2 f0 dc bd 68 01 6c 3d e6 3c a0 be 33 55 10 bd
       -0.107880846 0.05761853 -0.31296462 -0.035237502
000260 d8 a2 09 be d6 72 e7 3e 78 61 3e 3e e8 ed 71 3e
       -0.13441026 0.452048 0.18591869 0.2362591
000270 9c de 6e be 5c e1 0c be 5c 1c 69 3d 8c b4 1d bc
       -0.23327106 -0.13757843 0.05691181 -0.009625565
000280 13 d4 1c be 3e a7 c6 bd ce fd 93 3e 71 e0 88 bd
       -0.15315275 -0.09699868 0.28904575 -0.06683434
000290 bf 42 0d 3e 60 d2 8c bd fe c8 dc bb 98 06 a3 bd
       0.13794993 -0.06876063 -0.0067378273 -0.07960242
0002a0 2e e0 fe 3c 53 b5 33 be c0 e2 5e 3e 05 76 9d bd
       0.031112757 -0.17549638 0.21766186 -0.07688526
0002b0 b2 7b ff bd e3 56 9a be 07 7a 65 3d 5b 0e 7a be
       -0.12474765 -0.30144414 0.056024577 -0.24419539
0002c0 9a 99 82 3e e8 1e 0b be 4c 9d 42 3e b0 b4 1e be
       0.25507814 -0.13586009 0.19005316 -0.15498614
0002d0 44 58 33 be f0 c5 a6 be c3 7f ca bd 53 9c 4b 3e
       -0.1751414 -0.3257289 -0.0988765 0.19883852
0002e0 1a c0 c1 be ed 1d 20 3e 69 5d 55 be c0 8f ca bd
       -0.37841874 0.15636416 -0.20836414 -0.098906994
0002f0 a7 8f 0d 3e 57 85 99 3c ab f1 e4 bd e3 13 57 be
       0.1382433 0.01874034 -0.11178907 -0.2100368
000300 da dd 0d 3f 14 5f 88 bd de d8 37 3f 58 ae 95 be
       0.55416644 -0.0665876 0.7181529 -0.29234576
000310 64 3b 1f 3c 58 f0 47 3f 9c 04 02 bd 1d c8 68 bc
       0.00971875 0.7810111 -0.031742677 -0.014207867
000320 08 68 00 be 28 43 49 bb a5 f1 30 be a6 02 e0 3d
       -0.12539685 -0.0030710194 -0.1727968 0.10938005
000330 1c 4f 22 3e 09 74 70 bf d3 8c 93 be 68 d1 62 bd
       0.1585049 -0.93927056 -0.28818378 -0.055375487
000340 a4 37 69 bc 59 0a 00 be 92 75 02 bf 07 5f f6 bc
       -0.014234457 -0.12503947 -0.5096065 -0.03007461
000350 10 71 ce 3d 19 ad bc 3d 5b 52 01 3e a4 ff b3 3d
       0.10080159 0.09212703 0.12629072 0.08788994
000360 8f d0 78 3d bb 65 d1 3d f0 b2 56 3e a4 66 57 be
       0.060745772 0.10224482 0.20966697 -0.21035248
000370 76 05 6e 3d be c8 c0 3d ed d7 51 3e 6e 4a 5c bd
       0.058110677 0.094132885 0.20492525 -0.05378192
000380 d3 04 15 3d 7c 8f 88 bc c5 1a 83 3e 86 af 74 be
       0.036381554 -0.016669981 0.2560636 -0.23895082
000390 b2 f6 ec bc b6 37 66 bd 84 2c d0 3d 4d c1 c1 3d
       -0.028926227 -0.056205474 0.10164741 0.09460697
0003a0 b9 4a 78 b9 9f 9b 48 3e 07 b8 0f ba c7 46 f2 3d
       -0.0002367896 0.19590615 -0.00054824393 0.11829906
0003b0 0a 83 f1 bd b2 96 8e be c3 d2 f2 3d e0 59 c8 bd
       -0.11792572 -0.27849346 0.11856606 -0.09782767
0003c0 4c f5 a4 bd 78 34 8f bd c9 32 5e 3e 77 e0 29 be
       -0.08054599 -0.069924295 0.2169906 -0.16589533
0003d0 e0 42 a0 3e 36 76 b5 3d 0c f3 d2 bd 49 5a 41 3e
       0.31301022 0.088604376 -0.10300264 0.18882097
0003e0 e8 f6 50 bc 12 13 13 3e c5 30 b4 bd 9b 34 75 3d
       -0.01275418 0.14362743 -0.087983645 0.05986462
0003f0 9a 3e 02 be 47 47 27 3f f8 ce 6f 3e 5a fb 95 3e
       -0.12719193 0.65343136 0.23418796 0.2929333

fc2.bias f4 [30]
000000 ba 90 e5 bd 35 3e f4 3d c9 97 90 3d 12 b8 f1 3d
       -0.11209245 0.119259275 0.07060201 0.11802687
000010 16 bb bb 3c dd 18 ea 3d 32 a0 e0 3d 7f 5e 86 3d
       0.022916358 0.114305235 0.10968055 0.065609924
000020 04 d3 93 3d 97 49 2d 3e f3 cc 4c 3d ec 7b 60 3c
       0.072179824 0.16922604 0.050000142 0.01370142
000030 99 e5 cf bd 0f 7c ca bd 8d 2c 00 3e 20 62 21 3d
       -0.10151214 -0.098869435 0.12516995 0.03940022
000040 05 27 eb 3d 17 0b 9c 3d 73 4e 49 3d 46 2e 08 bd
       0.11482052 0.07619303 0.04914708 -0.033247255
000050 09 af 12 ba 75 4f 15 3e 41 17 75 3e 4d 8b 59 3d
       -0.000559554 0.14581092 0.23934652 0.053111363
000060 21 f6 a2 bc 5e 0a cf bd dc 42 10 be 4a 6c 20 be
       -0.019892754 -0.10109399 -0.14088005 -0.15666309
000070 24 69 ef 3d 7f c7 53 bd
       0.11689976 -0.051703926

fc3.weight f4 [20, 30]
000000 f3 38 24 bd ca 47 97 bd 3f b5 a1 3f 8c 31 32 3f
       -0.040093374 -0.073867396 1.2633437 0.6960685
000010 0b eb d0 3e 86 9b 9a 3f 4a 1b 34 3e c1 62 13 be
       0.40804324 1.2078712 0.17588535 -0.1439314
000020 e5 8a b1 3e fa 79 4f 3d 19 de a2 3d b4 1f 35 3e
       0.3467628 0.050653435 0.07952518 0.17687875
000030 70 b0 1a 3c de 25 bc 3c 0d ac bb 3d 86 27 8f be
       0.00944148 0.022967275 0.091636755 -0.2795984
000040 0a 90 88 3e b9 08 74 bc 73 b3 af bd 85 18 c3 bd
       0.26672393 -0.014894658 -0.08579149 -0.09526161
000050 04 39 82 be 8e 8d fd 3d 31 58 83 3d b7 c5 26 3d
       -0.25434124 0.12380515 0.064133056 0.0407159
000060 71 7c 4f bd 21 d3 d9 bd 1f 19 96 bd f9 3f 7b bc
       -0.050655786 -0.10635973 -0.0732901 -0.0153350765
000070 c6 1d 4a 3e b6 ad c5 3d 2b 90 99 bc 35 86 2c bd
       0.1973792 0.09652273 -0.018745502 -0.042120177
000080 cb 56 00 be b8 81 af 3d c5 0c 16 3e 38 85 f8 3d
       -0.12533109 0.08569664 0.14653309 0.121347845
000090 80 06 e1 bd 55 45 4b bd d0 a5 24 3c 84 92 21 3d
       -0.10987568 -0.049626667 0.010049298 0.03944637
0000a0 30 69 ae 3d 84 89 f9 bd fd 4f 00 3e 8c f0 52 be
       0.08516157 -0.12184432 0.12530513 -0.20599574
0000b0 8a ae 03 be 42 02 2f bd a9 2b 34 be 3f df 8e bd
       -0.1285955 -0.042726763 -0.1759478 -0.069761746
0000c0 4f 43 06 3d f2 2b 22 3e 41 ae 0e bb c5 51 01 be
       0.032779034 0.15837076 -0.0021771344 -0.12628849
0000d0 fa 4f 05 3d ea 1b f9 3c 0b 60 aa 3d 2b 5f e6 3d
       0.032546975 0.030408818 0.083191 0.112486206
0000e0 1f c5 79 bd da 3d 1b be 97 5b 4d 3b 04 9a 30 3d
       -0.060979005 -0.15160313 0.003133511 0.04311563
0000f0 46 95 84 be 63 81 76 be e0 69 b4 be 74 52 e4 be
       -0.25895137 -0.24072795 -0.35237026 -0.44594157
000100 22 b3 23 be b9 ed d2 bd 2b 4b 08 be a7 eb ae be
       -0.15986302 -0.10299248 -0.13309924 -0.34164163
000110 94 85 e5 bc b6 23 50 3d bb 9c 80 3d 6c 44 62 3d
       -0.028017797 0.050815307 0.06279894 0.055241033
000120 c5 d3 8d bd b2 b0 0b bf 72 3c aa 3d bb 3e ed 3d
       -0.069251575 -0.5456649 0.0831231 0.115842305
000130 74 be 1b be 52 03 db bd 57 72 a3 3c 56 1c 44 3d
       -0.15209371 -0.10693993 0.019951982 0.047878586
000140 7d f6 bf 3d 96 67 47 3e 4b 9a 99 3c 80 fa 3a 3e
       0.09373186 0.19473109 0.01875033 0.1825962
000150 42 9b 94 3d 11 ba 36 3e 08 01 0a 3e a0 c8 b0 3c
       0.072561756 0.17844416 0.13476956 0.02158004
000160 6c e7 c0 bd aa f6 90 3d a1 98 84 3e 78 01 46 3e
       -0.0941914 0.070782974 0.25897697 0.19336498
000170 4e e7 f2 be 91 8c 9f be 15 f9 6a 3d 39 66 1b bf
       -0.47442096 -0.3116193 0.05736645 -0.60702854
000180 99 ba 68 bd da e7 2f 3d 9f 51 78 be f2 10 b8 3d
       -0.05681858 0.04294572 -0.24249886 0.08987607
000190 5b ce ff 3c 61 4c fd 3d 70 ea 24 3e ff 18 4c 3e
       0.031226328 0.12368084 0.16105056 0.1993141
0001a0 3c ba 23 3d 1c aa a2 3d d2 f7 63 3d 77 5e da 3d
       0.03997253 0.07942602 0.05565626 0.10662549
0001b0 41 96 64 3e 75 ca 8c bd ba bf a4 3e 48 71 0a 3e
       0.22322942 -0.06874553 0.32177526 0.13519776
0001c0 6b dc 07 3e e4 92 9c bd 46 0c 52 bd e1 32 2f 3d
       0.13267677 -0.07645205 -0.051281236 0.04277313
0001d0 27 66 21 3d 71 d7 d3 3d d2 e7 8f 3d f6 4a 01 be
       0.03940406 0.103438266 0.07026638 -0.12626252
0001e0 98 f8 ba bd 86 24 cb 3d dc 61 10 bf 9d 3d c3 be
       -0.09129447 0.09919076 -0.5639932 -0.38132945
0001f0 c3 0b 2e be dd a1 0a bf c0 96 24 3c d9 d6 3f be
       -0.16996674 -0.54153234 0.010045707 -0.18734302
000200 d9 00 27 be ce 08 c3 bd c4 33 dd bd 11 fd 61 3d
       -0.16308917 -0.09523164 -0.10800889 0.055172984
000210 df 82 5e 3e c1 17 46 3e fc ca 8e 3c b9 71 2f 3e
       0.21729611 0.19344999 0.017430775 0.17133226
000220 41 2c bb bd 93 e3 79 3e ca 7d fb bb 63 3d 80 be
       -0.091393 0.24403219 -0.0076749073 -0.25046834
000230 d2 54 9f 3e 12 3e 95 3e 4e 53 17 3e e6 27 8d bd
       0.311194 0.29148918 0.14777872 -0.06892376
000240 6c c4 ea 3d 44 fa 23 be c3 1a 02 be 34 90 9e bd
       0.11463246 -0.16013438 -0.12705521 -0.07742348
000250 58 96 e3 bd c8 ac c7 bd 6b fa 4e bd 31 28 8b bb
       -0.1111266 -0.09749752 -0.050531786 -0.0042467345
000260 2d 22 cd bc 83 5e fc 3d cd d2 e7 bd 6c 42 24 3e
       -0.02504071 0.12322714 -0.11319504 0.16040963
000270 0c 2b 34 be 39 e1 20 be e6 3f 87 bd 8d 51 6b 3d
       -0.17594546 -0.15710916 -0.066039845 0.05745082
000280 0f d1 8f 3d d2 63 47 be c7 10 0e 3c f9 9e 73 bc
       0.07022297 -0.19471672 0.008670992 -0.014869445
000290 55 32 e5 bd 92 09 0a 3e d6 11 78 3d 29 ba 12 be
       -0.11191241 0.13480213 0.060563885 -0.14328827
0002a0 76 2d 1c be d3 3d e9 bd af a0 40 be 4e 15 cd bd
       -0.15251717 -0.11388745 -0.18811296 -0.10013829
0002b0 f1 91 a1 bc 05 ba 17 bd 6c 56 b5 bd e1 0f cf bd
       -0.01972291 -0.037042636 -0.08854374 -0.101104505
0002c0 f7 df 23 3e dc 25 27 3d 9d 52 9b bd 11 91 c7 3d
       0.16003405 0.04080759 -0.075841166 0.09744466
0002d0 84 26 fc bd ef ea 74 3e 9e b9 be 3f 89 a7 36 3f
       -0.12312034 0.23917745 1.4900396 0.7134939
0002e0 86 fe c2 3e a7 2b a1 3f 98 26 bf bb 3d 5c 0d 3e
       0.3808481 1.2591447 -0.005833458 0.13804717
0002f0 59 00 c2 3e 4f ea 36 3d 30 0c 71 3e 36 ce 90 3d
       0.3789089 0.044657048 0.23539805 0.070705816
000300 b6 e7 5d be 0b 53 fa bd 50 06 a9 3e be 03 b6 bd
       -0.21670422 -0.122228704 0.3301263 -0.088874325
000310 cd 2f 37 3e 41 77 4d 3d 9e 8d 66 be ea 7b 1c be
       0.17889328 0.050162558 -0.2251496 -0.15281644
000320 51 ea 8d be 02 93 7e 3d 89 ed c8 3c d5 95 2f 3e
       -0.27717832 0.062151916 0.024527328 0.17147
000330 9c 92 21 bd af b0 4f 3d 98 42 16 3e c9 69 19 be
       -0.03944646 0.050705608 0.14673841 -0.1498176
000340 34 2f 74 3e 14 03 23 3d c7 cf 06 3f de 60 60 3e
       0.23846132 0.039797857 0.52660793 0.21911952
000350 94 9a 11 be fe 4a a6 be 2e 97 f6 be ac c3 81 be
       -0.14219123 -0.3247909 -0.48162216 -0.25344598
000360 1b 2f 02 bf b2 5a 82 3e 62 14 de be 68 11 1e 3e
       -0.5085313 0.2545982 -0.43374926 0.15436327
000370 03 73 3d be 2a 7e 09 3e 27 a7 ed 3e 03 92 c0 3e
       -0.18500905 0.13427034 0.4641659 0.37611398
000380 9d 39 8e be f1 73 9d 3e 6e 57 08 bf 0f ad 1f 3e
       -0.2777833 0.3075252 -0.5325841 0.1559336
000390 72 e2 53 3f 27 0a 5c be 29 8d ee 3e 40 9c dd bc
       0.82767403 -0.21488248 0.46592072 -0.027052045
0003a0 48 7a b0 3e 47 80 8c be 8e 3c aa bd fd 7f 29 be
       0.34468293 -0.27441618 -0.08312331 -0.1655273
0003b0 86 04 09 be c5 ff b6 bd c3 40 67 be 08 f7 83 be
       -0.13380632 -0.08935503 -0.22583298 -0.25774407
0003c0 f6 5d ae 3e 1e e0 19 bd 25 4f 3d be 95 bd c0 bb
       0.34056062 -0.03756725 -0.18487222 -0.005881975
0003d0 b9 24 3a be 54 e7 43 bd 9a c3 73 be 90 6e 4a bd
       -0.18178071 -0.047828034 -0.23805085 -0.049421847
0003e0 2f 8e 65 be 15 fc 92 be 17 80 15 be fd f0 d6 3d
       -0.2241752 -0.28707948 -0.14599644 0.104951836
0003f0 bc 26 01 3e ae e0 a2 bd f1 3f c7 bd 59 59 10 3e
       0.12612432 -0.079530105 -0.09728993 0.14096583

fc3.bias f4 [20]
000000 a8 da bc 3d 48 ac 11 bb 8e 77 41 bc a6 cc d9 bc
       0.09221393 -0.0022227932 -0.011808289 -0.026586842
000010 e6 78 73 3e 7d 56 90 3d 30 de eb 3d 19 04 1d 3e
       0.23776588 0.07047746 0.11516988 0.15333594
000020 bf c7 50 bd 8a 92 1a bd 8a bb fd 3d 16 84 05 3e
       -0.050971743 -0.037737407 0.12389286 0.13038668
000030 c0 9c 82 3e c4 6c a9 bd 2f 39 3d 3e 4a e0 d0 bd
       0.25510216 -0.082726985 0.18478845 -0.1019903
000040 69 b6 63 bd f1 4e 78 bd ef 4e 6f 3e 49 e4 3a bd
       -0.05559388 -0.06062216 0.23369955 -0.045627866

fc4.weight f4 [2, 20]
000000 d0 9c d1 3e c1 7e 66 3d 7d 9e ab bc 82 05 30 bb
       0.4093995 0.056273226 -0.020949597 -0.0026858752
000010 3d 59 9b be 72 39 34 be 83 6f 5d 3e 3a 11 8b bf
       -0.3034152 -0.17600039 0.2162457 -1.0864632
000020 e2 bf ba be 45 03 3b 3e 1f db 78 bc 42 63 81 be
       -0.3647452 0.18262966 -0.015188961 -0.2527104
000030 92 bd ca 3e 02 b2 b4 3e 98 7d 9a be b9 82 9a be
       0.39597756 0.3529206 -0.30173945 -0.30177858
000040 4d a7 55 be b7 8d 96 be a9 2f 82 be 2c fc 50 be
       -0.20864601 -0.29404995 -0.25426987 -0.20408696
000050 9f 39 08 be 89 3d d8 bd f5 79 84 3d 96 66 b8 3e
       -0.1330323 -0.10558612 0.06468574 0.36015767
000060 5d 22 75 3e 21 cf 70 3c f8 9a a7 be 29 7d 4a 3f
       0.2393889 0.014697821 -0.3273542 0.7909723
000070 18 6d 98 3e 01 26 9b be 17 08 23 ba c5 84 54 3d
       0.29770732 -0.30302432 -0.0006219162 0.05188443
000080 6e 0c a3 be aa 97 1c be e9 89 c2 3e 6f 66 72 3e
       -0.3184542 -0.1529223 0.37995842 0.23671888
000090 b5 ae 0c 3e 1a 98 99 3c 8c c7 b3 3c 5c 9b 41 3e
       0.1373852 0.018749285 0.021945737 0.18906921

fc4.bias f4 [2]
000000 4d c0 88 bd 17 fc 96 bc
       -0.066773035 -0.018430753
