SAGE/UNSW/UNSW_Defense/preprocessor/dnn_pytorch_gaussian_augmenter.pt (torch, 23636 bytes, 8 tensors)

fc1.weight f4 [50, 56]
000000 61 50 83 3e 4e 79 b2 3c 4e 08 3e 3e ad bc 57 bd
       0.25647262 0.021786358 0.18557855 -0.05267017
000010 3b 4e 80 be 9b 5e 8c 3d 58 5a 8e bd 88 ab 89 be
       -0.25059685 0.06853982 -0.069508255 -0.2688868
000020 20 84 66 3d be 54 b0 bd 28 86 8a 3e af 91 68 3d
       0.056278348 -0.08609913 0.27055478 0.05677956
000030 5e 2e ea 3c 98 17 49 3c ee 76 a1 be e5 df b5 3d
       0.028586563 0.012273692 -0.3153605 0.08880595
000040 20 28 20 bd 4d f2 06 3d b1 c9 60 bd d9 5a 7c 3c
       -0.039100766 0.03294592 -0.054879848 0.015402519
000050 26 7b 9d 3e d9 c5 84 be 08 b1 9a bd c1 35 8d be
       0.30758017 -0.25932196 -0.07553297 -0.27580073
000060 62 69 43 be 03 49 dd 3d 37 f4 18 be 9f 48 5d bd
       -0.19083169 0.108049415 -0.1493691 -0.054024335
000070 f4 c5 8c 3d a8 65 ca bd f2 6a 53 ba 0a c5 98 bd
       0.06873694 -0.09882671 -0.00080649473 -0.07459457
000080 54 0e a8 bc 9c c0 ae bb 90 e5 d8 bc d5 4c 29 3c
       -0.020514645 -0.0053330194 -0.026476651 0.01033326
000090 cf ff 63 bc 2d 78 da 3c a0 d9 04 3d aa 8d 80 bd
       -0.01391597 0.026668632 0.032434106 -0.0627702
0000a0 19 2e 15 3f c9 da b3 be 2e 67 52 be f1 0b 94 3d
       0.58273464 -0.35127857 -0.20547172 0.0722884
0000b0 07 3c a6 bd e9 78 47 be e9 ca 82 3d 89 bf 65 3e
       -0.08116918 -0.19479717 0.06386358 0.22436346
0000c0 ce 26 c9 3d 6d 47 c9 3d 84 ef 12 3d b0 d8 28 3c
       0.098218545 0.098280765 0.03587295 0.010305569
0000d0 99 6b a6 be b0 a8 51 3e 04 05 08 bd e3 03 9d bd
       -0.32503965 0.20474505 -0.03320791 -0.07666757
0000e0 1e 41 66 3e fb ab 3b bc 49 ea 50 3d ae da bb 3b
       0.22485778 -0.011454578 0.05100468 0.0057328558
0000f0 1d 71 b9 bd ee 94 9e 3d e0 24 83 be a3 50 bd bc
       -0.09054778 0.0774325 -0.2561407 -0.02310974
000100 78 1d ef bd dd a2 54 3e d4 c7 1b be 51 a1 76 bc
       -0.116755426 0.20765252 -0.15212947 -0.015053109
000110 26 f4 87 3d 09 07 9c 3d f2 03 f8 3d 2c 73 92 be
       0.066383645 0.07618529 0.121101275 -0.28603494
000120 20 4f a7 bd b7 b2 25 be 71 92 52 bd 1e 71 73 3d
       -0.08169389 -0.16181456 -0.05140919 0.05943405
000130 c5 30 0c be 4f 9e 8e 3e e5 0a ca bd 15 69 be 3e
       -0.13690479 0.27855155 -0.09865359 0.37189546
000140 19 78 dc 3e c4 30 88 be 45 77 84 3e 00 d5 8f 3d
       0.43060377 -0.26599705 0.25872245 0.070230484
000150 a0 e7 f5 bd 96 b8 b0 bd 98 d1 d9 3d fc 4b 61 bd
       -0.120070696 -0.08628957 0.1063568 -0.055004105
000160 bc 17 32 bd b4 e0 5c 3e 2d 1b b3 3d c4 06 f2 bc
       -0.043479666 0.21570092 0.08745418 -0.029544242
000170 fb 67 36 3e 38 21 05 be 72 08 a9 be c8 1c 96 3c
       0.17813103 -0.13000953 -0.33014256 0.01832427
000180 51 d4 9e bd b1 c2 2b 3e 0d e3 b3 3d aa ae 16 be
       -0.0775534 0.16773488 0.08783541 -0.14715067
000190 ca 7e 9a bd 52 47 47 bd 64 07 29 bd 50 90 3a be
       -0.07543714 -0.048652 -0.041266814 -0.18219113
0001a0 03 78 c6 3d a2 5e 4e be 8f 08 03 bd bc 73 ec bc
       0.09690859 -0.20153287 -0.031990584 -0.02886378
0001b0 bd 14 05 3d 8f 63 27 be 1b 95 dd bc d9 e2 f5 3d
       0.03249048 -0.16346572 -0.027048638 0.120061584
0001c0 2d 1f d4 be a1 ba 79 3d a7 dc 91 bd 88 74 96 bd
       -0.41430035 0.060969 -0.07122164 -0.07346445
0001d0 a4 aa 63 3e 4c d9 ab 3e b3 84 30 bf c3 4f 0f 3f
       0.22233063 0.33564222 -0.6895248 0.5598108
0001e0 b1 24 66 3d 85 00 43 3e f8 06 3b 3d 81 3f 05 be
       0.056187335 0.19043167 0.045660943 -0.13012506
0001f0 f2 7d ee 3d 4a 59 ec bd ae b9 a5 3d 97 32 a6 bd
       0.11645116 -0.11540468 0.08092056 -0.08115118
000200 67 58 61 bc 45 26 51 be e2 fa 16 3c 26 dd ae bb
       -0.013753987 -0.20424755 0.009215089 -0.0053364215
000210 b5 01 c8 bd e9 06 b5 bd 59 31 4e 3e ad de 52 3d
       -0.097659506 -0.08839209 0.20136012 0.05148189
000220 31 85 83 bd 77 cf 6a 3e d6 a8 15 be c0 b8 c2 ba
       -0.064218886 0.22930704 -0.14615187 -0.0014856085
000230 73 99 8d 3d 3a 21 0f 3c 5c 8a b6 3c 2b 8a bb 3d
       0.06914034 0.008735949 0.022282772 0.09157213
000240 a5 95 05 3e 14 80 96 3d 76 18 03 be 44 b8 9b bd
       0.13045366 0.07348648 -0.128023 -0.07603505
000250 6d 32 07 3e f3 20 fe bb fb 31 2a be ed 3a 04 bd
       0.1320283 -0.0077553927 -0.16620629 -0.03228276
000260 59 e8 8c be 1f 12 1f be 2f f7 ef 3d 30 ba 8e 3e
       -0.27521017 -0.15534256 0.117170684 0.27876425
000270 42 a4 9e 3e b4 75 b6 be 16 e0 98 3e 45 d3 57 3d
       0.30984694 -0.35636675 0.29858464 0.052691717
000280 61 d5 bd 3e 0a 8f 43 be 2f 3b db 3d 07 50 d7 bd
       0.37076858 -0.19097534 0.10704648 -0.10513311
000290 a7 c9 ba 3d 09 ac 7f 3d 14 68 81 3e 70 44 50 bc
       0.091204934 0.062419925 0.25274718 -0.012711629
0002a0 ae ed 0a bd 3f 96 5a 3e 24 48 13 be b9 fb bc 3d
       -0.033918075 0.21346377 -0.14382988 0.092277
0002b0 2f ba ad be 68 83 3c bc 29 ed 04 3e 3c 68 65 bc
       -0.3393111 -0.011505939 0.12981094 -0.014001902
0002c0 e7 b2 6c 3c c6 e9 ad 3c 29 42 4e bd 9c 23 00 be
       0.0144469505 0.021229636 -0.050356064 -0.12513584
0002d0 ec 3e 11 bd e2 28 b8 3e 54 7e 09 bd 04 a4 96 bd
       -0.035460398 0.3596869 -0.03356774 -0.07355502
0002e0 6d 4c 55 3d da 7a cf bd f1 7a a3 3d 72 de 8f be
       0.05207484 -0.10130854 0.079824336 -0.280994
0002f0 2f 2c 37 be 07 98 47 be b4 a7 4e bd b6 2e b9 bd
       -0.17887948 -0.19491588 -0.050452903 -0.090421125
000300 4c fa bd 3d 20 92 a6 bd 3c a6 27 3e 60 7c 45 3d
       0.09276256 -0.0813334 0.16372007 0.048214316
000310 1f 2d dc 3d 04 75 e4 bd 5f b8 28 be b9 02 1a 3e
       0.10750794 -0.111551315 -0.16476582 0.15040101
000320 f7 aa b9 bd df 45 24 3e 2f 7e dd 3d 7d da 1b bd
       -0.09065812 0.16042279 0.10815083 -0.038050164
000330 ff fb eb bc e8 0b 0e 3e 00 97 13 3e 3d 48 dd bc
       -0.028806685 0.1387173 0.1441307 -0.027011985
000340 ae bc 53 3d 97 ee 18 be 33 7b 8a be 4a 4a c0 bd
       0.05169361 -0.14934765 -0.2704712 -0.093891695
000350 ad b7 43 bc 8c 10 93 3e d2 77 74 be dd a0 95 3d
       -0.011945647 0.28723562 -0.23873833 0.07306073
000360 af 23 19 be 9a 3f 25 3f 4a ba 4a be f5 ef f6 3d
       -0.14955018 0.64550173 -0.19797626 0.12057487
000370 e5 d3 1c be 8b 08 be 3e 49 85 81 be cc 66 bc be
       -0.15315206 0.37115893 -0.25297 -0.36797178
000380 91 02 af be 66 e6 0f 3e 95 fa 6e be ec 0d fd 3b
       -0.34181646 0.14052734 -0.23337777 0.007722607
000390 de 54 06 bf 58 1a b5 be 18 8c ed 3d b4 21 31 bf
       -0.5247325 -0.3537166 0.115989864 -0.6919205
0003a0 1b 93 b3 3b 7f cc 13 3d 38 c5 96 be ae 1a c3 bd
       0.005480183 0.036083695 -0.2944734 -0.09526573
0003b0 3e 84 86 bd 82 1c 03 be aa 5a c4 3c 52 a6 a1 3c
       -0.06568192 -0.12803844 0.023969013 0.019732628
0003c0 10 5f d5 3d 7b 28 b0 be eb d4 23 3e ee 31 94 3d
       0.10418522 -0.34405884 0.1599919 0.07236086
0003d0 5c 19 32 be 44 71 78 bd ff 50 5e 3d 0b 88 99 3e
       -0.17392486 -0.060654894 0.054276463 0.29986605
0003e0 05 1e a9 3d 32 44 7c 3c 80 dc e1 3d be 56 ee 3d
       0.08257679 0.015397118 0.11028385 0.116376385
0003f0 ba 50 3f 3e fb 93 02 3c fe 74 ed 3d ee 34 38 be
       0.18683138 0.007969852 0.1159458 -0.17988941

fc1.bias f4 [50]
000000 8e a0 25 3e 06 78 d1 bd cf bd 99 bd 1e 1a 08 3e
       0.16174528 -0.10227971 -0.07506906 0.13291213
000010 83 3e ca bc 57 9b c9 bd cc 6a fc bd 09 f6 d1 3e
       -0.024688011 -0.09844082 -0.123250574 0.41008022
000020 1f 14 03 3e 32 40 a2 be 16 63 11 bd 0b ac 9b 3e
       0.12800644 -0.31689602 -0.035494886 0.30404696
000030 c6 ec 87 3d 83 9b a3 be d9 54 85 3e e0 27 05 3e
       0.06636958 -0.31954584 0.26041296 0.13003492
000040 ff 33 11 bf 88 b9 84 bc c6 58 ad 3c f2 11 a1 bd
       -0.56719965 -0.01620175 0.021160495 -0.07864751
000050 2e a8 91 bd 66 81 46 3c 9b a5 98 be a0 6d c9 be
       -0.07112156 0.012115812 -0.29813847 -0.3934145
000060 cb be 1f be b3 2f 0c 3e 99 0d 39 3d 0d 9c 25 be
       -0.15600125 0.13690071 0.045178983 -0.1617281
000070 a7 3b 1c be ff 0b 09 be dd aa c7 3d f8 b1 79 be
       -0.1525713 -0.13383482 0.097493865 -0.24384296
000080 f1 5b f8 bd 94 3e a9 bc e2 28 3a be a0 63 fa bc
       -0.121269114 -0.020659722 -0.18179658 -0.030565083
000090 55 4e 87 3e 04 55 68 be 8b 39 45 be a5 d0 66 be
       0.2642695 -0.22688681 -0.19260232 -0.22540529
0000a0 26 48 8c be 89 05 25 bd f5 fb b1 bd 30 08 09 bd
       -0.27398795 -0.04028848 -0.08690635 -0.033455074
0000b0 e4 b0 5d 3e 18 c2 ff bd 1a d7 45 bd ea 37 5a 3e
       0.2164951 -0.12488192 -0.04830084 0.21310392
0000c0 e4 a1 4a be 74 40 03 be
       -0.19788319 -0.12817556

fc2.weight f4 [30, 50]
000000 86 b2 12 bf 2f 6b 2d 3e 21 ec 6c 3e 35 69 93 3e
       -0.57303655 0.16935419 0.23136951 0.28791204
000010 22 c9 6c 3d b8 9c a6 3c 24 fe c0 be 72 46 b7 be
       0.057809003 0.020338401 -0.37693894 -0.35795933
000020 b9 cd e0 3d 4d 88 32 3d 68 90 2e 3e c5 8c 5b bf
       0.109767385 0.043587018 0.17047274 -0.8576167
000030 b7 65 9f bd 02 7a 74 3d 3c 49 96 bc 0e 86 0e be
       -0.077830724 0.05968667 -0.018345468 -0.13918325
000040 64 d5 52 bd eb 81 39 3d 4d 20 3e be 99 08 5c 3c
       -0.051473036 0.045289915 -0.1856701 0.013429784
000050 df 90 9c be c6 4c 6b 3e c3 aa 10 bd 35 f9 c6 3c
       -0.30579278 0.22978505 -0.0353191 0.024288753
000060 db e2 c9 be 4f 58 a3 bd 64 85 a0 bc 99 5a 7f be
       -0.3943089 -0.07975828 -0.019594856 -0.24936904
000070 92 a6 a7 bd 26 74 b8 3c b0 88 3c 3e 00 23 35 3e
       -0.08186068 0.022516321 0.18411517 0.17689133
000080 f2 11 28 be 20 22 a9 3c 55 70 13 3e ac c3 02 3e
       -0.16413096 0.020646155 0.1439832 0.12769955
000090 48 40 a0 3d da 43 b2 bd a1 91 81 3e 8b 39 3b be
       0.07824761 -0.08704348 0.2530642 -0.1828367
0000a0 e9 17 d0 3e b8 66 69 3d 77 94 8e 3e fd 88 32 be
       0.40643242 0.056982726 0.27847645 -0.1743507
0000b0 e0 3d 77 be ae a6 b3 3e 1a 3a 0d 3e 52 1a 85 3d
       -0.24144697 0.35088104 0.13791695 0.06499161
0000c0 42 69 39 3e c6 73 e1 3d c4 4d 6f bc cf c2 47 be
       0.18106559 0.1100841 -0.014605943 -0.19507907
0000d0 95 c8 fd bd 92 ab 6b be e7 34 02 3e a9 ed 89 bd
       -0.123917736 -0.23014668 0.12715493 -0.06734783
0000e0 02 d9 ba 3d 89 8d 65 3c a0 ce 6f 3d 97 1e 51 3d
       0.09123422 0.014010795 0.058546662 0.051054563
0000f0 88 f8 ab be de c9 9e 3e 9b c4 0e 3e ed 21 bb be
       -0.33588052 0.31013387 0.13942187 -0.3654932
000100 58 63 7d 3e 98 d1 0c 3e 51 b9 54 3e a6 2e b2 3e
       0.24744928 0.13751829 0.20773818 0.34801215
000110 f4 49 bf bd 7c d4 70 3e fb a8 92 3d b0 7a 8f bc
       -0.09340277 0.23518556 0.07161137 -0.017514557
000120 69 4c db bd 19 75 f9 bd 81 4b e1 3d 49 96 ec 3d
       -0.107079335 -0.12180538 0.11000729 0.11552102
000130 93 ea 56 3e cc bf 23 3e 53 0e 8b 3d 8f 1e 5c 3d
       0.2098792 0.15991133 0.067898415 0.05374008
000140 eb 42 0b 3d 9e a5 4d be a8 06 ce 3d 1d 65 5f bd
       0.033999365 -0.20082709 0.10059863 -0.05453979
000150 d2 d8 db bc 4c 8a 87 3c ee 20 bf be 62 82 49 3d
       -0.026836786 0.016545437 -0.3732981 0.04919661
000160 34 a4 2c be 02 45 2c 3e 91 72 08 be 4c 6a a9 be
       -0.16859514 0.168232 -0.13324954 -0.3308891
000170 7e 46 91 bc c9 24 82 3c 65 74 84 bd 39 d3 2a be
       -0.017733809 0.015886681 -0.06467513 -0.16682138
000180 b7 e1 43 3d 85 1c 04 be 90 35 62 be 00 0c 6e bb
       0.04782268 -0.12901504 -0.22090745 -0.003632307
000190 c6 e8 b0 bd 24 1e e3 bd 09 bc 97 be 4b c2 7b 3c
       -0.08638148 -0.11089733 -0.29635647 0.015366147
0001a0 d7 91 2a 3d 03 f7 53 3c 44 db 6f be c8 1c ab be
       0.04164299 0.01293731 -0.23423487 -0.33420396
0001b0 dd 74 2c 3e 29 d9 af bd 33 71 de 3d b9 0b c4 3d
       0.16841455 -0.08586342 0.10861435 0.095725484
0001c0 71 35 84 be 9c 9e 90 be d5 91 ff 3c f7 3e 60 3e
       -0.25822023 -0.2824601 0.031197468 0.21899019
0001d0 a2 b4 8d be 3c 6b 8f 3e d4 99 ed be c0 77 59 3d
       -0.27676874 0.280115 -0.46406424 0.053092718
0001e0 91 a9 51 be 69 5b 80 3d 19 90 cc bb 01 26 f7 bd
       -0.2047484 0.06267435 -0.0062427637 -0.120677955
0001f0 25 ef 6c 3e f0 57 67 3e a2 1b ca 3e be 0e 0b 3e
       0.23138101 0.22592139 0.39474207 0.13579842
000200 d7 10 63 3e 59 52 84 3e ed 5e c9 3d 50 2b db bd
       0.22174393 0.25844076 0.09832559 -0.107016206
000210 05 b4 c2 3d e6 f3 8c 3e 1b d4 e4 3d cc 8c 1f 3e
       0.09506992 0.2752983 0.111732684 0.15581053
000220 0c ad a4 3d 73 3d a9 3d ba c2 5f be 94 88 7d 3d
       0.080408186 0.08263674 -0.21851626 0.06189783
000230 d1 f5 44 be 38 22 dd be b1 e4 90 3d 9e 37 0a bc
       -0.19234397 -0.4319017 0.070748694 -0.008436112
000240 fc 51 4d bf 77 34 d4 bd ab 45 8d 3d b1 b2 41 be
       -0.80203223 -0.103615694 0.06898054 -0.18915822
000250 18 8e 46 be 88 b1 25 be 13 17 8b 3d bc 31 03 bf
       -0.19390142 -0.16181004 0.067915104 -0.51247764
000260 a1 67 87 3e 0c 8e 4b 3e bf 21 61 bc 01 5e 3d 3d
       0.2644625 0.19878405 -0.013740956 0.046232227
000270 3e d6 be 3d 95 7f 4d 3e 96 1f 80 3e 4a c8 35 3e
       0.09318207 0.200682 0.25024098 0.17752185
000280 a1 62 3d 3e 13 19 4d 3e 58 1c f4 3c 26 33 3d bf
       0.18494655 0.20029096 0.029798672 -0.7390617
000290 59 f8 df be 89 1b 90 3e 47 89 37 be 35 1b 21 bf
       -0.43744162 0.28146008 -0.17923461 -0.6293214
0002a0 d9 e0 99 3d b4 a2 03 be 6d 2c 55 3b ee 90 9e 3d
       0.075135894 -0.12855035 0.00325277 0.07742487
0002b0 fc cf d9 3c 53 69 15 be ee d4 63 3d e9 85 8f 3e
       0.026588432 -0.14590959 0.055622987 0.28031853
0002c0 cd 06 d9 3b 9a b0 07 3d a1 6f 86 be bb 63 0a bd
       0.006623125 0.033127405 -0.2625704 -0.033786517
0002d0 e0 ba af bb 5d b2 42 be 2a fe 80 be 93 05 de bd
       -0.0053628534 -0.19013353 -0.25193912 -0.10840907
0002e0 27 f7 72 bd be 56 cd 3e 8c 89 05 3e a9 60 22 be
       -0.059317734 0.40105242 0.13040751 -0.15857185
0002f0 76 28 bf 3d 67 66 b4 3c 2d 4d 29 bd 75 6c c1 be
       0.09333889 0.022021485 -0.041333366 -0.3777806
000300 49 d8 0a be b6 4e 12 bd 0b d2 dd bd 35 42 14 bd
       -0.13559069 -0.035719596 -0.10831078 -0.036195952
000310 dd 79 59 3e 0e ef e3 3d 6e 97 17 3e d4 7c 66 be
       0.21237893 0.111295804 0.1480386 -0.22508556
000320 e7 2a db bd a2 ae c9 3d d4 95 a5 bd bd 94 c7 bd
       -0.10701542 0.09847762 -0.08085218 -0.097451665
000330 e9 05 3e be 15 40 ff bd 0c b7 28 3e aa b8 ca be
       -0.18556942 -0.124633946 0.16476077 -0.39594012
000340 bc 9f af be 8f 0c bc 3c 72 7b 39 bf 8e 3e fc 3e
       -0.34301555 0.022955207 -0.7245399 0.49266475
000350 c7 78 1f bf 6d b9 55 3c ac ce 28 3d 19 f8 cf be
       -0.62293667 0.013044697 0.041212723 -0.4061897
000360 93 94 a3 3d 33 b6 55 3d 96 72 85 bd 04 55 59 bd
       0.07987323 0.05217571 -0.06515996 -0.053059593
000370 47 0a 21 3e 5f 20 04 be 67 27 75 be cb 32 17 bf
       0.15726577 -0.12902974 -0.23940812 -0.5906188
000380 a6 e4 58 be 71 f7 24 be 0b 3e 2a be 5e 30 0e 3e
       -0.21180972 -0.16110016 -0.1662523 0.13885638
000390 13 71 5e be 2b 8b 04 3f 12 a0 e6 bd 27 ee b2 bd
       -0.21722822 0.51774853 -0.11261 -0.0873683
0003a0 ab ef fb 3d e9 75 4e 3e 9d 04 41 bd 9a d4 0d be
       0.123015724 0.20162167 -0.04712354 -0.13850632
0003b0 60 23 88 be ab 03 04 3d 55 c9 92 bc e0 bc 08 3e
       -0.2658949 0.03223006 -0.017918268 0.133533
0003c0 e3 45 b0 be b2 f7 b4 3c 13 64 15 bf 46 35 f7 bb
       -0.3442832 0.022090767 -0.58355826 -0.0075441925
0003d0 9e 08 de be e3 cf c1 be 1a 3e 41 be 8f 4e 46 3d
       -0.4336595 -0.37853917 -0.18871346 0.048414763
0003e0 6f 3c 41 3c 6c 33 20 3b 41 e5 44 3d c0 26 83 be
       0.011794194 0.0024444712 0.048070196 -0.256155
0003f0 75 44 b4 be 7a df 9f 3e 4b 74 49 be b5 6e 2f bf
       -0.3520848 0.31225187 -0.19673268 -0.685283

fc2.bias f4 [30]
000000 13 6c 46 be 41 86 11 bd 1a 6f bc 3d f9 f6 a1 3e
       -0.19377165 -0.035528425 0.092008784 0.31633738
000010 02 18 be 3d 86 49 0d bd a3 cf ac bd 77 96 1e 3e
       0.09281923 -0.034493946 -0.08438041 0.15487085
000020 63 ba bf be 42 9d a6 bd 4e 4f 83 3c 18 aa 11 3d
       -0.3744689 -0.08135463 0.016029026 0.035562605
000030 3f 56 9c 3d 12 69 8c 3e 23 55 de 3e 09 b4 55 3e
       0.07633638 0.27423912 0.4342433 0.20869459
000040 a0 58 e3 bd 44 6e b0 3e 9d da 1d 3f 42 7b 35 bc
       -0.11100888 0.34459126 0.616617 -0.01107675
000050 d8 df 35 be a1 b6 0e 3e dd 1f 74 be f0 40 82 3e
       -0.17761171 0.13936855 -0.2384028 0.25440168
000060 80 ce e8 3e c9 b0 94 be 81 28 c5 3c 0e 2f ef bc
       0.45470047 -0.29041126 0.024067165 -0.029197242
000070 46 9e 2b be b6 39 86 be
       -0.16759595 -0.26215905

fc3.weight f4 [20, 30]
000000 53 76 c1 be 8d 4b 35 bd 57 79 18 be e3 3a 90 3e
       -0.37785587 -0.044261504 -0.14890037 0.28169927
000010 e2 b4 59 be 9f 75 47 be 29 c3 78 3e 11 ca 39 3e
       -0.21260408 -0.19478463 0.24293198 0.18143488
000020 49 02 eb bc 26 40 d3 bc d4 79 83 3e 36 bb 8b bc
       -0.028687613 -0.025787424 0.25678885 -0.017057043
000030 d8 f3 8b 3e 41 e5 0b be 61 47 92 3f 25 60 27 bd
       0.27334476 -0.13661672 1.1428033 -0.040863175
000040 15 26 de be 5e cd e4 be 08 04 9b 3d 11 83 31 3e
       -0.4338843 -0.44687933 0.07569128 0.17335154
000050 4b 2e c0 3d ed 11 21 be 5d 25 36 3e db 38 57 3e
       0.0938383 -0.15729494 0.1778769 0.21017782
000060 8e b9 42 3e 93 6a 41 be 4f 4c 25 bd e0 14 f7 be
       0.19016096 -0.18888311 -0.040355977 -0.48258114
000070 3d 6f 83 3e 82 d1 55 3d dd c2 a7 3e b1 b6 e0 3d
       0.25670806 0.052201755 0.32765856 0.109723456
000080 71 b9 43 3e 04 df 9d 3d 0e a1 1f 3e 0f 73 21 3e
       0.19113709 0.077085525 0.15588781 0.15766548
000090 a3 44 65 3d c1 26 d0 bd b7 f8 11 3d 75 98 ad 3d
       0.05597366 -0.10163642 0.035637584 0.084763445
0000a0 a6 6d 3d bf 84 44 d0 3d d4 b9 ab be 17 6e 30 3e
       -0.73995435 0.10169318 -0.33540213 0.17229496
0000b0 8e 30 8b bf 76 46 08 3e 49 bc 9a be 30 3d ff be
       -1.0874193 0.13308129 -0.30221775 -0.4985137
0000c0 9b 5a 2c 3e ef 94 8b 3d a8 bd 27 be 40 c4 06 3e
       0.16831438 0.06815516 -0.16380942 0.13160801
0000d0 9e 6a 2e 3d a7 45 64 bd 1b 90 81 be 1d 85 51 3e
       0.042582147 -0.05573049 -0.25305256 0.20460935
0000e0 5a 20 2b 3e 45 f6 1e 3e 55 b4 76 be 01 79 d7 bd
       0.1671156 0.15523632 -0.24092229 -0.105211265
0000f0 5a a8 87 be 1a 47 76 3e 8c 11 12 3e 82 b6 9d be
       -0.2649563 0.2405056 0.14264506 -0.30803305
000100 8f 91 c5 3e 70 e1 36 3e e9 ec 3c 3d f2 72 f8 3d
       0.38587615 0.17859435 0.046124373 0.12131299
000110 88 5c 24 3e da 36 5c 3e bd 9e cb 3c 2d 62 1b bb
       0.16050923 0.21505299 0.024855966 -0.002370964
000120 f4 25 cf be c6 4d 96 3e 91 18 65 bf e9 16 c4 bd
       -0.40458643 0.2935621 -0.8949061 -0.09574682
000130 3b 67 6a 3d 5a 28 79 3e 71 9f 48 bd 9a 14 ea bc
       0.057227354 0.24331799 -0.04898018 -0.028574277
000140 c7 ef 72 3d e3 95 51 3e 44 62 3f 3e cc 3b 53 be
       0.0593107 0.20467333 0.18689829 -0.2062828
000150 dd b0 42 bd 92 c4 49 3d b8 b6 d4 3c 63 06 69 3e
       -0.04753195 0.04925973 0.025966033 0.22756343
000160 53 fb 26 be 20 e4 2f bd 9c 8f 25 be a5 de f3 bc
       -0.1630681 -0.042942166 -0.16168064 -0.029769251
000170 32 61 ec bd b6 51 05 bd d3 f2 19 bd a7 80 11 bf
       -0.11541976 -0.03254863 -0.03758509 -0.5683693
000180 43 3e fd 3d 71 dd ab 3e 78 d1 63 be 76 51 85 3e
       0.12365391 0.33567384 -0.22247875 0.26038712
000190 ee 6c 32 3e 5d f3 b1 3d 5c 4d 0d 3f 7c 60 af 3e
       0.17424366 0.08688996 0.55196166 0.342533
0001a0 50 fb 85 3f f6 1e de 3d fe ee b1 be 1f 4f 82 be
       1.046732 0.10845749 -0.3475265 -0.2545099
0001b0 67 36 b3 3e bd 07 7b bd 08 6d e0 bd 31 0e 14 3e
       0.35002443 -0.061286677 -0.10958296 0.14458539
0001c0 f5 d0 17 3e 99 69 18 3e 4a 0a 97 3d 73 86 3a bf
       0.14825805 0.14884032 0.07375009 -0.72861403
0001d0 ea 2e ef bd d2 6b 48 be cf de 87 3d 44 ed e4 bc
       -0.1167887 -0.1957238 0.06634294 -0.027945168
0001e0 40 a9 bb be 3c 12 8c be ac 1f 43 be b7 60 2d 3e
       -0.36652565 -0.27357662 -0.1905505 0.16931425
0001f0 ae 43 be bd 10 79 6e be 42 e6 3c bd b5 40 9b be
       -0.092902526 -0.23288369 -0.04611803 -0.30322805
000200 a9 8a 82 be 9e a9 b5 3e 4f 21 17 3e ea 14 41 be
       -0.25496414 0.3548097 0.147588 -0.18855634
000210 ed b3 28 3e 07 c2 b7 3d c0 a1 76 3f ca aa 9b be
       0.16474886 0.08972555 0.9634056 -0.3040374
000220 8b 41 d8 be ee 7c 1b 3e 81 b0 e9 3d 56 f3 03 3e
       -0.42237505 0.15184376 0.114106186 0.12885794
000230 0b ff b6 be 1b 2c 7b be 64 2d ad 3d e5 c1 1e be
       -0.35741457 -0.24528544 0.08455923 -0.15503652
000240 cb bb 08 3e 46 a9 01 bf f6 81 bf 3d 5c 81 36 be
       0.13352887 -0.50648916 0.0935096 -0.17822784
000250 9f f3 8b 3e 62 35 f2 be 10 5c 90 be 6b 02 d8 bd
       0.27334306 -0.47306353 -0.28195238 -0.10547336
000260 c9 b7 88 be 3d 5e 02 3e 23 dd ac 3e 66 95 aa be
       -0.26702717 0.12731262 0.33762464 -0.33317107
000270 19 ec dc 3d 4a e6 2a be 66 94 81 3d 77 d9 39 3e
       0.107872196 -0.16689411 0.06327133 0.18149363
000280 ed 49 12 3c 6b e9 10 3d db 37 b1 3e 2f b5 0f be
       0.008928758 0.035378855 0.34612927 -0.1403396
000290 a7 e4 b0 3f 51 e1 66 3e 16 8b 09 bf f2 c4 8d be
       1.3819779 0.22546889 -0.53727853 -0.2768932
0002a0 a6 72 83 3e 29 43 6a be 7a 1b c6 bd d4 bb f6 3d
       0.25673407 -0.22877182 -0.096732095 0.12047544
0002b0 58 69 93 bc 24 a1 8b 3e 2d 17 70 3e 39 02 42 bd
       -0.017994568 0.27271378 0.23446341 -0.0473654
0002c0 a1 ad 91 be d7 86 55 be 15 a2 ee bb 67 88 3c be
       -0.2845278 -0.20852219 -0.0072825053 -0.18411408
0002d0 c4 b2 99 be 3a fb 25 bc c8 a2 41 bf 59 9c 86 bc
       -0.300192 -0.010130698 -0.7563901 -0.016431974
0002e0 8f d4 fc bc 2d 4b 7b 3e 49 ed ec 3d a4 2f c9 be
       -0.030863075 0.24540396 0.11568696 -0.3929416
0002f0 86 a8 2a be e7 b9 ab be 39 03 72 be b5 21 a1 3e
       -0.16665849 -0.3354027 -0.23634042 0.3147103
000300 3e 93 8a 3a 35 49 df bc 13 50 79 bf 07 49 2d 3e
       0.0010572446 -0.027256588 -0.9738781 0.16922389
000310 b2 77 64 be 93 42 ec 3d 4e 5c 9b 3d 5e e6 0e bf
       -0.22311285 0.115361355 0.07585965 -0.5582026
000320 4f 66 66 3e f3 1b 42 be 41 f8 cf 3d 88 04 79 be
       0.22499965 -0.18955974 0.101547725 -0.24318135
000330 18 0e 28 3e 60 a3 54 3d 06 07 93 3e df 0a d9 3d
       0.16411626 0.05191362 0.28716296 0.105977766
000340 57 e9 00 3c 41 b4 0b be 7b 35 6f 3e f6 30 6d 3d
       0.007868133 -0.1364298 0.23360245 0.05790802
000350 99 48 93 3e 47 0c 0d 3e 87 e0 ed 3e 3d 5a 86 3c
       0.28766325 0.13774215 0.46460363 0.01640045
000360 8c 8d 6f 3d 03 12 87 be b6 d9 d7 3d 23 a0 1c 3e
       0.0584846 -0.2638093 0.10539572 0.15295462
000370 62 c4 a7 be ed 93 b4 bd 88 3a cb bd b3 ca 01 3e
       -0.32767016 -0.08817277 -0.09923273 0.1267498
000380 47 03 91 bf ca 46 7f 3e 0d a7 13 3e c7 87 8c be
       -1.1329125 0.24929348 0.14419194 -0.2744734
000390 47 d5 c1 bd 3b cc 8b 3d b9 48 ca 3b d2 4d 9a 3e
       -0.094645076 0.06826063 0.00617322 0.30137497
0003a0 d1 f7 c8 3d c1 44 82 3e 43 8e f0 bd 0e 69 a9 3e
       0.09812892 0.2544308 -0.11745884 0.33087963
0003b0 b2 b4 4c 3e 42 00 a8 3d aa 13 11 3e 8e 49 e6 3c
       0.19990805 0.08203174 0.14167657 0.028111245
0003c0 8e df de 3c 29 2b 49 bc bf 0a fa 3d 12 8a 32 be
       0.027206209 -0.012278357 0.12209081 -0.17435482
0003d0 fb bc a8 bd f5 c5 91 3e 23 c1 e4 3d 7a 18 be 3d
       -0.0823917 0.28471342 0.111696504 0.09282012
0003e0 dd fb 96 bd 0e 5e ba be f8 e2 29 be c2 44 95 3d
       -0.07372258 -0.36399883 -0.16590488 0.07288505
0003f0 0b 30 df be 1f c5 9e 3e a2 6b 50 bf 0c 86 55 be
       -0.4359134 0.31009766 -0.81414235 -0.20851916

fc3.bias f4 [20]
000000 84 6c 94 3e 11 9e 03 be f8 6f dd 3d bb 1c fc 3d
       0.2898904 -0.12853266 0.10812372 0.123101674
000010 b7 57 71 3e 7a e4 e5 3e ca 74 ca be 58 ef c2 be
       0.23568617 0.44900876 -0.39542228 -0.3807323
000020 22 96 23 3e 4c 25 4d bd a4 c9 b3 3e 09 31 9c 3e
       0.1597524 -0.050084397 0.35114777 0.3050616
000030 7d 41 22 3e 17 e9 3c 3e de 28 82 3e 8d 8b d5 3d
       0.15845294 0.18448292 0.25421804 0.10427008
000040 4a ae 60 3d 4f f3 c7 be 3d 60 e3 bd b2 a0 45 3e
       0.054853715 -0.39052817 -0.1110234 0.19299582

fc4.weight f4 [2, 20]
000000 d5 69 36 be 33 8f 73 3e 39 19 76 3e e1 2b c0 be
       -0.17813809 0.23785095 0.24033059 -0.37533477
000010 1c 8a 23 bf 04 a6 01 bf cc aa 94 3e 00 12 8c 3d
       -0.63882613 -0.50643945 0.29036558 0.06839371
000020 90 5b c3 3d b9 d6 34 3e 4d 7b 71 3f 65 b5 d2 bd
       0.095389485 0.17660035 0.9432877 -0.102885045
000030 36 f7 63 be 2d 46 8e 3e 3f bc 29 bf 33 53 8d be
       -0.22262272 0.27787915 -0.66302866 -0.27602538
000040 c3 2c d9 be 8f 87 8f be cc 59 4e 3f 75 57 6b 3f
       -0.42416963 -0.2803311 0.8060577 0.91930324
000050 ab a9 94 3e 71 44 87 bb 6c 49 28 bd ec 53 cf 3e
       0.29035696 -0.004128032 -0.041085646 0.40493715
000060 90 49 55 3f 5a 8d 29 3e 47 d6 b1 be a8 52 e4 be
       0.8331537 0.16557828 -0.34733793 -0.44594312
000070 af 99 5f be 2c 0f ab bd 04 73 78 bf e9 20 93 3e
       -0.2183597 -0.08352503 -0.970505 0.28736046
000080 17 91 1b 3e ac 34 7b be 49 46 09 3f 81 ea 17 3e
       0.15192066 -0.24531811 0.5362287 0.1483555
000090 2d 1b 9a 3e 6c ac cb 3e b1 f7 5e bf 9e e2 5d bf
       0.30098858 0.39779985 -0.870967 -0.86673915

fc4.bias f4 [2]
000000 56 4e bd 3d 9b 9c 0c 3e
       0.09243457 0.13731615
