Sample_Based_Extension/WUSTL/WUSTL_Defense/TRADES/TRADES.pt (torch, 20596 bytes, 8 tensors)

fc1.weight f4 [50, 42]
0	0xbc8d6be4	-0.01726336
1	0xbce3581b	-0.027751973
2	0x3e717c04	0.23582464
3	0x3d6caebb	0.057783823
4	0xbb8e44cc	-0.0043416973
5	0x3c3c45f3	0.011491287
6	0xbc3cbdf9	-0.011519902
7	0x3ce22560	0.027605712
8	0x3bead124	0.007166045
9	0x3bb17fa4	0.0054168273
10	0x3ca3deec	0.020003758
11	0xbd2eedd6	-0.042707287
12	0xbc8e8700	-0.017398357
13	0x3d3db930	0.046319187
14	0x3d1e2c66	0.03861656
15	0x3e7e144b	0.24812429
16	0x3dd669eb	0.10469421
17	0x3d560895	0.05225428
18	0x3f7e7766	0.9940094
19	0xbbd53ad0	-0.006507255
20	0x3cae9dcd	0.02131548
21	0xbd3199e2	-0.043359645
22	0x3c52ba37	0.01286178
23	0x3ce058dc	0.027386121
24	0x3c28ecdd	0.010310379
25	0xbb0285e7	-0.0019916238
26	0xbcb1936c	-0.021676742
27	0xbe08bae0	-0.13352537
28	0x3e071074	0.1318987
29	0x3dc11a4b	0.09428843
30	0x3c070e14	0.008243103
31	0x3eb1c407	0.3471987
32	0x3dc4d879	0.096116014
33	0x3e0777ab	0.13229243
34	0xbd1a53d1	-0.03767759
35	0x372790f8	9.987729e-06
36	0x3d040e60	0.03224027
37	0x3cc1da64	0.023663707
38	0x3cb8104e	0.022468712
39	0x3d88a347	0.06671768
40	0x3c1b961c	0.009496238
41	0xbead633b	-0.3386477
42	0xbd078ba4	-0.033092156
43	0x3d2aec45	0.04172923
44	0xbd581699	-0.052755926
45	0x3c4ce7d9	0.012506449
46	0x3cbc056b	0.022951802
47	0x3cabd846	0.02097715
48	0x3dbfe6bc	0.09370181
49	0x3a6569c2	0.0008751416
50	0x3d43441f	0.047672387
51	0x3e0e5cba	0.1390256
52	0x3d361a2e	0.04445856
53	0x3df98735	0.12183992
54	0x3e0d4c7c	0.13798708
55	0x3c00cb32	0.007860946
56	0x3c02dc20	0.007987052
57	0xbca38ee5	-0.019965598
58	0x3a845208	0.0010095248
59	0x3cce2781	0.025165321
60	0xbeb02603	-0.34404
61	0x3cd5201c	0.026016288
62	0x3d8b771e	0.06809829
63	0xbdda6a59	-0.106648155
64	0x3d1c8d3a	0.03822062
65	0xbbfa2813	-0.0076341718
66	0x3c8370dc	0.016045026
67	0x3cb3c627	0.021945072
68	0x3e797c0b	0.24363725
69	0x3e058975	0.13040717
70	0x3dc66fc4	0.09689286
71	0x3dbf832d	0.09351192
72	0xbd52f62e	-0.051504306
73	0xbd84ce2e	-0.06484638
74	0xbe3c6cb6	-0.18400845
75	0x3be3342c	0.0069337096
76	0x3e06dd0d	0.13170262
77	0x3d22bb8e	0.039729647
78	0x3c4c67a9	0.012475886
79	0x3e10ed2a	0.14152971
80	0xbc766282	-0.0150381345
81	0xbe79b9dc	-0.24387306
82	0x3cefb7ad	0.029262388
83	0xbf51f05a	-0.8200737
84	0x3d7e00a5	0.062012333
85	0xbcd5ef11	-0.026114972
86	0x3e154317	0.14576374
87	0xbd286231	-0.041109268
88	0xbc5fa07e	-0.013649104
89	0xbd397909	-0.045281444
90	0xbe2b5284	-0.16730696
91	0xbd57fcfd	-0.052731503
92	0xbce69ced	-0.028151
93	0x3d45ae9c	0.048262224
94	0xbcced92d	-0.025250042
95	0x3db51a5f	0.088429205
96	0x3d22096c	0.039559767
97	0xbd4eb13c	-0.050461993
98	0x3cd30b21	0.025762143
99	0x3eb5c0ab	0.35498556
100	0x3c0b19a4	0.00849
101	0xbd06f7a0	-0.032950997
102	0x3e82ced6	0.25548428
103	0xbac02739	-0.0014660127
104	0xbc0ed467	-0.008717633
105	0x3e2a4e6f	0.16631483
106	0x3c5c933a	0.013462836
107	0x3b418b66	0.002953255
108	0xbcc7d55f	-0.024393735
109	0xbcab7b00	-0.020932674
110	0x3d3fada5	0.04679646
111	0xbd8a428c	-0.06750974
112	0x3ccb9a59	0.024853872
113	0x3d63e46d	0.055637766
114	0x3d9538cc	0.07286224
115	0xbf22984d	-0.6351364
116	0x3ed351ab	0.41273245
117	0x3e191a5c	0.14951462
118	0xbdf96072	-0.121765986
119	0xbc23e5c1	-0.010003508
120	0x3bce9160	0.006303951
121	0xbe112145	-0.14172848
122	0x3d9c2c9d	0.07625697
123	0x3e0776f0	0.13228965
124	0xbcef2e45	-0.029196868
125	0xbe40640b	-0.18788163
126	0xbc920c1a	-0.017828036
127	0xbcf83363	-0.03029794
128	0xbee65a34	-0.44990695
129	0xbcb04480	-0.021517038
130	0xbc701bae	-0.014655037
131	0xbcc9c213	-0.024628675
132	0xbceb93bd	-0.02875697
133	0xbc8126b4	-0.015765525
134	0xbc4b8d66	-0.012423849
135	0x3d7ee2f4	0.062228158
136	0xbd8ffe90	-0.07030976
137	0x3cc7905a	0.024360824
138	0xbde785df	-0.11304831
139	0xbd4c85d7	-0.049932327
140	0x3cfc5ced	0.03080603
141	0x3e8eb493	0.27872142
142	0x3e2d4007	0.16918956
143	0xbcb824ea	-0.02247854
144	0xbf8e08a8	-1.1096392
145	0xbcbbe069	-0.022934156
146	0xbd2d7ae1	-0.042353515
147	0xbd869ff0	-0.065734744
148	0xbd37ad79	-0.04484317
149	0xbd7037f6	-0.05864712
150	0xbcb70b31	-0.022344204
151	0x3bb06afb	0.005383847
152	0x3ea85a23	0.3288127
153	0x3df34d89	0.11880023
154	0x3e2ec948	0.1706897
155	0x3e1e211b	0.15442316
156	0x3de237f2	0.11045827
157	0xbf045352	-0.51689637
158	0x3ed4b4f8	0.41544318
159	0x3d4ab965	0.049493212
160	0xbc6fd0bb	-0.014637168
161	0xbd0b7561	-0.034047488
162	0xbd0f4253	-0.03497536
163	0x3e057e75	0.13036521
164	0x3b0bc6f8	0.0021328311
165	0x3d3fd0c5	0.046829958
166	0xbd072585	-0.032994766
167	0x3e56aaf2	0.20963648
168	0xbd529854	-0.051414803
169	0x3dd69d34	0.10479203
170	0xbe1e477a	-0.15456954
171	0xbcf497db	-0.029857567
172	0x3cf69340	0.030099511
173	0xbd170c1b	-0.03687678
174	0x3d28042b	0.0410196
175	0xbd6c3620	-0.057668805
176	0x3c9ad03c	0.018898122
177	0xbe58c723	-0.21169715
178	0x3be77184	0.0070630927
179	0xbdd3f897	-0.10350149
180	0xbc2889b8	-0.010286741
181	0x3bb45c6a	0.0055041807
182	0x3cb3b411	0.021936448
183	0x3bd470ed	0.0064831884
184	0x3c27831a	0.010224128
185	0xbcdaf784	-0.026729353
186	0x3dd82e34	0.105556875
187	0xbda7ab96	-0.08187024
188	0xbd3d090d	-0.04615121
189	0xbdc1f1e2	-0.094699636
190	0xbddde737	-0.10835116
191	0xbcf499c3	-0.029858476
192	0xbc9cbbf3	-0.01913259
193	0x3ce3e87d	0.02782082
194	0x3e7cb8ea	0.24679914
195	0x3eae12de	0.3399877
196	0x3e9a27fe	0.30108637
197	0x3eaf67b3	0.34258804
198	0xbe327a60	-0.17429495
199	0x3f1cc071	0.6123114
200	0xbea18ebb	-0.31554207
201	0xbe0cfe21	-0.13768817
202	0xbdb46ac0	-0.088094234
203	0xbc0325c8	-0.008004613
204	0x3da3def1	0.08001507
205	0x3e940c84	0.289158
206	0xbe3f9dbc	-0.18712515
207	0x3dfc84ff	0.123300545
208	0x3d89368e	0.066998586
209	0xbe1ae0dc	-0.1512484
210	0xbdb8ce33	-0.090237044
211	0xbc09374a	-0.008374998
212	0xbda60857	-0.081070594
213	0xbd4ef112	-0.05052287
214	0xbd367a44	-0.044550195
215	0xbc5ec71e	-0.013597278
216	0x3e0ae12d	0.1356246
217	0x3a8c22bc	0.0010691504
218	0xbc9555a4	-0.018229313
219	0xbdcf8e8e	-0.10134612
220	0xbb5852d1	-0.0033008347
221	0x3d1c88c0	0.038216352
222	0xbdea7a9b	-0.114491664
223	0x3da7e3a9	0.081977196
224	0xbb1eaf22	-0.0024213274
225	0x3ed44257	0.41456863
226	0x3e7633f9	0.24043263
227	0xbd115b35	-0.035487372
228	0x3e23aa3b	0.15982907
229	0x3d294def	0.04133409
230	0x3b5c8eb2	0.003365439
231	0x3dd32f91	0.10311807
232	0xbcb632f6	-0.022241097
233	0x3cc6d1f7	0.02427004
234	0xbc9091c4	-0.017647631
235	0xbdd547e2	-0.10414101
236	0x3ded841b	0.11597463
237	0x3c9ae1ac	0.018906437
238	0xbe31f63e	-0.1737909
239	0xbe1b832a	-0.15186754
240	0x3dd421c5	0.103580035
241	0x3f558dd5	0.83419544
242	0x3e98f460	0.29873943
243	0x3dc2faa3	0.095204614
244	0x3dd7ca4a	0.105366305
245	0x3d1417c8	0.036155492
246	0xbd1ad81f	-0.037803765
247	0xbe5c5c22	-0.21519521
248	0x3e022d48	0.12712586
249	0x3d2cb068	0.04216042
250	0xbadeb11d	-0.001699004
251	0xbe3646b7	-0.17800413
252	0x3d96f5b4	0.07371083
253	0xbd8b390a	-0.06797989
254	0x3a955502	0.0011393132
255	0xbd4194c0	-0.047261

fc1.bias f4 [50]
0	0x3e5a2cbd	0.21306129
1	0x3ed71863	0.42010793
2	0x3e5189a5	0.20462663
3	0x3e290cf0	0.16508842
4	0xbdf1b32c	-0.118017524
5	0x3cf96c8b	0.030447265
6	0x3ddc6434	0.107613
7	0x3e034903	0.1282082
8	0x3e228c32	0.15873793
9	0x3db24b76	0.08705799
10	0xbe66ec01	-0.22550966
11	0x3eef4ccf	0.46738288
12	0x3e00d4cb	0.12581174
13	0xbe13b2d4	-0.14423686
14	0x3e623edd	0.22094293
15	0x3e72e1f8	0.23719013
16	0xbda3202a	-0.07965119
17	0xbe36ec9b	-0.17863695
18	0xbdba3456	-0.090920135
19	0x3e64465a	0.22292462
20	0x3e4e614e	0.20154306
21	0xbd67d19e	-0.05659639
22	0xbe596ce8	-0.2123295
23	0xbe7212e3	-0.23640017
24	0x3dcff0cf	0.101533525
25	0x3e09a7fd	0.13442989
26	0xbe62ff14	-0.22167617
27	0xbe7174b1	-0.2357967
28	0x3df43218	0.11923617
29	0xbd608dea	-0.05482284
30	0xbd9c7794	-0.07639995
31	0x3aa42de9	0.0012525889
32	0xbe77c13d	-0.24194808
33	0xbd4916a4	-0.049093857
34	0x3e8ffc99	0.28122404
35	0xbdab7744	-0.083723575
36	0x3e51bfbd	0.20483299
37	0xbe32c6f7	-0.17458712
38	0x3d93e9f1	0.07222355
39	0x3e8a2e51	0.26988462
40	0xbe502914	-0.2032817
41	0xbcd5222a	-0.026017267
42	0xbe10d14f	-0.14142345
43	0x3b36fcc3	0.0027921654
44	0x3eab310e	0.33435863
45	0xbd38126b	-0.04493944
46	0xbe99597c	-0.29951084
47	0xbe3d1846	-0.18466291
48	0x3ed25d60	0.41086864
49	0x3e9c1b87	0.30489752

fc2.weight f4 [30, 50]
0	0x3de4f238	0.11179012
1	0x3f474015	0.77832156
2	0x3e40226d	0.18763132
3	0xbe4cace6	-0.1998783
4	0x3c9f1b23	0.01942212
5	0x3dc9bbcd	0.09850273
6	0x3d772562	0.060338385
7	0x3eb590cd	0.35462037
8	0x3e34f78c	0.17672557
9	0x3ecf7e4a	0.40526038
10	0x3d40711a	0.046982862
11	0xbe238b6d	-0.15971155
12	0x3dd28770	0.10279739
13	0x3e93e345	0.2888433
14	0xbeeeb4bf	-0.46622273
15	0x3e34ff0f	0.17675422
16	0x3e06b3d8	0.13154542
17	0xbd84b94d	-0.06480656
18	0x3f31e392	0.6948787
19	0xbe8ef0e6	-0.27918166
20	0x3ecf74ff	0.40518948
21	0x3d4c2958	0.049844116
22	0x3e81234c	0.25222242
23	0x3ea9b2cb	0.3314422
24	0x3f0e7d22	0.5565969
25	0x3e1b5a29	0.15171112
26	0xbdca2bcb	-0.09871634
27	0x3e49fdcd	0.19725724
28	0x3ef9cce4	0.48789132
29	0x3e04c91b	0.1296734
30	0xbdbaf790	-0.0912925
31	0x3b33cb6d	0.0027434484
32	0x3ee18c37	0.44052288
33	0x3e95c170	0.29249144
34	0x3eaaae7c	0.33336246
35	0x3e907741	0.28215984
36	0x3ed39730	0.41326284
37	0x3de3daac	0.11125693
38	0xbeb8b951	-0.36078885
39	0xbce53fae	-0.027984466
40	0xbd4f2042	-0.050567873
41	0xbd16fadc	-0.036860332
42	0xbd7a7c4e	-0.061153702
43	0x3ef2670d	0.47344247
44	0x3e319e4c	0.17345542
45	0xbeb98c70	-0.36239958
46	0x3f461a43	0.7738382
47	0x3e4896d3	0.19588785
48	0xbe3375f9	-0.17525472
49	0x3ec02b5e	0.37533087
50	0xbf86e926	-1.0539901
51	0xbf689771	-0.9085608
52	0xbbc6bd96	-0.006065081
53	0x3ecf4efe	0.40489954
54	0x3df3337f	0.118750565
55	0xbf09ec9e	-0.53876674
56	0x3e742638	0.23842704
57	0xbf0a4f35	-0.5402711
58	0xbde7d7a6	-0.113204286
59	0x3f050b8e	0.51970756
60	0xbe8c6cd9	-0.27426794
61	0x3f685177	0.90749305
62	0xbb8b5fc4	-0.0042533595
63	0x3e51d80c	0.20492572
64	0x3e001e35	0.12511523
65	0x3e239417	0.1597446
66	0x3f07c695	0.5303739
67	0xbddf3345	-0.10898451
68	0x3f460a83	0.7735979
69	0xbe39a46d	-0.1812913
70	0xbef77652	-0.4833246
71	0x3e299f47	0.16564666
72	0xbf8c305a	-1.0952256
73	0x3e2b04a8	0.16700995
74	0xbd5c2ecc	-0.053755566
75	0xbf00d57d	-0.5032576
76	0x3b153a44	0.0022770325
77	0xbf112a95	-0.567056
78	0xbe30b6be	-0.1725721
79	0xbd03e4e1	-0.032200698
80	0x3e58d50f	0.21175025
81	0x3eb50e96	0.3536269
82	0x3f5dae20	0.8659382
83	0x3e45704f	0.19281124
84	0xbd8670ff	-0.06564521
85	0x3e957343	0.291895
86	0xbe9b06de	-0.30278677
87	0xbdcfc8c8	-0.10145718
88	0x3ed0a839	0.40753344
89	0xbf9da2e7	-1.2315339
90	0xbd3ad49c	-0.045612916
91	0x3e9440b2	0.2895561
92	0xbc91b326	-0.01778562
93	0x3e37e83d	0.17959686
94	0x3eb4f072	0.35339695
95	0x3f014347	0.5049328
96	0x3e6907dc	0.22756904
97	0x3e85beeb	0.2612222
98	0x3f2ad262	0.6672727
99	0x3c477e31	0.0121760825
100	0xbb469845	-0.0030303162
101	0x3f0e9452	0.5569507
102	0x3cf4ffdf	0.029907165
103	0xbcfa17cb	-0.030528923
104	0x3e558d94	0.20854789
105	0xbd92bad3	-0.0716454
106	0x3d778da7	0.060437825
107	0x3e34d185	0.1765805
108	0x3d18a01b	0.037262063
109	0x3f1e97ef	0.6195058
110	0x3e6c9740	0.23104572
111	0x3eab8863	0.33502492
112	0xbd8ed3db	-0.06974002
113	0x3e7fc0bc	0.24975866
114	0xbecfe3a3	-0.4060336
115	0x3e76528f	0.24054931
116	0x3ee01426	0.43765372
117	0xbc580946	-0.013185805
118	0x3f13870d	0.57627946
119	0xbefa09ab	-0.488355
120	0xbbf7fd1c	-0.007568015
121	0xbe60ec3a	-0.21965113
122	0xbe3ad6a4	-0.18245941
123	0x3dd25616	0.10270326
124	0x3f326c1c	0.6969621
125	0xbd2b55a4	-0.04182972
126	0xbe3bef43	-0.1835299
127	0x3e44dfa5	0.19225939
128	0x3f1a574a	0.6028944
129	0xbda4bd4a	-0.080439165
130	0xbe3367ae	-0.1752002
131	0x3ed71f13	0.42015895
132	0x3e5e111b	0.21686213
133	0x3e8bf2e1	0.2733374
134	0xbbd38c9b	-0.0064559705
135	0x3ef9b075	0.4876744
136	0x3ed45bac	0.4147619
137	0x3bf5f835	0.007506395
138	0xbe55efdc	-0.2089228
139	0x3e36e3ed	0.17860384
140	0xbe420a88	-0.1894933
141	0xbd4a0166	-0.04931774
142	0xbdc1981b	-0.0945284
143	0x3eac9ea6	0.3371479
144	0xbca51560	-0.020151794
145	0x3cf6939d	0.030099684
146	0x3ed3de70	0.41380644
147	0xbc9bec2c	-0.019033514
148	0xbdeb658a	-0.114939764
149	0x3e9ca571	0.30594972
150	0x3f20c155	0.62795
151	0xbe5215bb	-0.20516102
152	0xbdb76e1a	-0.08956547
153	0xbe9729ea	-0.29524165
154	0xbdaed59f	-0.08536839
155	0x3ed9add0	0.4251542
156	0xbe9abd25	-0.3022243
157	0x3f1ef59b	0.62093514
158	0x3e617e4b	0.22020833
159	0xbdd912c1	-0.1059928
160	0x3e83b984	0.25727475
161	0xbfa5db36	-1.2957523
162	0xbd90ca98	-0.07069892
163	0xbe5e1e84	-0.21691328
164	0x3e58ca81	0.21170999
165	0xbe80631d	-0.25075617
166	0xbdd9204d	-0.10601864
167	0xbd9577b3	-0.072982214
168	0xbf12a6e8	-0.5728593
169	0x3ed56f87	0.4168665
170	0x3ea6b602	0.32560736
171	0x3eb71a0a	0.35762054
172	0x3e019356	0.1265386
173	0x3e8f63c0	0.2800579
174	0x3caccbf7	0.021093352
175	0x3efc5676	0.49284714
176	0x3e8fa420	0.28054905
177	0x3e6afc55	0.2294782
178	0xbeb9f0e0	-0.36316586
179	0xbc1dc6d0	-0.00962992
180	0x3e96c4b5	0.2944695
181	0xbe977c06	-0.2958681
182	0x3ddbfd90	0.107417226
183	0x3e59c7dc	0.21267647
184	0xbf4414a7	-0.7659401
185	0x3e0a2e1a	0.13494149
186	0x3ebdcff8	0.3707273
187	0x3e3612c8	0.17780602
188	0x3c8c4dcc	0.01712694
189	0x3e97bc42	0.29635817
190	0x3e9e42fd	0.30910483
191	0xbe969aaa	-0.29414874
192	0x3e4134d9	0.18867816
193	0xbdda1f29	-0.106504746
194	0xbed3f51f	-0.4139795
195	0x3dc77062	0.09738232
196	0xbec38ca3	-0.38193235
197	0x3e7a09aa	0.24417749
198	0xbf8210ea	-1.0161412
199	0x3e8a6c2e	0.2703566
200	0x3e938088	0.28809
201	0x3e54a5ac	0.20766324
202	0xbe2c9b03	-0.16856007
203	0x3dd3997b	0.103320085
204	0x3ea1e632	0.31620938
205	0x3e92752f	0.2860503
206	0xbeb9738d	-0.3622097
207	0x3e29052a	0.16505876
208	0x3e93edad	0.2889227
209	0xbf3b1a4f	-0.7308702
210	0x3d60cefb	0.054884892
211	0xbf09a2df	-0.53764147
212	0xbc904971	-0.017613145
213	0x3e33f1f7	0.17572771
214	0xbe9ddfc0	-0.3083477
215	0xbef2b0da	-0.47400552
216	0x3e1e94c7	0.15486442
217	0x3be900b4	0.0071106795
218	0xbf4788c6	-0.77943075
219	0x3e8ae059	0.2712429
220	0x3cd62e38	0.026145086
221	0x3ecc59b6	0.39912194
222	0x3f4d90d9	0.80299145
223	0x3e7e181d	0.24813886
224	0xbcd09764	-0.025462814
225	0x3e95b243	0.29237565
226	0x3e3c9465	0.18415983
227	0x3eb9a7eb	0.36260924
228	0xbeb84aee	-0.35994667
229	0xbc40ea0d	-0.011774552
230	0x3e44bd4a	0.19212833
231	0x3ec069dd	0.37580767
232	0xbf014dcc	-0.50509334
233	0x3da8dd2e	0.08245312
234	0xbf15a4fa	-0.5845486
235	0xbdae891e	-0.08522247
236	0x3e16a3d4	0.14710933
237	0x3ea127f2	0.31475788
238	0x3e982b53	0.29720554
239	0xbe803efd	-0.25048056
240	0x3e9ba1fb	0.3039702
241	0xbe3974b9	-0.18110932
242	0x3e7f1025	0.24908502
243	0xbe66e48e	-0.22548124
244	0xbe86dff9	-0.26342753
245	0x3eaca130	0.33716726
246	0x3f23efd9	0.64037853
247	0x3def1711	0.116743214
248	0xbef2a854	-0.4739405
249	0xbd9706e4	-0.07374361
250	0xbe2d497d	-0.16922565
251	0xbf95cbba	-1.1702797
252	0x3dc30b60	0.09523654
253	0xbe0f99bc	-0.14023489
254	0xbe275964	-0.16342694
255	0xbc788d98	-0.015170477

fc2.bias f4 [30]
0	0xbd1148fc	-0.035469994
1	0xbc29e201	-0.010368825
2	0xbdb135c8	-0.08652836
3	0x3dbde83d	0.092728116
4	0x3e373f55	0.17895253
5	0x3e823b37	0.25435802
6	0xbe76c782	-0.24099544
7	0x3c8a2af5	0.016866187
8	0xbe8ef0ec	-0.27918184
9	0x3d5fcd1c	0.054638967
10	0xbe31504d	-0.17315789
11	0xbe8afea6	-0.27147406
12	0xbdf0e25a	-0.11761923
13	0x3db32560	0.08747363
14	0xbe5eb3d2	-0.21748284
15	0x3d5f54c7	0.05452421
16	0x3c621ed0	0.013801292
17	0x3e85f4f3	0.26163444
18	0xbe262e7f	-0.16228674
19	0x3e0c1a45	0.13681896
20	0x3e9f5173	0.31116828
21	0xbd0c5c60	-0.034267783
22	0xbde8443f	-0.11341142
23	0xbdbffdd2	-0.09374584
24	0xbd46a004	-0.048492447
25	0x3e85b0a8	0.2611134
26	0xbda08a88	-0.07838923
27	0xbde7532e	-0.11295162
28	0xbc7e25e6	-0.015511965
29	0x3c671185	0.014103298

fc3.weight f4 [20, 30]
0	0x3eea8d30	0.45810843
1	0x3f32f5fd	0.699066
2	0x3e761ea8	0.24035132
3	0xbe9c230d	-0.30495492
4	0xbdee8b47	-0.11647659
5	0x3e01f3b0	0.12690616
6	0xbdd949d6	-0.10609786
7	0xbfaff398	-1.3746214
8	0xbe253467	-0.16133271
9	0x3ce5a694	0.028033532
10	0xbe3e024f	-0.18555568
11	0x3eb4e1a5	0.35328403
12	0x3e8c3091	0.27380803
13	0x3ede80c8	0.43457627
14	0x3ecec0b8	0.40381408
15	0xbe646bba	-0.2230672
16	0x3e533080	0.2062397
17	0xbbb83dd1	-0.0056226035
18	0xbd770e7a	-0.06031654
19	0x3edaf3d2	0.42764145
20	0x3dacff54	0.084471375
21	0xbdfeffe1	-0.12451149
22	0xbe0d02fa	-0.13770667
23	0xbda2b15f	-0.07943987
24	0xbcba17b5	-0.022716383
25	0x3d95f5b0	0.07322252
26	0x3d28690f	0.041115817
27	0xbdbb6ca9	-0.09151585
28	0x3dff6a77	0.124714784
29	0x3d644e12	0.055738516
30	0x3efe5a47	0.4967825
31	0x3eab85c0	0.3350048
32	0x3ef56359	0.4792736
33	0xbe97363c	-0.29533565
34	0xbf05543e	-0.5208167
35	0xbeb955d1	-0.36198285
36	0x3e81a080	0.25317764
37	0xbf34737e	-0.7048873
38	0x3f082a5b	0.5318963
39	0x3b56ec33	0.0032794594
40	0x3e2f0dee	0.17095158
41	0x3ec44423	0.38333234
42	0x3c9fba04	0.019497879
43	0xbe54c9a4	-0.20780045
44	0x3e0cf14d	0.13763924
45	0x3e8542c6	0.26027507
46	0x3e203371	0.15644623
47	0xbef96c3e	-0.48715395
48	0x3df8c9c0	0.12147856
49	0x3f4799b0	0.77968884
50	0x3e2d860a	0.16945663
51	0xbd6b6b88	-0.057475597
52	0x3e317a8c	0.17331904
53	0x3d7b844e	0.061405472
54	0x3cc55968	0.024090484
55	0x3caa1eba	0.020766605
56	0xbcb17bf8	-0.021665558
57	0xbc9565fa	-0.018237103
58	0xbee7d3d4	-0.452788
59	0xbd9c84cc	-0.076425165
60	0xbe522752	-0.20522812
61	0xbe35651b	-0.1771435
62	0xbe99233c	-0.29909694
63	0x3e74a06a	0.23889318
64	0x3f004a1d	0.5011309
65	0xbe2f2641	-0.17104436
66	0x3e783c77	0.24241816
67	0x3f20132a	0.6252924
68	0x3ed91557	0.42399094
69	0x3dff3905	0.124620475
70	0xbd6a45dc	-0.05719553
71	0xbeca863d	-0.3955554
72	0xbea0fd09	-0.3144305
73	0xbcdaba3d	-0.026700133
74	0xbe88746c	-0.26651323
75	0x3d6f763c	0.058462366
76	0xbd4ab5fd	-0.049489964
77	0x3efd3661	0.4945555
78	0x3e0f51b1	0.13996007
79	0xbebe9280	-0.37221146
80	0xbe25aac7	-0.16178428
81	0x3db8447b	0.089974366
82	0x3e2753e4	0.16340595
83	0x3e4347e0	0.19070387
84	0x3aef9feb	0.0018281912
85	0x3ecca0de	0.39966482
86	0xbd4d6960	-0.05014932
87	0xbd3fba58	-0.04680857
88	0x3e868c7a	0.2627905
89	0x3d6fcb07	0.05854323
90	0x3e33dd95	0.17564996
91	0xbcb8ae07	-0.02254392
92	0x3e396b30	0.18107295
93	0x3dfec559	0.12439985
94	0x3eb7c307	0.35890982
95	0xbf5f6303	-0.87260455
96	0x3eb5b5f1	0.35490373
97	0x3db9b608	0.09067923
98	0x3f1c3f56	0.6103414
99	0xbf08aadf	-0.5338573
100	0x3d68ed73	0.056867074
101	0xbeea00b6	-0.45703667
102	0x3e6902ac	0.22754925
103	0x3dd6487c	0.10463044
104	0xbd940a62	-0.07228543
105	0x3e73217c	0.23743242
106	0x3e53d103	0.206852
107	0x3e431e1f	0.19054459
108	0xbd516b85	-0.05112793
109	0xbf6addb9	-0.9174457
110	0xbf25450d	-0.6455849
111	0x3df55a50	0.11980116
112	0x3e1bc0d7	0.15210281
113	0xbb243383	-0.0025055117
114	0x3e636a1b	0.22208445
115	0xbe93e6b8	-0.28886962
116	0xbdd4a071	-0.10382164
117	0xbe1766b3	-0.1478527
118	0x3e82fb30	0.25582266
119	0xbd8a2acc	-0.06746444
120	0x3cfdb057	0.030967874
121	0x3df3b711	0.119001515
122	0x3eeed6ae	0.46648163
123	0x3e408d91	0.18804003
124	0x3d0be6d5	0.034155685
125	0x3ccb30ef	0.024803607
126	0xbd7b1c90	-0.061306536
127	0x3e29f75e	0.1659827
128	0xbf3c97bf	-0.73669046
129	0x3e05b958	0.13058984
130	0xbd942969	-0.07234461
131	0x3f066220	0.52493477
132	0xbe8c9d43	-0.2746373
133	0xbf172a34	-0.5904877
134	0xbe2614da	-0.16218892
135	0x3cf79f30	0.030227274
136	0xbeadf7b3	-0.33978042
137	0x3e09db33	0.13462524
138	0x3d267eca	0.04064826
139	0x3f287135	0.6579774
140	0x3df7414c	0.12073001
141	0xbd32a97b	-0.04361866
142	0xbe8c4f6e	-0.2740435
143	0xbde38855	-0.11109988
144	0x3deec56a	0.116587475
145	0xbc37e064	-0.0112229325
146	0x3d2f12bc	0.042742476
147	0x3c23211b	0.009956623
148	0xbe34bf10	-0.1765101
149	0xbdd49137	-0.1037926
150	0x3e65d164	0.22443157
151	0xbedcf249	-0.431536
152	0x3e937d80	0.28806686
153	0xbf1464db	-0.57966393
154	0xbf213f14	-0.62986875
155	0xbded6dca	-0.11593206
156	0xbe379a42	-0.17929938
157	0xbe650fd5	-0.2236932
158	0x3f111376	0.5667032
159	0x3f957ab0	1.1678066
160	0xbce135d1	-0.027491482
161	0x3ec43926	0.3832485
162	0x3c4e54f3	0.012593496
163	0xbe4ed048	-0.2019664
164	0xbcb0b0a5	-0.021568606
165	0x3e574d74	0.2102564
166	0xbe501efb	-0.20324318
167	0xbf3eb320	-0.74492073
168	0xbe135023	-0.14386038
169	0x3f310f31	0.69163805
170	0x3e5faf20	0.21844149
171	0x3e1d4876	0.15359673
172	0x3e868498	0.26273036
173	0x3d6f3634	0.0584013
174	0xbe3436bd	-0.17599006
175	0x3e7f7a5d	0.24949022
176	0xbe04cb1b	-0.12968104
177	0x3e440e83	0.19146161
178	0xbf2f1227	-0.68387073
179	0x3d98ca81	0.074604996
180	0x3c8d76c3	0.017268544
181	0x3cf171a2	0.02947313
182	0xbe282397	-0.16419826
183	0x3f20f4a7	0.6287331
184	0x3edf0178	0.43555808
185	0x3ddf4176	0.109011576
186	0x3e19779e	0.14987037
187	0x3e3c745b	0.18403761
188	0xbeb7ae5f	-0.35875222
189	0xbdaa2564	-0.08307913
190	0x3e387808	0.18014538
191	0x3debf80c	0.115219206
192	0x3e7ba5df	0.24574994
193	0xbd320205	-0.043458957
194	0xbdc948a1	-0.09828306
195	0xbeabe1dd	-0.33570758
196	0x3d8d7d5a	0.069086745
197	0x3f44e1e9	0.7690721
198	0x3db75c12	0.08953108
199	0x3ed7ff17	0.42186806
200	0x3dd394ce	0.103311166
201	0xbe1d40b5	-0.15356715
202	0xbe993e34	-0.2993027
203	0x3e0a209b	0.13489
204	0x3e273127	0.16327344
205	0x3e9d37eb	0.30706725
206	0x3d9a8cf2	0.075464144
207	0x3d2afe70	0.041746557
208	0x3e39cf51	0.18145491
209	0x3bbbb2e0	0.0057281107
210	0xbbe353cc	-0.0069374796
211	0xba7faaa6	-0.00097529066
212	0x3eba73a6	0.36416358
213	0x3e16156a	0.14656606
214	0xbe2702b0	-0.16309619
215	0x3eab0e32	0.33409268
216	0x3dc73ad0	0.097280145
217	0x3f21b492	0.63166153
218	0xbf4020a8	-0.7504983
219	0x3e65ee47	0.22454177
220	0x3cac615c	0.021042518
221	0x3f1d22f7	0.6138148
222	0x3e093a6e	0.13401195
223	0xbebb59a5	-0.3659183
224	0xbe2af3ab	-0.16694514
225	0xbe06fc68	-0.13182223
226	0xbc1b8456	-0.009492001
227	0x3da3d248	0.07999092
228	0x3e1a2080	0.1505146
229	0x3f0feff2	0.562255
230	0x3eb56782	0.35430533
231	0x3e09fd68	0.13475573
232	0xbeb19356	-0.3468272
233	0x3c30b9ee	0.010786517
234	0x3e501fed	0.20324679
235	0x3e1ef2f8	0.15522373
236	0xbe2f123a	-0.17096797
237	0x3e0e9ac6	0.13926229
238	0xbd1e56ae	-0.038656883
239	0xbe7b1b94	-0.24522239
240	0x3e11cf2b	0.14239185
241	0x3dd9b877	0.10630887
242	0xbe388ae2	-0.1802173
243	0xbe032c41	-0.1280985
244	0xbce6c542	-0.028170232
245	0x3d84077b	0.06446739
246	0xbdf4ee85	-0.119595565
247	0x3d29a9f1	0.041421834
248	0x3d68c8c2	0.056832083
249	0x3a652d1e	0.000874238
250	0x3dfd5f62	0.123717085
251	0x3e06e583	0.1317349
252	0xbdf67bb4	-0.12035313
253	0xbdeccd38	-0.1156258
254	0xbdf185cc	-0.11793098
255	0xbc23c81a	-0.009996438

fc3.bias f4 [20]
0	0x3e2099fb	0.15683739
1	0xbd164290	-0.036684573
2	0x3daa490f	0.08314716
3	0x3c78107a	0.015140647
4	0xbe4c84e5	-0.1997257
5	0x3c520464	0.01281843
6	0x3eb0ec44	0.34555256
7	0xbd4da6c6	-0.050207876
8	0xbe191894	-0.14950782
9	0x3e2fae79	0.171564
10	0x3ec26d81	0.3797417
11	0xbd2613ed	-0.040546346
12	0x3e46ac88	0.19401753
13	0x3e86d5a8	0.26334882
14	0xbd8e51e6	-0.06949215
15	0x3d1357f5	0.035972554
16	0x3e65e053	0.22448854
17	0x3e1141a9	0.14185204
18	0xbe6c79a8	-0.23093283
19	0x3e2f06c3	0.17092423

fc4.weight f4 [5, 20]
0	0x3db23bbc	0.087028
1	0x3e918c9e	0.28427595
2	0xbf296db9	-0.6618305
3	0xbe79f3b7	-0.24409376
4	0x3e8b1e42	0.27171522
5	0x3e100466	0.14064178
6	0xbd4913f6	-0.0490913
7	0x3e5fd55d	0.21858735
8	0xbcbfd478	-0.023416743
9	0xbf3cc884	-0.7374346
10	0x3e7e1e8a	0.24816337
11	0xbf36188e	-0.7113122
12	0xbe9c47a0	-0.30523396
13	0xbc157c47	-0.009123868
14	0xbe4a9cdc	-0.197864
15	0xbcec2fac	-0.028831325
16	0xbf49c1aa	-0.7881113
17	0xbf9dc489	-1.2325603
18	0xbe1d5590	-0.15364671
19	0xbdcc9a30	-0.099903464
20	0x3dead072	0.11465539
21	0xbf1a49af	-0.6026868
22	0xbed10e09	-0.4083102
23	0xbf109407	-0.5647587
24	0xbe964dd5	-0.29356256
25	0xbf4c5359	-0.7981468
26	0x3d7fe9d5	0.06247886
27	0x3d7df3d9	0.06200013
28	0xbe27ed12	-0.16399029
29	0x3e818989	0.25300243
30	0xbdc2fe3d	-0.09521148
31	0x3e8005a0	0.25004292
32	0x3e559035	0.20855792
33	0x3d877af6	0.0661525
34	0x3e55f1e8	0.20893061
35	0xbf2691aa	-0.65066016
36	0xbe99a21d	-0.30006495
37	0xbf197d38	-0.59956694
38	0xbf9edac2	-1.241051
39	0x3dda8ab9	0.106709905
40	0xbe9cac6f	-0.30600306
41	0xbec516ec	-0.3849405
42	0x3eeac64b	0.4585441
43	0x3eb24120	0.3481531
44	0xbf648f8a	-0.89281523
45	0xbebdac23	-0.37045392
46	0x3c4a5611	0.012349621
47	0xbf327227	-0.6970543
48	0x3d84f6c6	0.06492381
49	0xbec83fab	-0.39111075
50	0x3e5bfcc6	0.21483144
51	0xbc93d32e	-0.018045034
52	0x3e6b4c65	0.22978361
53	0xbeded674	-0.4352299
54	0x3e5bdd71	0.21471192
55	0x3e339744	0.17538172
56	0xbf092cbe	-0.53583896
57	0xbf5a6d88	-0.8532338
58	0x3f594ba0	0.8488102
59	0xbd5a47f0	-0.05329126
60	0xbf27185c	-0.65271544
61	0xbee5dd23	-0.44895276
62	0x3da8269b	0.082104884
63	0xbf20d0ae	-0.6281842
64	0x3e042622	0.12905172
65	0xbee3a715	-0.4446341
66	0x3e9f1ec5	0.31078163
67	0x3eefeb8f	0.46859404
68	0x3e3ba4ae	0.18324539
69	0x3e09477f	0.1340618
70	0xbfc0eea7	-1.5072831
71	0xbec22166	-0.37916106
72	0xbf6d195d	-0.92616826
73	0xbda9b594	-0.082865864
74	0xbe01fdb2	-0.12694433
75	0xbf151012	-0.58227646
76	0x3f25e6f5	0.6480554
77	0xbed4743e	-0.41494936
78	0xbf57fca1	-0.84369856
79	0xbe7b9ab4	-0.24570733
80	0x3de274fe	0.11057471
81	0x3e1d6695	0.15371163
82	0xbf6f8c1a	-0.93573153
83	0x3db3a1e4	0.087711126
84	0x3d0c3566	0.034230612
85	0x3f0fecdd	0.562208
86	0xbfee8ac0	-1.8636093
87	0xbf36d673	-0.71420974
88	0xbd4351e6	-0.047685526
89	0x3eb9a48f	0.3625836
90	0xbf7af80d	-0.98034745
91	0x3d278d67	0.040906336
92	0xbf94da16	-1.1629055
93	0x3e372319	0.17884482
94	0x3dd771f2	0.1051978
95	0xbf6db7d6	-0.92858636
96	0x3e45d5cc	0.19319838
97	0x3f18e336	0.59721696
98	0x3e306416	0.1722568
99	0xbef1451d	-0.47123042

fc4.bias f4 [5]
0	0xbf0a0d30	-0.5392637
1	0xbe7dc22a	-0.24781099
2	0xbdb283b1	-0.087165244
3	0x3d4163d4	0.047214344
4	0xbea3a9e8	-0.31965566
