SAGE/UNSW/UNSW_Defense/RSLAD/RSLAD_100.pt (torch, 23320 bytes, 8 tensors)

module.fc1.weight f4 [50, 56]
0	0xbcf0ede2	-0.029410306
1	0x3c24b3b5	0.010052611
2	0xbc51f4fd	-0.012814757
3	0x3e0aacdd	0.13542505
4	0xbdff514e	-0.124666795
5	0xbbc13a75	-0.005896861
6	0xbcaeeaa3	-0.021352118
7	0xbd5e7263	-0.054308306
8	0x3c788585	0.015168552
9	0xbbf97c8e	-0.007613725
10	0xbc66d9cd	-0.014090014
11	0x3b048278	0.0020219367
12	0xbba8fdcd	-0.0051572085
13	0xbd4f94b3	-0.05067892
14	0xbcbace26	-0.022803377
15	0xbe1e7c21	-0.15477039
16	0x3e2b0e26	0.16704616
17	0xbe031469	-0.12800755
18	0x3e02df7c	0.12780565
19	0xbde553f2	-0.11197652
20	0xbd5c9073	-0.053848695
21	0xbae1ba63	-0.0017221685
22	0xbca9dfa3	-0.020736521
23	0x3d32cb0f	0.043650683
24	0xbd04c12f	-0.032410797
25	0x3c8e6e5b	0.017386606
26	0x3d75d47a	0.060017087
27	0x3d5a9a0e	0.053369574
28	0x3d590e02	0.052991875
29	0xbdc22838	-0.09480327
30	0xbd9e0077	-0.077149324
31	0xbd63dc9b	-0.055630308
32	0xbd1257c4	-0.03572823
33	0x3e145cdc	0.14488548
34	0xbd316a91	-0.04331452
35	0xbd392faa	-0.04521147
36	0xbc829f0a	-0.015944976
37	0xbbbed29c	-0.0058234464
38	0xbc7f272e	-0.015573306
39	0xbbae787f	-0.005324423
40	0xbed9d84b	-0.4254783
41	0x3cc4c8ed	0.02402159
42	0xbd820e74	-0.06350413
43	0xbd3c89b3	-0.046029758
44	0xbc05d0b2	-0.008167433
45	0x3c82f42c	0.01598557
46	0xbdfa4b3d	-0.12221382
47	0xbbe454be	-0.00696811
48	0xbd104397	-0.03522071
49	0x3e8130a6	0.25232428
50	0xbd0ed555	-0.034871418
51	0xbcfb959f	-0.030710993
52	0xbd842388	-0.064520895
53	0xbc694d09	-0.014239558
54	0xbdb8c23f	-0.090214245
55	0xbd0cea17	-0.034402933
56	0xbc1c9760	-0.009557575
57	0x3be7a06d	0.007068685
58	0x3c139a35	0.009008934
59	0xbdb9e9bb	-0.09077784
60	0x3d25d924	0.040490285
61	0xbb9a4a59	-0.00470857
62	0xbd914928	-0.070940316
63	0xbdbfe16b	-0.09369167
64	0xbcfb4678	-0.03067325
65	0x3ddead16	0.10872857
66	0x3d57136f	0.052508768
67	0xb9954e50	-0.00028477842
68	0x39b48571	0.00034431697
69	0x3cd0d19a	0.02549057
70	0xbd4c1d50	-0.049832642
71	0xb990e92a	-0.0002763954
72	0xbc27ffbe	-0.010253845
73	0x3de83ba0	0.113394976
74	0xbd0974d2	-0.033558674
75	0xbda6385d	-0.08116219
76	0xbc8238a5	-0.01589615
77	0xbe2157fb	-0.15756218
78	0x3d750578	0.05981967
79	0xbea19ee8	-0.31566548
80	0xbd83a836	-0.06428568
81	0xb94b2813	-0.00019374517
82	0xbededad0	-0.43526316
83	0xbd6f2e8c	-0.058394
84	0xbe3a2cac	-0.18181103
85	0x3eada78c	0.3391689
86	0x3dbcac43	0.09212544
87	0x3d8dcaaa	0.06923421
88	0x3ce4449c	0.027864747
89	0xbd98e11c	-0.07464811
90	0xbd82103d	-0.063507535
91	0xbd60ec94	-0.05491312
92	0xbd928280	-0.07153797
93	0x3c9e40c3	0.01931799
94	0x3d5d0ff5	0.053970296
95	0xbc7379ff	-0.014860629
96	0xbef164aa	-0.47147113
97	0x3dcb5bb4	0.099296
98	0x3d78b229	0.06071678
99	0x3ece8161	0.40333083
100	0x3de43248	0.11142403
101	0xbc5aaa76	-0.013346305
102	0x3d27315c	0.040818557
103	0x3dbb8b74	0.09157458
104	0x3dd6c85d	0.10487435
105	0x3e204656	0.15651831
106	0xbb38708b	-0.0028143253
107	0xbbdf7164	-0.006818937
108	0x3da26418	0.079292476
109	0xbe01a484	-0.12660414
110	0x3e0a0302	0.1347771
111	0x3ccc1971	0.024914475
112	0xbdb11622	-0.086467996
113	0xb75ecc8c	-1.3279856e-05
114	0x3c49d290	0.012318268
115	0xbd683d8c	-0.05669932
116	0x3d2ca288	0.04214719
117	0x3d087ec7	0.03332403
118	0x3e3f2081	0.18664743
119	0x3cbfafb9	0.02339922
120	0xbbd64903	-0.0065394654
121	0xbdc7ffab	-0.09765562
122	0xbdabb819	-0.08384723
123	0xba0c0e1c	-0.00053426786
124	0x39cc400c	0.0003895763
125	0x3e17b016	0.14813265
126	0xbe33ac4a	-0.17546192
127	0xbcc60ba2	-0.024175469
128	0x3a9162ec	0.0011092103
129	0xbd9a3d00	-0.07531166
130	0x3d41b845	0.047294874
131	0x3d33f2a1	0.04393256
132	0x3d4669c4	0.04844071
133	0x3c61c203	0.013779166
134	0xbe518c2c	-0.20463628
135	0x3e8424e5	0.25809398
136	0x3ba0f75c	0.0049123
137	0xbd3bbe56	-0.045835815
138	0xbd1795c0	-0.037008047
139	0xbd81e26b	-0.06342014
140	0xbebc78da	-0.36810952
141	0x3b4c70fa	0.003119527
142	0x3bfa8473	0.0076451837
143	0x3c67a6ad	0.01413886
144	0xbd233e42	-0.039854296
145	0xbd77e67e	-0.06052255
146	0xbc0aeb46	-0.008478945
147	0xbd1e2d79	-0.038617585
148	0xbd0128a3	-0.031532895
149	0xbdbfddc3	-0.093684696
150	0xbd1d9e3c	-0.038480982
151	0x3d1fff35	0.039061744
152	0x3c9526f0	0.018207043
153	0x3dd294f4	0.10282317
154	0xbd81c6f1	-0.06336773
155	0x3d9adf21	0.0756209
156	0x3e971e17	0.29515144
157	0xbd2b0d09	-0.04176048
158	0x3e20ebca	0.15714946
159	0x3eafee8a	0.34361678
160	0x3e227215	0.15863831
161	0xbf8c1a69	-1.094556
162	0x3b4ac6b2	0.0030941186
163	0xbca93e4a	-0.020659585
164	0xbcac99a8	-0.021069363
165	0xbdc157b4	-0.09440556
166	0x3e94da7f	0.2907295
167	0xbd129ce2	-0.035794146
168	0x3d2feb86	0.042949222
169	0x3aec121d	0.0018010769
170	0xbc2f11c3	-0.010685387
171	0xbbf648c8	-0.0075160004
172	0xbc48624c	-0.012230467
173	0xbc747acf	-0.014921858
174	0x3c2d2f2f	0.0105703315
175	0x3bfbf41b	0.0076890117
176	0x3ca51ffd	0.020156855
177	0xbc4ad920	-0.012380868
178	0xbca435c5	-0.02004517
179	0x3b8e5bf7	0.004344459
180	0xbb890bb7	-0.0041823047
181	0x3c5782d5	0.013153751
182	0x3c269e44	0.010169569
183	0xbc30f026	-0.010799443
184	0xbbe743ee	-0.0070576584
185	0xbbe23040	-0.0069027245
186	0xbc15fc4d	-0.0091543915
187	0xbcd300d7	-0.025757236
188	0xbd1585ef	-0.036504682
189	0xbc1ac250	-0.009445742
190	0xbd2700c6	-0.040772222
191	0x3bf7b70a	0.0075596618
192	0xbc8ee523	-0.017443245
193	0x3c31bff2	0.010848986
194	0xbcd41345	-0.025888095
195	0xbc4e601d	-0.012596157
196	0x3a260e54	0.00063345325
197	0xbcbcf677	-0.023066742
198	0xbc0df046	-0.008663243
199	0xbd31c825	-0.043403763
200	0xbb6ab6a4	-0.0035814429
201	0x3bdbf7f6	0.006712909
202	0xbd1ac19d	-0.0377823
203	0xbc35445b	-0.0110636605
204	0xbc32e210	-0.010918155
205	0xbcd61a83	-0.026135689
206	0x3c5fd403	0.013661387
207	0x3a2e5ffe	0.0006651877
208	0x3cacd5e0	0.021098077
209	0x3c012914	0.007883329
210	0xbcd1044b	-0.025514742
211	0xbca4f0ed	-0.020134414
212	0xbab2a806	-0.0013630397
213	0xbca27045	-0.019828925
214	0x3d1b5238	0.037920207
215	0x3d0fde8e	0.035124354
216	0xbb863756	-0.004095952
217	0xbd037e4a	-0.03210286
218	0xbbe6e35a	-0.0070461454
219	0x3c3d35cc	0.011548471
220	0xbca0989e	-0.019604024
221	0x3d167e53	0.036741566
222	0x3d2c4b52	0.04206402
223	0xbc944320	-0.018098414
224	0xbdc1a8dc	-0.094560355
225	0x3c7bb202	0.015362265
226	0xbba45a54	-0.0050156508
227	0xbd85b74b	-0.06529101
228	0x3e190a59	0.14945354
229	0x3c837d60	0.016050994
230	0x3d90cc7b	0.070702516
231	0xbcbca3c4	-0.023027308
232	0xbbf507e1	-0.007477746
233	0xbccbad02	-0.02486277
234	0xbc25d4fe	-0.010121582
235	0x39710225	0.0002298435
236	0xba3638f4	-0.00069512357
237	0xbcfaa0c0	-0.03059423
238	0xbc1f0752	-0.009706335
239	0x3da1f1c9	0.07907445
240	0xbd093338	-0.03349611
241	0xbdb5d8b9	-0.08879227
242	0x3c00c75b	0.00786003
243	0xbd9263c2	-0.071479335
244	0xbd3b3cc7	-0.04571226
245	0xbc3bb42c	-0.011456531
246	0xbd6974a1	-0.05699599
247	0x3ca9f4c8	0.020746604
248	0x3c5741c8	0.013138242
249	0xbd93d358	-0.07218045
250	0x3d31a347	0.043368604
251	0xbd9d697a	-0.07686134
252	0x3dc6c60b	0.097057424
253	0xba38dca1	-0.0007051919
254	0x3a6cc3d2	0.0009031865
255	0xbcbc7720	-0.023006022

module.fc1.bias f4 [50]
0	0xbcadc3ed	-0.021211589
1	0xbd048a31	-0.032358352
2	0x3c1dd3ec	0.009633046
3	0x3c57f1a0	0.0131801665
4	0xbcbfcfac	-0.023414455
5	0x3dccf2e2	0.10007264
6	0xbd11007a	-0.035400845
7	0xbd7487da	-0.05969987
8	0xbdb8a58f	-0.09015953
9	0x3d8b8ef3	0.06814375
10	0x3d4a2153	0.049348187
11	0xbd65a094	-0.056061342
12	0xbd0062dc	-0.03134428
13	0x3e200258	0.15625894
14	0xbe313231	-0.17304303
15	0x3e65a3e2	0.22425798
16	0x3c113161	0.0088618705
17	0x3c070310	0.008240476
18	0xbd03fb1a	-0.03222189
19	0xbba112c9	-0.0049155694
20	0x3e814b13	0.2525259
21	0xbd8e5065	-0.06948928
22	0x3de83f7d	0.113402344
23	0x3d994e49	0.07485635
24	0xbd371451	-0.04469711
25	0x3d6551aa	0.055986084
26	0xbe86b3d3	-0.2630907
27	0x3cd9bc3b	0.026579013
28	0x3d6fa3de	0.058505885
29	0xbe15ac09	-0.14616407
30	0xbd7c35b0	-0.061574638
31	0x3c57cab7	0.01317089
32	0x3c6c9741	0.014440359
33	0xbd8a51e0	-0.06753898
34	0x3d9b7f14	0.075925976
35	0x3c826897	0.015919013
36	0xbce7a5cf	-0.028277306
37	0xbd317b5c	-0.043330535
38	0x3db76c53	0.08956208
39	0xbda33c2d	-0.07970462
40	0xbcb33c6a	-0.021879394
41	0xbc04440b	-0.008072863
42	0x3d9cd65b	0.076580726
43	0xbce1e27a	-0.027573813
44	0x3de40962	0.11134602
45	0x3df5a1c4	0.11993745
46	0xbd875aa5	-0.06609086
47	0x3d1e8cb1	0.038708393
48	0x3c888922	0.016666953
49	0x3e406b14	0.18790847

module.fc2.weight f4 [30, 50]
0	0x3e1639c8	0.1467048
1	0xbdbf8416	-0.09351365
2	0xbe0c7b34	-0.13718873
3	0x3cb8b9aa	0.022549469
4	0x3df4e70f	0.119581334
5	0xbe003737	-0.12521063
6	0x3d87c666	0.066296384
7	0x3d5397c7	0.051658418
8	0x3dc2fa8b	0.095204435
9	0x3d2968b0	0.041359603
10	0xbd647149	-0.0557721
11	0x3d068008	0.032836944
12	0x3d8e8efb	0.06960865
13	0xbd341897	-0.043968763
14	0x3eabaef2	0.3353191
15	0x3d9df097	0.077119045
16	0x3ddbb6a5	0.10728196
17	0x3e9899ca	0.29804832
18	0x3e8197b3	0.2531105
19	0xbd08bc54	-0.03338273
20	0x3d7fcd93	0.06245191
21	0x3c57682c	0.013147395
22	0xbe38f731	-0.18063046
23	0xbd35576d	-0.04427283
24	0x3daecaf7	0.08534806
25	0x3d7c5cd3	0.06161196
26	0xbdafa62c	-0.08576617
27	0xbd5c4b86	-0.053782962
28	0x3ccf61a3	0.025315112
29	0x3e450fe7	0.19244348
30	0xbd416e4b	-0.047224324
31	0x3dcc1368	0.09964639
32	0x3c0cd30c	0.008595239
33	0xbd73fd56	-0.05956777
34	0xbc0cc7ac	-0.008592527
35	0x3daaa0f7	0.08331483
36	0x3da7ce66	0.08193664
37	0x3c3a2afc	0.011362787
38	0x3e12475b	0.14285032
39	0xbce92bdf	-0.028463302
40	0xbd36014c	-0.04443483
41	0x3e972b3b	0.2952517
42	0xbb2058c2	-0.0024466966
43	0xbd2d5e2c	-0.042326137
44	0x3d1e0653	0.03858025
45	0x3e655609	0.22396101
46	0xbc8bde67	-0.017073823
47	0x3c5690d0	0.013096049
48	0xbd5c4312	-0.0537749
49	0xbd8c76aa	-0.06858571
50	0xbc3cd4b0	-0.011525318
51	0xbd6e1f85	-0.058135528
52	0x3c03d1e9	0.008045652
53	0x3c24bf4d	0.010055375
54	0x3d3750ea	0.0447549
55	0x3cee3461	0.02907771
56	0xbc27351d	-0.010205534
57	0xbb3f719b	-0.0029212001
58	0x3e03896d	0.12845393
59	0xbd8ab774	-0.06773272
60	0x3d222986	0.03959038
61	0x3c4c8191	0.012482063
62	0xb8cbf260	-9.72494e-05
63	0xbb8ef919	-0.004363191
64	0x3e2f8d9d	0.17143865
65	0xbbfbe188	-0.0076867975
66	0xbcf372a0	-0.029717743
67	0x3daa6bbc	0.0832133
68	0x3d7d1570	0.061788023
69	0x3c595a96	0.013266226
70	0xbd3705fd	-0.044683445
71	0x3c83e817	0.01610188
72	0xbc286e1a	-0.0102801565
73	0x3c978274	0.018494822
74	0x3e150af0	0.14554954
75	0xbcea434b	-0.02859654
76	0x3cdd7165	0.02703161
77	0x3c613796	0.013746163
78	0x3c3bc2dc	0.011460032
79	0x3e0fbe4d	0.14037438
80	0x3ce01c77	0.027357323
81	0x3d4e58d0	0.050377667
82	0x3d32a691	0.04361588
83	0xbc642874	-0.01392566
84	0x3b4d3b72	0.003131595
85	0xbb59b192	-0.0033217412
86	0xbb31c424	-0.0027124966
87	0xbca8f076	-0.020622473
88	0xbc9ca2c9	-0.01912059
89	0xbc607475	-0.0136996405
90	0x3cba2dba	0.022726882
91	0x3e087b93	0.1332839
92	0xbcb88de1	-0.02252859
93	0xbcac144a	-0.021005768
94	0xbd5edec9	-0.054411683
95	0x3cac02d8	0.02099745
96	0x3bd018d1	0.0063506146
97	0xbba9b670	-0.005179219
98	0x3d12900d	0.03578191
99	0x3d841a1a	0.06450291
100	0xbddb3b10	-0.10704625
101	0xbe3d54ee	-0.1848943
102	0x3e88fb3f	0.26754186
103	0x3d36b44c	0.04460554
104	0xbce222d6	-0.027604502
105	0x3ea180a6	0.31543463
106	0xbdc40515	-0.09571282
107	0xbe19a56b	-0.15004508
108	0xbd7364ea	-0.05942241
109	0xbe1ea866	-0.15493926
110	0xbe3673ff	-0.17817686
111	0x3e1ab396	0.15107569
112	0x3e935ca7	0.28781626
113	0x3e82f87c	0.25580204
114	0x3c3f45fa	0.011674399
115	0x3e422000	0.1895752
116	0x3ec97222	0.3934489
117	0xbc961ace	-0.018323328
118	0xbdc39a5b	-0.09550925
119	0x3da7c477	0.081917696
120	0xbeaa4b5e	-0.33260626
121	0xbd270c96	-0.040783487
122	0x3e4d4ade	0.20048091
123	0x3dbfc16e	0.09363066
124	0x3e51ccb4	0.20488244
125	0x3d04ad7e	0.032392018
126	0xbda28911	-0.079362996
127	0x3db8d76d	0.09025464
128	0x3e4b40d8	0.19848955
129	0xbe26704a	-0.16253772
130	0xbde45864	-0.11149672
131	0x3d8e2fcc	0.0694271
132	0x3e2afef3	0.16698818
133	0x3e022ac2	0.12711623
134	0x3dfc2885	0.12312416
135	0x3ce879c0	0.028378367
136	0x3e15d062	0.14630273
137	0xbdfc61d7	-0.12323349
138	0x3e6190d5	0.22027905
139	0x3e8987b2	0.2686134
140	0x3de42a2d	0.11140857
141	0xbdd3c408	-0.10340124
142	0xbe7ce202	-0.2469559
143	0x3d6e5875	0.058189828
144	0x3e5dd640	0.21663761
145	0xbd9f49d7	-0.07777756
146	0x3d90b403	0.070655845
147	0x3e21c189	0.15796484
148	0x3eead0fc	0.45862567
149	0x3db80c56	0.08986728
150	0xbc8827c7	-0.01662053
151	0xbd58c6cd	-0.052923966
152	0x3d928e33	0.071560286
153	0x3c98c449	0.018648284
154	0xbd7e793a	-0.06212733
155	0xbc8c7d67	-0.01714964
156	0xbcf6dbe5	-0.03013415
157	0xbc110bd8	-0.008852921
158	0xbd579913	-0.052636217
159	0xbe362075	-0.17785819
160	0xbd897f6d	-0.06713758
161	0x3e1ed01f	0.1550908
162	0xbc210e1e	-0.009830026
163	0xba0a1f3f	-0.0005268938
164	0xbe54a81a	-0.2076725
165	0x3cd1172f	0.02552375
166	0x3e336b73	0.17521457
167	0x3df32005	0.118713416
168	0xbd06b2f6	-0.032885514
169	0x3bdba06c	0.0067024734
170	0xbe7c767f	-0.24654578
171	0xbc086863	-0.008325669
172	0x3e62a3ff	0.22132872
173	0x3ca72e3f	0.020407794
174	0x3b8e2d62	0.004338906
175	0xbd6eadc9	-0.058271203
176	0x3db05979	0.086108156
177	0x3e1946a2	0.1496835
178	0x3d088a71	0.033335153
179	0xbe2dad90	-0.1696074
180	0x3c834caa	0.016027767
181	0xbc86e086	-0.016464483
182	0x3d9b5ad2	0.07585682
183	0x3dc1dc6a	0.09465869
184	0x3d59fab7	0.053217616
185	0x3d1b07d9	0.03784928
186	0x3ddffa95	0.109364666
187	0xbdd3fd79	-0.103510804
188	0x3e3781c3	0.17920594
189	0x3e851618	0.2599342
190	0xbcb48d98	-0.022040173
191	0x3cec0fc6	0.028816115
192	0xbd9de52c	-0.07709727
193	0x3d7373e7	0.059436705
194	0x3d4d22fe	0.0500822
195	0x3bf6ab96	0.007527779
196	0x3d20e2a0	0.039278626
197	0x3bd600c2	0.006530852
198	0x3eae090a	0.3399127
199	0x3d0a31cb	0.033738893
200	0xbdd87567	-0.10569268
201	0xbe7f7237	-0.24945913
202	0xbddd030c	-0.10791597
203	0x3aaa4063	0.001298916
204	0x3cf53b48	0.029935494
205	0x3e38c4b3	0.18043785
206	0xbdaf87aa	-0.08570798
207	0xbdd22508	-0.102609694
208	0x3e5ae6f6	0.21377167
209	0xbe1b12bb	-0.15143864
210	0x3d63bebf	0.05560183
211	0x3dd99477	0.106240205
212	0x3e2b1d19	0.16710319
213	0x3d216a7b	0.03940819
214	0xbe0e33cf	-0.13886951
215	0x3cba7cc7	0.022764577
216	0x3d18e09a	0.03732357
217	0xbd728fb5	-0.05921908
218	0xbe2f663e	-0.17128846
219	0x3cd7f139	0.026360141
220	0xbe754ef0	-0.23955894
221	0x3d2da104	0.042389885
222	0xbdce39b4	-0.100696
223	0x3d07786c	0.033073828
224	0x3da215d0	0.07914317
225	0xbdb40049	-0.08789117
226	0x3df14da2	0.117823854
227	0x3cd262d3	0.025681889
228	0x3cb16c41	0.021658065
229	0x3e08e701	0.13369371
230	0x3dd796e1	0.10526825
231	0xbe026488	-0.12733662
232	0x3bb3b1cc	0.0054838415
233	0x3b71139e	0.0036785374
234	0x3ca7e397	0.020494265
235	0x3d66ffaa	0.056396164
236	0x3d13e1a5	0.036103863
237	0xbcb16e1d	-0.021658951
238	0x3d27eebc	0.04099916
239	0x3d4c045c	0.049808845
240	0x3d5f4861	0.054512385
241	0xbd50942e	-0.050922565
242	0xbdd32c8b	-0.1031123
243	0xbd8a16d7	-0.067426376
244	0xbd2d2723	-0.04227365
245	0xbd21b677	-0.039480653
246	0x3d572ba6	0.05253186
247	0xbc58f7cb	-0.013242672
248	0x3de3aa8e	0.11116515
249	0xbd7c8877	-0.06165358
250	0xbbb88a69	-0.005631734
251	0x3d4c6087	0.049896743
252	0x3ca45155	0.020058313
253	0x3cb2b3f2	0.02181432
254	0x3b9ac772	0.0047234828
255	0x3c9e6f36	0.019340139

module.fc2.bias f4 [30]
0	0xbe4dab4c	-0.20084876
1	0xbc7eb828	-0.015546836
2	0x3da9b6b9	0.08286805
3	0xbe08cd91	-0.13359667
4	0x3dacfc53	0.084465645
5	0x38ecc87e	0.000112907015
6	0x3e027689	0.1274053
7	0x3d8b6bec	0.06807694
8	0xbd722908	-0.05912116
9	0x3d064e37	0.032789435
10	0xbc2c80d8	-0.010528766
11	0x3d9f6493	0.07782855
12	0xbcaa1708	-0.020762935
13	0xbd3640ae	-0.044495277
14	0x3df24473	0.11829462
15	0xbd0a8e20	-0.033826947
16	0xbcdfdacd	-0.027326012
17	0xbc7fccca	-0.01561279
18	0xbcf0a5d4	-0.029375948
19	0x3d6f9246	0.058489107
20	0x3d344fd3	0.04402144
21	0xbe0208e3	-0.12698703
22	0x3ddcc3d7	0.10779541
23	0x3e20c8a0	0.15701532
24	0xbdd6ad4d	-0.10482273
25	0x3d59dfba	0.053191878
26	0x3dd61685	0.10453514
27	0x3dd1f21e	0.10251258
28	0xbe10fd08	-0.14159024
29	0xbe0e255c	-0.13881439

module.fc3.weight f4 [20, 30]
0	0x3d468415	0.048465807
1	0x3d1d93cc	0.03847103
2	0xbb96fa40	-0.004607469
3	0x3b5305d2	0.0032199514
4	0x3ceeaa7f	0.029134033
5	0xbcef556f	-0.029215543
6	0xbc5a93b8	-0.013340883
7	0x3c34d915	0.0110380845
8	0x3d1e83f1	0.038700048
9	0x3cf90b7f	0.03040099
10	0x3d35f4f7	0.04442307
11	0x3cdbddb5	0.026839117
12	0x3b4f172f	0.0031599512
13	0x3d6be2f2	0.05758948
14	0xbd65269b	-0.05594502
15	0xbb447aca	-0.0029980415
16	0xbc8d73d6	-0.017267149
17	0xbcc978a6	-0.024593662
18	0x3c842e50	0.016135365
19	0xbd71c012	-0.059021063
20	0xbca7f6f2	-0.020503495
21	0xbbc25135	-0.005930091
22	0x3c3f13bd	0.011662421
23	0x3c96fff2	0.018432591
24	0x3d41ede0	0.047345996
25	0x3d421322	0.047381528
26	0x3cbaa8ad	0.022785509
27	0x3c34ec5f	0.011042683
28	0xbb2c43f0	-0.002628561
29	0x3c3e2ee8	0.011607863
30	0xbea318ea	-0.31854945
31	0xbd01b10f	-0.031662997
32	0x3e926865	0.28595272
33	0x3e4b6df2	0.1986616
34	0x3e1a0998	0.15042722
35	0xbd2dede1	-0.042463187
36	0xbd2d4e75	-0.04231115
37	0x3e433703	0.19063954
38	0xbe016dd0	-0.12639546
39	0x3c8eb5b2	0.017420623
40	0x3d6e76e2	0.058218844
41	0x3c1ec407	0.009690291
42	0xbbd8244c	-0.006596124
43	0xbe0af2b4	-0.13569146
44	0x3e031a34	0.12802964
45	0xbdf841e6	-0.12121944
46	0x3e35f798	0.17770231
47	0x3b8ceaa3	0.004300432
48	0x3cd32bcd	0.025777722
49	0x3d3f5e97	0.046721067
50	0xbed3c3f8	-0.4136045
51	0x3d868889	0.06569011
52	0xbe46712f	-0.19379114
53	0x3e074821	0.13211109
54	0xbde81180	-0.11331463
55	0xbe47e274	-0.19519979
56	0xbd5c710d	-0.05381875
57	0x3e3fd7ff	0.1873474
58	0x3e4cb2cd	0.19990082
59	0x3ebcbbb8	0.36861968
60	0x3b4b10af	0.0030985286
61	0x3ca0d436	0.01963244
62	0x3e3f2b89	0.18668951
63	0x3ddf2ec1	0.108975895
64	0x3b9582a7	0.004562694
65	0xbd0e8510	-0.034794867
66	0xbd488769	-0.048957262
67	0x3de4f4c9	0.111795016
68	0xbc96a3ed	-0.018388713
69	0xbd47145e	-0.048603408
70	0x3cab365b	0.020899942
71	0x3c829400	0.015939713
72	0xbca20ba0	-0.019780934
73	0xbd57d9cf	-0.052697953
74	0x3d5b8e3e	0.05360245
75	0xbd1f9e6b	-0.03896944
76	0x3d737087	0.059433486
77	0xbcf35b50	-0.029706627
78	0x3c3e7830	0.011625335
79	0x3c66a705	0.0140779065
80	0xbe40a815	-0.18814118
81	0x3da9d3b6	0.08292334
82	0xbdcaffbd	-0.099120595
83	0x3de21bcb	0.11040457
84	0xbc174c53	-0.009234506
85	0x3cf9e662	0.030505363
86	0xbdba2dda	-0.09090777
87	0x3dc25f7b	0.09490868
88	0x3d63b664	0.055593863
89	0x3e373a00	0.17893219
90	0x3d0f4fec	0.03498833
91	0xbce3bd9b	-0.027800372
92	0x3c21bb14	0.009871263
93	0xbc0a94f4	-0.008458365
94	0x3ceb50bd	0.028725022
95	0xbccbdd37	-0.024885757
96	0xbc72d18c	-0.014820468
97	0x3caed57f	0.021342037
98	0x3d1eeb13	0.038798403
99	0xbce28abd	-0.027654046
100	0xbcf3aa82	-0.02974439
101	0xbc826623	-0.015917843
102	0x3adfcb3f	0.0017074122
103	0x3ba2fcdb	0.0049739904
104	0xbca666d1	-0.020312699
105	0xbc8d2998	-0.017231748
106	0x3cb1a407	0.02168466
107	0xbb842a59	-0.0040333685
108	0xbc0faaeb	-0.008768777
109	0x3cc27646	0.023738038
110	0xbbd3ceb7	-0.0064638513
111	0x3ce3fa26	0.027829241
112	0xbd04803c	-0.032348856
113	0xbb046610	-0.0020202436
114	0x3cd2dc47	0.025739802
115	0xbc598375	-0.013275971
116	0x3b9f22c0	0.0048564374
117	0xbcab426d	-0.020905698
118	0xbbab8dde	-0.0052354177
119	0xbc58c8f4	-0.013231505
120	0xbeb8aa41	-0.36067393
121	0xbd3bcd62	-0.045850165
122	0x3e93c0bc	0.28857982
123	0x3e644e30	0.22295451
124	0x3e19b349	0.15009798
125	0xbc18fab5	-0.009337117
126	0xbd007d31	-0.03136939
127	0x3e1ab49d	0.15107961
128	0xbdf6003c	-0.120117635
129	0x3d86b449	0.065773554
130	0x3bf6b037	0.0075283307
131	0x3cdb3658	0.026759312
132	0xbcfc9ec3	-0.030837422
133	0xbe278052	-0.16357544
134	0x3e458e0b	0.19292466
135	0xbe19b399	-0.15009917
136	0x3e345d91	0.17613818
137	0xbca3ba98	-0.019986436
138	0xbcf796f6	-0.030223351
139	0x3d6e50ab	0.0581824
140	0xbed313fc	-0.41226184
141	0x3d0fc13e	0.0350964
142	0xbe7917a0	-0.24325418
143	0x3dd800d2	0.105470315
144	0xbe2f4a58	-0.17118204
145	0xbe472441	-0.19447424
146	0xbda78625	-0.08179883
147	0x3e45e3a5	0.19325121
148	0x3e25326e	0.16132519
149	0x3ec7c824	0.39019883
150	0xbc1c58a2	-0.009542616
151	0x3c49692a	0.0122931395
152	0x3b488941	0.0030599388
153	0xbcd2b34e	-0.025720265
154	0x3bfeba08	0.0077736415
155	0xbccba44d	-0.024858618
156	0x3b996ef8	0.004682418
157	0xba8431b9	-0.0010085619
158	0x3cd6bb51	0.026212366
159	0xbce4c1cc	-0.02792444
160	0x3b9a1b03	0.004702927
161	0xbcc31565	-0.023813913
162	0xbbec01ac	-0.0072023477
163	0x3cc5a345	0.024125705
164	0xbd05c035	-0.032654006
165	0x3c17bd9a	0.009261513
166	0xbc036aa4	-0.008021031
167	0xbcf8256a	-0.030291278
168	0x3c52cfb2	0.012866901
169	0xbcaff8e5	-0.021480987
170	0x3cbac79f	0.022800265
171	0x3c1912d9	0.009342873
172	0xbc019a86	-0.007910376
173	0x3c3a3d91	0.011367218
174	0x3be5670c	0.0070008095
175	0x3ca6ff67	0.020385457
176	0x3cd57316	0.026055854
177	0x3bbf48b6	0.0058375252
178	0xbd0ab8a1	-0.033867482
179	0x3be66bb2	0.0070318813
180	0xbbf9877e	-0.007615029
181	0xbcb45e18	-0.022017524
182	0x3d0b641d	0.034031022
183	0xbcc6cec3	-0.024268514
184	0xbd3870d8	-0.04502949
185	0x3c39e2a1	0.011345536
186	0x3d1ce4d6	0.038304172
187	0xbcfc9ae8	-0.030835584
188	0xbc910be2	-0.017705861
189	0xbc7e351e	-0.015515594
190	0xbd1e0907	-0.038582828
191	0x3c7a1442	0.015263619
192	0xbc9c38f5	-0.019070128
193	0xbbb5169f	-0.0055263783
194	0xbcb7a83f	-0.022419093
195	0x3ce4b554	0.027918495
196	0xbc29bb14	-0.010359544
197	0x3c008bc6	0.007845825
198	0x3c662789	0.014047512
199	0x3cbe7377	0.023248417
200	0x3df96e74	0.121792704
201	0xbce388b2	-0.027775142
202	0x3da73595	0.08164517
203	0x3d30cdd0	0.043165028
204	0x3ca76142	0.020432118
205	0x3c65ef7c	0.014034148
206	0xb7252dd4	-9.845437e-06
207	0x3c1e5a20	0.009665042
208	0xbcc5ddd9	-0.024153637
209	0xbc20b575	-0.009808888
210	0xbca113ed	-0.019662822
211	0xbd110c9d	-0.03541242
212	0x3c08f0cf	0.0083581945
213	0x3cb4905f	0.022041498
214	0xbd229e7a	-0.039701916
215	0xbceeb1be	-0.029137488
216	0xbb4724f7	-0.0030387023
217	0xbbf4ac3c	-0.007466821
218	0x3c71069a	0.014711047
219	0xbc25549f	-0.010090976
220	0x3ce30b91	0.027715476
221	0x3d268e41	0.040663008
222	0x3b67c943	0.0035367764
223	0xbd16b754	-0.03679593
224	0xbd5b80b1	-0.053589527
225	0x3c661c68	0.0140448585
226	0x3c36bef9	0.01115393
227	0xbc967643	-0.018366938
228	0x3c5c73af	0.0134553155
229	0x3c99da2c	0.01878079
230	0x3e186bb1	0.14884831
231	0xbc283ca9	-0.010268369
232	0x3dfae655	0.122509636
233	0x3dc3a3cb	0.095527254
234	0xba1a4d45	-0.0005886148
235	0x3d3d0028	0.046142727
236	0xbcb25e17	-0.021773381
237	0xbd2f1d01	-0.04275227
238	0x3b87c706	0.0041435985
239	0x3c4251ed	0.011860353
240	0x3a62629a	0.00086359086
241	0xbd4a34fb	-0.049366932
242	0xbb9cdf0f	-0.004787333
243	0xbd33dee3	-0.043913733
244	0xbd1e503b	-0.038650732
245	0xbce0b09e	-0.027427968
246	0xbbd7a43c	-0.0065808576
247	0xbbfd4cfc	-0.0077301245
248	0xbb0d6e57	-0.002158066
249	0xbd2f9f25	-0.04287638
250	0xbc86fea9	-0.016478853
251	0x3b3c871f	0.0028767062
252	0xbcee49d2	-0.029087935
253	0xbd1c3c95	-0.038143713
254	0xbc93d5fa	-0.018046368
255	0x3c16d169	0.009205201

module.fc3.bias f4 [20]
0	0xbd0d1813	-0.034446787
1	0x3e7ef853	0.24899416
2	0xbc6a23ed	-0.014290792
3	0x39e18c87	0.00043020045
4	0x3e97c3df	0.29641625
5	0xbd195704	-0.0374365
6	0x3c17ffd3	0.009277302
7	0xbd0fb0bb	-0.035080653
8	0x3cde85ae	0.027163353
9	0xbc1382f2	-0.009003388
10	0xbcd7ce5c	-0.026343517
11	0xbc8e92f8	-0.017404065
12	0xbc49941d	-0.012303379
13	0x3d9bca77	0.076069765
14	0xbcf8459d	-0.030306632
15	0x3d29b04e	0.041427903
16	0x3e89f325	0.26943317
17	0x3e18834f	0.1489384
18	0x3eaa8333	0.33303222
19	0xba14d0d3	-0.0005676869

module.fc4.weight f4 [2, 20]
0	0x3d6eef86	0.058333896
1	0xbf134fd3	-0.5754368
2	0xbe922713	-0.28545436
3	0x391f6867	0.00015202315
4	0xbf1ca98c	-0.6119621
5	0xbd28373a	-0.041068293
6	0x3dbb5b76	0.09148304
7	0x3e1464cf	0.1449158
8	0x3dd4937e	0.103796944
9	0xbe709757	-0.23495232
10	0xbe24f56f	-0.1610925
11	0x3d80a8b1	0.06282175
12	0x3d2ab172	0.04167313
13	0x3ef2969d	0.47380534
14	0xbbc780a0	-0.0060883313
15	0x3dee0cd6	0.11623542
16	0xbf1404d9	-0.57819897
17	0x3f8341c0	1.025444
18	0x3f0d2977	0.55141395
19	0xbf851c0e	-1.0399187
20	0xbdc5e9db	-0.09663745
21	0x3f14b1dd	0.580839
22	0x3e839369	0.25698403
23	0xbcfab454	-0.030603565
24	0x3f1ed6f7	0.6204676
25	0x3ca53ec6	0.020171534
26	0xbe0d96f2	-0.13827112
27	0xbe2d2938	-0.16910255
28	0xbe0378f8	-0.12839115
29	0x3e61a80a	0.22036758
30	0x3dcc7c47	0.099846415
31	0xbd76e52e	-0.060277157
32	0xbc188e11	-0.009311215
33	0xbef3a66b	-0.47587904
34	0xba3862f0	-0.0007033786
35	0xbdf8307d	-0.121186234
36	0x3f0a8965	0.541159
37	0xbf7dbc82	-0.99115765
38	0xbf0f852c	-0.5606258
39	0x3f828012	1.0195334

module.fc4.bias f4 [2]
0	0x3eed3b2a	0.463342
1	0xbee4b922	-0.44672495
