SAGE/UNSW/UNSW_Dynamite_Selection_Defense/Defense_Distillation/student_model.pth (torch, 23240 bytes, 8 tensors)

fc1.weight f4 [50, 56]
00000000: 3d62 d9be 791c c8bf c3d1 673f 7757 3abe
00000010: 247d 33be 9c26 eebe 86c2 273e 2dfa dbbe
00000020: 0c3a 3abf 030e 8bbf e321 813e 718d ae3d
00000030: b00d 913d fd88 e4be 500a fb3c db05 f2be
00000040: a2a4 eb3e 9157 82bf 26d4 af3d bb71 033e
00000050: d771 0e3e 74d6 89be 4b76 33be 3ab1 a2be
00000060: b45f fdbe 400c 033d 67e9 913e 2e0a 53ba
00000070: 62ac a0be 7c83 473e ab60 3ebd bbe1 843e
00000080: b1d1 2a3e 144e 113e 8bc2 71bd e41e 183e
00000090: d9b6 283e eff1 74be cbdc 8bbe 5978 383d
000000a0: 7426 e43d d52c a4be 6f91 8abe 2161 9ebe
000000b0: baa9 173c a4ac 0bbf 1b6e 833e 859b 033f
000000c0: 68b2 c2be b664 9b3f 0b0b 85bd e895 09be
000000d0: 3bba 8abe 7c9f 1f3f 23b0 7a3e 97f3 ff3d
000000e0: 50ac 5c3f faf0 14c0 3e31 823f 7da7 04c0
000000f0: 602a 97be 4e1d cc3f d1a1 04bf 044a 543e
00000100: 166a 44bf 8c2b 183c 8f0f 19bd 9813 6dbf
00000110: 88cc 96bd 0f56 883d 3533 dbbe 4cfe 833e
00000120: 8343 06c0 aacb a5be 8a50 2cbd 0a77 d93b
00000130: 1481 d2bc e5bb 033d 2132 1cbc 9c7f 5d3e
00000140: c23a 393e 4228 543d e651 e7bd 1f86 1bbf
00000150: 99c1 893d 19f7 153d 032d 273e f5f5 c5bd
00000160: a76c 443d d917 54be 3990 e2bc f204 21bd
00000170: 2574 b2bc f728 14bd e0f9 44bd bf9d 953d
00000180: a5d8 f7be bc6b 1c3d 2017 453e d7c5 8a3b
00000190: 4559 693f 5e43 6d3f f080 3c3f 61ef a6bc
000001a0: 68a3 c03e 0371 b73d b45a e13b ef01 e03d
000001b0: f49c 0bbd 1e5e e63e 2039 943e 8dc4 8a3b
000001c0: c6b3 1abf 5cdd f6bd 73eb ab3e 22bf 2ebf
000001d0: 3b69 5f3e 78a4 0640 7561 283e 86e4 bf3c
000001e0: 7b2d 95bf dea3 443e 7811 f1bf 2376 0ebf
000001f0: a74b 043e de86 863e 27b7 343f 41f9 133f
00000200: 88a7 aebf d782 edbf e515 993e f0fb 2cbe
00000210: e8da 0dbd a251 5f3d 0df9 b73e e8d2 9c3e
00000220: d9db 493e 88a8 283f f4f6 a5be dce9 853e
00000230: b12e 7d3f 89ab 72bc 3dba 0e3c 8d75 91bd
00000240: 7ba6 54be f97b 11bf 65f8 17be 3387 3fbd
00000250: 5417 9dbe ccf0 d43d 0258 683e b9ff b2bd
00000260: 29ea 6d3f 92b4 b83e 6804 24be 1c80 e5bd
00000270: 0455 ad3f 54d7 713f 48c8 3cbe faa5 4d3f
00000280: 1775 f53e aab8 1740 a4e8 8ebe cd94 90be
00000290: e595 84be 241c 4340 8381 913e fd97 a4be
000002a0: 5bad 42bf 06cb 3940 744d bebf 3532 cf3e
000002b0: 4050 a43d d3cd 19c0 fb68 e43e 55bd 3fbf
000002c0: 2988 893f 6e67 a0bf 431f 28c0 edfc b93f
000002d0: bc5b 35bf fce7 c3bf 1bd6 1abd f176 c63a
000002e0: 6cde 953f adb1 013e 7652 fa3e 7a49 b9be
000002f0: eb4a 19be a540 27bf afba 693d 63b6 fb3f
00000300: aa2f 533e 2730 10bd e279 8fbe e6a2 bf3e
00000310: ee7e 233f fab4 ae3c 2029 43be d926 ef3d
00000320: 8549 8c3d 0131 fd3e 1b43 c3bd 4814 333c
00000330: 3d93 943e 4992 213e cc8f ad3e 5e77 643e
00000340: 419a 24bd a2f3 bcbe a258 f4be 9f4b 683d
00000350: 07c8 bcbe 8eda 3b3f 50a3 afbe 5ad8 bebe
00000360: 41ff 8fbe ebd5 273f f582 debe f819 f1be
00000370: da0c f5be 3a39 1cbf 6fb6 44bf b617 bbbe
00000380: 3de6 883f 860b 22c0 6c40 223f 71e9 4abf
00000390: a46c e1be 10ba c13f b469 22bf 6853 8e3e
000003a0: 0099 c33f cacc c7be 1ee2 cd3e 155c dfbf
000003b0: 0b81 bebe 7e47 3bbf 2915 9b3e 41a6 cd3e
000003c0: 6622 85bf 5ccd 8dbf 3f3d dfbe 508a 443e
000003d0: d526 00bf 5f8f 913d c80e 203e 4e82 833e
000003e0: 8797 883e 933d e13d 0729 b4be da1e 94bf
000003f0: c44b 8a3e 27df 1ebe 9d77 193f cbea 1e3e
-0.42457762 -1.5633689 0.90554446 -0.18197428 -0.17528206 -0.46513832 0.16382799 -0.42964306
-0.7274482 -1.0863651 0.25221166 0.085230716 0.07082689 -0.44635764 0.030644566 -0.47270092
0.46024042 -1.0182973 0.08585386 0.12836353 0.13910614 -0.26921427 -0.17525594 -0.31775838
-0.49487078 0.031994104 0.28498384 -0.0008050528 -0.31381518 0.19483751 -0.04647891 0.2595347
0.16681553 0.1418994 -0.05902342 0.14855534 0.16476001 -0.23920415 -0.2731689 0.045036647
0.11140147 -0.32065454 -0.27064082 -0.30933478 0.009256775 -0.54560304 0.2566994 0.5140918
-0.38026738 1.214011 -0.06496247 -0.13436091 -0.27095208 0.6235273 0.24481253 0.12497633
0.8620043 -2.327208 1.0171278 -2.0727227 -0.29524517 1.5946443 -0.5180941 0.2073136
-0.76724374 0.009287726 -0.037368353 -0.9260802 -0.0736323 0.066570394 -0.42812505 0.2577995
-2.0978706 -0.32381946 -0.042068996 0.006636505 -0.025696315 0.032161612 -0.009533436 0.2163071
0.1808882 0.051796205 -0.11294918 -0.6075153 0.06726379 0.036612604 0.16325764 -0.09666053
0.04795518 -0.20712222 -0.027656661 -0.039311357 -0.021783898 -0.03617188 -0.048089862 0.07305478
-0.48407474 0.03818868 0.19247103 0.00423501 0.9115184 0.9268092 0.73634243 -0.020377817
0.3762467 0.08957102 0.0068772677 0.10937869 -0.03408523 0.4499368 0.28949833 0.0042348565
-0.6043056 -0.1205394 0.3357807 -0.68260396 0.21817486 2.1037884 0.16443427 0.023424398
-1.1654505 0.19203135 -1.8833456 -0.5564901 0.12919484 0.2627477 0.7059197 0.57802206
-1.3644876 -1.8555554 0.29899517 -0.16892982 -0.034632593 0.05452121 0.35932198 0.3062966
0.19712771 0.6588216 -0.32414973 0.26154983 0.9889937 -0.014811405 0.008711395 -0.07102499
-0.20766632 -0.5682979 -0.14840849 -0.046759795 -0.3068186 0.10397491 0.22689822 -0.087401815
0.92935425 0.36075264 -0.16017306 -0.112060755 1.354157 0.9446919 -0.18435776 0.80331385
0.47940895 2.370646 -0.27911866 -0.28238526 -0.2589561 3.0485926 0.28419122 -0.32147208
-0.7604577 2.9030166 -1.4867387 0.40467992 0.08023119 -2.4031875 0.44611344 -0.7489827
1.0744678 -1.2531564 -2.626908 1.4530312 -0.708431 -1.5305171 -0.037801843 0.0015141648
1.1708503 0.12665434 0.48891038 -0.3618887 -0.14969985 -0.65333015 0.0570628 1.9665035
0.20623651 -0.03520217 -0.28022677 0.3742897 0.63865554 0.02132653 -0.19058657 0.116773315
0.0684996 0.4945145 -0.09534284 0.010930128 0.29018584 0.1577846 0.3389877 0.2231116
-0.04018617 -0.36904627 -0.4772387 0.056712743 -0.3687136 0.73380363 -0.34304285 -0.37274438
-0.2812443 0.6556079 -0.43459287 -0.47090125 -0.47861367 -0.6102482 -0.7684087 -0.36541528
1.0695263 -2.5319533 0.6337955 -0.79262453 -0.440282 1.5134907 -0.6344254 0.2779801
1.5281067 -0.3902343 0.40211576 -1.7449976 -0.37207827 -0.73155963 0.3028958 0.40165904
-1.0401123 -1.1078296 -0.43601415 0.19193387 -0.5005925 0.07107424 0.15630639 0.25685352
0.26678106 0.109980725 -0.3518755 -1.1571915 0.2701093 -0.15514813 0.5994814 0.15519254

fc1.bias f4 [50]
00000000: 6c91 71be 523a a6bd 17a6 423d 1eca 0abe
00000010: ef83 07be c859 263e 1932 35bf 1bf6 4b3e
00000020: 3db0 cdbe 6922 2b3e 297c fd3c 8214 d0ba
00000030: 903f be3e adce 093f a2f4 a73d b8e2 393e
00000040: b2ef 8dbd bfac b6be 9e96 203f 1908 b9be
00000050: 2d09 07bf c423 ca3e 0a40 463e fb72 e63c
00000060: f674 9e3e 7a08 e83b 0823 1abe a64b 80be
00000070: be3c 15be 96e0 d63e b172 883e 457a 223e
00000080: a3f1 1dbc 7fb5 4cbd dfc9 f8bd 2bf8 22be
00000090: 029d 9ebe 655a 5bbf c5a0 ac3e e360 913d
000000a0: 4f45 c3bc d575 e3bd c9c6 92bd 768a 97bd
000000b0: d625 acbe 05cd 6e3e baed 823d 4b7d fd3e
000000c0: 5f0e b93d ff43 91bd
-0.2359063 -0.081165925 0.047521677 -0.13553664 -0.13233922 0.16245186 -0.7077957 0.199181
-0.40173522 0.16712345 0.030942993 -0.0015875252 0.3715787 0.5383099 0.08200957 0.18152893
-0.06930484 -0.3567867 0.62729824 -0.3613899 -0.52748376 0.39480412 0.19360366 0.028130999
0.3094861 0.0070810886 -0.15052426 -0.25057715 -0.14573953 0.4196822 0.26650003 0.15866955
-0.00964013 -0.049977776 -0.12147879 -0.15914981 -0.30979162 -0.85684806 0.33716407 0.07098558
-0.02383676 -0.11106459 -0.071668215 -0.07399456 -0.33622617 0.23320396 0.06392999 0.49509653
0.09035944 -0.07093047

fc2.weight f4 [30, 50]
00000000: deb8 82bd a9fd 5bbe b4ac 9bbd 2aa1 11be
00000010: 90ec 21be 21d3 63be d31e 26be 7f50 06be
00000020: aaf6 443d 6e9b 363d 2253 24bd cd35 32bc
00000030: 5cf7 92bd bb6b 7e3c 99c3 28bd 2f21 b9bd
00000040: 736d acbc 0664 16be 3234 89ba 0cfc 09be
00000050: 4fb3 04be 1896 e5bd f7a9 25be 29b2 bfbd
00000060: 958a 32bd 1824 6bbe 5b4e 39be 0d89 1bbe
00000070: 2c3e d13c e1e2 123d 61e9 4bbe 4e95 c4bc
00000080: e721 853c a9cf 3abe b34e 683d 1ca1 dcbc
00000090: d44d e0bc 3f8f bdbd 2a20 03be 5dc3 3fbe
000000a0: ddbd a9bb 27af a4bd 2869 36be 5575 613c
000000b0: 168b 27be 52fc 733d 1712 b03c 7937 833c
000000c0: 08cb 19be 7d75 64bc 6d7f 51be ff41 00be
000000d0: b7ce 82be 275b ddb9 f491 89bd a8c6 10be
000000e0: d019 0bb9 baad a83c e621 49be 8b92 c2bc
000000f0: 996b ceba dc58 53be 93bd 20bd 535d 47bd
00000100: c03a e9bd 1f8f 4e3d 4cf1 9bbd 49c9 7ebe
00000110: 045f febc bf0d 01be 6234 64be 0555 58be
00000120: f552 f5bd a6c7 29bd 39c4 14be d413 27be
00000130: da4a 99bd 4baf fdbd 4bc7 bbbd f5df 03be
00000140: 246d 5ebe edfb 9dbd 70c0 9e3d 764c 00bc
00000150: 7121 7fbd d9b5 103c b81c db3d efa9 8dbe
00000160: 6785 febb bc8e 86bd fb7d ccbd 97f1 6ebd
00000170: 1825 6dbe fa3f 9fbe c64f 14be 9c43 85bb
00000180: 877b 5ebe fd49 57be e2e3 19be 2ee7 dabc
00000190: 3d08 91be a86a d93d 5ad5 96bd 8ad1 a8be
000001a0: ea64 9d3e b6e4 b43d b473 0abf c800 8dbe
000001b0: 727f 253f 450b 123e 211b b23e 21c7 fabe
000001c0: 6d20 883e 67e5 813f 1a5b 02be cb8b 0b3e
000001d0: 66f7 d3be 65f4 ed3c 00b8 cf3e c440 f03d
000001e0: 4036 3abe 12e6 903e 4eba bbbe 220c 7b3e
000001f0: ae68 c63e 5a7d ce3d e80a 803e 3769 b43f
00000200: 1986 aabe cc50 6b3e 2e74 67bf a522 3cbe
00000210: 3556 b23e d0d6 1dbf 5323 1bbd daec 06bf
00000220: fc8d 383f c04d a33e 6907 443d 6d21 22be
00000230: 43f0 e7be f0c3 fa3d 429f 8abe ccc2 1abf
00000240: db09 423e 822b 603f df95 eabd ae32 203e
00000250: b1fe 68be 8fa1 903e 33ea 1bbe b19b 9dbc
00000260: c3ca d83b 5761 143f 1ed3 033e 231d e2bd
00000270: 5bb4 3ebf a095 853e 596b 803c bfa4 af3d
00000280: e6fa 903e 5883 26bf f8c9 aebf 742f 2fbd
00000290: 2e99 52be 42af 153e 9442 693e c99c b43d
000002a0: b40e 0c3d be60 4f3e d256 033f 957c b4bc
000002b0: ae03 1b3e 2df1 1bbe 03bd 053b 57cc 11bf
000002c0: b190 84bc 5149 7fbd fd13 013f d502 713e
000002d0: 32ea 3a3f 53ca 0e3f 6e28 a6bc b3c2 093f
000002e0: 619f a1bd 5c1d 5fbd f8e6 42bf b0cf 6dbf
000002f0: 817c 573e 3100 093d 596a d13d 9307 74be
00000300: 4d6b 1e3c 5951 303f 2c63 8abe c061 bcbd
00000310: 873f 22bd 38fc 77be fedb e0be 1e9d bb3e
00000320: ab6c 42be 251f 4cbd 1467 2fbe 3ed3 58bd
00000330: 5fbc 14be 8bca a8bd f9b7 1bbd 9153 033e
00000340: 1b55 ccbe b448 25be 8797 1bbe cf91 11be
00000350: 1176 02bd a250 d2bd 1a63 28be db97 d33c
00000360: 7182 e7bd ba20 d1be 4d4c f1bd 6031 40be
00000370: fdd8 bd3c a3da 5abd a427 b7bd 0b31 7cbd
00000380: 0e6f 59be 8c2e 26be ea63 c2bc da3c a2bc
00000390: 0248 65bd 6fc7 cfbd 54d0 d8bd ef8c 613d
000003a0: f75c d7bd d90d 6a3d 5508 9abb 3f3c f8bd
000003b0: 91b1 88bc 9aa1 98be 8081 ccbd 04f3 86bd
000003c0: e995 93bd 84d6 57bc a134 abbd 7b5f 89be
000003d0: b07c dbbd b091 afbd df8c d6bc 0e60 223d
000003e0: d0f3 00be 0191 cb3c cf87 583d 7bfb 93be
000003f0: 874f 77bf b1ca 4cbe 0be1 bbbf 3da7 7d3e
-0.06382917 -0.21483482 -0.076013 -0.14221635 -0.15812898 -0.22248508 -0.16222696 -0.13116644
0.0480868 0.044581823 -0.040118344 -0.010877085 -0.07176086 0.015528615 -0.04120216 -0.090395324
-0.021048283 -0.14686593 -0.0010467826 -0.13475055 -0.12959026 -0.11210269 -0.16178118 -0.09360153
-0.043589193 -0.22962987 -0.18096296 -0.15189 0.025542341 0.0358609 -0.19913246 -0.023996975
0.016251517 -0.18243279 0.05671568 -0.026932292 -0.027380861 -0.09255838 -0.12805238 -0.18726869
-0.005180104 -0.0804122 -0.17813551 0.013760884 -0.16361651 0.059566803 0.021493 0.016017662
-0.15018857 -0.013944027 -0.20458765 -0.12525176 -0.25548336 -0.0004222032 -0.067172915 -0.14138281
-0.00013265689 0.020590652 -0.19641837 -0.023751518 -0.0015748619 -0.20639366 -0.039243292 -0.048672985
-0.11388159 0.05042946 -0.07614383 -0.24881472 -0.031051166 -0.126029 -0.22285607 -0.21126182
-0.119787134 -0.041450165 -0.14527978 -0.16316158 -0.0748498 -0.1238695 -0.091688715 -0.12878402
-0.21721321 -0.07714067 0.07751548 -0.00783073 -0.06228775 0.008832418 0.10698837 -0.27668712
-0.0077673676 -0.06570193 -0.09984966 -0.058335867 -0.23158681 -0.31103498 -0.14483556 -0.0040668976
-0.2172681 -0.21024318 -0.15028337 -0.026721563 -0.28326598 0.10616046 -0.07364912 -0.32972366
0.30741054 0.08832686 -0.540828 -0.2753966 0.6464759 0.14262111 0.34786323 -0.48980048
0.2658724 1.0148133 -0.12730065 0.13627546 -0.41399688 0.0290472 0.40570068 0.11731103
-0.18184757 0.2830053 -0.36665577 0.24516347 0.3875174 0.10082503 0.2500832 1.4094609
-0.33305433 0.2298004 -0.9041165 -0.18372591 0.34831396 -0.616559 -0.037875485 -0.52705157
0.7209165 0.31895256 0.04785863 -0.15833063 -0.45300493 0.12244403 -0.2707463 -0.60453486
0.18949072 0.8756639 -0.11454367 0.15644333 -0.22753407 0.2824826 -0.15226059 -0.019239279
0.006615968 0.5796103 0.12873504 -0.11040714 -0.7449395 0.26090717 0.015676187 0.08576345
0.2831642 -0.65044165 -1.3655386 -0.042769864 -0.20566246 0.14617637 0.22779304 0.08818967
0.03419371 0.20251748 0.5130435 -0.022032062 0.15138122 -0.1522872 0.002040685 -0.5695242
-0.016182275 -0.06232578 0.50421125 0.23536237 0.73013604 0.5577747 -0.02028295 0.5381271
-0.07891727 -0.05447136 -0.7613368 -0.9289503 0.21043588 0.03344745 0.10225362 -0.23831014
0.009669137 0.68874127 -0.27028787 -0.09198332 -0.039611366 -0.24217308 -0.4391784 0.36643308
-0.18986766 -0.04983439 -0.17129165 -0.05293583 -0.14524983 -0.08241757 -0.038017247 0.12824847
-0.3990868 -0.16141015 -0.15194522 -0.14215778 -0.03185088 -0.10269286 -0.16444054 0.025829246
-0.113041766 -0.4084528 -0.11782131 -0.18768835 0.023174757 -0.053431164 -0.08943108 -0.06157021
-0.2123377 -0.16228694 -0.023729283 -0.019804407 -0.055976875 -0.10145461 -0.105866104 0.055066045
-0.105157785 0.057142112 -0.0047007003 -0.12120866 -0.016686233 -0.29810792 -0.09985638 -0.0658932
-0.072063275 -0.013173703 -0.083596475 -0.26830658 -0.10717142 -0.085727096 -0.02619022 0.039642386
-0.12593007 0.024849417 0.052863892 -0.28902802 -0.96605724 -0.19999196 -1.4678053 0.24770828

fc2.bias f4 [30]
00000000: 6cde 10be 038a 28be af48 cb3e 4db2 e33e
00000010: fd62 d4bd a670 143f 343d 50be 5772 033f
00000020: b26a 903e e3d7 2f3f 0e6d 0b3f 356a b43e
00000030: 8c57 4a3f fdf1 3dbe 4585 453d ce47 ab3e
00000040: 2c33 303f d4de bf3f d90f d23e 8cad 4a3f
00000050: a73a 413e 027e 59bd 39b0 b83e 344c 083f
00000060: 4d4d 4f3f 6dad 473e a8c7 733f 950f ae3d
00000070: 48d7 543f 478e 5abd
-0.14147347 -0.16458897 0.3970389 0.4447197 -0.10370443 0.5798439 -0.20335847 0.51346344
0.28206402 0.6868879 0.5446328 0.3523728 0.79039836 -0.18549342 0.0482228 0.3345322
0.6882808 1.4989877 0.41027716 0.7917106 0.1887003 -0.053098686 0.36071947 0.53241277
0.80977327 0.1949975 0.95226526 0.08499066 0.83140993 -0.053358342

fc3.weight f4 [20, 30]
00000000: 1b69 35be 1814 77bc 6574 91be ac65 82be
00000010: 2715 313e 41e8 013b cc66 babd 6cbf b93d
00000020: 56ab 9dbe 8555 923d 381e b53d eda7 f4bd
00000030: eaf2 32be 2797 ffbd 31f5 d2bd 6812 8cbe
00000040: e514 d7bd 961b 0abe efaf 08bd 3da8 11be
00000050: abe5 23be 7c13 c2bd fb9d 0abe c319 2fbd
00000060: 03a9 8f3b 6f04 a4be bb52 89be 37b2 2dbc
00000070: aa63 e2bd 6a54 03be 1e96 863d 317e eabd
00000080: d413 6abe 0074 4dbe fc1b 08be 4588 44bd
00000090: b818 9c3d 1df2 0cbe 9937 d33c 4668 f03d
000000a0: 952c 9abe 8f3b ccbe 5b29 aabe cc45 96be
000000b0: d9e8 2abe c798 123d e426 16be 154a 6fbe
000000c0: 3823 a6be 1606 e6bc f8b3 ff3d bcec 3fbd
000000d0: 1b94 a03d 8c5f 5abd a9b1 99be 53ca 29bf
000000e0: eda3 5fbd fea6 203d 2d8c 3e3e 9a19 b3bd
000000f0: 2998 123d dfa1 3abc 7f06 59be 3975 1fbe
00000100: 6ff2 043e fe6b 0c3e e64c 4c3d 0144 3fbe
00000110: a237 803d 4365 843d 41d4 0b3e 3a01 f03e
00000120: ff8f 68be 502c 113e 27fe 9d3d e734 863e
00000130: 695d 4cbd 767e 46be 15af 26be ca76 03be
00000140: 0d79 babd b86c d93d fa2d 31bf 076c b0bd
00000150: 0432 0ebe 434a da3d 8e35 16bd 041e d8be
00000160: 9fbb 123e 2088 92bd db18 1fbe fe05 8abd
00000170: 2e1b 39be 41d3 2a3d 43b7 ca3d 9716 03be
00000180: 5b83 2bbd f28b fcbc f111 d03c 6db2 943c
00000190: fbb3 42be 5951 06be 68ce 5fbe d60b 13be
000001a0: 2b0e 1fbe 914c 68be 08cb 19bd 89ce 5bbe
000001b0: ef44 e13c 2915 98bd f6a6 50be e0e9 90be
000001c0: 9f24 7bbd ef94 24be 832f 64be 4532 17be
000001d0: d962 3d3d 2ee4 88be e341 903c 6e98 0e3c
000001e0: 2e0f 02be fbae d4bc eb35 803d e6a7 3fbe
000001f0: 1ebc 123d 5b33 47bf 59f3 0dbe a74f 19be
00000200: 7afc 69bd b5c1 0fbe d314 efbe 360b 4abf
00000210: 39df 1d3e b497 9fbd fc86 e23d 317e e73e
00000220: a483 f2be 78aa 023f a870 263e e68a 1ebf
00000230: 4ca4 b63e e162 2dbe 4912 fd3e 3e6c a53e
00000240: 34a6 04bf 77d3 f1be 7e0e 043f 8544 8d3e
00000250: a9b1 013f c62c 4bbd 98e7 e43d 6a22 41be
00000260: 9351 4ebf 2a50 a0bf 7870 74be e3ca f6be
00000270: 1ed5 d23d 6f6a 23bf 6e03 d9bf 1c66 a63e
00000280: 1f7b 00be 57db e5bd c4be 34bf 7182 103d
00000290: 40e5 acbe 8c3f 03bf d043 35bf f258 8f3e
000002a0: f37e acbf b2e5 e8be 0f41 26bf 7dad bdbf
000002b0: 812f ccbe 724b dbbd 0c27 61bf 60c8 4ebe
000002c0: 0a49 bf3e d3f4 43bf d6eb f0bc fb65 1fbd
000002d0: 569f 40bc a6d5 4bbe 37ea 903f 8f9e dcbe
000002e0: ddf0 34be 81b9 08be 7257 df3d ae07 a9be
000002f0: b76d 71bf 767c f8be e650 2abf e7a0 2e3f
00000300: 23da 573f 2904 3bbf 1220 0fbf d008 65bf
00000310: 13a9 fdbd 5c40 84be 4727 4fbf 1604 e2be
00000320: bf8b f0be cc39 96be b192 8fbf f4ff ffbe
00000330: 42c9 e7be 4295 253f 0837 d3be 2c9a c7bf
00000340: ce0f 293c f2a0 fb3d ca2d 89be 2711 1abc
00000350: d043 06bd 4ce7 e8bd 961c c1be 69ea 55bf
00000360: 9723 9ebc 2598 37be 0cee 3dbe e4dc 2c3e
00000370: 6655 06bf 1af0 0dbf 2abd 7bbe 9070 adbe
00000380: bbcc 81bd b25e 023e e801 e0be 7b08 1b3f
00000390: 602d f5be 43d8 c3be b6bb 823e c024 01be
000003a0: 0a01 413e f527 9a3e ba7b 24bf 6114 cc3e
000003b0: 340a 023f 5b79 183d 78ad 1c3f 933c 863c
000003c0: 4c39 163e 09d6 0abc 37b1 8fbd ee4b d4bd
000003d0: 5623 e1bd ae6d 42be 24d1 1cbd e036 a6be
000003e0: dd70 9cbd 1ca2 5d3e e0c4 153e 3745 883e
000003f0: 6e34 aabe 5049 febe 4ef1 143e 25a4 203e
-0.17715876 -0.015080474 -0.28409114 -0.25468194 0.17293225 0.0019822272 -0.09101638 0.09069714
-0.3079478 0.07145218 0.088436544 -0.11946092 -0.17475477 -0.12480002 -0.10300673 -0.27357793
-0.10502032 -0.13487086 -0.03337091 -0.14224334 -0.1600558 -0.094763726 -0.13536827 -0.042749178
0.0043841614 -0.32034633 -0.2682093 -0.010601572 -0.11054166 -0.1282517 0.06571601 -0.1144985
-0.22859126 -0.20063782 -0.13291925 -0.04798152 0.07621902 -0.13764234 0.025783347 0.117386386
-0.30112138 -0.3988919 -0.33234677 -0.29350126 -0.16690387 0.03579023 -0.14663273 -0.23368104
-0.32448745 -0.028079074 0.12485498 -0.046856627 0.07840749 -0.053313777 -0.30018356 -0.6632435
-0.05459969 0.039221756 0.1860816 -0.087451175 0.035789642 -0.011391132 -0.21193884 -0.1557206
0.12983106 0.13713071 0.049878024 -0.18678285 0.06260611 0.06464627 0.13655187 0.46875936
-0.2271118 0.1417706 0.07714491 0.26212236 -0.04989377 -0.19384179 -0.16277726 -0.12838283
-0.0910512 0.106164396 -0.6921078 -0.086143546 -0.13886267 0.106586955 -0.036672167 -0.422104
0.14329384 -0.0715487 -0.15536825 -0.06739424 -0.18076774 0.041705374 0.09898236 -0.12801586
-0.041873317 -0.03082845 0.02539918 0.018151486 -0.1901397 -0.13116969 -0.21856081 -0.14359984
-0.15532748 -0.22685458 -0.03754714 -0.21465506 0.02749869 -0.07425911 -0.2037619 -0.28303432
-0.06131422 -0.16072439 -0.2228375 -0.1476527 0.046236847 -0.26736587 0.017609542 0.008703334
-0.12701103 -0.025962343 0.06260284 -0.18716392 0.035823934 -0.7781274 -0.13862361 -0.14971791
-0.057125546 -0.14038737 -0.46695575 -0.78923357 0.15417184 -0.07792607 0.110609025 0.45213464
-0.4736606 0.51041365 0.16253912 -0.6193069 0.35672224 -0.1693225 0.49428013 0.32309145
-0.51816106 -0.47231647 0.51584613 0.2759134 0.5066171 -0.049603246 0.111769855 -0.18860784
-0.8059322 -1.2524464 -0.23871028 -0.48201665 0.10294555 -0.6383428 -1.6954172 0.32499778
-0.12546967 -0.112234764 -0.70603585 0.03528065 -0.33768654 -0.5126884 -0.708066 0.27997547
-1.3476242 -0.45487744 -0.6494302 -1.481857 -0.39879993 -0.107077494 -0.87950206 -0.20193624
0.37360412 -0.7654545 -0.02940933 -0.038915616 -0.011756739 -0.19905719 1.1321477 -0.4308972
-0.17670007 -0.13352014 0.10905351 -0.33013672 -0.94308037 -0.48532456 -0.6652969 0.6821427
0.84317225 -0.7305322 -0.5590831 -0.8946657 -0.12385764 -0.25830352 -0.8091931 -0.44143742
-0.46981618 -0.2934097 -1.1216642 -0.49999964 -0.45270735 0.64680874 -0.41252923 -1.5593925
0.01031871 0.12286557 -0.26792747 -0.0094035035 -0.032779515 -0.113722414 -0.37717122 -0.83560807
-0.01930408 -0.17929132 -0.18547839 0.16881138 -0.5247406 -0.5544449 -0.24583879 -0.3387494
-0.06337877 0.12731436 -0.43751454 0.60559815 -0.4788618 -0.38250932 0.25533837 -0.12611675
0.18848053 0.3010861 -0.6425129 0.39859298 0.5079682 0.03722511 0.6120219 0.016386306
0.14670295 -0.0084738815 -0.07016223 -0.10366045 -0.10993068 -0.18987152 -0.03828539 -0.3246374
-0.076387145 0.21643871 0.14625883 0.26615307 -0.33243126 -0.49665308 0.14545175 0.15687616

fc3.bias f4 [20]
00000000: ef5e a4be c8be de3e 1aa1 2f3f 2626 99be
00000010: 77de 3c3f 1d7f f3be 318d 8d3e ea06 5e3f
00000020: 2755 8b3f f20d 813f 7cbe 8f3e 56b6 babf
00000030: f99a 683f 6a8f a2be 2a59 b23e 2c61 29be
00000040: 4a15 8fbe b111 7a3f 2682 0d3e dcec cfbe
-0.3210368 0.4350493 0.68605196 -0.29911917 0.73776954 -0.47557917 0.27646783 0.867293
1.0885361 1.0082381 0.28075016 -1.4586895 0.9086147 -0.3175004 0.34833652 -0.16540974
-0.2794593 0.97683245 0.13819179 -0.40610397

fc4.weight f4 [2, 20]
00000000: 47a1 353c 64f3 023e 03f1 e73c 7e88 343d
00000010: fa04 1bbc 088b df3d f3a2 aebd 48b5 5b3b
00000020: d910 a63d b110 b43e 53f9 233c c6a5 f9bc
00000030: d40d 99be d1d4 75bd ef34 d1bd 07ed 5d3e
00000040: 5368 7cbd aa7e b33d 9d0e 07be a7b0 c5bd
00000050: cd70 28be 9e94 8e3d eb79 97bb cbcf 4fbd
00000060: fdab 353e 7fe7 313e 9df3 f93d 5181 a83d
00000070: b667 013d 5a36 dcbe c959 afbd 8e8b 6fbe
00000080: 2e72 9b3e a173 1d3d 4a27 17be 45a1 683d
00000090: 4c28 18bd ce35 d8bb 8d06 78bd c724 253e
0.011085815 0.12788159 0.028313166 0.04407548 -0.009461636 0.1091519 -0.08527174 0.00335248
0.08108682 0.35168985 0.010008174 -0.030474555 -0.29893363 -0.06001741 -0.102151744 0.2167245
-0.06162293 0.08764394 -0.13189168 -0.096528344 -0.1644928 0.0696194 -0.004622688 -0.050735276
0.1774139 0.17373465 0.12204669 0.0822779 0.031593047 -0.43010217 -0.08562047 -0.2339308
0.3036055 0.03844035 -0.14761081 0.056794424 -0.037147805 -0.006598211 -0.060553122 0.1612731

fc4.bias f4 [2]
00000000: 66c9 4b3f dbd5 19bf
0.79604185 -0.6009194
