Sample_Based_Extension/UNSW/UNSW_Defense/Free_Adversarial_Training/Free_Adversarial_Training.pt (torch, 23576 bytes, 8 tensors)

fc1.weight f4 [50, 56]
0	0xbda18e90	-0.0788852
1	0xbe0bf34b	-0.13667028
2	0xbdad0b53	-0.084494255
3	0x3d89bcee	0.067254886
4	0x3d5edfb6	0.054412566
5	0xbd1b267b	-0.037878495
6	0xbdeba1eb	-0.11505493
7	0xbd6770c4	-0.056504026
8	0x3dbcda82	0.092213646
9	0xbbe31e33	-0.0069310903
10	0xbd624509	-0.05524162
11	0x3bf5e510	0.007504113
12	0xbd039a5b	-0.032129627
13	0xbe0f025e	-0.13965747
14	0xbc92eb9c	-0.017934613
15	0xbe12c558	-0.14333093
16	0x3de79262	0.11307217
17	0xbe041ff9	-0.12902822
18	0xbae23f54	-0.0017261305
19	0xbd4a77e4	-0.049430743
20	0xbdaa97df	-0.08329748
21	0x3cf7fa12	0.03027061
22	0x3cd57843	0.026058322
23	0xbdffdc7e	-0.124932274
24	0xbdd908d2	-0.105973855
25	0xbde5f55b	-0.112284385
26	0x3d1c0f50	0.03810054
27	0xbdc45490	-0.095864415
28	0xbda5ecee	-0.081018314
29	0xbd456975	-0.048196275
30	0xbbabcfeb	-0.0052432916
31	0x3d9781ab	0.07397779
32	0x3d543951	0.051812474
33	0xbcd11883	-0.025524383
34	0xbd8d4fd4	-0.06899992
35	0xbe0c9cdf	-0.13731717
36	0x3d45c0c5	0.048279542
37	0x3d834a21	0.06410623
38	0xbc82547e	-0.01590943
39	0xbdd72de2	-0.10506798
40	0xbd1b3cec	-0.037899897
41	0xbe03b9a0	-0.12863779
42	0xbb8518f3	-0.004061812
43	0x3da5fe26	0.081051156
44	0x3d333674	0.043753102
45	0xbd4ff225	-0.050768036
46	0x3c9af10d	0.01891377
47	0x3defa2e5	0.117009915
48	0x3c1a11bf	0.009403645
49	0x3c1281e0	0.008942097
50	0xbdd58de4	-0.10427454
51	0x3c9b93b4	0.018991329
52	0xbbc5ff19	-0.006042373
53	0xbbb93c1e	-0.0056529185
54	0x3c48262a	0.01221613
55	0xbd794f41	-0.060866598
56	0xbe8a1566	-0.2696945
57	0x3f0becdc	0.54658294
58	0xbb90c588	-0.004418079
59	0x3e380ce5	0.17973669
60	0x3b754bfe	0.0037429328
61	0xbdb8ce2d	-0.090237
62	0xbdd28567	-0.10279351
63	0xbdc0710e	-0.093965635
64	0x3e1f537f	0.15559195
65	0x3df8ef18	0.121549785
66	0x3e2fa8bb	0.1715421
67	0xbcc38da6	-0.023871254
68	0x3d0b4259	0.03399882
69	0xbde5223b	-0.111881696
70	0xbd925254	-0.07144609
71	0xbdc8748a	-0.09787853
72	0x3f27ee5a	0.6559807
73	0x3c5828c1	0.01319331
74	0x3b3e04ff	0.0028994677
75	0x3df28f3a	0.118437245
76	0xbe23e64c	-0.1600582
77	0x3d30d26f	0.043169435
78	0xbd46f236	-0.048570834
79	0xbe30bc11	-0.17259242
80	0xbee66dea	-0.45005733
81	0x3dcd9d3d	0.100397564
82	0xbdb5d065	-0.08877639
83	0x3e161188	0.14655125
84	0x3e947e86	0.2900278
85	0xbe20bcad	-0.15696974
86	0xbde9de9d	-0.11419413
87	0xbddf503f	-0.109039776
88	0xbc36cbe1	-0.011157007
89	0x3ee73585	0.4515802
90	0x3defea59	0.1171462
91	0xbd4bd989	-0.049768005
92	0xbe065dda	-0.13121739
93	0xbdc89a82	-0.09795095
94	0xbe122a17	-0.14273869
95	0xbe836e8b	-0.25670275
96	0xbe42721f	-0.18988846
97	0x3b780ded	0.0037850097
98	0xbd2d41ae	-0.042298965
99	0x3cb16da9	0.021658735
100	0xbdbd44d9	-0.09241647
101	0x3ca71cc4	0.020399459
102	0xbe34ccfa	-0.17656317
103	0xbe33fa3a	-0.17575923
104	0xbe9528b5	-0.2913262
105	0x3e12cffd	0.14337154
106	0x3d8a6860	0.06758189
107	0xbc7c6e3e	-0.015407143
108	0x3c189df2	0.009315001
109	0x3d8d69ea	0.06904967
110	0x3ddfa3a1	0.109198816
111	0x3ed3e532	0.413858
112	0x3e90468c	0.28178823
113	0xbde8ce4c	-0.11367473
114	0x3cbe4d64	0.023230262
115	0xbbb77998	-0.005599212
116	0x3ca60c7d	0.020269627
117	0x3f7bfc30	0.9843168
118	0xbe49f6e5	-0.19723089
119	0x3f0bf8c8	0.54676485
120	0x3d278435	0.040897567
121	0xbe63c7ba	-0.22244158
122	0xbdf08de0	-0.117458105
123	0xbd9a48de	-0.075334296
124	0x3e0073fb	0.12544243
125	0xbee8be1a	-0.45457536
126	0x3e722f89	0.23650946
127	0x3c9763b9	0.018480169
128	0xbcc13d53	-0.023588812
129	0xbe552780	-0.2081585
130	0x3cbb4223	0.022858685
131	0x3d067b09	0.03283218
132	0xbd81669d	-0.063184
133	0xbd949f51	-0.0725695
134	0x3db1afc1	0.086761005
135	0xbdcf2a4f	-0.101154916
136	0x3e58ccf4	0.21171933
137	0x3e26b7f5	0.16281112
138	0xbe9b952e	-0.30387253
139	0xbe41f77c	-0.18942064
140	0xbe01c0f5	-0.12671264
141	0xbea4245d	-0.32058993
142	0x3bb6ec14	0.005582342
143	0xbe4f693a	-0.20254984
144	0x3cd2ad14	0.025717296
145	0xbe2802ec	-0.16407365
146	0xbd84ec6a	-0.06490405
147	0x3cae2457	0.021257563
148	0xbdc78d7f	-0.09743785
149	0xbcac255b	-0.021013906
150	0x3c8ef43e	0.017450448
151	0xbc7078d6	-0.014677247
152	0xbd2c390f	-0.042046603
153	0xbe1021a7	-0.14075337
154	0xbdb3b3fe	-0.08774565
155	0xbe07c8aa	-0.13260141
156	0x3f061d29	0.52388245
157	0xbd5ce30f	-0.053927477
158	0x3ea6324e	0.32460254
159	0x3e80a23a	0.2512377
160	0x3f5d9e08	0.8656926
161	0xbf18756c	-0.5955417
162	0x3d3b75f5	0.04576679
163	0xbdf60e29	-0.120144196
164	0xbd7041a4	-0.05865635
165	0x3eb0413b	0.34424767
166	0x3ec50609	0.38481167
167	0x3d883b1f	0.066519015
168	0x3e5bb461	0.21455528
169	0xbe02a31e	-0.12757537
170	0x3e5f6825	0.21817072
171	0x3e12c5b9	0.14333238
172	0x3a36c69c	0.0006972344
173	0x3f007c71	0.5018988
174	0xbc78ef53	-0.015193778
175	0x3e08f3c1	0.13374235
176	0xbe3ed392	-0.18635395
177	0xbf6ad0ef	-0.9172506
178	0xbf05e700	-0.52305603
179	0xbd13514c	-0.035966203
180	0xbd0782bc	-0.033083662
181	0x3f3af3e1	0.7302838
182	0x3bfc664b	0.007702624
183	0xbb906cb0	-0.004407488
184	0xbdc23219	-0.094822116
185	0x3e03833f	0.12843035
186	0x3f019159	0.5061241
187	0x3d17edf2	0.037092157
188	0x3de94277	0.1138963
189	0x3ee92174	0.45533335
190	0xbd79d001	-0.060989384
191	0x3d369346	0.044574045
192	0xbe34437b	-0.17603867
193	0xbd31e026	-0.043426655
194	0x3eccbe26	0.39988822
195	0xbe22f7e9	-0.15914883
196	0xbf3eda34	-0.745517
197	0xbc72a698	-0.014810227
198	0xbd5330bc	-0.05156015
199	0xbbed6d67	-0.007245708
200	0xbe03b816	-0.12863192
201	0xbec628f6	-0.38703126
202	0xbe85192c	-0.25995767
203	0xbec45902	-0.38349158
204	0xbeb7de2c	-0.3591169
205	0xbeaa2fa8	-0.33239484
206	0xbee9f1d2	-0.45692307
207	0xbdcb11f6	-0.09915535
208	0xbcd7f892	-0.026363645
209	0x3eb063cc	0.3445114
210	0xbd2f0ba8	-0.042735726
211	0x3ca841cc	0.020539187
212	0xbc3a8e3b	-0.011386449
213	0xbb51bd1f	-0.0032003594
214	0x3ecd8617	0.40141365
215	0x3eb0df34	0.3454529
216	0x3dbccf01	0.0921917
217	0xbf1da998	-0.61586905
218	0xbe464442	-0.19361976
219	0xbe0aa07c	-0.13537782
220	0xbe2cbc09	-0.16868605
221	0xbdd6b1c3	-0.10483124
222	0x3c4f88e2	0.012666913
223	0xbe7d6a79	-0.24747647
224	0x3ec4e4eb	0.384559
225	0x3ea2cb4a	0.31795722
226	0xbd999c45	-0.07500509
227	0xbd91fd40	-0.07128382
228	0xbc0dc99e	-0.008654026
229	0x400fd086	2.2471023
230	0x3df07bec	0.11742386
231	0x3ea4e195	0.32203355
232	0xbe5150cb	-0.20440976
233	0xbc9bdf05	-0.019027242
234	0x3fb89074	1.4419084
235	0x3e12f5f4	0.14351636
236	0x3dbebee5	0.09313754
237	0x3e0e7084	0.13910109
238	0xbc2e7411	-0.01064779
239	0xbc5d3b1f	-0.013502865
240	0x3e8f5366	0.27993315
241	0x3d8d72c8	0.069066584
242	0xbd5b3827	-0.053520348
243	0xbcd1f29d	-0.025628382
244	0xbdc2aee4	-0.09506014
245	0x3f0fe993	0.5621578
246	0x3dd32730	0.10310209
247	0xbfaea360	-1.3643608
248	0xbdd46b05	-0.10371975
249	0xbd939627	-0.07206374
250	0x3f4245c1	0.75887686
251	0xbe88c360	-0.2671156
252	0x3f6d5935	0.92714244
253	0xbd176778	-0.03696391
254	0xbe85edc9	-0.26157978
255	0xbe411277	-0.188547

fc1.bias f4 [50]
0	0x3c87c080	0.016571283
1	0xbe5c2b04	-0.21500784
2	0xbe23f345	-0.16010769
3	0xbe007431	-0.12544324
4	0x3cf1e9ec	0.029530488
5	0x3cf54dd4	0.029944338
6	0x3cd205ed	0.025637591
7	0x3e14b1f3	0.14521007
8	0xbe8c371a	-0.2738579
9	0xbde6ff2c	-0.11279139
10	0x3e94accc	0.29038084
11	0x3cfe1dfb	0.031020155
12	0x3e2481eb	0.16065185
13	0x3e1c8bc4	0.15287691
14	0x3dcf8e21	0.10134531
15	0xbb6a3bd5	-0.003574123
16	0x3d9bb720	0.07603288
17	0x3c784294	0.015152592
18	0x3cee3a53	0.029080546
19	0xbe1402b1	-0.14454152
20	0x3d5e4714	0.054267004
21	0xbdcf79b1	-0.10130633
22	0x3e6893e2	0.22712663
23	0xbd234f74	-0.039870694
24	0xbdc82409	-0.09772498
25	0x3db624dc	0.08893749
26	0xbe112b57	-0.14176689
27	0x3cfaf63f	0.030634997
28	0x3dcbf169	0.09958155
29	0xbd052d5d	-0.032513965
30	0x3c5267c3	0.0128421215
31	0xbdd144bd	-0.10218189
32	0xbe20ec9a	-0.15715256
33	0xbcf952fd	-0.03043508
34	0x3c6b2d27	0.014354027
35	0xbd105a18	-0.03524217
36	0x3df6f5e7	0.12058621
37	0xbd6fb88b	-0.058525603
38	0x3e1734d6	0.14766249
39	0x3d92342a	0.07138856
40	0xbdabec9e	-0.083947405
41	0x3e27bce2	0.16380647
42	0x3e01b32d	0.12666006
43	0x3da8ddc9	0.08245427
44	0x3dc70b91	0.09719003
45	0xbc1d381c	-0.009595897
46	0xbc6749bd	-0.014116702
47	0x3e28f88c	0.16501063
48	0x3db39cb6	0.087701246
49	0x3d83f0c5	0.064424075

fc2.weight f4 [30, 50]
0	0xbda1105d	-0.07864449
1	0x3e60cfe0	0.21954298
2	0x3e025a3b	0.12729733
3	0x3dbd9501	0.09256936
4	0x3e3fcf2e	0.18731377
5	0x3e00e968	0.12589037
6	0x3ea04f13	0.3131033
7	0xbea7031b	-0.32619557
8	0xbd1923cc	-0.037387654
9	0xbcecc06b	-0.028900346
10	0x3e954926	0.2915737
11	0xbd683115	-0.056687433
12	0xbf12a65f	-0.5728511
13	0x3da24266	0.07922821
14	0xbd420ec6	-0.04737737
15	0xbd2f6c69	-0.042827997
16	0x3e3bbd78	0.18333995
17	0x3dd6547e	0.10465334
18	0xbd9cc6c6	-0.076551005
19	0xbe1bad15	-0.15202744
20	0x3ed66444	0.41873372
21	0xbb313a72	-0.0027042893
22	0x3d6e2150	0.058137238
23	0x3c496e27	0.012294329
24	0xbd734be7	-0.059398558
25	0x3eff414d	0.49854508
26	0x3ea03e92	0.31297737
27	0x3e80b71d	0.25139704
28	0xbf52002a	-0.820315
29	0xbe793471	-0.24336411
30	0x3e40705a	0.18792859
31	0xbe24b302	-0.16083911
32	0xbde5eeb2	-0.11227168
33	0x3f183c7d	0.594673
34	0xbe6d3c58	-0.2316755
35	0xbdc9bd56	-0.09850566
36	0xbca14596	-0.019686501
37	0x3e27290b	0.1632425
38	0x3f09a05f	0.5376033
39	0x3f0eb3a5	0.55742866
40	0xbdd8d5c9	-0.10587651
41	0xbf5868e4	-0.8453505
42	0xbd975e22	-0.07391001
43	0xbe84b56c	-0.25919664
44	0x3e12ea36	0.14347157
45	0xbda2845c	-0.07935402
46	0xbdb57845	-0.0886083
47	0xbf66f4bb	-0.9021718
48	0x3c7fa32d	0.015602869
49	0x3d7bc697	0.061468687
50	0xbd06d990	-0.032922328
51	0x3e35d557	0.17757164
52	0xbea822c0	-0.32839012
53	0xbde30570	-0.110850215
54	0xbe87ce03	-0.26524362
55	0xbe9d2d91	-0.30698827
56	0xbe0dea4b	-0.13858907
57	0x3d8be0ef	0.06830012
58	0x3e6239f6	0.22092423
59	0xbc99e1a3	-0.01878435
60	0xbdd75212	-0.105137005
61	0x3d312ad3	0.04325373
62	0x3ed7e552	0.42167145
63	0x3da2cd0a	0.07949264
64	0xbcc031fe	-0.023461338
65	0xbdbae5da	-0.09125872
66	0x3d257c0e	0.04040151
67	0x3e25f369	0.16206135
68	0xbe2e6049	-0.17028917
69	0x3dc02db3	0.093837164
70	0xbec990f5	-0.39368406
71	0xbe3a0a16	-0.1816791
72	0xbddacad4	-0.10683218
73	0xbd2a0762	-0.041510947
74	0xbe468fd8	-0.1939081
75	0xbe0037a6	-0.12521228
76	0xbdae513e	-0.085115895
77	0xbf1f64b7	-0.62263054
78	0x3f23b7b5	0.6395219
79	0x3e0e7e21	0.13915302
80	0x3cd3a76f	0.025836674
81	0x3e693499	0.2277397
82	0xbe13a34f	-0.14417766
83	0xbe4b1229	-0.19831146
84	0x3c991640	0.018687367
85	0xbdabb727	-0.08384543
86	0x3d8caead	0.06869254
87	0xbdadd144	-0.0848718
88	0x3dd21df1	0.10259617
89	0xbd9bd29c	-0.0760853
90	0xbc1ec4e9	-0.009690502
91	0x3f12b6f3	0.5731041
92	0x3d764b58	0.060130447
93	0x3dc743e5	0.09729747
94	0xbe28e9a1	-0.16495372
95	0xbdb78d6e	-0.089625224
96	0xbdc83fe1	-0.09777809
97	0x3f195b4f	0.5990495
98	0x3e0be169	0.13660206
99	0xbd1b940a	-0.037982978
100	0xbe0ee359	-0.13953914
101	0x3e439e10	0.19103265
102	0xbe005306	-0.12531671
103	0xbde96d23	-0.11397769
104	0xbe04fc08	-0.12986767
105	0xbe81af53	-0.25329074
106	0xbdb84c8d	-0.08998976
107	0x3d76f591	0.060292784
108	0x3e22f281	0.1591282
109	0xbd83754a	-0.064188555
110	0xbe081080	-0.13287544
111	0xbde438d9	-0.11143655
112	0x3f4eb8f3	0.8075096
113	0xbcda0650	-0.026614338
114	0x3e99bf91	0.30028966
115	0xbd89f8ab	-0.06736883
116	0x3dd5a026	0.104309365
117	0xbe72185e	-0.23642108
118	0xbb106e09	-0.0022038242
119	0xbe0a0d30	-0.13481593
120	0xbe7d669d	-0.24746175
121	0x3c836dc5	0.016043553
122	0x3e0a87c3	0.13528351
123	0x3cdecfe2	0.027198736
124	0x3e0ec26f	0.13941358
125	0xbe15ce50	-0.14629483
126	0x3da8838d	0.08228216
127	0xbe48eea2	-0.19622281
128	0x3f7e5977	0.9935526
129	0x3cb1fafd	0.021726126
130	0x3b253a46	0.0025211736
131	0xbcd7c1ad	-0.026337469
132	0xbddb5288	-0.10709101
133	0xbe6a1b77	-0.2286204
134	0x3e40e585	0.18837555
135	0xbce67061	-0.028129758
136	0xbe553784	-0.20821959
137	0x3e0d9de5	0.13829763
138	0x3d8d6fda	0.069060996
139	0xbd96a667	-0.073559575
140	0x3cb2b266	0.021813583
141	0x3fb499b8	1.4109411
142	0x3d35d574	0.044393018
143	0xbdc3273c	-0.09528968
144	0xbd96cf27	-0.0736373
145	0xbe19d7d2	-0.15023735
146	0x3ddee2ae	0.108830795
147	0x3f8264bc	1.0186992
148	0x3e35dbb3	0.1775959
149	0x3ea119a3	0.31464872
150	0xbd5ef5c5	-0.054433603
151	0x3f8e3a75	1.111159
152	0xbed7b7a0	-0.42132282
153	0x3e2448a8	0.16043341
154	0x3e2b4533	0.16725616
155	0xbeb9737f	-0.3622093
156	0xbd7ef86f	-0.062248643
157	0xbdf0b707	-0.1175366
158	0x3d4a62e7	0.049410727
159	0x3e8c9f49	0.27465275
160	0xbe2a39ad	-0.16623564
161	0xbdd86781	-0.10566617
162	0x3f355f59	0.70848614
163	0x3d53b2a7	0.051684048
164	0x3e0fd1b2	0.14044836
165	0xbdc75da7	-0.0973466
166	0x3cff2d74	0.031149603
167	0xbe1d8d4b	-0.1538593
168	0x3d942a40	0.07234621
169	0xbe279ad2	-0.16367653
170	0x3e197eb2	0.14989737
171	0xbe81c09a	-0.25342256
172	0x3ddbfbc1	0.107413776
173	0x3d8c0d74	0.068385035
174	0xbda82009	-0.08209235
175	0x3da1d021	0.079010256
176	0xbd747203	-0.059679043
177	0x3cec3416	0.02883343
178	0x3f3448d1	0.7042361
179	0xbdf14f89	-0.11782748
180	0x3dfa8b8a	0.12233646
181	0xbda2fa4e	-0.07957898
182	0xbea17631	-0.31535485
183	0xbe3d75e1	-0.18501998
184	0x3ed39ca5	0.41330448
185	0xbdbc8097	-0.09204214
186	0xbceca35a	-0.028886486
187	0xbb3943f8	-0.0028269272
188	0xbe01fed6	-0.12694868
189	0x3e01e585	0.12685211
190	0xbe567e76	-0.20946679
191	0x3f5ceac6	0.86295736
192	0x3ea7fbee	0.32809395
193	0xbe0268c0	-0.12735271
194	0xbd9037df	-0.070419066
195	0xbd4b7b15	-0.049677927
196	0xba0137d0	-0.0004929276
197	0x3f49f24a	0.7888533
198	0x3f03cee4	0.51487565
199	0xbcd3869e	-0.025821026
200	0x3d8dc41a	0.06922169
201	0x3f01de1e	0.5072955
202	0x3ef48166	0.47754973
203	0xbe06a793	-0.13149862
204	0x3f370e45	0.7150615
205	0x3e496508	0.19667447
206	0xbe7eb6b5	-0.24874385
207	0xbdfafc23	-0.122551225
208	0x3eefeb14	0.46859038
209	0xbd6d3579	-0.057912324
210	0xbdb2af1c	-0.08724806
211	0xbf1965a9	-0.59920746
212	0x3ef2e862	0.4744292
213	0x3efd31ea	0.49452144
214	0x3e1bef8e	0.15228102
215	0xbe1af01d	-0.15130658
216	0x3dc3b9b7	0.09556907
217	0x3e99ecd8	0.3006351
218	0x3e9868ff	0.29767606
219	0x3ea8039d	0.32815257
220	0x3f3d1b1b	0.73869485
221	0x3dfb442e	0.122688636
222	0xbd8a1501	-0.067422874
223	0x3e8cfebc	0.27538097
224	0xbe365ea3	-0.17809539
225	0x3cf2501a	0.029579211
226	0x3b2608a1	0.0025334733
227	0x3e5b4a89	0.21415152
228	0x3f2768f1	0.653945
229	0x3e9914ed	0.29898778
230	0xbde6109c	-0.11233637
231	0xbdae4a02	-0.085102096
232	0xbefffb54	-0.49996436
233	0x3e788cb7	0.24272428
234	0x3d990fe1	0.07473732
235	0xbed4a75a	-0.4153393
236	0x3e2b38d1	0.16720892
237	0x3d63968b	0.05556349
238	0xbe75cf13	-0.24004774
239	0xbddb32f6	-0.107030794
240	0x3e86a855	0.26300302
241	0x3fc5c93d	1.5452038
242	0x3ee59c6f	0.44845912
243	0xbe943523	-0.2894679
244	0x3e985bcd	0.29757538
245	0x3d89f7c3	0.0673671
246	0x3ef80cd1	0.48447278
247	0x3f6bf0fa	0.92164576
248	0x3e6d8e74	0.23198873
249	0xbc5790dc	-0.013157096
250	0xbc892a2e	-0.016743746
251	0x3e5c7699	0.21529616
252	0x3e5df56f	0.21675657
253	0xbdb749b1	-0.089496024
254	0x3f10c23c	0.5654638
255	0x3ddc469e	0.10755657

fc2.bias f4 [30]
0	0x3eb33c20	0.3500681
1	0x3dd89681	0.10575581
2	0x3b710280	0.0036775172
3	0xbedb8f4c	-0.42882764
4	0xbd88ff35	-0.06689302
5	0x3dd40afa	0.10353656
6	0xbe1754f9	-0.14778508
7	0xbc499240	-0.012302935
8	0xbebee476	-0.37283677
9	0xbe1b90c1	-0.15191938
10	0xbd9a8509	-0.07544906
11	0x3e6d2f47	0.23162566
12	0x3decd563	0.11564138
13	0x3e003d94	0.1252349
14	0xbd3a5eb9	-0.04550049
15	0x3e6b28e4	0.22964817
16	0x3d2de510	0.04245478
17	0xbe80d8b5	-0.25165334
18	0xbcbe97b5	-0.023265699
19	0x3e1dcf64	0.15411144
20	0x3e953e00	0.29148865
21	0x3d3c48e4	0.04596795
22	0xbe7048d8	-0.23465288
23	0x3e97e263	0.29664907
24	0x3dcd2490	0.10016739
25	0x3e1451cf	0.14484333
26	0xbeb20c54	-0.3477503
27	0xbe102a20	-0.1407857
28	0xbd022318	-0.03177175
29	0xbd7058ca	-0.058678426

fc3.weight f4 [20, 30]
0	0x3c8ac73e	0.01694071
1	0x3d9d6bdc	0.07686588
2	0x3e8ab755	0.27092996
3	0x3dc4e9cf	0.09614908
4	0x3dd059af	0.10173356
5	0x3e107b4b	0.14109533
6	0xbeb92702	-0.36162573
7	0xbddb396c	-0.10704312
8	0xbf1ca36b	-0.61186856
9	0xbdb00554	-0.08594766
10	0xbe365d54	-0.1780904
11	0xbd35ca82	-0.04438258
12	0xbe1becc0	-0.15227032
13	0xbf1f3702	-0.6219331
14	0x3d98e2ce	0.074651346
15	0x3e679b84	0.22617918
16	0x3eebf737	0.46087047
17	0x3df43698	0.119244754
18	0xbe416115	-0.1888469
19	0x3ec2023c	0.3789233
20	0x3d369a3e	0.04458069
21	0x3e7bfc8b	0.24608056
22	0x3dceb539	0.10093159
23	0x3e869c07	0.26290914
24	0x3e51c598	0.20485532
25	0x3e774e1f	0.24150895
26	0x3daec950	0.08534491
27	0x3f492b3c	0.78581595
28	0x3b95c675	0.004570777
29	0x3aa6fdd0	0.0012740437
30	0xbd468d31	-0.048474494
31	0x3e0b32f6	0.13593659
32	0x3e670b42	0.22562888
33	0x3de6d41f	0.11270928
34	0x3e8b697a	0.2722891
35	0xbdb2fdbc	-0.08739802
36	0xbeb16539	-0.3464754
37	0x3e126707	0.14297114
38	0xbf360dfb	-0.7111508
39	0x3e344a66	0.17606506
40	0xbdff77e5	-0.1247404
41	0x3da8b569	0.08237726
42	0xbe26fa6d	-0.16306467
43	0xbf23eaef	-0.64030355
44	0x3b8b0644	0.0042426903
45	0x3e6de7a6	0.23232898
46	0x3f07cb88	0.5304494
47	0xba479642	-0.0007613638
48	0xbd9b1f11	-0.07574285
49	0x3eb49d1c	0.35276115
50	0x3e280b14	0.16410476
51	0x3e438f3a	0.19097605
52	0x3e352ce1	0.17692901
53	0x3ee30dee	0.44346565
54	0x3eabd875	0.3356358
55	0x3e084dbd	0.13310905
56	0x3e5ee6d8	0.21767747
57	0x3f50568a	0.8138205
58	0xbd4c5a53	-0.049890827
59	0x3de55fa4	0.111998826
60	0x3e9b6e25	0.3035747
61	0x3ec77adb	0.3896092
62	0xbceac290	-0.028657228
63	0x3d55fd53	0.052243542
64	0x3eb15f00	0.34642792
65	0x3e548197	0.2075256
66	0x3f807822	1.0036662
67	0x3e2575ca	0.16158214
68	0x3e544953	0.20731096
69	0x3d8ce371	0.068793185
70	0x3c323b38	0.010878377
71	0x3e67b5bd	0.22627921
72	0x3d6565d9	0.056005333
73	0x3f808d1a	1.0043061
74	0x3dc9587e	0.09831332
75	0x3de4e866	0.11177139
76	0xbf348d0b	-0.70527714
77	0x3eaa5a44	0.33271992
78	0x3e5686df	0.20949887
79	0xbe6a7616	-0.22896609
80	0x3e18f4b6	0.149371
81	0x3e124316	0.14283404
82	0x3eca4cca	0.3951171
83	0xbe18a21f	-0.14905594
84	0xbebfe28e	-0.37477535
85	0xbdc78674	-0.09742442
86	0x3e8f6153	0.2800394
87	0xbf0faf64	-0.56127
88	0x3e3c64c0	0.18397808
89	0x3ce6df60	0.028182685
90	0x3e3c0243	0.18360238
91	0x3dbb89ff	0.0915718
92	0x3d810d09	0.063013144
93	0x3d1e3bc3	0.038631212
94	0x3e854ea7	0.2603657
95	0x3e1cccd6	0.15312514
96	0x3f541314	0.8284161
97	0x3e33e3be	0.17567345
98	0x3ed07d0f	0.40720412
99	0xbdbeb901	-0.093126304
100	0xbdbde6ea	-0.09272559
101	0x3da79f5c	0.08184692
102	0x3e14869f	0.14504479
103	0x3f527969	0.8221651
104	0xbd90595d	-0.07048295
105	0x3e99abb7	0.3001382
106	0xbf090d6f	-0.53536123
107	0x3e9d7c9c	0.30759132
108	0xbd93e2bc	-0.072209805
109	0xbd97603a	-0.07391401
110	0x3e73f598	0.23824155
111	0x3eb13817	0.34613106
112	0x3e39a09c	0.18127674
113	0xbe6e9d65	-0.23302229
114	0xbee66016	-0.44995183
115	0x3e1d9227	0.15387784
116	0x3dacef4f	0.08444082
117	0xbedc42b4	-0.4301964
118	0x3c1404b4	0.009034324
119	0xbcf8d206	-0.030373584
120	0xbe5ba45a	-0.21449414
121	0xbe04384c	-0.129121
122	0x3d403d20	0.046933293
123	0x3ec45858	0.3834865
124	0xbe5b0d23	-0.2139173
125	0xbda2cbd0	-0.079490304
126	0x3dbe20ab	0.09283575
127	0x3d86a821	0.06575037
128	0x3cecd584	0.028910406
129	0xbdb55961	-0.08854938
130	0x3e183dc6	0.14867315
131	0xbd8cbd99	-0.068721004
132	0x3d0edfab	0.034881275
133	0xbc6bec36	-0.014399579
134	0xbd723285	-0.05913021
135	0xbd7c8caa	-0.061657585
136	0xbe31f167	-0.17377244
137	0xbdd0b761	-0.10191227
138	0xbe31da55	-0.17368443
139	0x3cc97902	0.024593834
140	0xbcb195a9	-0.021677809
141	0xbe89544b	-0.26822123
142	0xbe553082	-0.20819286
143	0x3bb904b1	0.005646311
144	0x3c01ba76	0.007917991
145	0xbc8d8249	-0.017274039
146	0x3d344c34	0.044017985
147	0xbe0623a4	-0.13099533
148	0x3cf9652d	0.030443752
149	0x3e143b39	0.14475717
150	0xbe508c8f	-0.20366119
151	0xbd9bda69	-0.07610018
152	0xbded1129	-0.11575539
153	0xbe099f2e	-0.13439628
154	0xbdee27a7	-0.11628657
155	0xbc4437fb	-0.011976237
156	0xbca1795a	-0.019711185
157	0xbd9231ec	-0.07138428
158	0xbd29b6ed	-0.041434217
159	0xbbd83300	-0.0065978765
160	0x3db81ebe	0.089902386
161	0x3daa87a6	0.08326654
162	0xbd4505e0	-0.048101306
163	0x3c8e7e59	0.017394232
164	0xbd71125a	-0.058855392
165	0x3d824ba8	0.063620865
166	0xbdc16462	-0.094429746
167	0xbbe7cb54	-0.007073799
168	0x3db515f3	0.08842077
169	0xbdd9dc6b	-0.106377445
170	0xbd96cc72	-0.073632136
171	0xbbdd3eba	-0.0067518624
172	0xbce632c3	-0.028100377
173	0xbd857675	-0.065167345
174	0xbe1ee3ce	-0.15516588
175	0xbe1e04b5	-0.15431483
176	0x3dde05ee	0.10840975
177	0xbdc53c2c	-0.096306175
178	0x3da6c67e	0.08143328
179	0x3c92d45f	0.017923532
180	0xbeb7bc20	-0.35885715
181	0x3df88e0c	0.12136468
182	0x3bbd7d10	0.005782731
183	0xbc210e59	-0.009830081
184	0x3e1ae938	0.15128028
185	0x3e03e174	0.12878972
186	0xbe8d5425	-0.2760326
187	0x3df32b9d	0.11873553
188	0xbf058596	-0.5215696
189	0x3d6ce8cb	0.057839196
190	0xbdebc6f0	-0.11512554
191	0x3e478d83	0.19487576
192	0x3e6220fa	0.22082892
193	0xbf48d476	-0.7844919
194	0x3e49e770	0.19717193
195	0xbe5c3978	-0.21506298
196	0x3ebe595b	0.37177548
197	0x3bb3dc24	0.0054888893
198	0xbdf5ab08	-0.11995512
199	0x3e760261	0.24024345
200	0x3de5a82e	0.11213718
201	0x3e8253ac	0.25454462
202	0x3ce12054	0.027481236
203	0x3eeef0d0	0.466681
204	0x3e1b604e	0.15173456
205	0x3e8c6dcf	0.27427527
206	0x3bcc329e	0.00623162
207	0x3f1963b5	0.59917766
208	0xbe2b7320	-0.16743135
209	0xbdf248b3	-0.118302725
210	0xbdbb477a	-0.091444924
211	0x3d0d8f3a	0.03456042
212	0x3dbb7201	0.09152604
213	0x3dd79fd2	0.1052853
214	0x3e44d862	0.19223168
215	0x3e7a3978	0.24435985
216	0xbed3010a	-0.4121173
217	0x3e0f1e6d	0.1397645
218	0xbf38ed7b	-0.72237366
219	0x3e36c1ce	0.17847368
220	0xbdb7e017	-0.089782886
221	0x3e0417a2	0.1289964
222	0xbd3dec9e	-0.046368234
223	0xbf3858cd	-0.720105
224	0x3e5961a1	0.21228649
225	0x3d063fff	0.032775875
226	0x3ef4104b	0.4766868
227	0x3e7a2e11	0.24431635
228	0xbe66fb7d	-0.22556873
229	0x3ed75834	0.4205948
230	0x3e267ab9	0.16257752
231	0x3d3dcf2d	0.046340156
232	0x3ca5fd58	0.020262405
233	0x3ecd6604	0.40116894
234	0x3ead7f5c	0.3388623
235	0x3e9704f3	0.29495963
236	0x3e118243	0.14209847
237	0x3f2a196d	0.66445047
238	0xbd592803	-0.053016674
239	0xbdf2fb3e	-0.11864327
240	0x3dbd4389	0.09241397
241	0x3e8aa4b0	0.27078772
242	0xbd1fdb82	-0.0390277
243	0x3db5a45a	0.08869238
244	0x3e490d25	0.1963392
245	0x3e615872	0.22006395
246	0x3f78a44a	0.97125685
247	0xbaaa77d2	-0.001300568
248	0x3d941b4d	0.0723177
249	0xbd8ae1f2	-0.06781377
250	0xbe0f1a7d	-0.13974948
251	0x3d60192a	0.0547115
252	0x3d3dd5c8	0.046346456
253	0x3f1f97df	0.6234111
254	0x3d52dccd	0.051480103
255	0x3e90efae	0.2830786

fc3.bias f4 [20]
0	0x3e5f16c4	0.21786028
1	0x3e5ce492	0.21571568
2	0x3d42b7f5	0.047538716
3	0x3dcb941b	0.09940358
4	0xbe98771c	-0.29778373
5	0xbe25eb34	-0.16203004
6	0x3d790ce5	0.060803313
7	0x3e7700b9	0.2412137
8	0x3df509bd	0.11964748
9	0x3dfc0451	0.12305511
10	0xbe80a224	-0.25123703
11	0xbcac9680	-0.021067858
12	0x3d88a62c	0.0667232
13	0xbe08cbca	-0.1335899
14	0x3c24ed05	0.0100662755
15	0xbe3d9206	-0.18512735
16	0x3de8d793	0.113692425
17	0x3e54a4a9	0.20765938
18	0xbe0d986a	-0.13827673
19	0xbe08cf96	-0.13360438

fc4.weight f4 [2, 20]
0	0x3ea0f55d	0.31437197
1	0x3e605e71	0.21911027
2	0xbeb48cf7	-0.35263798
3	0xbe5a56ae	-0.21322128
4	0x3e1c67ce	0.15273973
5	0x3c6558d8	0.013998233
6	0x3e4a0524	0.19728523
7	0x3e275761	0.16341926
8	0xbe652c28	-0.22380126
9	0xbde3bc16	-0.11119859
10	0x3dff271e	0.12458633
11	0xbccf282d	-0.025287712
12	0x3e287f64	0.16454846
13	0xbe2be0fa	-0.1678504
14	0xbe373356	-0.17890677
15	0xbcd6c2e2	-0.026215974
16	0x3e5e6fb9	0.21722306
17	0x3dd99baa	0.10625394
18	0x3d9b1bd4	0.07573667
19	0x3cc96cb3	0.024587965
20	0xbe2bd5f8	-0.16780841
21	0xbe43771a	-0.19088402
22	0x3ea964d7	0.33084747
23	0x3e68e659	0.2274412
24	0x3d3147a7	0.043281224
25	0x3cf8bb8e	0.03036287
26	0xbe160e1e	-0.14653823
27	0xbe9773e6	-0.2958061
28	0x3ea0b4a3	0.31387815
29	0x3e003da4	0.12523514
30	0x3d5ec723	0.05438913
31	0xbddcb219	-0.10776157
32	0x3e3e187a	0.18564025
33	0xbe3fd179	-0.18732251
34	0x3e68d0c1	0.22735883
35	0x3d8b328f	0.06796753
36	0xbda5a891	-0.08088792
37	0xbe4120c1	-0.18860151
38	0xbe4f08c9	-0.20218195
39	0xbdc10a29	-0.09425766

fc4.bias f4 [2]
0	0x3e34791b	0.17624323
1	0x3e715623	0.23568015
