SAGE/UNSW/UNSW_Dynamite_Selection_Defense/RSLAD/RSLAD_10.pt (torch, 23308 bytes, 8 tensors)

module.fc1.weight f4 [50, 56]
0.0028173844 0.014581578 0.015244067 0.012981883 -0.012850364 -0.021542247 0.047333986 0.01732273
-0.02436702 0.010744425 -0.016727021 0.0012355405 0.0015968173 -0.0010980101 0.024892393 -0.030167906
0.017447157 0.03779046 0.0861316 0.026622899 0.055578325 0.06452872 -0.051278036 0.20274808
0.24499969 -0.0283399 0.054074153 -0.05496485 0.046061117 0.009112316 0.013258177 0.02854378
0.040362038 0.025499715 0.0026882703 0.004011686 0.010767166 -0.0095060645 -0.0045124553 0.044701625
-0.07378573 0.1258684 0.014708821 0.14577812 0.005351531 -0.0988 -0.4135595 0.042392466
0.012721326 0.13546638 -0.011210846 0.00043655248 0.020909917 0.05481386 -0.00788056 0.021989573
-0.033949398 0.017342793 0.0058750254 0.032945994 -0.11962633 0.09157031 -0.0057167397 0.09882017
-0.013485075 -0.08480604 0.056621082 0.0006644393 -0.0014620656 0.09488439 -0.040085103 -0.050249763
0.027213365 -0.002430983 0.08725753 -0.034375425 0.0593741 0.018209055 -0.058775526 0.026825283
0.037215948 0.04144268 -0.026889957 0.08311062 -0.063823156 0.009299928 -0.019145481 -0.018886672
-0.027975833 -0.021790642 -0.014735988 -0.020560652 0.005349665 -0.09919462 -0.15641798 -0.029568734
0.023214487 0.10284249 -0.09147366 -0.0038557858 0.22487816 0.06191212 -0.050251707 -0.00840044
0.07610459 -0.3046756 -0.018725213 -0.040231515 -0.10510542 -0.030471195 0.24901035 0.016036369
-0.02631724 0.013034398 -0.00076840405 -0.0029185512 -0.008696723 -0.023924125 -0.015051744 -0.001043814
-0.003858847 0.0047554527 -0.0021085467 -2.0008318e-05 0.00042874992 -0.017302064 0.02095687 -0.024119461
-0.012342165 -0.052675407 -0.01047731 0.00432422 0.038966704 0.01888479 0.017218051 -0.006847999
-0.031700168 0.027274631 0.013003564 0.034996074 0.09065888 -0.040272146 -0.05519363 -0.025544824
0.01281595 -0.03625109 0.0028314332 -0.03977003 -0.033864476 0.007960439 -0.010310855 0.025574164
0.20010425 0.03787477 -0.036684394 -0.009347421 -0.031802673 0.009405053 0.02769883 -0.010733278
-0.010094072 0.16993423 -0.010268026 -0.012653482 -0.034870345 0.012868211 -0.019890865 -0.016368087
0.010791722 -0.0033108287 -0.0005784853 -0.018730246 0.038329307 -0.0099139605 0.009124684 -0.0009556551
-0.024162829 0.029844202 -0.0039938698 -1.0957541e-05 -0.00016953952 -0.013253873 0.0013011028 0.025665175
-0.0027076034 -0.33256748 -0.04864443 -0.4002293 -0.092820436 -0.11753191 0.14275607 -0.02102636
0.12781239 -0.20771065 -0.14942284 -0.4163046 -0.31878796 0.050912797 0.12844902 0.025112413
-0.019986968 -0.010477801 0.016968112 0.0056507117 -0.004433712 0.044885464 0.19721067 0.0052442322
-0.57360214 0.036720507 0.028222606 0.36550626 0.23599944 -0.005657043 -0.097287975 0.051834073
0.029050259 0.8847368 0.099354036 0.05298964 0.06601713 -0.4023467 0.39103204 0.04089579
0.13444668 -0.02821578 0.048332892 -0.024481611 -0.16470475 0.08767252 0.039471123 -0.0014691363
0.024392987 -0.011872612 0.011229364 0.012962593 -0.000735778 -0.009233357 0.0069825645 0.025088567
0.013290106 -0.021429105 0.058558743 0.0017578858 -0.038569186 0.012266709 0.025698937 -0.036304202
-0.020109639 0.008920675 -0.024964105 -0.027519645 0.012179673 0.0047428454 -0.018765451 0.036283407
00000000: dea3 383b 92e7 6e3c 40c2 793c f7b1 543c
00000010: 558a 52bc 5e79 b0bc 48e1 413d 66e8 8d3c
00000020: 589d c7bc 6209 303c 1b07 89bc dcf1 a13a
00000030: 4c4c d13a 1beb 8fba 22eb cb3c af22 f7bc
00000040: 57ed 8e3c 2bca 1a3d c465 b03d 4418 da3c
00000050: 19a6 633d a227 843d eb08 52bd 319d 4f3e
00000060: 33e1 7a3e 1429 e8bc dc7c 5d3d d322 61bd
00000070: 95aa 3c3d d34b 153c d338 593c a5d4 e93c
00000080: aa52 253d c7e4 d03c b12d 303b 7674 833b
00000090: c468 303c 53bf 1bbc 38dd 93bb 0d19 373d
000000a0: f91c 97bd a5e3 003e 44fd 703c dc46 153e
000000b0: e55b af3b a857 cabd 12be d3be b9a3 2d3d
000000c0: 1c6d 503c b3b7 0a3e b2ad 37bc 15e1 e439
000000d0: 464b ab3c 8084 603d 771d 01bc 7a23 b43c
000000e0: 860e 0bbd 7912 8e3c 4983 c03b 61f2 063d
000000f0: a6fe f4bd 3789 bb3d 7d53 bbbb 3b62 ca3d
00000100: 81f0 5cbc caae adbd 82eb 673d c42d 2e3a
00000110: c8a2 bfba bf52 c23d 4730 24bd b2d2 4dbd
00000120: 90ee de3c 2051 1fbb 13b4 b23d 3fcd 0cbd
00000130: 4232 733d 282b 953c 9bbe 70bd b2c0 db3c
00000140: c06f 183d cdbf 293d 5448 dcbc e735 aa3d
00000150: b7b5 82bd ba5e 183c fcd6 9cbc 39b8 9abc
00000160: 932d e5bc 4a82 b2bc 376f 71bc d06e a8bc
00000170: 3e4c af3b 8d26 cbbd 092c 20be 213a f2bc
00000180: 4f2c be3c 159f d23d 8b56 bbbd 5ab1 7cbb
00000190: 7646 663e 9097 7d3d bcd4 4dbd 00a2 09bc
000001a0: b9dc 9b3d 71fe 9bbe 9e65 99bc cdc9 24bd
000001b0: 8341 d7bd ba9e f9bc 92fc 7e3e b45e 833c
000001c0: 4197 d7bc 3a8e 553c b96e 49ba 2a45 3fbb
000001d0: b37c 0ebc 87fc c3bc 979b 76bc 96d0 88ba
000001e0: b6e4 7cbb a1d3 9b3b 8b2f 0abb 89d7 a7b7
000001f0: d7c9 e039 0fbd 8dbc bead ab3c 2d96 c5bc
00000200: cb36 4abc 2bc2 57bd 06a9 2bbc 30b2 8d3b
00000210: 8d9b 1f3d 46b4 9a3c df0c 8d3c 2e65 e0bb
00000220: 09d8 01bd 0c6f df3c e70c 553c 0b58 0f3d
00000230: 5dab b93d 68f4 24bd b712 62bd 6143 d1bc
00000240: fef9 513c 067c 14bd 918f 393b e6e5 22bd
00000250: 7ab5 0abd 806c 023c dcee 28bc e980 d13c
00000260: 21e8 4c3e 9322 1b3d 6042 16bd ed25 19bc
00000270: 8543 02bd a717 1a3c a8e8 e23c a1da 2fbc
00000280: 9b61 25bc 3d03 2e3e 393b 28bc 8d50 4fbc
00000290: 35d4 0ebd 30d5 523c 2bf2 a2bc 5e16 86bc
000002a0: c3cf 303c 7dfa 58bb 7ea5 17ba 2c70 99bc
000002b0: 31ff 1c3d 2a6e 22bc b37f 153c ee84 7aba
000002c0: 20f1 c5bc d47b f43c 02df 82bb 48d6 37b7
000002d0: 6bc6 31b9 c626 59bc c489 aa3a c63f d23c
000002e0: 0c72 31bb 4946 aabe 623f 47bd dbea ccbe
000002f0: a418 bebd 92b4 f0bd a62e 123e 793f acbc
00000300: 40e1 023e 1ab2 54be 4d02 19be e025 d5be
00000310: 2d38 a3be f089 503d 2488 033e 8cb8 cd3c
00000320: b6bb a3bc 15ab 2bbc b600 8b3c 9b29 b93b
00000330: ac48 91bb d2d9 373d 98f1 493e cfd7 ab3b
00000340: 97d7 12bf 3e68 163d 1833 e73c a323 bb3e
00000350: d6a9 713e b75e b9bb eb3e c7bd f74f 543d
00000360: cffa ed3c 1c7e 623f 217a cb3d aa0b 593d
00000370: fd33 873d 6300 cebe 5a35 c83e 5882 273d
00000380: 64ac 093e c824 e7bc b6f8 453d a98d c8bc
00000390: 5da8 28be a68d b33d 79ac 213d 0990 c0ba
000003a0: cdd3 c73c 5885 42bc 5efb 373c 0e61 543c
000003b0: 3ae1 40ba 8247 17bc ffcd e43b 8a86 cd3c
000003c0: bfbe 593c 178c afbc 4bdb 6f3d dc68 e63a
000003d0: b9fa 1dbd 4efa 483c 9486 d23c b7b3 14bd
000003e0: f8bc a4bc 0628 123c 8681 ccbc e170 e1bc
000003f0: 408d 473c df69 9b3b 01ba 99bc e99d 143d

module.fc1.bias f4 [50]
-0.045432605 0.1259689 -0.10295315 0.15579419 0.015558866 0.12958507 -0.051272605 0.12713759
-0.053033464 0.06438086 -0.021867722 0.05080547 -0.04482845 0.010789683 0.10476194 0.20468883
-0.18353866 -0.015377904 -0.14774182 0.24488334 0.018198485 0.042080376 -0.05499016 -0.06478494
-0.20360889 0.13938206 -0.025445875 0.0056404215 -0.03724177 0.08924173 -0.054787476 -0.20920578
0.037649237 -0.003967103 0.029355302 -0.023717117 -0.010725555 -0.15661013 -0.07114008 0.061627354
0.012355554 0.019575432 -0.16044277 -0.034877986 -0.093738504 0.047167603 -0.054687127 0.0018591665
0.027171848 -0.06754088
00000000: 8a17 3abd fefd 003e 1ad9 d2bd 8388 1f3e
00000010: 9dea 7e3c f3b1 043e 3903 52bd 5b30 023e
00000020: 9e39 59bd 1dda 833d f023 b3bc 6619 503d
00000030: 099e 37bd 36c7 303c 6e8d d63d f399 513e
00000040: 8ff1 3bbe 9bf3 7bbc a249 17be b3c2 7a3e
00000050: fd14 953c 795c 2c3d 5d3d 61bd f7ad 84bd
00000060: d97e 50be 2cba 0e3e de73 d0bc 49d3 b83b
00000070: d48a 18bd 5ec4 b63d d568 60bd 0a3a 56be
00000080: 1636 1a3d 79fe 81bb 887a f03c 664a c2bc
00000090: 3dba 2fbc 685e 20be e4b1 91bd f76c 7c3d
000000a0: f36e 4a3c a85c a03c 1c4b 24be 38dc 0ebd
000000b0: f9f9 bfbd d132 413d 9cff 5fbd 47af f33a
000000c0: 7f97 de3c df52 8abd

module.fc2.weight f4 [30, 50]
-0.10740761 0.05805978 -0.07664674 -0.044663753 0.04701731 0.25592816 0.1908358 0.068200864
0.026011622 0.051965028 -0.088328816 0.055954147 -0.10217411 0.0874517 0.16695961 0.2525713
-0.11265719 0.08249339 -0.058238637 -0.13577886 0.099880226 -0.040005896 -0.08061869 -0.14577642
-0.03566836 0.11671392 -0.124536105 -0.03905786 0.107226886 -0.12382288 -0.13406613 -0.309179
0.11240401 0.16871835 -0.05433808 -0.0731456 0.06583826 0.04602409 0.059950817 0.18037014
0.033032395 0.031845722 0.44054765 0.1695079 -0.03717079 -0.30671275 -0.00774406 0.13105972
-0.16500485 -0.114808634 0.0069411895 -0.033374377 0.02217887 -0.07965557 -0.026277894 0.0043755686
-0.10835915 -0.045118026 0.05787512 0.025396647 -0.10664934 -0.039073966 0.056256175 0.008115494
0.09646893 0.0042502447 0.007209681 -0.059747055 -0.0063270936 -0.04755592 0.023472337 -0.063477375
0.008181861 0.08201605 -0.0033025998 -0.056327056 -0.014615331 -0.015414491 0.005091541 -0.049758036
-0.0506603 0.012400766 0.11694964 -0.05825181 -0.0477229 0.032209758 0.018686181 0.1380164
0.018821495 0.06738873 -0.009681818 -0.005649209 0.21359539 0.037273765 -0.029041326 -0.12059893
0.054321203 -0.0127081275 -0.05927294 -0.053781822 -0.007374591 -0.0060579255 0.001789707 -0.031809416
-0.015426367 0.013039735 0.011391285 -0.0060559064 0.037208557 -0.006345135 0.008104809 -0.009309864
-0.013168974 0.022848524 0.010835178 -0.027076427 -0.0018803107 -0.005043625 -0.003125152 0.01128663
0.015495337 0.020415587 -0.015380096 -0.004396946 -0.0091212345 0.005000683 -0.0118288305 -0.00010918344
0.0007950066 -0.020567147 -0.0038467704 0.010152812 0.0027248496 0.018026667 -0.008862417 0.009741704
-0.0083750915 -0.027632637 -0.01521419 -0.012856102 0.021790411 0.01954213 -0.009864822 6.262833e-06
-0.005330723 -0.0084304875 -0.0042892983 -0.0040769163 0.012832564 -0.0038995643 -0.024248978 0.088286616
-0.05070002 -0.08942855 0.02012909 0.15001382 0.05963633 0.0896063 0.14199996 0.05549639
-0.088141024 0.028572835 -0.0043386784 0.09290879 0.19454998 0.21970506 -0.07355524 0.01126667
-0.0417569 -0.021823322 0.11790941 -0.0826912 -0.058781978 0.0048391325 -0.08078011 0.09166027
-0.08001759 -0.0147460345 0.09182065 -0.07961098 -0.09548373 -0.115818724 0.10822905 0.20868911
-0.061354548 -0.037507445 0.17060578 0.10921545 0.010649967 0.12902832 0.027640548 0.06856477
0.3081236 0.3072095 -0.06808236 -0.23054957 -0.011743771 0.13113596 -0.084010094 -0.10232617
0.016130995 -0.017531583 -0.011546433 -0.016136402 0.01566305 0.010855741 -0.027149277 0.007675309
0.00077895547 -0.0032002039 0.018145315 -0.025752693 0.02548271 -0.002593054 -0.0026310214 -0.0073202583
0.0039046581 -0.0163176 -0.021692669 0.00517161 -0.021938164 -0.017873202 -0.012341039 0.0021166967
0.035439648 -0.012354491 -0.02134742 0.016895253 -0.019621687 0.018707564 -0.017921094 0.03399248
-0.026118923 -0.016841657 -0.020706268 -0.015688604 0.011911458 0.010118752 -0.00918691 -0.0016650673
0.02304082 0.011844339 0.001505642 0.0019973957 0.023247292 -0.002724894 0.019767832 0.010527105
-0.022804465 0.0150192445 -0.026280742 0.029439133 -0.042343568 -0.15904823 -0.10634985 -0.091131024
00000000: 85f8 dbbd 18d0 6d3d f7f8 9cbd 57f1 36bd
00000010: 3995 403d 0409 833e 766a 433e e5ac 8b3d
00000020: 5316 d53c 48d9 543d bde5 b4bd 2d30 653d
00000030: a940 d1bd e019 b33d 76f7 2a3e 0751 813e
00000040: d0b8 e6bd 4bf2 a83d a38b 6ebd 9d09 0bbe
00000050: 018e cc3d 39dd 23bd 691b a5bd 6a46 15be
00000060: fc18 12bd b507 ef3d c90c ffbd 22fb 1fbd
00000070: c599 db3d da96 fdbd a248 09be b64c 9ebe
00000080: 1334 e63d 81c4 2c3e 9b91 5ebd 5ccd 95bd
00000090: 36d6 863d c283 3c3d fd8e 753d f3b2 383e
000000a0: fa4c 073d a970 023d 768f e13e 7b93 2d3e
000000b0: 6640 18bd 7409 9dbe e2c1 fdbb 8534 063e
000000c0: 08f7 28be ca20 ebbd eb72 e33b 92b3 08bd
000000d0: 76b0 b53c 7622 a3bd bd44 d7bc ee60 8f3b
000000e0: 67eb ddbd aecd 38bd 760e 6d3d a10c d03c
000000f0: f86a dabd 060c 20bd e06c 663d d9f6 043c
00000100: 8191 c53d a345 8b3b 303f ec3b 54b9 74bd
00000110: 8253 cfbb ffc9 42bd 0f49 c03c 6d00 82bd
00000120: 360d 063c 08f8 a73d 6e70 58bb 33b7 66bd
00000130: 2475 6fbc 108d 7cbc f1d6 a63b 15cf 4bbd
00000140: 2d81 4fbd 952c 4b3c 4b83 ef3d 7399 6ebd
00000150: 1679 43bd 61ee 033d c313 993c 2c54 0d3e
00000160: 892f 9a3c 1a03 8a3d 7da0 1ebc 001d b9bb
00000170: c0b8 5a3e 60ac 183d 13e8 edbc 92fc f6bd
00000180: e97f 5e3d c035 50bc 2fc8 72bd 544a 5cbd
00000190: 8ea6 f1bb 9081 c6bb 9a94 ea3a 974a 02bd
000001a0: dfbe 7cbc 9da4 553c 83a2 3a3c a070 c6bb
000001b0: 0068 183d daea cfbb 08ca 043c 6688 18bc
000001c0: aec2 57bc d42c bb3c 0886 313c 62cf ddbc
000001d0: c274 f6ba fe44 a5bb 5acf 4cbb 8feb 383c
000001e0: 27e0 7d3c 973e a73c ccfc 7bbc 4214 90bb
000001f0: 3b71 15bc c5dc a33b b6cd 41bc 6af9 e4b8
00000200: fd67 503a 6f7c a8bc 191a 7cbb fb57 263c
00000210: 6493 323b a9ac 933c ac33 11bc ab9b 1f3c
00000220: ae37 09bc d75d e2bc f044 79bc 66a2 52bc
00000230: ce81 b23c d116 a03c 10a0 21bc 5325 d236
00000240: 58ad aebb 0720 0abc 3e8d 8cbb a797 85bb
00000250: ad3f 523c d58f 7fbb cba5 c6bc 9dcf b43d
00000260: d3aa 4fbd 5126 b7bd c3e5 a43c 399d 193e
00000270: 3945 743d 8283 b73d 7068 113e 2f50 633d
00000280: 4883 b4bd 9411 ea3c 792b 8ebb f746 be3d
00000290: 1c38 473e 5dfa 603e 21a4 96bd d797 383c
000002a0: 4809 2bbd d3c6 b2bc 7d7a f13d 015a a9bd
000002b0: 5fc5 70bd 9691 9e3b 0b70 a5bd 61b8 bb3d
000002c0: 43e0 a3bd 5a99 71bc 770c bc3d 150b a3bd
000002d0: f98c c3bd 5e32 edbd 31a7 dd3d 99b2 553e
000002e0: e84e 7bbd 68a1 19bd 48b3 2e3e 5aac df3d
000002f0: 337d 2e3c 0020 043e 6e6e e23c b06b 8c3d
00000300: 60c2 9d3e 904a 9d3e c46e 8bbd 3015 6cbe
00000310: f268 40bc 8148 063e 7c0d acbd 6290 d1bd
00000320: 2625 843c 659e 8fbc 402d 3dbc 7d30 84bc
00000330: cc4f 803c 47dc 313c 2968 debc 2981 fb3b
00000340: d132 4c3a 83ba 51bb 7ca5 943c 50f7 d2bc
00000350: 1ec1 d03c 3af0 29bb 376d 2cbb c7de efbb
00000360: 4be5 7f3b 7dac 85bc d3b4 b1bc 9c76 a93b
00000370: aab7 b3bc d26a 92bc 1232 4abc 47b8 0a3b
00000380: 2a29 113d 7e6a 4abc c9e0 aebc ea67 8a3c
00000390: a9bd a0bc 9b40 993c 42cf 92bc b33b 0b3d
000003a0: 5af7 d5bc 84f7 89bc 31a0 a9bc 6385 80bc
000003b0: 4728 433c 1fc9 253c b284 16bc 633e daba
000003c0: 1ac0 bc3c c20e 423c f658 c53a bde6 023b
000003d0: 1b71 be3c 2394 32bb 26f0 a13c e179 2c3c
000003e0: 6ed0 babc 4713 763c b64a d7bc 562a f13c
000003f0: 7370 2dbd 8add 22be f3cd d9bd e7a2 babd

module.fc2.bias f4 [30]
0.005730636 -0.09483021 -0.015011879 0.052401222 -0.007930323 -0.021871718 0.052771505 -0.014564602
-0.060645103 -0.012985059 0.013486493 0.046650928 0.09128326 0.0074611143 0.13205299 0.25622928
0.12335606 -0.019768657 0.079473935 0.013389272 0.116301715 0.08449505 0.05886769 0.030901823
0.04156836 -0.031606033 -0.02057735 -0.24682756 0.104051545 -0.008495514
00000000: 0fc8 bb3b 5736 c2bd 62f4 75bc aaa2 563d
00000010: 2fee 01bc 512c b3bc ef26 583d 5ea0 6ebc
00000020: 0067 78bd 49bf 54bc 74f6 5c3c 0b15 3f3d
00000030: b8f2 ba3d 5d7c f43b e638 073e 7c30 833e
00000040: 1aa2 fc3d e1f1 a1bc 3bc3 a23d ad5e 5b3c
00000050: 982f ee3d be0b ad3d 3f1f 713d d225 fd3c
00000060: 9643 2a3d 5475 01bd d591 a8bc 5dc0 7cbe
00000070: fa18 d53d c530 0bbc

module.fc3.weight f4 [20, 30]
0.03280765 -0.05395392 0.018646156 0.037327047 -0.017641734 0.24381348 0.055385694 -0.020673199
-0.022916507 0.021310002 -0.010144845 0.083381556 0.03907766 0.0023319642 -0.022514617 -0.14124098
-0.1258198 -0.039097406 0.3078489 -0.02279833 -0.17339574 0.2422401 0.17683113 -0.0090700565
0.2628463 -0.097037196 0.025035137 -0.12152452 -0.027788362 0.16006953 0.018820917 0.00067958696
0.027280685 0.0047110114 -0.03153586 0.04324471 -0.026391678 -0.012554319 -0.021114374 0.012301365
0.03288804 -0.008453102 -0.010614123 -0.032602735 0.020691097 0.0029865953 0.026204241 -0.012107432
0.009610901 -0.020690715 0.023654751 0.0035578972 -0.015592542 -0.030706206 0.043769736 -0.028986262
-0.014765605 -0.022568077 -0.027569333 0.040586475 -0.119537584 -0.16717789 -0.012531042 -0.07871535
-0.040040884 0.44926673 -0.10781718 0.027912622 -0.09407079 0.026614413 -0.018964067 0.20485802
-0.0735193 0.21019748 -0.26188466 -0.125868 -0.123616695 -0.10833592 0.59653336 0.04627564
-0.19134226 0.4923107 0.3246657 -0.021903586 0.5154744 -0.10356648 -0.01646452 -0.4282655
-0.031713855 0.3280431 0.22610788 0.0767431 0.011829218 0.17082174 0.010849966 -0.06543452
0.18210556 0.01160351 0.07520314 -0.027925415 -0.04800303 -0.06580867 0.16662839 -0.07613899
0.25091994 0.1490031 0.08494749 0.033355642 -0.115957335 -0.026125789 0.1792762 -0.14374946
-0.061977506 0.018416122 -0.1335433 0.064981535 0.029381499 0.2610173 0.07807522 -0.083560355
0.17085858 0.01502543 0.016975882 0.107037544 -0.01871602 -0.053282864 0.15361854 -0.02255934
0.03748776 -0.019969381 -0.05511114 -0.049360506 0.11870848 -0.045589365 0.13373221 0.069451764
0.01081133 0.0015513846 -0.08143542 -0.022709047 0.13558799 -0.09066556 -0.02591583 -0.016252112
-0.101710096 0.038191043 -0.02124608 0.16388722 0.07351771 -0.051424515 -0.062084228 -0.007303499
-0.01686082 0.010183107 -0.02024709 0.07067038 -0.048223432 0.005941566 0.010737149 -0.006160715
0.010122233 0.040087108 -0.040938776 0.054169856 -0.024101578 0.01655759 -0.01125047 -0.04144332
0.10941488 -0.0023163913 0.007399831 0.04591165 0.07850993 0.024690399 0.056340702 -0.00094750617
0.028242078 -0.061215002 0.01068475 0.066755064 0.05961259 0.046707675 -0.0031952572 0.056117207
-0.012133576 -0.029205974 0.007976614 0.015104362 -0.0021267661 0.015505601 -0.022995789 -0.021777844
0.0037442811 -0.025514795 -0.0052232426 0.05082043 -0.025433296 -0.002821188 -0.03564353 -0.03720492
0.00635366 0.0069825673 -0.0234986 -0.01073471 -0.022314085 0.0390884 -0.031951528 -0.0014034612
0.028108822 0.009390732 -0.038384676 -0.09645942 0.027198218 -0.032783736 0.025028372 0.16254772
-0.048650816 0.016434811 -0.07511662 0.017811999 0.038072728 0.07441672 -0.04416916 0.113993675
-0.07978105 -0.05837483 -0.03140656 -0.023408838 0.24262086 0.024725677 -0.07113905 0.20132762
0.16105738 0.0020567845 0.23341367 -0.0508316 0.020891035 -0.19730453 -0.00081072253 0.10685715
-0.0070915585 0.014255631 0.009164623 0.015667805 -0.014660772 -0.01197667 -0.03509472 -0.00979789
-0.02526168 0.03140727 -0.0048915287 0.01050325 0.004226049 0.00960558 -0.03342753 0.022253513
00000000: 5061 063d c9fe 5cbd d3bf 983c 3fe4 183d
00000010: 6685 90bc 3eaa 793e 1cdc 623d d75a a9bc
00000020: 66bb bbbc 5092 ae3c 9036 26bc f3c3 aa3d
00000030: e50f 203d ded3 183b 9370 b8bc 7aa1 10be
00000040: e8d6 00be 9a24 20bd 5f9e 9d3e 90c3 babc
00000050: a78e 31be ca0d 783e 3813 353e 939a 14bc
00000060: ca93 863e 70bb c6bd 7d16 cd3c d9e1 f8bd
00000070: 6ba4 e3bc 44e9 233e 532e 9a3c 4f26 323a
00000080: be7b df3c d45e 9a3b bf2b 01bd 5d21 313d
00000090: 5c33 d8bc a1b0 4dbc 0df8 acbc aa8b 493c
000000a0: 9cb5 063d e17e 0abc dce6 2dbc 728a 05bd
000000b0: 6080 a93c c1ba 433b 47aa d63c 405e 46bc
000000c0: 0a77 1d3c 937f a9bc 9cc7 c13c 9c2b 693b
000000d0: dc77 7fbc 958b fbbc e547 333d 9974 edbc
000000e0: 70eb 71bc b0e0 b8bc 15d9 e1bc 013e 263d
000000f0: 1fd0 f4bd ae30 2bbe 004f 4dbc 8335 a1bd
00000100: e901 24bd 4a06 e63e 41cf dcbd 03a9 e43c
00000110: 30a8 c0bd 7806 da3c 885a 9bbc 4dc6 513e
00000120: 4991 96bd 023e 573e bf15 86be 8ae3 00be
00000130: c02a fdbd 39df ddbd 69b6 183f 878b 3d3d
00000140: 3aef 43be 2610 fc3e 953a a63e 266f b3bc
00000150: 21f6 033f aa1a d4bd 9ae0 86bc 9e45 dbbe
00000160: 63e6 01bd 44f5 a73e d388 673e 7d2b 9d3d
00000170: 56cf 413c e5eb 2e3e 0ec4 313c 8902 86bd
00000180: e179 3a3e a61c 3e3c 1b04 9a3d d7c3 e4bc
00000190: d39e 44bd b2c6 86bd a2a0 2a3e c2ee 9bbd
000001a0: 9478 803e 4594 183e f3f8 ad3d ed9f 083d
000001b0: 0a7b edbd c005 d6bc 2e94 373e 0f33 13be
000001c0: 20dc 7dbd 68dd 963c 93bf 08be 0a15 853d
000001d0: 78b1 f03c 0fa4 853e e7e5 9f3d b121 abbd
000001e0: 8df5 2e3e 392d 763c 0111 8b3c 8036 db3d
000001f0: 5752 99bc 223f 5abd 2e4e 1d3e 5dce b8bc
00000200: c48c 193d d496 a3bc 38bc 61bd 3e2e 4abd
00000210: 6e1d f33d eabb 3abd 19f1 083e ba3c 8e3d
00000220: 0122 313c d457 cb3a 9dc7 a6bd 5308 babc
00000230: 94d7 0a3e ddae b9bd 6f4d d4bc 2623 85bc
00000240: 624d d0bd 366e 1c3d 420c aebc 0dd2 273e
00000250: 7490 963d 83a2 52bd 084c 7ebd 3152 efbb
00000260: b41f 8abc 0cd7 263c 3add a5bc a2bb 903d
00000270: ef85 45bd 78b1 c23b deea 2f3c d3df c9bb
00000280: b9d7 253c 6132 243d 6baf 27bd 36e1 5d3d
00000290: ac70 c5bc c8a3 873c e453 38bc 79c0 29bd
000002a0: e914 e03d 99ce 17bb 487a f23b db0d 3c3d
000002b0: d0c9 a03d 8543 ca3c 82c5 663d 1062 78ba
000002c0: ee5b e73c 95bc 7abd 170f 2f3c e1b6 883d
000002d0: 552c 743d 8c50 3f3d 8567 51bb 28db 653d
000002e0: e8cb 46bc 5e41 efbc 58b0 023c 4978 773c
000002f0: 3761 0bbb 340b 7e3c aa61 bcbc 7367 b2bc
00000300: 9d62 753b 6704 d1bc bc27 abbb 1529 503d
00000310: 7d59 d0bc aee3 38bb f3fe 11bd 3064 18bd
00000320: 5d32 d03b 05ce e43b 2380 c0bc a3e0 2fbc
00000330: 07cc b6bc 281b 203d 9bdf 02bd 58f4 b7ba
00000340: 7944 e63c 96db 193c 4039 1dbd 848c c5bd
00000350: ccce de3c 3d48 06bd 4d08 cd3c e972 263e
00000360: 1446 47bd 4ca2 863c bed6 99bd 78ea 913c
00000370: 26f2 1b3d cb67 983d b9ea 34bd 8475 e93d
00000380: 3f64 a3bd 721a 6fbd 2aa4 00bd e4c3 bfbc
00000390: 9a71 783e 818d ca3c 5ab1 91bd d428 4e3e
000003a0: 3aec 243e 1ecb 063b fe03 6f3e cc34 50bd
000003b0: ad23 ab3c 330a 4abe ab86 54ba ecd7 da3d
000003c0: 4e60 e8bb 7390 693c 3727 163c c559 803c
000003d0: bc33 70bc cb39 44bc 7bbf 0fbd 5487 20bc
000003e0: 95f1 cebc e9a4 003d 1e49 a0bb d315 2c3c
000003f0: ab7a 8a3b b960 1d3c 4eeb 08bd 004d b63c

module.fc3.bias f4 [20]
-0.016028062 -0.015318201 0.4565686 0.14763547 0.100770496 0.055851154 -0.023319839 0.17977649
-0.034643903 -0.019015636 0.2295634 -0.032494124 0.059004467 0.0005441939 0.052449506 -0.02271039
-0.0060985037 0.18608774 0.14723666 0.08964013
00000000: 484d 83bc 31f9 7abc 5cc3 e93e c12d 173e
00000010: c360 ce3d 2ec4 643d 3f09 bfbc 5417 383e
00000020: c4e6 0dbd aec6 9bbc ab12 6b3e 8f18 05bd
00000030: abae 713d 3ca8 0e3a 4bd5 563d 240b babc
00000040: f5d5 c7bb c98d 3e3e 35c5 163e 3f95 b73d

module.fc4.weight f4 [2, 20]
0.41747636 0.04254573 0.822018 -0.38206816 -0.28022516 0.14986908 -0.044445477 0.32810044
-0.0017175835 -0.61512554 -0.65444535 -0.02243603 -0.19999397 0.063317806 0.13393447 -0.028665258
0.5134934 -0.5650017 0.2702409 -0.30549058 -0.39740962 -0.021841895 -0.8111764 0.40650126
0.23643492 -0.099776626 0.09433285 -0.34853673 0.00697553 0.55008477 0.6420025 0.008261578
0.13796428 -0.048906486 -0.15386438 0.01718622 -0.49550942 0.5463303 -0.2919095 0.25201446
00000000: 76bf d53e 6e44 2e3d c66f 523f 709e c3be
00000010: ac79 8fbe 4877 193e 760c 36bd c8fc a73e
00000020: 8a20 e1ba de78 1dbf bb89 27bf c4cb b7bc
00000030: 38cb 4cbe c4ac 813d 1e26 093e 67d3 eabc
00000040: 4e74 033f f4a3 10bf 045d 8a3e 4369 9cbe
00000050: 4679 cbbe c6ed b2bc 42a9 4fbf ef20 d03e
00000060: ff1b 723e b057 ccbd 9531 c13d 6873 b2be
00000070: fd92 e43b 5bd2 0c3f 475a 243f 925b 073c
00000080: 8246 0d3e 2b52 48bd a08e 1dbe 1eca 8c3c
00000090: 69b3 fdbe 4ddc 0b3f 2975 95be 0a08 813e

module.fc4.bias f4 [2]
0.08367369 -0.11406931
00000000: 1d5d ab3d 2c9d e9bd
