SAGE/UNSW/UNSW_Dynamite_Selection_Defense/RSLAD/RSLAD_100.pt (torch, 23320 bytes, 8 tensors)

module.fc1.weight f4 [50, 56]
0	0x3ddefb17	0.10887735
1	0xbc2d0225	-0.010559593
2	0x3d2ac420	0.041690946
3	0xbd0ab049	-0.033859525
4	0xbe68e514	-0.22743636
5	0x3e266560	0.16249609
6	0xbd818456	-0.06324069
7	0x3dd8fad5	0.105947174
8	0x3bfda0cb	0.0077401153
9	0xbc893090	-0.01674679
10	0xbcb367ad	-0.021900022
11	0xbb70d2ae	-0.0036746669
12	0xbbda3ddd	-0.0066602067
13	0x3cfaa8ab	0.030598005
14	0xbc95a725	-0.018268177
15	0x3d0d2789	0.03446153
16	0xbccd5419	-0.025064515
17	0x3c378272	0.011200534
18	0x3d8da5a1	0.06916357
19	0xbce17b80	-0.02752471
20	0xbd346972	-0.044045873
21	0xbc3b14dd	-0.011418548
22	0xbcdd4fb7	-0.02701555
23	0x3dc3282f	0.09529149
24	0xbcd9fdd4	-0.026610292
25	0x3d6267ab	0.055274647
26	0xbc00b52d	-0.007855696
27	0xbcb2b7d6	-0.021816175
28	0x3c41f2a7	0.011837638
29	0xbb8a1eef	-0.0042151134
30	0xbce8ba76	-0.028409224
31	0x3bcee223	0.0063135787
32	0xbcf79dcd	-0.030226612
33	0xbd74584e	-0.059654526
34	0xbce7b063	-0.02828235
35	0xbce02fe6	-0.02736659
36	0xbd236dce	-0.03989964
37	0xbbf2e96b	-0.0074130795
38	0xbce0a3b8	-0.027421817
39	0x39ac2927	0.00032837057
40	0x3ca26778	0.019824728
41	0x3c17081e	0.009218244
42	0xbb854243	-0.004066737
43	0xbab758d4	-0.0013988265
44	0x3dd0ded4	0.10198751
45	0xbc79b40c	-0.01524068
46	0x3d2ef21b	0.04271136
47	0x3da35b8e	0.07976447
48	0x3dac2b6c	0.084067196
49	0xbd7d19cb	-0.061792176
50	0x3c3b4975	0.011431088
51	0xbc3f56e0	-0.011678427
52	0x3c79a929	0.015238085
53	0x3d8d5320	0.069006205
54	0x3ddb27a9	0.10700924
55	0xbca0ac44	-0.019613393
56	0x3c4fa305	0.012673144
57	0xbc213565	-0.00983939
58	0x3a7b78ed	0.00095929095
59	0xb944ff70	-0.00018787174
60	0xbb716d46	-0.0036838814
61	0xbce5276b	-0.027972898
62	0x3b0a0289	0.002105864
63	0xbcd1a7d8	-0.02559273
64	0x3c91e74f	0.017810492
65	0x3c965cfb	0.018354883
66	0x3c6a5ce6	0.014304375
67	0xbb10657c	-0.0022033146
68	0xba8dadcf	-0.0010809245
69	0xbc575047	-0.013141698
70	0x3b1e3d3b	0.0024145383
71	0xbce38888	-0.027775064
72	0x3ca48b93	0.020086085
73	0x3cd81f66	0.02638216
74	0x3d104a2c	0.035226986
75	0xbd264cea	-0.040600695
76	0xbc67f52e	-0.0141575765
77	0xbd0a14d1	-0.03371126
78	0x3b07d331	0.0020725245
79	0xbc34d83c	-0.011037882
80	0x3c3f6570	0.011681899
81	0xbced408f	-0.028961448
82	0xbd747c20	-0.059688687
83	0xbce1b5ac	-0.027552448
84	0xbc6486a3	-0.0139481155
85	0x3d3809ea	0.04493133
86	0x3cdcf44e	0.026971962
87	0xbcc801a1	-0.02441484
88	0xbc8cfe83	-0.017211204
89	0x3acbe42c	0.0015555671
90	0x3cbb1e01	0.022841455
91	0xbbb8feb5	-0.005645598
92	0xbc12c28d	-0.008957517
93	0xbce08b4c	-0.027410172
94	0xbc62153e	-0.01379901
95	0xbd08225f	-0.033235904
96	0xbe1e9ba5	-0.15489061
97	0xbd2be102	-0.04196263
98	0x3d71e4d0	0.059056103
99	0x3df0585a	0.11735602
100	0x3d51d534	0.051228717
101	0xbd04ca53	-0.032419514
102	0xbd86211b	-0.06549283
103	0xbcc4c423	-0.024019307
104	0x3cc4336c	0.023950301
105	0x3d41323f	0.04716706
106	0xbb4a3090	-0.00308517
107	0x3cb5e8fc	0.022205822
108	0x3ce0a8bb	0.027424207
109	0xbc0a4637	-0.008439592
110	0xbc87f8f8	-0.01659821
111	0x3c706a86	0.014673835
112	0x3c961f56	0.018325489
113	0xbd97f6ce	-0.07420121
114	0x3b458df7	0.0030144432
115	0xbdcec276	-0.10095684
116	0x3d84721f	0.06467079
117	0x3c9daddb	0.01924794
118	0xbc86d5d3	-0.016459381
119	0x3d45391a	0.04815016
120	0x3bbc7319	0.0057510254
121	0x3cff5da7	0.031172587
122	0xbdb54af8	-0.0885219
123	0xb9332da8	-0.00017087779
124	0xb9af0cfb	-0.00033388272
125	0x3b091b13	0.0020920679
126	0xbcd6e157	-0.026230497
127	0x3cf43c83	0.02981401
128	0xbc7d6775	-0.015466561
129	0xbd3f0e8f	-0.046644744
130	0x3c92bdf6	0.017912846
131	0x3d55a698	0.05216083
132	0x3d3541b4	0.044252113
133	0x3dba30c8	0.090913355
134	0x3d6e9ccf	0.058255013
135	0xbdf7d7ee	-0.12101732
136	0xbf128096	-0.57227457
137	0x3dade2cc	0.08490524
138	0x3f04c588	0.5186391
139	0x3d1ea9e6	0.038736247
140	0x3e975303	0.2955552
141	0xbe887072	-0.2664829
142	0xbe524f85	-0.20538147
143	0xbe043122	-0.12909368
144	0x3e1c221a	0.15247384
145	0xbd4967a2	-0.049171098
146	0xbd15a89b	-0.036537748
147	0xbd69ec89	-0.057110343
148	0xbd4d297e	-0.0500884
149	0x3d7c027a	0.0615258
150	0x3ddceec1	0.10787726
151	0x3ca78fd3	0.020454323
152	0x3ec5e660	0.38652325
153	0x3e7f5c62	0.24937585
154	0xbd7097a5	-0.05873837
155	0xbd2083a1	-0.03918803
156	0xbd416218	-0.04721269
157	0xbe82f75c	-0.25579345
158	0xbd691580	-0.05690527
159	0xbd6781f8	-0.056520432
160	0xbdb31718	-0.08744639
161	0x3da2ca03	0.07948687
162	0x3c65d542	0.014027895
163	0xbcd29126	-0.025703978
164	0xbd784414	-0.0606118
165	0xbc2d4f12	-0.010577934
166	0xbd142d7a	-0.036176182
167	0xbcf44027	-0.029815746
168	0xbaa82786	-0.0012829162
169	0x3bf8beb3	0.0075910925
170	0xb9997901	-0.0002927259
171	0xbc9c9369	-0.01911326
172	0xbca43cd0	-0.020048529
173	0x3c93f17d	0.018059487
174	0xbdd56d3a	-0.10421224
175	0x3c968f6e	0.01837894
176	0x3c5065b4	0.01271956
177	0x3d032b0c	0.032023475
178	0xba03bf97	-0.00050258025
179	0xb844a50d	-4.6883757e-05
180	0xb7ea0a03	-2.7899636e-05
181	0x3be01cef	0.0068393867
182	0xbc887cf2	-0.016661141
183	0x3cdc4874	0.026890017
184	0x3a77b051	0.00094485754
185	0x3c807ec1	0.015685441
186	0x3cb81c80	0.022474527
187	0x3beba906	0.00719178
188	0x3ca0b0de	0.019615587
189	0x3b97ba7e	0.004630386
190	0x3cedb6db	0.029017856
191	0x3d508dc3	0.050916445
192	0x3b9fe0dc	0.0048791002
193	0x3c2557a8	0.0100917
194	0xba607408	-0.0008562212
195	0xbcbdef18	-0.023185298
196	0x3c7e6c7a	0.0155287925
197	0x3d0a0a05	0.03370096
198	0xbc867482	-0.016412977
199	0xbc0a392e	-0.008436484
200	0xbccebdc1	-0.025236966
201	0xbce1548c	-0.027506135
202	0xbbb3fa16	-0.005492459
203	0xba63166e	-0.0008662705
204	0xbc8d4d32	-0.017248724
205	0x3b8108d6	0.003937821
206	0x3d8ab74c	0.06773242
207	0x3c929764	0.017894454
208	0x3bdb83c3	0.006699057
209	0xbd11fa04	-0.035638824
210	0xbcb91710	-0.022594005
211	0xbd284bcc	-0.04108791
212	0xbc86002f	-0.01635751
213	0x3c876c55	0.016531149
214	0x3e5ebeff	0.21752547
215	0x3cb2e21b	0.021836331
216	0x3d2e0e08	0.04249385
217	0xbd9116ad	-0.07084403
218	0x3dd3c91c	0.10341093
219	0x3dd929db	0.106036864
220	0xbc219aea	-0.009863595
221	0x3e7f7ead	0.24950667
222	0xbd060f6f	-0.032729562
223	0xbc8bbf7b	-0.017059078
224	0xbd043468	-0.03227654
225	0xbba9ae31	-0.005178236
226	0x3b8ec3c2	0.0043568322
227	0xbc4285c0	-0.011872709
228	0x3cc5b7ee	0.024135556
229	0xbcc5b941	-0.024136188
230	0x3bbc5fc7	0.0057487222
231	0xbc75b23c	-0.014996108
232	0xbbf7e278	-0.007564839
233	0xbc98e628	-0.018664435
234	0xbd19245f	-0.0373882
235	0xbad62bb2	-0.0016339927
236	0xb9cfa650	-0.0003960603
237	0xbc63969a	-0.013890887
238	0xbc1edb3a	-0.009695822
239	0xbbd77316	-0.0065749986
240	0x3c9e1287	0.019295944
241	0x3d3e092f	0.046395477
242	0xbcb7e9f6	-0.022450428
243	0xbd532616	-0.051549993
244	0x3e26d0c4	0.16290575
245	0xbc7263fe	-0.014794348
246	0xbd4a6353	-0.04941113
247	0xbdbd4826	-0.09242277
248	0xbda7891d	-0.08180449
249	0xbdc1cf37	-0.09463351
250	0xbd70e62a	-0.05881325
251	0xbcbd767d	-0.023127789
252	0xbc303ffc	-0.010757443
253	0xbb064e9a	-0.0020493628
254	0xbd243d5a	-0.040097572
255	0xbc6d6493	-0.014489311

module.fc1.bias f4 [50]
0	0x3d8d51d9	0.06900377
1	0xbd1eaffa	-0.038742043
2	0xbd47e705	-0.0488043
3	0xbc785bee	-0.0151586365
4	0xbd165b01	-0.03670788
5	0x3bb7b4fc	0.005606292
6	0x3ca15fbd	0.019698972
7	0x3d997970	0.074938655
8	0x3d998d1e	0.07497619
9	0xbd3affc1	-0.045654062
10	0xbe7ecef1	-0.2488363
11	0xbdbdfb4c	-0.09276447
12	0x3db34542	0.08753444
13	0x3de2a373	0.11066332
14	0x3d738b81	0.059459213
15	0x3d0fa988	0.035073787
16	0xbe1f80d8	-0.15576494
17	0x3b89b22c	0.004202148
18	0x3bf163d9	0.007366639
19	0x3d643cd5	0.055722076
20	0x3e57f1ff	0.21088408
21	0xbe9071c6	-0.28211802
22	0xbd72f346	-0.059314035
23	0xbd6318e1	-0.05544365
24	0x3bd72bb9	0.0065664914
25	0xbc9bb1ba	-0.019005645
26	0xbcba266b	-0.022723397
27	0x3db7cf59	0.08975095
28	0x3cd9d8f9	0.026592718
29	0x3c96e9df	0.018422065
30	0x3daef827	0.08543425
31	0x3d35d5ac	0.044393227
32	0xbd122eb1	-0.03568906
33	0x3c63df0e	0.013908161
34	0xbe4ef1ed	-0.20209475
35	0xbd16bcc5	-0.03680112
36	0x3e250724	0.16116005
37	0x3e338f71	0.17535187
38	0xbc469693	-0.012120861
39	0xbd0abbda	-0.033870555
40	0x3b922160	0.004459545
41	0x3bcb45c1	0.0062033837
42	0x3e96033f	0.29299352
43	0x3dbff3da	0.09372683
44	0xbd2287a1	-0.039680127
45	0x3cf96f62	0.03044862
46	0xbd91957e	-0.071085915
47	0xbbf5c84e	-0.007500685
48	0xbcf5b870	-0.029995173
49	0xbc6c74d5	-0.014432152

module.fc2.weight f4 [30, 50]
0	0xbccc46d9	-0.024936127
1	0x3c3927ac	0.011300962
2	0xbc8ee636	-0.017443758
3	0x3c2bb2b0	0.010479614
4	0x3bfb4736	0.007668401
5	0xbd076986	-0.03305962
6	0x3a4b9861	0.00077665417
7	0x3ac9d305	0.0015397972
8	0x3c09bea3	0.008407268
9	0x3cbdc979	0.023167359
10	0xbc493487	-0.01228059
11	0xbc4d5d07	-0.0125343865
12	0x3acf591d	0.0015819405
13	0x3c0950df	0.008381098
14	0xbc921720	-0.017833292
15	0x3c6caaa6	0.014444983
16	0xbc968a57	-0.018376512
17	0xbbbefd89	-0.0058285636
18	0xbcad9c4f	-0.021192698
19	0xbbeeaa60	-0.007283494
20	0xbc92a27c	-0.017899744
21	0xbcd35108	-0.025795475
22	0xbc6b9d16	-0.014380714
23	0x3aae8e1a	0.0013317496
24	0x3c21aa22	0.009867223
25	0x3c9623d2	0.018327627
26	0x3c8b7c7d	0.017027134
27	0x3c72185b	0.014776315
28	0x3cb85837	0.022503002
29	0xbc84c421	-0.016206803
30	0xbc88c684	-0.016696222
31	0x3b01709d	0.001975096
32	0xbcb65b4d	-0.022260332
33	0x3d0377c8	0.032096654
34	0x3d64ebf1	0.055889074
35	0x3cbcf0fa	0.023064125
36	0xbc8d9ba4	-0.01728613
37	0xbbefabbc	-0.0073141735
38	0x3ca64523	0.020296639
39	0x3c817572	0.015803073
40	0xbc584b05	-0.01320148
41	0xbc9bc307	-0.019013895
42	0xbcbfe774	-0.023425795
43	0xbc3ebca2	-0.011641653
44	0xbca6a97f	-0.020344494
45	0xbca12e10	-0.019675285
46	0xbbea8c88	-0.007157866
47	0xbc56a986	-0.013101941
48	0x3c2ad097	0.010425708
49	0x3cb107cb	0.021610161
50	0x3de99603	0.114055656
51	0xbbdf88c6	-0.0068217246
52	0x3dd452b0	0.10367334
53	0x3d16f07b	0.036850434
54	0x3dd3cd68	0.103419125
55	0x3e01c726	0.12673625
56	0xbe75740c	-0.2397005
57	0x3e1121dc	0.14173073
58	0x3e3e978c	0.18612498
59	0xbe06e74f	-0.13174175
60	0x3efebff4	0.49755824
61	0x3eb574d4	0.35440695
62	0x3e49c7d0	0.19705129
63	0xbe727a8c	-0.2367956
64	0x3cdbcbe0	0.026830614
65	0x3e01938e	0.12653944
66	0xbdd98e9f	-0.10622906
67	0x3d1fec6c	0.03904383
68	0x3ca1ae3e	0.019736405
69	0x3e681e18	0.2266773
70	0x3e906dd9	0.28208807
71	0x3c10bfe4	0.008834813
72	0xbcf96ed0	-0.030448347
73	0xbe3f9878	-0.18710506
74	0x3de121ed	0.10992799
75	0xbd9c1639	-0.07621426
76	0xbdb131bb	-0.086520635
77	0x3e1ad3ea	0.15119901
78	0xbb0194d4	-0.0019772546
79	0x3dafb61a	0.08579655
80	0x3ea54347	0.3227789
81	0x3e8881e2	0.26661593
82	0x3d094175	0.03350969
83	0x3d47da3d	0.048792113
84	0xbcf3cf11	-0.029761823
85	0xbd7ac735	-0.061225135
86	0x3e8605dd	0.26176348
87	0xbe63a5d5	-0.22231229
88	0xbd0ae102	-0.03390599
89	0xbd3461e6	-0.044038676
90	0xbdf00405	-0.11719517
91	0x3d2c1c24	0.042019024
92	0x3e6d122d	0.23151465
93	0xbe070777	-0.13186441
94	0x3dcab30b	0.09897431
95	0x3e3a2e90	0.18181825
96	0xbe020792	-0.126982
97	0x3d30d18e	0.043168597
98	0x3d2e155e	0.042500846
99	0x3e26db74	0.16294652
100	0xbc97bff9	-0.018524157
101	0x3c8f914e	0.017525341
102	0xbede83aa	-0.43459827
103	0x3cb508ed	0.022098983
104	0xbbd0af30	-0.00636854
105	0x3e028a9c	0.12748188
106	0x3ccc9691	0.02497414
107	0xbe569001	-0.2095337
108	0x3e504bc3	0.20341401
109	0xbd5317f1	-0.051536504
110	0xbdb0679b	-0.08613511
111	0xbd0cf2ac	-0.034411117
112	0xbd5dde2c	-0.054166958
113	0x3ef2da30	0.4743209
114	0x3dd017e1	0.101608045
115	0x3d8728ce	0.0659958
116	0x3e71d121	0.23614933
117	0x3ddf8d4c	0.10915622
118	0xbe4878c8	-0.19577324
119	0xbe98903c	-0.29797542
120	0xbd35b088	-0.044357806
121	0x3d0b3549	0.033986364
122	0xbda647bd	-0.08119152
123	0x3d2106c2	0.039313085
124	0x3d0461f1	0.032319967
125	0x3d855d8e	0.06511985
126	0x3e631ce5	0.22178991
127	0x3d220c75	0.03956266
128	0xbe7e5667	-0.24837647
129	0xbe45547c	-0.1927051
130	0x3db06af0	0.08614147
131	0x3bc318c8	0.005953882
132	0xbb66fa4e	-0.0035244408
133	0x3d035d84	0.032071605
134	0x3d590be0	0.05298984
135	0xbccc620e	-0.0249491
136	0x3d2866b9	0.04111359
137	0xbe96138f	-0.29311797
138	0x3b572a35	0.0032831554
139	0xbe363e5f	-0.1779723
140	0xbd43414b	-0.04766969
141	0xbe1c04e1	-0.15236236
142	0xbe8ca693	-0.27470836
143	0xbd1c8d54	-0.03822072
144	0xbb2ba9cc	-0.0026193736
145	0x3d83ca7d	0.06435106
146	0x3ee5fbe5	0.44918743
147	0x3dbc212d	0.09186015
148	0x3ba21240	0.004946023
149	0x3ba739ee	0.0051033413
150	0xbcdfe5b9	-0.02733122
151	0x3caaa165	0.020828912
152	0x3d295c64	0.041347876
153	0x3cec2045	0.028823981
154	0xbd0fac4b	-0.03507642
155	0xbd926c92	-0.071496144
156	0x3dc34843	0.09535267
157	0x3d2488a7	0.040169384
158	0xbcdf2cf0	-0.027243108
159	0x3df21f53	0.11822381
160	0xbde31567	-0.110880665
161	0xbe117995	-0.14206536
162	0xba19949f	-0.0005858633
163	0x3c9c48b3	0.019077634
164	0xbc9b7223	-0.018975323
165	0xbe0a87f6	-0.13528427
166	0xbd5ba476	-0.05362364
167	0xbc5c33f4	-0.013440121
168	0x3d7995a3	0.06093372
169	0x3ccd830a	0.025086898
170	0xbcb32de0	-0.02187246
171	0x3cf9adf5	0.030478457
172	0x3de7f69a	0.113263324
173	0xbcb05a6d	-0.021527493
174	0xbc980aee	-0.0185599
175	0x3dcfb3d4	0.10141721
176	0xbda28580	-0.07935619
177	0xbe326406	-0.17420968
178	0x3d8300d0	0.06396639
179	0x3c25208d	0.0100785615
180	0xbd745b92	-0.05965764
181	0xbd860acc	-0.06545028
182	0xbd0ab94f	-0.03386813
183	0x3c196d84	0.0093644895
184	0x3d9cdafa	0.07658954
185	0x3c157655	0.009122451
186	0xbd7eb897	-0.062187757
187	0x3e9a5c58	0.30148578
188	0xbc11c2f2	-0.008896576
189	0xbcab2caa	-0.02089532
190	0x3c9d873a	0.01922952
191	0x3c9ab15b	0.018883398
192	0x3e0e02f1	0.1386831
193	0x3d628c43	0.055309545
194	0xbaf76a31	-0.0018876252
195	0xbd039d18	-0.03213224
196	0xbd8376aa	-0.06419118
197	0xbd34475c	-0.044013366
198	0xbd99cf13	-0.075101994
199	0xbd1df453	-0.038563084
200	0xbb8365f4	-0.0040099565
201	0xbd29b8c6	-0.04143598
202	0x3d61da59	0.055139873
203	0x3e3e7975	0.1860102
204	0x3d099aa5	0.033594746
205	0x3d8bc719	0.06825084
206	0x3df2327d	0.11826036
207	0xbddd3426	-0.10800962
208	0xbb7700b7	-0.0037689635
209	0x3eadde6d	0.3395876
210	0xbdc66221	-0.09686685
211	0xbe37255e	-0.17885348
212	0x3dbae2c3	0.091252826
213	0x3dee2f10	0.1163007
214	0xbd22ef9f	-0.0397793
215	0xbe46ba49	-0.19407
216	0xbe4148be	-0.18875405
217	0xbc49ac45	-0.012309139
218	0xbd1666f0	-0.036719263
219	0xbd34563b	-0.04402755
220	0x3d6da444	0.058017984
221	0x3e99c93c	0.30036342
222	0x3d1d139d	0.038348783
223	0x3c670a6b	0.014101605
224	0xbb847634	-0.004042411
225	0x3ea842f3	0.32863578
226	0xbd00d09b	-0.03144894
227	0xbe4a5c12	-0.19761685
228	0xbe2a5b62	-0.16636422
229	0x3d337b53	0.043818783
230	0xbd8434b3	-0.06455364
231	0xbb5cece4	-0.0033710534
232	0x3dd41c65	0.10356978
233	0xbd5be441	-0.053684477
234	0x3ebe26b6	0.3713891
235	0x3c805aae	0.01566824
236	0xbaaf640e	-0.0013381259
237	0x3f0d540b	0.55206364
238	0x3ab7649c	0.0013991776
239	0xbcaa2293	-0.02076844
240	0x3dfb6fe2	0.12277199
241	0x3d2dfa06	0.04247477
242	0x3eb32005	0.34985366
243	0xbd9cf34a	-0.07663591
244	0xbd5ae3dd	-0.053439964
245	0xbda5b2b0	-0.080907226
246	0x3c740b6f	0.014895304
247	0x3ceb0897	0.02869062
248	0x3cb13395	0.021631042
249	0xbd57a3c0	-0.0526464
250	0x3c4ed37b	0.012623663
251	0x3cbdc98e	0.023167398
252	0x3c874219	0.01651101
253	0x3cb9b6c5	0.02267016
254	0x3ce1359a	0.02749138
255	0x3c008b22	0.007845672

module.fc2.bias f4 [30]
0	0xbc062ac5	-0.008188908
1	0xbe07902c	-0.13238591
2	0xbe3e078c	-0.18557566
3	0x3de9f735	0.11424104
4	0xbdc1a3e5	-0.094550885
5	0xbc3726f9	-0.011178725
6	0x3de134a0	0.109963655
7	0xbc568869	-0.013094046
8	0xbe24ec3f	-0.16105746
9	0x3ce964e0	0.028490484
10	0x3d560ce3	0.052258383
11	0x3d158af8	0.036509484
12	0xbd860c97	-0.0654537
13	0x3c30c3e7	0.010788894
14	0xbcd756be	-0.02628648
15	0xbdb2fa67	-0.08739167
16	0xbdb0e34e	-0.08637105
17	0x3dcf6a1e	0.10127662
18	0xbd10316f	-0.035203394
19	0x3d3e7195	0.04649504
20	0x3e3f1a3c	0.18662351
21	0x3d9c8733	0.07642975
22	0xbc95742c	-0.018243872
23	0xbe312d06	-0.17302331
24	0x3cd32e9f	0.025779067
25	0x3da90fb2	0.08254947
26	0xbd829489	-0.06375987
27	0x3deb752d	0.11496959
28	0xbdadaa8a	-0.08479793
29	0xbc4a3c09	-0.012343415

module.fc3.weight f4 [20, 30]
0	0x3cada317	0.021195931
1	0xbe3becf4	-0.18352109
2	0xbe7dff66	-0.24804458
3	0x3e035cfa	0.12828436
4	0x3ea57ef1	0.3232341
5	0xbcb07a88	-0.021542802
6	0x3da263a1	0.07929159
7	0x3c00c5a4	0.007859621
8	0x3ecbc84d	0.39801255
9	0xbd9e7ae3	-0.077382825
10	0xbc69729f	-0.014248519
11	0x3de66e91	0.112515576
12	0xbdc3a023	-0.09552028
13	0xbc5b5496	-0.013386866
14	0x3cf91e9d	0.030410105
15	0xbd17cf20	-0.037062764
16	0xbe041478	-0.12898433
17	0xbcfaade8	-0.030600503
18	0xbd6c3bb6	-0.057674132
19	0x3e1b0bb7	0.15141188
20	0x3e5beb93	0.21476583
21	0xbc3abff1	-0.011398301
22	0xbb9014b3	-0.004396999
23	0xbe537502	-0.20650104
24	0x3c01c785	0.007921104
25	0x3e284a91	0.16434695
26	0x3e8e7611	0.27824453
27	0xbd0a818f	-0.033814963
28	0xbe1481a1	-0.14502575
29	0xbcc64b94	-0.02420596
30	0xbccdde3b	-0.025130382
31	0x3db0aeaf	0.08627068
32	0x3e4b3782	0.19845393
33	0xbd8c6f16	-0.068571255
34	0x3c519b0b	0.012793313
35	0xbcc0cde0	-0.023535669
36	0xbda3b7db	-0.07994052
37	0xbc869e5a	-0.01643293
38	0xbded464d	-0.115856744
39	0x3e36f593	0.17867117
40	0x3c5df484	0.013547067
41	0x3b92bd12	0.0044781053
42	0x3cfac9ec	0.030613862
43	0x3bdbb374	0.006704742
44	0x3ce5f548	0.02807106
45	0x3d98b0da	0.07455607
46	0x3d852a2f	0.065021865
47	0x3d9cf0c5	0.07663111
48	0xbca63328	-0.020288065
49	0x3d053aa4	0.032526627
50	0xbd9a7ede	-0.07543729
51	0x3c2164fa	0.009850735
52	0x3cb6a7ad	0.02229675
53	0x3df08fa6	0.11746149
54	0xbd3ce94d	-0.04612093
55	0x3cb218c7	0.02174033
56	0xbb8c9ea5	-0.004291373
57	0x3e19fe2f	0.1503837
58	0x3dcc2da7	0.09969645
59	0xbb09474f	-0.0020947044
60	0x3cafef30	0.021476358
61	0x3df0b02d	0.11752353
62	0x3e134b37	0.14384161
63	0xbb2198eb	-0.0024657797
64	0xbd9f18f5	-0.07768432
65	0x3cb77ab1	0.022397371
66	0xbb6c1e84	-0.003602893
67	0x3ceb96d3	0.028758442
68	0xbd8a4963	-0.06752279
69	0x3dd8735c	0.10568878
70	0x3d1fad53	0.038983654
71	0x3caf19ba	0.021374572
72	0x3d3ec607	0.046575572
73	0x3bda3a2d	0.006659767
74	0xbcfc1c18	-0.030775115
75	0x3d899129	0.0671714
76	0x3ce1e7d6	0.027576368
77	0x3dca7c1c	0.09886953
78	0x3cc8b0d2	0.024498377
79	0xbd251cfc	-0.040310845
80	0x3c379a33	0.011206198
81	0x3d166143	0.03671385
82	0x3c1eb10c	0.009685766
83	0x3df88132	0.12134017
84	0xbba8b192	-0.005148121
85	0xbca3e247	-0.020005358
86	0xbcf1b959	-0.029507326
87	0x3d8a5d05	0.06756023
88	0x3d9c23be	0.07624005
89	0x3d05243b	0.032505255
90	0x3c8f6b55	0.017507235
91	0xbdaad50f	-0.08341419
92	0xbe2a7468	-0.16645968
93	0x3d999654	0.07499376
94	0x3e351851	0.17685057
95	0xbc7f1dff	-0.0155711165
96	0x3d4857fc	0.048912033
97	0xbcb36183	-0.021897083
98	0x3e567cca	0.20946041
99	0xbd6efece	-0.05834847
100	0xbd1f3366	-0.038867377
101	0x3d87fef7	0.066404276
102	0xbd9d373e	-0.07676552
103	0xbc03c2b7	-0.008042029
104	0xbca69249	-0.020333426
105	0xbd073eab	-0.03301875
106	0xbd4ddebb	-0.05026124
107	0xbd2b2d65	-0.04179134
108	0xbcae3211	-0.021264108
109	0x3d51b632	0.051199146
110	0x3db35842	0.08757068
111	0xbb2f55fb	-0.002675413
112	0xbcd506bc	-0.026004188
113	0xbdcdb83c	-0.100449055
114	0x3d16d6ed	0.036826063
115	0x3dca241f	0.09870171
116	0x3e2fa703	0.17153554
117	0xbd3ec795	-0.046577055
118	0xbd881ec3	-0.06646492
119	0xbcad570f	-0.021159677
120	0x3cc9dbaf	0.024640886
121	0x3df9fe5f	0.122067206
122	0x3e057a1d	0.13034864
123	0xbd103e1b	-0.03521548
124	0xbdbdb051	-0.09262145
125	0x3c6c17ac	0.014409941
126	0xbd23249e	-0.039829843
127	0xbb876800	-0.004132271
128	0xbd895d00	-0.067071915
129	0x3ded85fb	0.1159782
130	0x3cf0bea9	0.029387789
131	0xbb01e480	-0.0019820035
132	0x3d12f72b	0.03588025
133	0xbc8c55f0	-0.017130822
134	0xbcbfd68c	-0.023417734
135	0x3d3d3a6e	0.0461983
136	0x3da10346	0.078619525
137	0x3d908027	0.07055693
138	0x3c80b275	0.015710095
139	0x3a97ec18	0.0011590747
140	0xbc628d0f	-0.013827576
141	0x3d9826c8	0.07429272
142	0xbd2a4d13	-0.04157741
143	0x3e0abfd2	0.13549736
144	0x3cb232f7	0.021752818
145	0xbd4d44a6	-0.050114296
146	0xbcdf978a	-0.02729394
147	0x3e1175ee	0.14205143
148	0x3d9a60dc	0.07538006
149	0xbcbb56b4	-0.022868492
150	0xbd10c55e	-0.035344474
151	0x3e8932d1	0.26796582
152	0x3e952cd1	0.29135755
153	0x3d2aa4b7	0.04166099
154	0xbe1848d1	-0.14871527
155	0xbc33f9b3	-0.010984826
156	0xbce6eb64	-0.028188415
157	0xbcdeeef9	-0.02721356
158	0xbdbb01f1	-0.0913123
159	0x3e4438b5	0.19162257
160	0x3dd1a6d9	0.10236902
161	0x3d2009a2	0.039071687
162	0x3d4d7cdc	0.050167903
163	0xbba6b1e0	-0.0050871223
164	0xbb0e370d	-0.0021700293
165	0x3df67f6e	0.12036024
166	0x3dc07d21	0.093988664
167	0x3e1ac9ff	0.15116118
168	0x3d4a8d99	0.049451444
169	0xbdbb9aa7	-0.09160357
170	0xbcf04500	-0.029329777
171	0x3d528a0a	0.051401176
172	0xbd894afe	-0.06703757
173	0x3e86d6af	0.26335666
174	0xbc5d4469	-0.01350508
175	0xbdd5e420	-0.10443902
176	0xbe0bc214	-0.13648254
177	0x3e79ecff	0.24406813
178	0x3debc155	0.115114845
179	0xbd05f514	-0.032704428
180	0x3c919a30	0.017773718
181	0x3b90eab3	0.0044225096
182	0xbc8cf681	-0.017207386
183	0xbbd8f1d9	-0.0066206274
184	0x3d8d2fc1	0.06893874
185	0x3d0bcca5	0.03413071
186	0x3cf6883a	0.030094255
187	0xba8a10b4	-0.0010533542
188	0x3d59b23c	0.053148493
189	0x3cf80e9c	0.030280404
190	0xbca76b0b	-0.020436784
191	0x3d257944	0.04039885
192	0xbcc114f0	-0.023569554
193	0xbce14815	-0.027500192
194	0xbae98d5a	-0.0017818615
195	0xba9ac828	-0.0011808919
196	0x3c4aa5dd	0.012368646
197	0xbd05c4bd	-0.032658327
198	0xbcf11793	-0.029430186
199	0x3c5ba222	0.013405355
200	0x3ccdb68d	0.025111461
201	0x3a8505e3	0.0010148849
202	0x3c2d9e39	0.010596805
203	0x3c94d569	0.018168168
204	0x3b99d256	0.0046942635
205	0x3d414a36	0.047189914
206	0x3d9c017e	0.07617472
207	0xbd32f10b	-0.043686908
208	0xbbddc79c	-0.00676818
209	0x3cfe368d	0.031031871
210	0xbcf7b226	-0.030236315
211	0x3ec87991	0.39155248
212	0x3ec97463	0.3934661
213	0xbca8db6f	-0.020612447
214	0xbe30bc04	-0.17259222
215	0xbc182b66	-0.009287691
216	0x3c72d6fe	0.014821766
217	0x3cb1f525	0.02172334
218	0xbe1f0863	-0.15530543
219	0x3ea9a575	0.33134046
220	0x3e21ee15	0.15813477
221	0x38e5eff2	0.00010964264
222	0x3cd7354c	0.026270531
223	0x3a7bd923	0.0009607246
224	0x3ba44a55	0.005013744
225	0x3e63b4b7	0.22236906
226	0x3dfcb34d	0.123388864
227	0x3e7e5f4b	0.24841039
228	0x3cd50c0c	0.026006721
229	0xbe0fb4b6	-0.1403378
230	0xbc3dae23	-0.011577162
231	0x3e0e929a	0.13923112
232	0xbdcdb63c	-0.10044524
233	0x3eb147d8	0.34625125
234	0xbbdb1093	-0.0066853254
235	0xbdeb7bf8	-0.114982545
236	0xbe6b7a3a	-0.22995844
237	0x3eb7fabc	0.35933483
238	0x3e3acba1	0.18241741
239	0x3c87faef	0.016599147
240	0x3cee57a1	0.02909452
241	0x3e6efa68	0.2333771
242	0x3e8fc76c	0.28081834
243	0xbe0964a9	-0.13417305
244	0xbc77c0e0	-0.015121669
245	0x3cfdc07e	0.030975576
246	0xbe129e29	-0.14318146
247	0xbcf6a20a	-0.030106563
248	0xbdf3c43a	-0.119026616
249	0x3e9ad345	0.3023931
250	0x3d6bc3eb	0.05755989
251	0xbd0e0a9d	-0.03467809
252	0x3d9c50a2	0.07632567
253	0xbc995744	-0.01871837
254	0x3be8e4ed	0.007107368
255	0x3e3cc3da	0.18434086

module.fc3.bias f4 [20]
0	0x3e648d8a	0.22319618
1	0xbd3c8c98	-0.04603252
2	0x3d9069a5	0.070514
3	0x3e2624f6	0.16225037
4	0x3dc17723	0.09446552
5	0x3df536ff	0.1197338
6	0xbb4e32e1	-0.0031463432
7	0x3e283876	0.16427788
8	0xbdc1be1a	-0.09460087
9	0x3d7e1f23	0.062041413
10	0x3e17c15d	0.14819856
11	0x3e504024	0.20336968
12	0x3e396abb	0.1810712
13	0xbcd38c48	-0.025823727
14	0x3dcf89d0	0.101337075
15	0x3e1bd1fd	0.15216823
16	0x3ed01ba2	0.40646082
17	0xbc8af295	-0.016961375
18	0xbcafa4e0	-0.021440923
19	0x3dfca5ce	0.12336312

module.fc4.weight f4 [2, 20]
0	0x3efe1bbf	0.49630544
1	0xbe8ec157	-0.27881882
2	0xbe495bb6	-0.19663891
3	0x3e84c225	0.2592937
4	0xbe63a535	-0.2223099
5	0xbedbafc1	-0.42907527
6	0x3d8ccc85	0.068749465
7	0xbf20e7d8	-0.62853765
8	0xbf0fff95	-0.5624936
9	0xbe7349dd	-0.23758645
10	0xbf02128f	-0.5080957
11	0x3ed87649	0.42277744
12	0xbed0889f	-0.40729234
13	0x3be6c7ef	0.007042877
14	0x3e66a5cc	0.22524184
15	0xbeb18353	-0.34670505
16	0x3f62064e	0.8829087
17	0x3d02f221	0.031969193
18	0xbcf6b437	-0.03011523
19	0x3e93c42a	0.288606
20	0xbf0af733	-0.54283446
21	0x3e8b4f8e	0.27209133
22	0x3e48b162	0.19598916
23	0xbea73f48	-0.32665467
24	0x3e65013c	0.22363752
25	0x3ed817f1	0.42205766
26	0xbdd9708a	-0.10617168
27	0x3f1e4130	0.6181822
28	0x3f0396c5	0.5140193
29	0x3e8e5bb2	0.27804333
30	0x3f0e4ae8	0.5558305
31	0xbee85e9a	-0.45384675
32	0x3ecdcd46	0.40195674
33	0x3c1cc80d	0.00956918
34	0xbe76fa9c	-0.24119037
35	0x3eca5ec8	0.39525437
36	0xbf639780	-0.88903046
37	0x3cd189c9	0.025578396
38	0xbca2ebb1	-0.019887777
39	0xbe95bc8b	-0.2924541

module.fc4.bias f4 [2]
0	0xbe1e2fbc	-0.15447897
1	0x3e085e7f	0.13317297
